data/model/1-test.pth (torch_old, 492009 bytes, 73 tensors)

inc.conv.conv2x.0.c.0.weight f4 [16, 1, 3, 3]
000000 bb 8c bf 3d ba b2 84 be 01 e5 05 3e d8 f0 89 be
       0.09353014 -0.25917608 0.1307564 -0.26941562
000010 4b 63 ff 3d 92 20 a7 3e 6d 8e 22 3b fc 34 02 3e
       0.124701105 0.32642037 0.002480413 0.12715524
000020 cc de 23 3b b0 39 0b bd c9 74 54 3d 9c 24 8e be
       0.0025004623 -0.033990562 0.051869188 -0.27762306
000030 bb 11 b6 bd f1 f0 75 be b5 ca 8a be 53 c1 27 3e
       -0.088901006 -0.24017693 -0.27107778 0.16382341
000040 23 8c cf 3d 4f 44 87 be e5 9a b7 3d 5c cf 80 be
       0.10134151 -0.26419303 0.08965091 -0.25158203
000050 61 cd 44 3e 36 b5 00 3c e2 11 fe bd 53 76 b3 bd
       0.19218971 0.007855704 -0.124057546 -0.08762803
000060 a9 c0 35 bd 7f 79 23 3d 53 84 d5 3d 39 57 15 3e
       -0.04437319 0.03991079 0.104256295 0.14584054
000070 14 a1 e5 bd f7 cf d5 bd bf a1 24 3e c7 25 80 bd
       -0.11212364 -0.10440057 0.16077326 -0.062572055
000080 82 5d 27 3e 18 bd 97 3e 9b ca 8b 3e 44 1b 2e be
       0.16344264 0.29636455 0.27303013 -0.17002589
000090 2a b1 a9 3e 75 06 97 be 8c ce aa 3c 67 a7 97 be
       0.33142978 -0.29497114 0.020850442 -0.29619905
0000a0 2b 80 0c bd e0 87 36 be b3 e1 0c be c9 e3 90 bd
       -0.034301918 -0.1782527 -0.13757972 -0.070746966
0000b0 2e 67 30 be ae c4 98 3e 74 6f 87 be f2 82 81 3e
       -0.1722686 0.29837555 -0.2645222 0.25295216
0000c0 6c 50 ac 3e 3e ec 78 3d 78 2f 96 bd 6a 47 a8 3d
       0.33655107 0.060772173 -0.07333273 0.08216746
0000d0 4a c0 78 be 06 0b b2 bd 1f de b1 3d 06 c2 62 bc
       -0.24292102 -0.08693509 0.08684944 -0.013840204
0000e0 71 42 c0 bc 71 26 bd 3d b3 ea 20 be a8 e6 3c be
       -0.023469182 0.09235848 -0.1571453 -0.18447363
0000f0 9b a5 a3 bd 0f 9e a2 3e 4a 36 8a 3d 93 7f 63 3e
       -0.07990571 0.31761214 0.06748636 0.22216634
000100 0b 1d 01 3e fb 7a 56 be 75 f1 52 3e 48 c3 8b bd
       0.12608735 -0.20945351 0.20599921 -0.06824356
000110 9d fa 8a 3d 7e 11 7c be ec 07 25 be b7 24 fb bd
       0.06786082 -0.24616048 -0.16116303 -0.12262862
000120 e8 93 12 be 77 27 1f 3e 09 29 70 be 7f 39 d6 bd
       -0.14314234 0.15542398 -0.23453154 -0.10460185
000130 7f 99 41 3e 36 2d 46 be b8 d7 8d be 4f 25 ac 3c
       0.1890621 -0.19353184 -0.27703643 0.021013884
000140 87 0e 50 3e 87 f4 70 be b1 11 6e be 2a f2 b8 3d
       0.20318042 -0.2353078 -0.23248936 0.09030564
000150 d8 46 ca bc cb 98 21 3d f9 67 9c bd 0b d7 9d bd
       -0.024691984 0.039452355 -0.07637019 -0.07707032
000160 c0 66 89 3e 08 13 5e 3e 5e 27 a4 be 8c 62 90 bd
       0.26836205 0.21686947 -0.32061285 -0.07050046
000170 1f fc 39 be d3 0b 81 be 7b 45 bf 3e 71 0f 1f 3e
       -0.18162583 -0.25204334 0.37357697 0.15533234
000180 5e ce 73 3e 1c 38 2f 3e 75 03 91 be 25 cf 17 3e
       0.23809192 0.17111248 -0.2832295 0.14825113
000190 ea 39 78 be ef 8c d6 3c de 5f 48 be 98 2b 48 3e
       -0.24240842 0.02619025 -0.1956782 0.1954788
0001a0 7b ea 77 bd 07 ad 5f 3d 61 f0 e5 3c b4 07 ab 3c
       -0.060526352 0.05460837 0.028068723 0.020877697
0001b0 a1 88 32 3e 8a 8f c0 3e e8 df 26 be f9 be 8a be
       0.17434932 0.37609512 -0.16296351 -0.27098826
0001c0 ca ca 71 be cb 6a 61 bd 7b 15 5a 3e 32 5b 0d 3e
       -0.23612514 -0.055033486 0.21297257 0.1380432
0001d0 de 99 7b be 6a 48 ae 3e 6a 2a a8 be b7 24 99 be
       -0.24570414 0.34039623 -0.3284486 -0.29910824
0001e0 df 84 14 3d 3a 3a 98 3e b6 8b 27 bc 18 71 78 be
       0.03625953 0.29731923 -0.010226181 -0.24261892
0001f0 86 cf 71 3e 62 74 81 be c8 ad d9 3d 9d c1 12 3e
       0.2361432 -0.25284106 0.10628849 0.1433167
000200 a9 c7 59 3e 22 16 25 3d eb d1 c2 3d c4 56 a7 3e
       0.2126757 0.04030431 0.09512695 0.32683384
000210 41 bc 29 be 58 6c 82 be 68 16 8b 3e 75 18 82 be
       -0.1657572 -0.25473285 0.27165532 -0.25409284
000220 b8 fd 7b 3e 5e a3 a1 3d 14 4c 8e 3e 9e 23 f8 bd
       0.24608505 0.07892488 0.27792418 -0.121161684
000230 ca 08 c7 3d e3 26 7c be f4 a4 4e bd cf 2d 60 be
       0.09718473 -0.24624209 -0.05045028 -0.21892475

inc.conv.conv2x.0.c.0.bias f4 [16]
000000 d6 c6 85 be a1 2d 9f be 6c 4e 98 bd 47 22 e0 3d
       -0.26128262 -0.310895 -0.07436833 0.10944038
000010 89 52 86 3e c7 e3 e8 bd 7c 45 7d bd 00 ee 3e 3e
       0.26234844 -0.1137157 -0.061833844 0.18645477
000020 22 ed 38 be 52 b2 29 3e 65 46 c5 3d 8b 39 99 3d
       -0.18059209 0.1657193 0.09632567 0.074816786
000030 d1 5c 96 be 24 c1 17 3e b3 9e 77 3d e1 13 c7 bd
       -0.29367688 0.14819771 0.06045408 -0.097205885

inc.conv.conv2x.0.c.1.weight f4 [16]
000000 79 de 80 3f 27 73 7b 3f f2 b1 87 3f 7b 47 7f 3f
       1.0067893 0.98222584 1.060118 0.99718446
000010 e4 b7 7d 3f f9 e0 81 3f a7 08 78 3f 7f 98 76 3f
       0.9910872 1.0146781 0.968882 0.9632644
000020 9a a8 77 3f 3b 7c 82 3f 19 01 81 3f 30 47 74 3f
       0.9674164 1.0194162 1.007846 0.95421124
000030 ee 24 7d 3f e2 21 7c 3f a4 7e 7f 3f 7c a3 7d 3f
       0.98884475 0.984892 0.99802613 0.9907758

inc.conv.conv2x.0.c.1.bias f4 [16]
000000 5e 81 06 3d 7c 5b 91 3c 9e 4e 9e 3e 16 27 28 3c
       0.032838218 0.017743818 0.30919355 0.010263225
000010 7e cc 3b 3d 11 90 80 3d 18 9d 24 3c e6 a0 18 3c
       0.045849316 0.062774785 0.01004722 0.009315705
000020 45 13 28 3d cf 6b 6b 3d a7 ed 2a 3e d1 c8 83 3e
       0.041034 0.05747586 0.1669222 0.25739148
000030 02 00 f3 3d 06 39 82 3e f4 e3 42 bc d0 98 e8 3d
       0.11865236 0.2543413 -0.011895169 0.11357272

inc.conv.conv2x.0.c.1.running_mean f4 [16]
000000 2b 00 9a 3e cb cb 02 c0 65 14 68 be fe a2 a6 3f
       0.30078253 -2.0436885 -0.2266403 1.3018491
000010 76 a2 b5 bf 98 07 1e 3f 08 fc 19 3e b1 b3 3e be
       -1.4190204 0.6173034 0.15037549 -0.18623234
000020 38 ef 73 bf 2e 32 d3 3d 94 55 76 be d3 ff c2 3c
       -0.95286894 0.103123054 -0.24056083 0.023803627
000030 0c 7a de be c7 e3 97 be 0d dd cf 3f 60 a5 f5 be
       -0.4345249 -0.29665968 1.6239334 -0.47977734

inc.conv.conv2x.0.c.1.running_var f4 [16]
000000 fb 0f 2a 3e de 19 46 3f 98 71 06 3d 92 fb d4 3e
       0.16607659 0.7738322 0.032823175 0.41598183
000010 74 06 30 3f 46 04 81 3e ac 72 61 3d 00 7b 2a 3e
       0.68759847 0.25198573 0.055041 0.16648483
000020 c4 92 2f 3e b0 77 2c 3e f4 f5 3c 3e 92 0f b7 3c
       0.1714583 0.16842532 0.18453199 0.022346292
000030 aa d2 ee 3d 8d a1 2b 3e 34 d7 31 3f 01 a6 fd 3d
       0.11661275 0.16760845 0.69469 0.12385178

inc.conv.conv2x.1.c.0.weight f4 [16, 16, 3, 3]
000000 25 aa aa bd 71 34 8c bd 42 ec 28 3d 76 f5 59 bc
       -0.08333234 -0.0684594 0.041240938 -0.013303151
000010 c4 a5 7b 3b e3 22 71 bc e9 79 97 3d 1f 49 10 bd
       0.0038398365 -0.01471779 0.073962994 -0.035225984
000020 e0 a2 bb 3b 5d 88 2d 3d e3 11 06 bd 5e ad f0 bb
       0.0057262033 0.042366374 -0.0327319 -0.0073448857
000030 dc 24 05 bc aa 4b 5e bd 22 eb 7b bd d7 b6 0d 3c
       -0.008126464 -0.054271378 -0.061503537 0.008649549
000040 a5 1d 63 bd 44 4a f5 3c 6d 77 4d 3d 75 6b 36 bc
       -0.055448193 0.02994264 0.05016272 -0.011134018
000050 b5 a2 11 bd df 11 82 3d 88 c7 c8 3d b7 6c 0d bd
       -0.03555556 0.06351065 0.098036826 -0.034527507
000060 4c f9 a2 bd 4b 94 a5 bc ad a9 35 3d 60 b5 25 3d
       -0.07957706 -0.020212313 0.04435127 0.040456176
000070 1d d9 da 3a b9 d2 9d bd 3d 5f 20 3d 60 a6 62 3d
       0.0016696785 -0.07706208 0.039153326 0.05533445
000080 88 a9 c6 bd 52 e4 c0 bb 1b d4 d8 3b 19 2b 5c bd
       -0.09700304 -0.005886593 0.006617082 -0.05375204
000090 cb 5f 6a 3d ed 75 64 3d 26 04 f5 bc 98 39 6d 3d
       0.05722026 0.055776525 -0.029909205 0.057916254
0000a0 79 5a d9 3c 7e 11 f0 bc bc d5 84 bd 29 16 1a 3d
       0.026532399 -0.029305216 -0.06486079 0.03761879
0000b0 7f 88 f0 bd ad de 28 3c fb 07 4a bd a7 5d 45 bd
       -0.117447846 0.010306996 -0.049324017 -0.048185017
0000c0 cc 2a c8 3c 0a 60 bf bc 59 28 90 bd 61 a5 e4 3c
       0.02443447 -0.023361225 -0.07038946 0.02791089
0000d0 5c 02 54 3d 5d 1f 5b 3c c0 53 80 3d a1 97 69 3d
       0.051760063 0.013374177 0.06265974 0.05702937
0000e0 bd 0a 32 bd a7 8a 98 3d fd 55 40 3c 2a b3 98 bd
       -0.043467272 0.07448321 0.011739251 -0.07456048
0000f0 23 0b 69 3d bc a1 f9 3c 60 28 47 3d b4 e5 54 bd
       0.056895386 0.030472629 0.04862249 -0.051976874
000100 78 89 b8 bc 5b ee 32 3b c9 ae ab 3c 61 dc 11 bd
       -0.022526488 0.0027302715 0.020957367 -0.03561056
000110 b9 ed c7 bc 25 b3 d8 3c 21 52 5a bd 4b c4 0f 3d
       -0.024405347 0.02645261 -0.05330098 0.03509931
000120 66 57 3a 3d 9c 18 8e 3d 0c 8e 0a 3d 58 ff a6 3c
       0.045493506 0.069382876 0.033826873 0.02038543
000130 e7 91 d6 bc 72 ee b5 3c 2f 96 86 bd 4a 6a ad 3d
       -0.026192619 0.022208426 -0.06571614 0.08467539
000140 62 eb 9c 3a 90 71 f9 3c de 6c 81 b8 3d dd b1 3d
       0.0011972005 0.030449659 -6.1714774e-05 0.08684776
000150 42 64 90 3d a2 c4 0c 3e c1 0e d7 3d 1e 59 46 bc
       0.07050373 0.13746884 0.10500861 -0.012106208
000160 74 16 a2 3d 33 c1 a6 3d 59 9f 5a 3d db b6 9f bd
       0.07914439 0.081423186 0.053374622 -0.07798549
000170 a5 0f ad 3c 1b ed 16 bd f3 cb 83 3d 6e ff c3 3d
       0.021125624 -0.036847215 0.064353846 0.09570204
000180 50 67 a5 3d 46 4c d2 bb a7 0d 3a bd 6c b5 53 3a
       0.08076346 -0.006417784 -0.045423176 0.0008076045
000190 9a ca 93 bc 99 bd 79 3d d8 ee a8 3d 19 7d 45 bd
       -0.018040944 0.06097183 0.08248681 -0.048215006
0001a0 cd ab 55 bc 91 b6 83 bc dc a2 b8 3d 45 2c 04 be
       -0.013041449 -0.016078265 0.09015438 -0.12907512
0001b0 ed 67 a2 bb 1b 6f 90 3b 1f d9 6e 3c 6e bc 18 3d
       -0.0049562366 0.004407776 0.014578133 0.037289076
0001c0 44 22 78 3c 5d 89 a3 bd 23 bf 21 bd 32 da b6 3c
       0.015144888 -0.07985184 -0.039488923 0.02232084
0001d0 e1 e6 27 bd d6 4e 1d bd 82 a4 a1 bc a0 75 89 bd
       -0.040991668 -0.038405262 -0.019731764 -0.06711888
0001e0 a1 e8 53 3d 63 a5 d4 3d ac cc 2b bd df d1 ae bc
       0.051735524 0.103831075 -0.041943237 -0.021340309
0001f0 f9 22 1a 3d 95 8e 9e bd 5a e2 15 3d 47 f8 cb 3b
       0.03763101 -0.07742039 0.03659282 0.0062246653
000200 01 f4 aa 3d f3 5a 4a 3c ef 87 cf bb 95 22 5b 3c
       0.08347321 0.012350786 -0.006333343 0.013374944
000210 ac 54 cb bc 41 6b af bc 6f 1b 42 3d cc b3 25 3d
       -0.024820648 -0.021413447 0.047389444 0.04045467
000220 18 88 6b 3d de 65 7d bd c6 c0 e1 b9 29 d5 34 3d
       0.057502836 -0.061864726 -0.00043058972 0.044148598
000230 4b 67 a2 3c 72 4d da bc c9 a5 95 bd 63 4b ff 3c
       0.019824645 -0.026648257 -0.07307012 0.031163877
000240 fe bc 96 bd f0 11 65 bc 7e 09 05 3d dc a5 93 bc
       -0.07360266 -0.013981327 0.032479756 -0.018023424
000250 99 8c 0a 3d b1 46 9d bd a9 bf ac bb b6 81 38 bd
       0.03382549 -0.07679499 -0.005271871 -0.045045577
000260 50 ec 46 3d b0 f3 5a 3b 81 2c ab bd 6e 7b 21 3d
       0.04856521 0.003340941 -0.08358098 0.039424352
000270 a6 fc ac bd a7 5e c2 bc c4 e8 a4 bd bf ee ba 3c
       -0.08446626 -0.023726774 -0.08052209 0.022818921
000280 f5 86 84 3d 1c a4 12 3d ff 63 eb 3d dd 9b a1 3d
       0.064710535 0.03580104 0.11493682 0.07891057
000290 9d bf 4f 3d f1 9e 90 bd e8 c1 1c 3b b3 1e ab bc
       0.050719846 -0.07061566 0.0023919288 -0.020888662
0002a0 2f 1d ad 3d 7a d5 fe 3d 5c fa e5 bb ab b8 e7 3c
       0.08452832 0.12443061 -0.0070183706 0.028286299
0002b0 f8 a1 4f bb a7 9f 7c bd f4 d2 29 3d 4f 6a a4 3b
       -0.0031682234 -0.061675694 0.041460946 0.005017556
0002c0 cd e4 d6 bc 9a e6 3c bd 10 a4 55 3d 63 a4 6d bd
       -0.026232148 -0.046118356 0.052158415 -0.0580181
0002d0 86 0b 6a bd 94 0a 22 bd 7c 1c 44 3d 19 ec 8d bd
       -0.057139896 -0.03956087 0.047878727 -0.06929798
0002e0 fc 2a 82 3b 2d 15 95 bb ff 92 a9 3a 95 3f 20 3c
       0.0039724093 -0.0045496435 0.0012937485 0.009780784
0002f0 b9 e8 a5 3d 93 f4 51 bd a7 10 83 3d 95 74 22 bd
       0.08101029 -0.051258635 0.063996606 -0.039661963
000300 7b 5a 32 3b 60 ac 82 3d 0c f3 f5 3c f5 97 81 bc
       0.0027214575 0.06380534 0.03002312 -0.01581953
000310 72 22 8e 3d 8c df 8b bd d9 b3 8f 3d 3f 52 9a 3d
       0.06940164 -0.068297476 0.07016725 0.075352184
000320 ed 58 8d 3d 54 a0 03 bd be 23 2b 3c b9 df 39 bd
       0.06901727 -0.032135323 0.010445533 -0.045379374
000330 59 2c 39 3d fe 11 c2 3c a0 86 29 bd b8 fd a5 bc
       0.04520831 0.02369022 -0.041388154 -0.020262584
000340 d5 72 7c bd b7 5b 6b bd 91 ab 54 3d 04 4d c1 3d
       -0.06163295 -0.057460513 0.05192143 0.09438518
000350 62 c8 92 3d 32 35 54 bd 52 37 1f 3d c2 c0 74 bd
       0.07167126 -0.051808544 0.038871117 -0.05975414
000360 0c c5 74 3d f1 78 92 bb 27 1b 93 3c 79 8a c3 bb
       0.05975823 -0.0044699837 0.017957283 -0.005967435
000370 ac 27 13 bd 6f 15 83 3d 80 ca 59 ba 7f aa a1 bd
       -0.035926506 0.064005725 -0.0008308068 -0.07893848
000380 5c 32 36 3d 20 2a 62 3c 1b f2 0a 3d ef e6 98 bc
       0.04448162 0.013803989 0.033922296 -0.018664805
000390 7b 93 13 be 73 0b 22 bc d5 aa aa bc 93 74 ff 3d
       -0.14411728 -0.009890425 -0.020833412 0.12473407
0003a0 1b 21 a0 bc 1a b5 06 3d fc bf a0 3b 4d cc 9c bd
       -0.019547036 0.032887556 0.004905699 -0.07656155
0003b0 fe 51 9e 3c 3b 0b 93 3d 3a a4 b1 bd 59 21 dd bc
       0.019326206 0.071798764 -0.08673902 -0.02699344
0003c0 83 4a 19 3d 63 4b 3e 3c 78 e8 e5 3c ab cd ea 3c
       0.037424576 0.011614653 0.028064951 0.028662523
0003d0 03 d2 a6 bc 7d 4f 23 3d cc 17 0e bd 95 12 34 3d
       -0.020363813 0.039870728 -0.034690663 0.043963034
0003e0 c2 cb 2d bc f5 38 c9 bc 62 c1 5f bc e5 69 5e 3d
       -0.010607662 -0.024563292 -0.013656946 0.054300208
0003f0 90 8a 22 3b 13 e0 12 bd 22 58 72 3d 42 d7 05 3d
       0.0024801828 -0.035858225 0.05916608 0.03267599

inc.conv.conv2x.1.c.0.bias f4 [16]
000000 77 f1 61 bd 16 53 b8 bc 78 fb 8b bd 06 74 b2 3c
       -0.05516192 -0.022500556 -0.06835073 0.02178384
000010 6b 57 a1 3c f3 89 4b bd 31 9b 1d 3d ed 9b b4 bd
       0.019695004 -0.049692106 0.03847808 -0.08818803
000020 47 34 32 bd 2b cf 55 bd 60 7b f5 3b 49 57 9b bd
       -0.043506887 -0.052199524 0.007491514 -0.07585008
000030 76 ad 06 bc aa 5e 15 bd 8f 5a 62 3d d9 6c eb 3c
       -0.008220067 -0.03646723 0.055262145 0.028738426

inc.conv.conv2x.1.c.1.weight f4 [16]
000000 4e 84 88 3f db 72 84 3f 8e 16 8b 3f db c2 7f 3f
       1.0665376 1.0347551 1.0866258 0.999067
000010 4f 84 82 3f df 22 82 3f 42 11 80 3f 80 a2 80 3f
       1.0196627 1.0166892 1.0005267 1.0049591
000020 06 f8 80 3f b9 b6 80 3f 3d 77 81 3f f0 55 76 3f
       1.0075691 1.0055763 1.0114514 0.9622488
000030 b1 68 82 3f 90 29 7b 3f 5f bb 7f 3f f1 81 81 3f
       1.0188199 0.98110294 0.9989528 1.011778

inc.conv.conv2x.1.c.1.bias f4 [16]
000000 9c 12 24 3e f6 c5 4b 3e 96 d6 a2 3d 18 f4 ce 3d
       0.16022724 0.19899735 0.07951085 0.10105151
000010 46 ba 56 3d 7c 86 0c 3e 3d cd 79 3d af bf da 3d
       0.052423738 0.13723177 0.060986746 0.10681092
000020 bc ea 85 3d 8d d1 d3 3d fc c9 0f 3e 71 2e 40 3d
       0.06538913 0.10342703 0.14041895 0.04691929
000030 19 4a 36 3e 65 db 4b 3c 85 83 09 3e dd 75 44 3e
       0.17801704 0.012442444 0.13429077 0.19185586

inc.conv.conv2x.1.c.1.running_mean f4 [16]
000000 95 68 8b 3e 44 d3 3b 3e aa 05 de be 4d 24 35 3f
       0.27228227 0.1834231 -0.43363696 0.70758516
000010 88 8e 88 be a7 69 61 be 64 53 97 3e a6 8a a3 3c
       -0.26671243 -0.2201296 0.2955581 0.019963574
000020 ec 13 4b be 50 d2 f7 bd 98 ad b8 bc e4 4e aa be
       -0.19831818 -0.12100661 -0.022543713 -0.33263314
000030 52 96 10 3d 86 54 45 3e e0 2b e7 3d 2f 7c c7 be
       0.035299607 0.19270524 0.11287665 -0.38961932

inc.conv.conv2x.1.c.1.running_var f4 [16]
000000 9e 6d d5 3e ae 73 40 3e be 87 e4 3e 18 91 f1 3e
       0.41685194 0.18794128 0.44634813 0.4718101
000010 bc 1f c8 3e 8c 2d a8 3e 22 2e 32 3e 43 3b e6 3e
       0.3908671 0.3284725 0.17400411 0.44967088
000020 9b 80 d1 3e 65 f3 67 3e 5a a3 62 3e cc fa b2 3e
       0.4091843 0.22651441 0.22132626 0.34956968
000030 c4 ff 5b 3e 58 eb 59 3e 7e cf 9e 3e a7 13 fd 3e
       0.21484286 0.21281183 0.3101768 0.49429056

down1.go_down.1.conv2x.0.c.0.weight f4 [32, 16, 3, 3]
000000 b6 65 4b 3d 50 27 91 bc 94 a9 08 bd 87 b9 4a 3d
       0.049657546 -0.017718941 -0.033364847 0.04949334
000010 73 8e 8d 3a 18 39 0c bd 86 16 32 3c c9 cd 14 bb
       0.00107999 -0.034234136 0.010869628 -0.0022705665
000020 11 76 b0 3d e2 8b 60 3d 54 31 80 bd 1e 5d 29 be
       0.086162694 0.054820903 -0.062594086 -0.16539428
000030 3e 24 2d bd fa a9 9d bd 17 3b 9e 3d 40 24 19 bd
       -0.04227089 -0.07698436 0.07726114 -0.037388086
000040 82 3c 19 bc 17 18 70 bd 0b 97 b6 bd 9e 7c 12 bd
       -0.009352805 -0.058616724 -0.08915528 -0.035763375
000050 3c ac 01 be 1b ff 6d bc 67 04 04 bd 7c 7b a3 3d
       -0.12663358 -0.014526154 -0.03223076 0.07982537
000060 18 7f 31 bd cb 60 db 3c 9a bc 2f bc 76 b4 6b 3d
       -0.043334097 0.026779553 -0.010726118 0.057545148
000070 fd 58 4a bb 70 2d 86 bc f9 ce 5d 3d f8 b0 8f 3d
       -0.0030875795 -0.016379088 0.054152463 0.07016176
000080 1c 87 96 3d a2 c6 48 bd 9b 05 fa bc 6f 23 16 3d
       0.07349989 -0.049017556 -0.030520251 0.036654886
000090 ec 59 8b 3d 18 83 c3 bd b7 c6 89 bd dc b1 d0 bd
       0.068042606 -0.095464885 -0.06727355 -0.10190174
0000a0 22 cf 4a 3d 1f cf 8d 3c e7 9d ce bd 9a 6d 32 3d
       0.049513943 0.017310677 -0.10088711 0.043561555
0000b0 0d f4 8c 3d 45 ac b8 3d d7 61 a2 bc 88 c0 d8 3c
       0.068824865 0.09017233 -0.019822044 0.026458994
0000c0 f9 9a 66 3c 02 83 1a bc ae a9 69 3d 26 c1 40 bd
       0.014075034 -0.009430649 0.057046585 -0.0470592
0000d0 65 d3 a6 3c fb 95 58 bd 66 c8 ce bd 34 fd ab bd
       0.020364473 -0.052877408 -0.10096817 -0.08397904
0000e0 9a 77 58 bc f5 78 f3 bd ca 9c d3 bd 22 3f 44 3c
       -0.013212109 -0.11888305 -0.103326395 0.011977943
0000f0 79 3e b4 3c 17 20 34 3c a7 39 57 ba 5c 1c 7e 3c
       0.022002446 0.010993979 -0.000821019 0.015509691
000100 a6 e7 d9 3c d9 9e 51 3d bd 7b ac 3c cf b4 95 3d
       0.026599716 0.05117688 0.021055097 0.07309877
000110 14 4c 5c bd d0 d9 fc bd 17 85 6a bd df ce f1 3d
       -0.05378349 -0.12346232 -0.05725583 0.11807036
000120 d4 a3 cc bd 7e b4 9e 3a 84 87 aa bd be 9d 97 3d
       -0.09992185 0.0012108234 -0.08326629 0.07403134
000130 c6 0d 1d bd ea 56 58 bd 71 41 1a 3d f1 17 1d 3d
       -0.038343213 -0.052817263 0.037660066 0.03835291
000140 38 be 50 bd c8 df b5 bd af 7b b5 39 19 73 86 3c
       -0.050962657 -0.088805735 0.00034615162 0.016412305
000150 50 a8 0e bc f8 c0 f2 bb 0c e5 1f bd 07 af db 3c
       -0.008707121 -0.0074082576 -0.039036795 0.026816858
000160 e5 b5 80 bd 14 89 98 3d 64 60 e5 bb e6 42 60 3d
       -0.06284694 0.074480206 -0.007000016 0.0547513
000170 a9 73 cc bd 5a 24 d1 bd 14 77 7d 3c aa 5c 67 bc
       -0.09982998 -0.10212012 0.015470285 -0.014121214
000180 8c f1 95 3c b7 58 9c 3d 21 6d a4 3d 0b 1c 64 bd
       0.018303655 0.076341085 0.08028627 -0.055690806
000190 d2 26 52 3d 3d 5b 3a bd 95 1f ba 3c 35 20 f8 bc
       0.051306553 -0.045497168 0.022720138 -0.030288795
0001a0 0b 91 dc 3c 3a 1c ec bd 6a 33 e9 bd 2a 1e 35 3c
       0.02692463 -0.11528821 -0.113867596 0.011054555
0001b0 e6 e9 a1 bc fa 16 69 bd b0 90 d8 bc 41 1c 0f be
       -0.019764852 -0.056906678 -0.02643618 -0.13975622
0001c0 93 5a f9 bd b2 0f b0 bd 2c 47 5b bd 4f 84 84 bd
       -0.12175479 -0.08596744 -0.05353467 -0.06470548
0001d0 e3 62 20 bd 7b 96 48 3d 0c fa 12 3d aa ba f5 3c
       -0.039156806 0.048971634 0.035882995 0.029996235
0001e0 17 8e cb bd 9d 20 4a 3d ac f3 49 3c 57 e1 f4 bc
       -0.09939211 0.04934751 0.012326162 -0.029892607
0001f0 75 32 a7 bd 7e d1 9a bd 14 1b 68 3c 3b 94 83 bd
       -0.08163921 -0.07559489 0.014166612 -0.06424757
000200 d5 30 2e 3d 11 41 60 3d 01 9e 4f 3d 50 4f 2b 3d
       0.04252704 0.054749552 0.050687794 0.041823685
000210 f2 1b 37 bc 3e 03 80 3b 9d ea b6 bc ab ba 83 bd
       -0.011176096 0.0039066365 -0.02232867 -0.064320885
000220 38 35 c9 bd a2 46 9f 3b 85 2f d6 bc 43 7a 3c 3d
       -0.09824604 0.004860715 -0.026145706 0.046015035
000230 08 6a a2 3d f0 d4 25 3c fe 3d 20 3c a1 c6 83 bd
       0.0793038 0.010121569 0.009780405 -0.0643437
000240 43 60 5f bc 7b 20 40 bd 89 21 0c 3d 85 16 7a 3c
       -0.01363379 -0.046905976 0.03421167 0.015264158
000250 b7 c8 3a bd 2b 65 f8 bc 40 26 ad bd 26 0e a2 bd
       -0.045601573 -0.030321678 -0.08454561 -0.07912855
000260 4c 78 46 3c 55 aa 51 3b 09 4f ab 3c 41 9a 5b bd
       0.012113642 0.0031992395 0.02091171 -0.053613905
000270 65 4e af 3c bd ea 73 3d 1e 74 08 bd e4 fe 9e bd
       0.021399686 0.059550036 -0.033313863 -0.0776346
000280 ad 05 8d 3c 84 05 ec bc 40 bb b0 3c 3e 0c 77 3c
       0.01721462 -0.028811224 0.021573663 0.015078602
000290 13 7a 15 bc 00 92 b5 3d c3 17 f0 3c ad 94 83 3c
       -0.009123343 0.08865738 0.029308205 0.016062105
0002a0 bf 9d b8 3c 8f 7a 93 3b 14 6c 6f bb 14 3b 4e 3d
       0.022536157 0.004500694 -0.0036532925 0.05034931
0002b0 c7 44 e1 3d 2a 21 2f 3d 7b 9d e7 bd df 0f b8 bd
       0.10999446 0.042756237 -0.11309334 -0.08987402
0002c0 c6 0e a9 3d 40 a3 4f bb b2 bb 87 3d 24 dd bb 3d
       0.08254771 -0.0031682998 0.06627597 0.091730386
0002d0 d3 64 43 bd ec 74 73 3d 07 bc 9a 3d 7c 3c a7 bd
       -0.047703575 0.059437677 0.075553946 -0.08165833
0002e0 46 dd 48 bb b7 38 df 3c bc c7 44 bd bc 56 06 3d
       -0.0030649467 0.027248723 -0.048042044 0.03279756
0002f0 aa f7 90 bd 62 41 36 bd d3 71 ae bc 0d fe 37 bd
       -0.07078488 -0.044495948 -0.02129451 -0.044920016
000300 27 8c b2 bc d8 e9 40 3c e4 48 dd bd c3 8f e5 bd
       -0.021795345 0.011774503 -0.108049184 -0.11209061
000310 10 27 e6 bb 77 12 cd bd 8a 0c a1 bb 0e 57 8e 3d
       -0.0070236996 -0.100132875 -0.004914825 0.06950198
000320 b8 85 31 3d 31 a5 9a 3c 84 e9 86 bd 65 2c 7f bd
       0.043340415 0.018877598 -0.06587508 -0.062298197
000330 0f ab a1 bd d1 4c 5a 3d de 33 53 bd 39 71 60 3d
       -0.07893955 0.053295914 -0.051563136 0.054795478
000340 a7 a4 4b bd 9c 9c 3f 3c 20 88 bb bd f3 06 07 be
       -0.04971757 0.011695053 -0.09156823 -0.13186245
000350 3e 67 d9 bd fd 3f 75 3d e7 cc 98 bd a6 2f 0a 3d
       -0.10615395 0.059875477 -0.07460957 0.033736847
000360 c5 0f a8 ba 1c a1 02 3d 76 e3 96 bd 30 64 51 3d
       -0.0012822082 0.031891927 -0.073676035 0.051120937
000370 a7 2b 80 3d f5 b0 42 bd 1c 51 27 bd a0 2a ad bc
       0.06258326 -0.04753204 -0.040848836 -0.02113849
000380 ba 49 60 bd d1 cd 81 3d d8 02 47 3d fd 76 db bc
       -0.05475781 0.063380845 0.048586696 -0.026790136
000390 82 94 9c bb 9b 75 86 3d 39 ca 44 3d 63 75 f6 bb
       -0.0047784457 0.065654 0.048044417 -0.007521318
0003a0 6a 02 08 bd c2 14 a3 bc 3c 85 72 3b 82 12 cf bb
       -0.033205427 -0.019907359 0.0037005683 -0.006319345
0003b0 30 72 d8 3c 5d 71 f7 3c 81 d4 57 3d 4d 6b 1a bd
       0.026421636 0.030205423 0.052692894 -0.037699986
0003c0 7c 41 10 be e9 1d 97 3d ba 9c 8d bd 7a f9 42 bd
       -0.1408748 0.07378752 -0.06914659 -0.0476012
0003d0 98 05 93 bd bf 47 5c 3d 21 38 cf bd c0 84 0d 3d
       -0.07178801 0.05377936 -0.101181276 0.03455043
0003e0 d9 f1 f3 bd 30 e0 c5 bc b6 ee c1 bd c3 e7 80 bd
       -0.11911363 -0.024154752 -0.094693586 -0.06294205
0003f0 f0 cc 1c 3d 9c bf e3 3c 5b 6c 69 bd 41 dd 42 3d
       0.03828138 0.027801327 -0.0569881 0.047574285

down1.go_down.1.conv2x.0.c.0.bias f4 [32]
000000 11 90 cc ba 7d 71 87 bd ed 28 f8 bb b8 36 a6 3d
       -0.00156069 -0.06613443 -0.007573238 0.081159055
000010 4b 3b 79 bd 12 2b 97 bd ea a6 b5 3c 24 1e d9 3c
       -0.06084756 -0.07381262 0.022174317 0.02650363
000020 01 6e 2e 3d 7f ae 88 bd 58 27 a9 3d f7 7c 30 bc
       0.042585377 -0.066739075 0.08259457 -0.010771981
000030 41 17 52 bc b5 b0 91 3d ef 08 2f 3d 57 0d 7e bc
       -0.012822927 0.07113782 0.04273313 -0.01550611
000040 83 4c 15 3d 94 40 6f 3d 1a 3b ab bb af 8d df bc
       0.03644992 0.058411196 -0.0052255513 -0.02728924
000050 2f f7 54 bd 66 f1 2a bc 00 1c 2d bd 1f bf 64 bd
       -0.051993545 -0.01043353 -0.04226303 -0.05584633
000060 dc ab 0f 3d 43 17 9f bc 38 eb af 3b 57 88 43 3d
       0.035076007 -0.019420272 0.0053686164 0.047737446
000070 52 dc 32 3c 56 92 a8 3d cc b2 fa bc 5b d0 95 3c
       0.010916786 0.08231036 -0.030602835 0.018287828

down1.go_down.1.conv2x.0.c.1.weight f4 [32]
000000 33 79 80 3f d5 65 83 3f b7 c8 7f 3f 5e 7d 7c 3f
       1.0036987 1.0265452 0.9991564 0.98628795
000010 c6 b4 76 3f e8 a6 6c 3f a6 76 7f 3f ff 18 84 3f
       0.9636959 0.9244218 0.9979042 1.0320128
000020 fe fe 7c 3f 5b d5 81 3f 69 b1 80 3f 2e 01 80 3f
       0.9882659 1.0143236 1.0054141 1.000036
000030 ec 93 7d 3f d1 8b 83 3f b5 91 80 3f 14 6e 7d 3f
       0.99053836 1.0277044 1.0044466 0.9899609
000040 19 cd 7e 3f 95 b5 81 3f e7 ae 79 3f 06 9f 81 3f
       0.99531704 1.013354 0.97532505 1.0126655
000050 89 9e 78 3f 3d f8 85 3f 59 ca 7d 3f e6 cf 7e 3f
       0.97116905 1.0466381 0.99136883 0.9953598
000060 9a 12 7e 3f 96 15 7d 3f b4 72 7c 3f 98 16 81 3f
       0.99247134 0.9886106 0.98612523 1.008502
000070 62 8f 7b 3f 28 91 85 3f 42 fa 84 3f 66 fe 7e 3f
       0.9826566 1.0434923 1.0388873 0.9960693

down1.go_down.1.conv2x.0.c.1.bias f4 [32]
000000 03 76 f8 3d 00 47 ff bc de 71 a0 bc 49 4c cc ba
       0.12131884 -0.031161785 -0.019585546 -0.00155867
000010 ac c2 cb bd 08 26 5e bd 4c 0a e3 bc 19 30 1d 3d
       -0.0994924 -0.05423549 -0.02771487 0.038375948
000020 1e c0 fc bc b9 0c d1 bd 8a 35 ab ba 85 3a f6 bc
       -0.030853327 -0.10207505 -0.001306222 -0.030057201
000030 c1 b6 f0 3b e2 a9 4b 3c 0f 8f 26 3d de f0 71 bd
       0.0073460047 0.01243064 0.040663775 -0.0590676
000040 ea 46 3e 3d 25 76 e7 3c df 10 42 bd 1d 3a 32 3c
       0.046454348 0.028254578 -0.04737937 0.010878113
000050 72 e9 5a bd 37 f5 2f 3e 96 fc 60 bd 2c 4f 23 3c
       -0.053445287 0.17183386 -0.054928385 0.0099676065
000060 33 ef 0f bd 50 53 74 bd 51 48 be bb 01 38 1e 3d
       -0.035140228 -0.059649765 -0.0058069606 0.03862763
000070 07 90 3e bc e2 9e 69 3d 19 3f 4f 3c 2f ef 80 bc
       -0.0116310185 0.057036288 0.012649321 -0.015739052

down1.go_down.1.conv2x.0.c.1.running_mean f4 [32]
000000 8c 09 d5 bf 34 b8 c3 bf 22 45 19 bf 4c 9e 61 3e
       -1.6643538 -1.5290589 -0.59871113 0.22033042
000010 4a 98 ef be 53 ef eb 3f e2 96 36 3d 24 18 43 be
       -0.46795875 1.8432411 0.044577487 -0.19052178
000020 c6 a4 1c bf ce 33 5c 40 90 4e fa bf 07 bc 09 c0
       -0.61188924 3.440662 -1.9555225 -2.1521013
000030 45 48 23 bf 86 0a 83 bf 0e 6b 30 bf 86 f3 9f 3f
       -0.6378215 -1.0237586 -0.6891335 1.2496192
000040 64 55 62 bf 7c f8 c9 bf dc f7 7b 3f 00 2a c6 3d
       -0.88411546 -1.5778956 0.9842508 0.096759796
000050 27 69 25 bf 52 d8 76 c0 9f bb 01 3f 50 66 62 3f
       -0.64613575 -3.8569531 0.5067691 0.88437366
000060 cc a8 0c 3f 5a 48 e7 3b b8 0c 95 3c 8a b9 ed 3e
       0.54945064 0.0070581855 0.018194541 0.46430618
000070 e5 03 51 3e 71 a5 9d bf 66 23 d4 be c6 9e 32 3e
       0.20411642 -1.2316114 -0.41433257 0.1744338

down1.go_down.1.conv2x.0.c.1.running_var f4 [32]
000000 56 ab 46 3f d9 6e 24 3f 8b 61 bd 3e 32 f4 d8 3e
       0.7760519 0.6423164 0.36988482 0.42373806
000010 1d d3 a4 3e 5f f4 06 3f 8c d5 c5 3e 72 44 af 3e
       0.32192317 0.5271663 0.38639486 0.34231907
000020 21 8f d1 3e ce 88 f2 3e f5 46 14 3f 82 ac c0 3e
       0.4092951 0.4737 0.5792077 0.37631613
000030 28 e3 d5 3e 72 97 0b 3f 3c 95 08 3f 8f 59 98 3e
       0.4177487 0.5452796 0.53352714 0.29755828
000040 5e 27 0d 3f 2d a8 d6 3e 36 a4 8a 3e fa 45 f2 3e
       0.55138195 0.41925183 0.27078408 0.47319013
000050 5a 31 0d 3f f9 6e 44 3f 98 73 aa 3e bf 0f 97 3e
       0.5515343 0.7673183 0.33291316 0.295042
000060 36 8b 86 3e a8 05 b3 3e 98 ca 14 3f cc 5b 09 3f
       0.26278085 0.34965253 0.58121634 0.53655696
000070 f7 8c e1 3e 7e 8f 57 3f 46 77 15 3f 75 c7 6b 3e
       0.4405286 0.84203327 0.5838512 0.23025306

down1.go_down.1.conv2x.1.c.0.weight f4 [32, 32, 3, 3]
000000 ea 17 52 bc 60 cf 54 3d ab 4d 31 3c cd 63 bc 3d
       -0.012823084 0.05195558 0.01082174 0.09198723
000010 22 13 3e 3d 21 f6 29 bc 42 a8 1a 3d f3 82 04 bd
       0.046404965 -0.010373623 0.03775812 -0.032351445
000020 58 ba 0e bd b2 7b 64 bd 89 7c 31 bc 95 bd 8e bc
       -0.03484568 -0.055782028 -0.010832914 -0.017424384
000030 ed e8 74 3d a9 20 9b bd 14 e4 d6 3c ab e6 f9 bb
       0.059792448 -0.07574589 0.026231803 -0.0076263747
000040 d4 d3 3a bd 6f 7a da bc c4 54 e4 3c 44 45 27 bd
       -0.04561217 -0.026669709 0.02787245 -0.04083754
000050 59 17 a3 3c ab da 5a 3d 7c 9f 82 3d b3 fe f3 bc
       0.019908594 0.053431194 0.063780755 -0.029784536
000060 bb a0 a4 bc 01 0d 3c bd 2a 9c 21 bc 6c 79 af 3c
       -0.020096174 -0.04591084 -0.009863893 0.021420203
000070 56 14 42 3d 72 dc 95 bd 84 70 02 3c bd db b4 bc
       0.047382675 -0.07317437 0.007961396 -0.022077436
000080 54 71 3b bc fd 5b f9 3c ba 2e 60 bc c5 8b 96 bd
       -0.011440594 0.030439371 -0.0136830155 -0.07350878
000090 ae ce 74 3d 7e a8 4f 3d f2 fe 8b 3d 06 90 2a 3d
       0.059767418 0.050697796 0.06835736 0.041641258
0000a0 80 ba 08 bd ef 72 39 bc 11 15 81 bc 20 8b d5 3b
       -0.033380985 -0.011318906 -0.015757116 0.006516829
0000b0 9d da 14 3d 43 17 ec bc d3 f9 07 3d 1e 0b 56 bb
       0.0363413 -0.028819686 0.033197235 -0.0032660435
0000c0 32 87 46 3d 9d 32 4b 3d a5 2e 68 3d e2 8d b1 bc
       0.048468776 0.049608815 0.05668511 -0.0216741
0000d0 ae 90 83 3d 8c a9 67 3c 81 c6 64 3c 4d 4a 52 3d
       0.0642408 0.014139544 0.013963343 0.05134039
0000e0 9e b3 0a 3c e7 48 56 bd 17 5f 7d bd 3c fa 14 bd
       0.008465676 -0.05231562 -0.061858263 -0.036371455
0000f0 6b 2c a3 3a 8c fd 82 3c 87 ae 70 bd ff d4 09 bd
       0.0012449151 0.015990041 -0.058760192 -0.033650395
000100 21 5b f8 bc 61 fc 24 3d 93 6c bb 3c e6 1e a5 bc
       -0.030316891 0.04027975 0.02287892 -0.020156335
000110 bf d0 00 bd 64 86 e8 3a 04 f2 1b bc 9e d4 ac bc
       -0.031449076 0.0017740247 -0.00951815 -0.021097478
000120 f8 85 9b bd e1 60 6c 3d 88 34 6b 3d 05 b1 39 bd
       -0.07593912 0.05770958 0.057423145 -0.045334835
000130 90 3a 7f 3d f5 4b bb bb a6 1e 9b bd 05 d6 02 bd
       0.06231171 -0.005715842 -0.07574205 -0.031942386
000140 bf 32 b2 3b 74 46 f2 bc 81 4d 61 3c 6d 13 c7 bb
       0.0054381783 -0.02957461 0.0137513885 -0.006075314
000150 bc 8f 62 3d 76 d1 ed bc 13 d8 08 bc aa ff 48 3d
       0.055312857 -0.029030543 -0.008352297 0.049071945
000160 4b d8 9f 3c 87 6e 15 bd 9c 14 8b bd 7a 3e 0e 3d
       0.019512316 -0.03648236 -0.0679104 0.03472755
000170 0e f0 80 3c 9c 19 34 3d e7 93 f9 3c b5 15 e7 bd
       0.015739467 0.043969736 0.030466033 -0.11283437
000180 33 3a 79 3c 69 9b 3d 3c 42 7d e5 3c 64 b2 c8 3c
       0.01521163 0.011572697 0.02801383 0.024499126
000190 cf 08 3d bd 7d 40 f2 bc 02 d0 21 3c af 7e 8b 3c
       -0.04615098 -0.029571766 0.009876253 0.01702818
0001a0 77 74 58 ba 53 0c 00 3d a6 02 7e bb d6 f2 3f bd
       -0.00082571007 0.031261753 -0.0038758903 -0.046862446
0001b0 6c cd 12 bd 24 df 81 3d c5 74 15 3d 37 21 f0 bb
       -0.035840437 0.06341389 0.036488313 -0.0073281783
0001c0 98 d3 80 3c 1a d4 3b 3d 32 3f 61 3c 0c 48 7c 3d
       0.015725896 0.045856573 0.013747977 0.061592147
0001d0 70 53 b4 3c a6 4f 43 bd de 3e c3 b9 74 ad c6 bc
       0.022012442 -0.04768338 -0.00037240138 -0.02425263
0001e0 da bc b1 3c 13 5c 84 3d b2 08 b9 3a 6e 9b 0b 3d
       0.021696497 0.06462874 0.0014116971 0.034083776
0001f0 7b 97 b1 3c dd bd 54 bd 2b b1 41 bd ac a4 b5 bc
       0.021678677 -0.05193888 -0.0472881 -0.022173248
000200 52 77 35 bd a4 e4 b5 bd 4e 62 91 bc 54 4f 48 bd
       -0.044303246 -0.088815 -0.01774707 -0.04890378
000210 b7 92 53 3d b4 8e 39 bd 3f 64 8e 3c 6d c5 38 3d
       0.05165359 -0.045302108 0.017381785 0.045110155
000220 29 6a 21 bc 66 11 18 3d 0e 45 8d 3c 0f c8 de bc
       -0.009851971 0.037125967 0.017244842 -0.027195005
000230 0f b2 d9 3c 55 18 65 bc 69 9b 81 bc f9 f7 85 3c
       0.026574163 -0.013982852 -0.015821176 0.016353594
000240 2d 0e 07 3d b8 a4 b7 bc 04 f4 3d bd 3b b4 47 bd
       0.032972503 -0.022417411 -0.04637529 -0.048755866
000250 7d 13 95 3c 9d 5f 87 3c 2c 9c bc 3c 6f 3b f7 bc
       0.01819777 0.016525084 0.023023687 -0.030179707
000260 f0 2b c4 bc ce c1 69 3d b5 ff e2 3b 98 49 ab 3c
       -0.023946732 0.057069592 0.0069274553 0.020909116
000270 5b 23 91 bd de fd 8b bd d1 fe 45 bc 01 44 21 bd
       -0.07086822 -0.06835531 -0.012084679 -0.039371494
000280 e6 31 16 bb 1b 1c 51 bd 42 52 8e 3b db 45 46 3d
       -0.0022917925 -0.051052194 0.004343302 0.048406463
000290 66 43 96 3c f6 72 a8 bb 32 70 70 bd 49 b9 3d bc
       0.018342685 -0.0051406575 -0.058700748 -0.01157982
0002a0 79 aa f0 3b 03 5d 72 3d 21 a8 58 3d f8 33 40 bc
       0.0073445407 0.059170734 0.052894715 -0.01173114
0002b0 0b 7c 40 bc ac 0e 98 3a 31 87 3a 3d 0a 79 23 bd
       -0.011748324 0.0011601052 0.045539085 -0.039910354
0002c0 36 23 76 bd 95 27 26 bd 1b eb 1f 3b 25 50 74 3c
       -0.060092174 -0.040565092 0.0024401608 0.014911686
0002d0 99 b1 56 3c 41 48 67 bd f7 d2 00 bd 05 41 86 ba
       0.013103866 -0.05646539 -0.03145119 -0.0010242766
0002e0 d0 72 4e bc fe 31 1d 3d 7e 13 36 bd 92 09 d1 b9
       -0.012600616 0.038377754 -0.044452183 -0.00039870717
0002f0 da 50 8b 3d 65 61 a9 bc 2b e5 1c bd ed 5f 85 3a
       0.068025306 -0.020676324 -0.03830449 0.0010175683
000300 20 74 06 3c 58 7c 5b 3c 96 12 9f bc 79 6b 76 bd
       0.008206397 0.013396345 -0.019418042 -0.060161088
000310 e4 33 aa 3c 6e 7a fe bd a5 85 15 bd 25 b5 b0 3c
       0.020776697 -0.12425695 -0.036504406 0.021570751
000320 fc 74 19 3d cc 34 43 3d 62 0a 1a 3d c5 aa 59 3c
       0.03746508 0.047657773 0.037607558 0.013285344
000330 9b c4 2f 3d 8f 84 54 bd 15 54 33 3d dc 91 e6 3c
       0.042912107 -0.05188423 0.04378136 0.028145723
000340 f9 ea 39 bd ef 2c 9f 3c 51 96 4a 3d 74 86 56 bd
       -0.045390103 0.019430606 0.04945976 -0.05237432
000350 f6 fd 4c bb d8 29 9d bb bf 9b b8 3b 94 81 ed 39
       -0.0031279302 -0.004796248 0.0056338008 0.00045300706
000360 f9 38 5e 3a 20 76 04 bc 81 4f b9 bc 5c da fc 3b
       0.00084771175 -0.008084804 -0.022620918 0.00771646
000370 63 0f 3d bd 78 af 38 3c bf 9b fc 3a b1 83 7d 3c
       -0.046157252 0.011272304 0.001927249 0.015473292
000380 ca 89 88 bc 34 5a 0c 3d 27 3c 2b bc f1 69 48 3d
       -0.016667265 0.034265712 -0.010451353 0.04892916
000390 5b 7e 54 bb c3 ad c8 3c 92 6a 69 3d c2 b7 e6 ba
       -0.0032423947 0.024496919 0.0569864 -0.0017602372
0003a0 54 7e c9 bc 24 c1 e7 3c 9a fd 25 bd 0d 99 0c bc
       -0.02459637 0.028290339 -0.040525056 -0.008581412
0003b0 c7 2c 45 3d 62 1a 67 3b 13 31 76 bc f7 bd 3d 3d
       0.048138406 0.0035263528 -0.015026349 0.046323743
0003c0 46 07 c3 bc 67 44 0f 3c 34 69 78 3d 98 15 cd bc
       -0.02380718 0.008744336 0.060647205 -0.02503471
0003d0 9b d4 42 bd 27 b1 24 3d 0e 1e 3c 3d 08 25 62 bd
       -0.047566038 0.04020801 0.0459271 -0.055211097
0003e0 f0 5d 6b 3d 16 3a a8 bc 4d 54 eb 3b 35 64 d5 3c
       0.057462633 -0.02053551 0.0071816803 0.026048759
0003f0 52 35 97 3d 0a 5f 68 3d 2c 4a cb 3c 82 4f 20 3d
       0.07383217 0.05673126 0.024815641 0.039138325

down1.go_down.1.conv2x.1.c.0.bias f4 [32]
000000 56 a0 14 3d c5 d0 2a 3c 2c 89 58 bd 5c 78 30 bc
       0.03628572 0.010425751 -0.052865192 -0.010770883
000010 eb 9b 4d bd de 0c 93 3c b7 20 3c 3d c9 b6 be 3c
       -0.050197523 0.017950471 0.045929637 0.023280518
000020 64 94 5d 3d 81 26 a0 bc c6 0d 40 3d ec c6 b5 bc
       0.054096594 -0.01954961 0.046888135 -0.02218958
000030 3f e0 1c bd b3 f3 12 3c 7a 73 26 bd b5 fd 98 3c
       -0.038299795 0.008969235 -0.04063747 0.018675664
000040 b6 c8 db bc cd fd 33 bd 41 1c 2a bd 04 ef ec bc
       -0.026829105 -0.043943215 -0.04153085 -0.028922565
000050 44 30 1f 3d 2b f1 30 3c aa 0f 1e 3d 9b 45 53 3d
       0.03886439 0.010799686 0.038589157 0.051580053
000060 69 d9 38 bd ff 69 22 3d 7e fe 0b bd cd b9 59 bd
       -0.045129213 0.039651867 -0.03417825 -0.05315571
000070 25 de 04 bb 3f ef e7 3c d2 a4 f0 3c 13 58 1a 3d
       -0.002027401 0.028312324 0.029375467 0.03768165

down1.go_down.1.conv2x.1.c.1.weight f4 [32]
000000 ed 5c 7f 3f 9a a1 7b 3f ce 5d 72 3f 78 b5 79 3f
       0.9975117 0.9829346 0.94674385 0.97542524
000010 98 e4 7a 3f dd da 7c 3f a4 ed 83 3f ad 06 83 3f
       0.98005056 0.9877146 1.0306897 1.0236412
000020 83 53 80 3f 2d 65 82 3f 91 f5 7f 3f af 05 7e 3f
       1.0025486 1.0187126 0.9998408 0.9922742
000030 57 83 7f 3f dc fd 85 3f bc 86 7e 3f d8 4c 7e 3f
       0.99809784 1.0468097 0.9942434 0.99336004
000040 c1 81 7c 3f ef 19 78 3f e3 f0 81 3f 97 f6 7f 3f
       0.9863549 0.9691457 1.0151638 0.9998564
000050 06 a5 7d 3f 4a 5e 7e 3f f1 ee 82 3f 6b de 7d 3f
       0.9907993 0.99362624 1.0229169 0.9916751
000060 2b f8 7e 3f 2a b1 84 3f 3c 63 81 3f f8 d6 7c 3f
       0.99597424 1.0366566 1.0108409 0.98765516
000070 ac 3e 7d 3f 91 18 80 3f 0a 84 7c 3f 6e 8a 83 3f
       0.98923755 1.0007497 0.98638976 1.027662

down1.go_down.1.conv2x.1.c.1.bias f4 [32]
000000 d7 52 c7 bd 1c 82 41 bd 00 53 97 3c 64 12 f6 3b
       -0.09732597 -0.047243223 0.018472195 0.0075095166
000010 ba fa 23 bd 28 75 75 bd bb f2 52 3d 12 b7 60 bc
       -0.040034033 -0.059926182 0.051501017 -0.013715522
000020 52 bf ee bb ad 31 3c bd 12 3b 54 ba ef 22 d7 bc
       -0.0072859908 -0.045945812 -0.00080959604 -0.026261775
000030 21 0d fe bb fb 9a b7 bd 7a c6 4f 3c bb 3a dc bc
       -0.00775303 -0.08965107 0.012681598 -0.026883474
000040 1b 1e 62 bd 34 55 26 3c 55 77 6c 3c ef 07 9d bd
       -0.055204492 0.01015215 0.014432748 -0.07667529
000050 4c e7 6c bd 4b 6c 55 bc ab 3d ab 3c 6b dc 1c bd
       -0.05783777 -0.013026307 0.020903429 -0.038296144
000060 29 40 85 bd 81 36 4f 3d d5 87 d8 3c 74 9b 71 bd
       -0.06506378 0.05058909 0.026431957 -0.058986142
000070 70 b9 9c ba c6 3c 12 bc d4 5b ab bd b4 e8 3a 3d
       -0.001195712 -0.008925622 -0.08367124 0.04563208

down1.go_down.1.conv2x.1.c.1.running_mean f4 [32]
000000 35 e4 25 3e cb 38 9e be 30 d5 a0 be 8e 7d 62 be
       0.16200335 -0.30902705 -0.3141265 -0.22118208
000010 20 b9 e6 3d 5a aa e4 3e 38 d8 7f bf 9b 1f a5 bf
       0.112657785 0.44661218 -0.999393 -1.290027
000020 e2 54 36 bf 6a 3f b9 be db 12 e3 be a7 e3 d7 3e
       -0.7122327 -0.36181194 -0.44350323 0.42165872
000030 cd a6 04 3d a8 60 20 3e 1c 22 65 bf f4 cd 13 be
       0.032385636 0.15661871 -0.8950517 -0.14434034
000040 fd 6b 01 3e ee ed 77 bf 69 d2 84 3d 6b 24 34 3f
       0.1263885 -0.96847427 0.06485445 0.7036807
000050 08 fe 9f be 6c 58 89 bf 64 42 da be 82 86 48 3e
       -0.31248498 -1.0730109 -0.42628777 0.1958256
000060 f4 1c 79 3e 54 86 ad be dc 4e 78 be d0 e3 21 3d
       0.24327451 -0.33891547 -0.24248832 0.0395239
000070 4a 2d 51 be 70 ef 12 bf 8c f0 fe 3e d6 74 8f bf
       -0.20427433 -0.573966 0.49792898 -1.120753

down1.go_down.1.conv2x.1.c.1.running_var f4 [32]
000000 13 5a 38 3e be 93 cc 3e 98 3c 1d 3f 6f 90 b4 3e
       0.1800311 0.39956468 0.61420584 0.35266444
000010 20 06 0a 3f 0a 15 78 3e 96 aa f5 3e 3d d9 87 3f
       0.53915596 0.24226776 0.4798171 1.0613171
000020 fe 6f 0d 3f 56 72 b6 3e 58 7e 3b 3f aa 3a ac 3e
       0.5524901 0.35634106 0.7323966 0.33638507
000030 8a 9d bd 3e 85 a3 54 3e 26 58 cf 3e 3e 59 90 3e
       0.37034255 0.20765503 0.4049694 0.28193086
000040 54 02 0f 3f ee c2 27 3f 14 5a 09 3f 57 74 22 3e
       0.5586293 0.65531814 0.53653073 0.15864693
000050 84 3b cf 3e dc 92 02 3f 10 a5 df 3e 1c 54 8c 3e
       0.40475094 0.5100534 0.4368062 0.2740792
000060 20 2b 37 3e c5 cc de 3e 82 d5 ba 3e b7 8e 84 3e
       0.17887545 0.43515602 0.3649102 0.25890133
000070 70 ff d7 3e 18 a2 b3 3e 98 cd a7 3e f8 24 01 3f
       0.4218707 0.35084605 0.32774043 0.50447035

down2.go_down.1.conv2x.0.c.0.weight f4 [64, 32, 3, 3]
000000 08 be 2a bd 97 8a 3a 3d 02 8d fc bc 50 ec 7a 3c
       -0.041685134 0.045542326 -0.030828957 0.01531513
000010 98 88 58 3c 89 ab 46 3d 76 11 10 3d 79 c6 24 3d
       0.01321616 0.048503432 0.035172902 0.04022834
000020 c2 a8 85 bd 11 6b b0 3d b0 5c f3 3c c5 53 65 bb
       -0.065263286 0.08614171 0.029707283 -0.0034992557
000030 0a 23 f7 3c 9c 26 1b 3d d2 43 4f 3d 36 fb 52 bc
       0.030168075 0.037878618 0.050601788 -0.012877276
000040 d6 f1 2d 3d c3 6a a6 3d f7 60 d1 bc 60 9d c5 bc
       0.04246696 0.08125832 -0.025558932 -0.024122894
000050 a8 82 db 3c eb 0f 1a bd 1c 04 64 bd 8a a0 64 bc
       0.0267957 -0.037612837 -0.05566798 -0.013954291
000060 09 b7 f0 3b 25 1e 07 3d 54 74 cc 3d 97 59 af bc
       0.0073460382 0.032987732 0.09983125 -0.021405024
000070 11 0e 1e 3c fd ac 5a bd 30 34 85 3d 23 35 93 bc
       0.009646908 -0.05338763 0.065040946 -0.017969673
000080 e0 ae fc 3c 5a b3 b6 3c c2 84 96 bb 35 19 b1 3c
       0.030845106 0.022302318 -0.0045934627 0.021618465
000090 7a 7e 2e 3d d1 15 50 bd 3d ed aa 3d 75 75 c4 3b
       0.042601086 -0.050802056 0.08346031 0.0059954473
0000a0 22 e9 d7 bc 67 af b4 3c 12 41 2b 3d 36 83 08 bd
       -0.026356284 0.022056295 0.041810103 -0.033328258
0000b0 1c 19 1c 3d 60 d4 51 bd 9c a7 80 bd af 44 24 bc
       0.038109884 -0.051227927 -0.06281969 -0.010026141
0000c0 37 8c bc bb d0 ff ec bc 59 41 56 3d b6 1b 81 3c
       -0.0057540196 -0.028930575 0.052308414 0.015760284
0000d0 2b 22 74 3d 49 3f 04 bd 9a 8d 60 bd 6c bc ba bc
       0.059602898 -0.032286916 -0.05482254 -0.022794925
0000e0 18 24 de bc 9b f2 2e 3d 96 59 07 bd 50 81 16 3d
       -0.02711682 0.042711835 -0.03304442 0.036744416
0000f0 e6 25 8f bd 74 e3 c8 bc 43 f1 23 bc 40 ab 79 3d
       -0.069896504 -0.02452252 -0.010006252 0.060954332
000100 f5 a7 9d 3d 75 29 50 3d df ed ba 3c 0f 0a 7e 3d
       0.07698051 0.050820787 0.022818504 0.06202131
000110 04 69 35 bd 1b d2 80 bc 7c 42 86 bd 72 fe 6b bc
       -0.044289604 -0.015725186 -0.0655565 -0.014403926
000120 20 96 3c bd 6c 1a 40 3c 7c 19 00 bd d4 76 3d bc
       -0.046041608 0.0117250495 -0.031274304 -0.011563975
000130 30 94 5b 3c 78 77 12 bc 8c ec 14 3e 14 11 0c bd
       0.01340203 -0.008939616 0.1454336 -0.034195974
000140 f9 ba 4d 3d 02 95 46 3d 5a a4 14 3d fc a2 f9 3c
       0.05022714 0.04848195 0.03628955 0.030473225
000150 ed 15 f6 bc 62 24 7c 3b b2 1a 46 bd b0 ae 2d bd
       -0.030039752 0.0038473834 -0.048365302 -0.042402923
000160 dd f2 0f 3d a7 03 8d 3c 0b af 05 3d 7d ca 4d 3d
       0.03514372 0.017213656 0.032637637 0.050241936
000170 9d 29 88 bc b4 64 5f 3c 0e a0 24 bd 8b c2 1e 3d
       -0.016621405 0.013634849 -0.040191703 0.03875975
000180 32 c1 a1 3d fe f6 95 bc 6e f1 7b 3d 35 67 1e 39
       0.07898177 -0.018306252 0.061509542 0.00015106502
000190 fc 22 01 bd d8 79 11 bd 77 eb ab bb 3c af 67 bd
       -0.031527504 -0.03551659 -0.0052465755 -0.0565636
0001a0 8b 47 df bc e0 b8 c5 3c 48 26 63 bc 60 14 d8 bc
       -0.027255794 0.024136007 -0.013864107 -0.026376903
0001b0 95 c5 0c 3c 16 15 8a 3c 83 d9 69 bd 8e d0 a0 3d
       0.008592029 0.016855758 -0.0570922 0.07852279
0001c0 ea 34 41 bc 5e 75 df bc b5 2f ac 3c a4 36 90 3d
       -0.011792401 -0.027277645 0.021018842 0.07041672
0001d0 12 a7 e2 3a e9 a3 ed 3d e1 56 c6 3c d0 75 f6 bc
       0.0017292222 0.11603529 0.024211349 -0.030085474
0001e0 e1 cd bc 3c 29 8f 53 bd 13 84 d1 3d f4 34 15 3d
       0.02304739 -0.0516502 0.10230269 0.036427453
0001f0 09 6c 46 bd 4f f8 0a bd 42 37 46 3d 29 ac 0e 3d
       -0.048442874 -0.03392821 0.04839254 0.034832153
000200 90 34 74 ba 74 b4 e8 3c 78 b8 f6 bb 11 87 30 bc
       -0.0009315694 0.02840636 -0.0075293146 -0.01077439
000210 b9 7e 84 3d 81 68 2b bb 65 c4 a0 3d 17 b6 77 bc
       0.06469483 -0.0026154818 0.07849959 -0.015119097
000220 b7 dd f1 3a de df bd 3c ab 76 03 3d b2 72 d1 ba
       0.0018452917 0.023178037 0.032095592 -0.0015979616
000230 95 cc 28 3c 0c ff 2b 3c ca 7e b0 3c af 47 4f bd
       0.010302682 0.01049782 0.021544833 -0.050605472
000240 d9 58 80 bc 3b e5 8b 3c 19 b7 c0 3d b8 4f a5 3c
       -0.015667366 0.017077079 0.09409923 0.020179614
000250 cf df 07 bd 6c d4 df bb b6 9a 19 be 88 32 6c 3c
       -0.033172425 -0.0068307426 -0.15000424 0.014416344
000260 ca 78 a8 bd 43 e0 1b 3d 91 0e af 3d 55 90 dc 3c
       -0.08226164 0.03805567 0.085477 0.026924292
000270 60 da de 3a 9c e0 93 bb 34 c7 a4 3d 78 ca a4 3d
       0.0017002337 -0.0045128595 0.080458075 0.0804643
000280 93 b6 91 3c 8d 35 56 3c b1 89 14 3c f3 69 fd bc
       0.017787253 0.013074291 0.009066031 -0.03093431
000290 e0 6c 91 bc b1 48 e2 bc c3 46 46 bd 0d ec ba bc
       -0.017752111 -0.027622553 -0.048407327 -0.022817636
0002a0 a3 a5 49 3d a3 af 80 bb 75 69 ac bd c0 9c 63 bb
       0.04923023 -0.0039271875 -0.08418552 -0.0034730881
0002b0 d5 a3 10 3d ec 54 71 bc 6d cb 58 3d 11 e8 db 3c
       0.035312492 -0.01472972 0.052928377 0.026844056
0002c0 46 d6 cc 3c f6 61 53 bd 72 c3 98 bb 9d ad ba bc
       0.025004517 -0.051607095 -0.004661971 -0.022787863
0002d0 d7 5e b4 3d 13 45 31 bd 3d aa 48 3d 14 c7 18 3d
       0.08807152 -0.043278765 0.048990477 0.03729923
0002e0 05 a5 e4 3c 44 40 0a 3d 57 29 8e bc 57 64 c7 bd
       0.027910719 0.033752695 -0.017353697 -0.09735935
0002f0 ac 0b 87 bd 67 c0 5d 3d fe 13 ba bc ca fd 86 3d
       -0.06594023 0.054138567 -0.022714611 0.06591375
000300 6d 37 c2 bc 72 18 3d 3d 7b 7d 48 bd 04 eb 1d bd
       -0.02370807 0.04616589 -0.048947793 -0.038554206
000310 80 2c 61 bd 36 f6 10 bd dc 92 c4 bd bc 40 fc 3c
       -0.05497408 -0.035391055 -0.09598324 0.030792587
000320 db 75 3b ba d7 36 d5 3b 6d 09 7c 3c 32 fe 1a 3d
       -0.0007151046 0.0065067816 0.015383107 0.037840076
000330 fc 22 cd 3d b8 b7 b1 bb 07 42 6d bc ce 77 6f 3d
       0.10016438 -0.0054235123 -0.014481074 0.058463864
000340 b7 8f 08 3c cc 38 3b 3c c8 bd 7f 3d 58 7c 64 3c
       0.008335046 0.011427116 0.06243685 0.0139456615
000350 ad bb 04 bd cd 48 34 bd c9 fc 08 bc 3b 35 83 3d
       -0.032405544 -0.04401474 -0.00836105 0.06406637
000360 2d bb 8f bb 5e 22 61 3c 2b f1 b6 bd 1b 91 00 3d
       -0.0043863268 0.013741104 -0.08932718 0.031388383
000370 0f b9 2b bc ec f1 3a 3d 73 b8 e2 3b 8d 5d 32 3d
       -0.010481133 0.04564087 0.0069189607 0.04354625
000380 76 1c 9f bc 2d d9 af 3d d9 15 ce 3b 31 f0 73 3b
       -0.01942275 0.08586345 0.0062892255 0.0037222023
000390 a9 4e 36 3c 16 b9 65 bc 5f 71 8e bd 4d 4a 95 bd
       0.0111271525 -0.014021179 -0.069552176 -0.072895624
0003a0 2a 83 04 bd 09 c4 93 bd 60 55 64 3d f5 b0 c1 bc
       -0.03235165 -0.07215125 0.055745482 -0.02364395
0003b0 7f fe 3d bc 41 04 22 3a 41 08 5a 3c 5d a0 ba bd
       -0.011596321 0.00061804435 0.013307632 -0.09112618
0003c0 3d 65 c4 3b 02 c4 0d bd 03 7c 3f bd 9e 86 2d bd
       0.005993514 -0.034610756 -0.046749126 -0.04236471
0003d0 06 98 34 bd 69 c5 91 3d dd 20 b2 3d 83 97 e5 3c
       -0.044090293 0.07117731 0.086976744 0.028026348
0003e0 d9 78 01 3c ff 06 f4 3a 9c 26 1a bd 05 50 4b 3c
       0.0079023475 0.0018617808 -0.037634477 0.012409215
0003f0 ed 8a a8 3b 73 24 91 bd c0 ca 47 3d f3 44 00 bd
       0.0051435144 -0.0708703 0.04877734 -0.031315755

down2.go_down.1.conv2x.0.c.0.bias f4 [64]
000000 77 f4 0b bd 18 d0 a2 3b 78 6b 6d bd 0c b4 86 3c
       -0.034168687 0.0049686544 -0.05796382 0.016443275
000010 36 4c 69 bb 63 15 2b bb 21 f4 cc 3c 3b 00 4d 3d
       -0.0035598404 -0.0026105277 0.025018753 0.050049048
000020 b2 b7 44 bd cb 71 8f bc ed 9f 39 3d 22 81 8f 3c
       -0.048026748 -0.017510315 0.045318533 0.01751763
000030 15 8a 27 3d dc e5 ee 3a e7 2e 64 bd 51 0d 84 bb
       0.04090317 0.0018226462 -0.055708792 -0.0040299078
000040 5e 8f 3d bc 4c 9d 36 bd 3e bd 55 3d b5 74 32 3c
       -0.011569826 -0.044583604 0.05218243 0.010892083
000050 5e a5 5c 3d 97 d2 39 bd 1f 32 0a 3d 3e ac a8 3b
       0.053868644 -0.04536685 0.033739205 0.005147486
000060 5f 5f 6b 3d 71 94 0f bd 99 dc 1f bc 0f d4 0d 3c
       0.057464 -0.035053674 -0.009757184 0.008656516
000070 a5 09 1a bd 1b 16 05 bd 14 ec f9 3c fe f0 5a 3d
       -0.037606854 -0.032491785 0.030508079 0.053452484
000080 de 97 84 3c f9 7a 5e 3d 3c ec 54 bd 63 50 36 3d
       0.016185697 0.054316495 -0.051983103 0.044510256
000090 05 c4 8c bc 4f 7f a5 bc 9b 52 41 3d d7 7b 5e bd
       -0.017183313 -0.020202307 0.04719792 -0.05431732
0000a0 81 bd bf bc 3c 35 5b 3d b3 05 0f 3d 6b 64 f9 39
       -0.023405792 0.053517565 0.034917545 0.00047567798
0000b0 88 33 c6 3c ae a7 ee 3c 51 44 21 3d c4 bb c6 3c
       0.024194494 0.02913269 0.039371792 0.024259456
0000c0 7e a9 44 3d ee fc 94 3c cf 05 8f 3b 8b 05 f6 3c
       0.048013203 0.018187013 0.004364706 0.03003194
0000d0 51 e0 a3 bc 9f 07 d3 3c bf 59 8f 3c 61 a7 14 3d
       -0.020004423 0.02576047 0.017498849 0.036292437
0000e0 b3 b6 66 bd dd 2d 68 3d dc 44 0c bb 5f 26 22 3d
       -0.05632658 0.056684364 -0.0021403348 0.039587375
0000f0 88 00 93 3b 2a 8e 7e bb 17 c8 37 bd 8f 38 b3 bc
       0.0044861473 -0.003884206 -0.044868555 -0.021877555

down2.go_down.1.conv2x.0.c.1.weight f4 [64]
000000 0c 64 82 3f d2 38 80 3f 92 b3 81 3f 94 04 6c 3f
       1.0186782 1.001734 1.0132926 0.92194486
000010 80 65 82 3f f7 db 81 3f 83 e1 7d 3f 66 68 7e 3f
       1.0187225 1.0145253 0.9917223 0.9937805
000020 da 65 76 3f 81 73 79 3f 4f df 79 3f 84 b1 70 3f
       0.96249163 0.9744187 0.97606367 0.9402087
000030 d7 fd 76 3f cb 08 7e 3f 94 04 77 3f 16 ed 7c 3f
       0.9648108 0.99232167 0.9649136 0.98799264
000040 5a ee 7b 3f c4 29 92 3f f9 e6 7c 3f 16 85 81 3f
       0.9841057 1.1418996 0.98789936 1.011874
000050 75 67 7d 3f dd c2 77 3f 7f 74 86 3f 4c 4b 86 3f
       0.9898599 0.9678171 1.0504302 1.0491729
000060 bd ed 7e 3f e1 11 7c 3f 23 e8 83 3f bd 2d 85 3f
       0.9958151 0.9846478 1.0305218 1.0404583
000070 03 bc 84 3f 69 95 88 3f ed 99 82 3f d9 8f 81 3f
       1.0369877 1.0670596 1.0203224 1.0122024
000080 43 0f 7d 3f 20 50 87 3f ab d1 8a 3f 44 fc 7c 3f
       0.9885141 1.0571327 1.0845236 0.98822427
000090 52 12 83 3f 98 14 82 3f 52 d2 81 3f 24 bb 79 3f
       1.0239966 1.0162535 1.014231 0.9755118
0000a0 17 d8 88 3f cf 00 8a 3f 37 19 7b 3f a3 de 7e 3f
       1.0690945 1.0781497 0.9808535 0.99558467
0000b0 5b e8 79 3f b8 7c 7d 3f 6c 3b 7c 3f 58 65 85 3f
       0.9762017 0.9901843 0.9852817 1.0421553
0000c0 a5 50 82 3f 97 da 78 3f 90 3b 82 3f 0c 2c 71 3f
       1.0180861 0.9720854 1.0174427 0.94207835
0000d0 1f 4e 7f 3f 6d 63 83 3f cd 73 80 3f 0c 05 7e 3f
       0.9972858 1.0264717 1.003534 0.9922645
0000e0 a1 44 73 3f 00 d1 78 3f 0e 4a 7d 3f bc 1c 82 3f
       0.95026594 0.9719391 0.98941123 1.0165019
0000f0 30 d0 7d 3f d5 af 82 3f 06 13 79 3f 45 95 80 3f
       0.99145794 1.020991 0.9729465 1.0045553
