data/model/1-test.pth (torch_old, 492009 bytes, 73 tensors)

inc.conv.conv2x.0.c.0.weight f4 [16, 1, 3, 3]
00000000: 93eb 0e3e 78d5 49bf e16c b73e dbc9 bebe
00000010: b01d abbe 412c 9d3d d540 8a3e b514 083f
00000020: 5002 f9bd 5390 b0be 334a 2a3d c4d1 6c3d
00000030: 56ef 9dbe 095d 4bbe 51af b7be 7b58 a3be
00000040: 0878 d53e 1ace 013f d432 08bf c232 21be
00000050: 6d52 1a3e 8880 e9be 752b d1be 8d83 813e
00000060: c20f aa3e d91a 123e bb91 c03e 8385 953e
00000070: e86f c43d d1c9 32be a2e3 d0bd e2fd 45bf
00000080: ab02 f33e 71f0 0f3f ac33 49be 3681 11be
00000090: 7129 113e 1462 41bf 4e3f aa3e 104f 2dbd
000000a0: 076e ce3e 246a 023f fbdf 4cbe 269c 9dbe
000000b0: 773e 9f3e 9d47 99be 0764 a43e c39e 203f
000000c0: 1c8d 3cbe b71f b7bd edab bf3e 5ce6 c9be
000000d0: fca2 db3e b811 0cbe 46e4 47be db88 dc3e
000000e0: 80af 293f 6f7c 1ebf 2af8 bc3e 5934 d4be
000000f0: 94dc e23c ad34 61be 29dd 913e 331b 86be
00000100: 7824 39bf d671 ba3d ba6b b83e 930b d13d
00000110: c852 373e bc4a b83e 8482 bc3e ac8a 963d
00000120: b1bc a7bd 9ff6 d2be a43d 1ebe 70ed acbd
00000130: a982 343d 48d0 033e 9bbe 0f3f bb78 863f
00000140: 0289 83be 19fc 203f 94e9 f43d 01e5 1ebe
00000150: 3c24 f13e 0b95 033f 1ed1 94be eccc 91be
00000160: bd26 7fbe 2bf3 c9be 8ac3 3e3e 7b28 ddbe
00000170: 072a 27bf 85af 183f 800a c0be 9249 c73e
00000180: 076b 14bd 6119 5f3e 85d6 8dbe f54d 0a3f
00000190: 2a6b fd3e baef 423d 5ec2 51be d572 d1be
000001a0: b8f4 0ebe 851d c2be d487 9a3e 6a86 debe
000001b0: d197 b53e 3c98 39bf adec b3ba 60f8 4ebc
000001c0: 452f 323f be27 0bbe e010 e6bd df09 eebd
000001d0: 6dd8 13be c6ef f53d 20c9 053f 6995 003e
000001e0: f70c 2d3d 3759 50bc 5f94 f0bd 325d 2abf
000001f0: cb1f 88bf 574d 723e 2e8f 69be 18ee fa3d
00000200: 59cb a2be 25d1 32bf 004c a1bf 44b5 b83e
00000210: ecdb af3e 64b2 dfba 7d13 5abd 61c7 ffbe
00000220: 586d bb3e 7266 c4be e34e 7c3e 2367 413f
00000230: 1ffa bbbc 3828 f1be 2fee 243e 0b77 9bbe
0.13957052 -0.7884135 0.35825256 -0.37263379 -0.33421087 0.076744564 0.27002588 0.53156596
-0.12158644 -0.3448511 0.04157467 0.057817236 -0.3084666 -0.19859709 -0.35875943 -0.31903443
0.4169314 0.5070511 -0.5320256 -0.15742019 0.15070505 -0.45605874 -0.40853468 0.25295678
0.33215147 0.14268054 0.37611184 0.29203424 0.09591657 -0.174598 -0.101996675 -0.7734052
0.47462973 0.5622626 -0.19648618 -0.14209446 0.14175965 -0.7554028 0.33251423 -0.042311728
0.4031832 0.5094321 -0.20007317 -0.30783194 0.31102344 -0.2993745 0.32107565 0.6274225
-0.18413204 -0.08941596 0.37435856 -0.39433563 0.42897785 -0.13678634 -0.19520673 0.43073162
0.66283417 -0.6190862 0.36908084 -0.41446188 0.02769307 -0.2199275 0.28489044 -0.26192626
-0.7232127 0.09103744 0.3601969 0.10207286 0.17902672 0.35994518 0.36818326 0.07350668
-0.08190287 -0.41203782 -0.15453202 -0.08443725 0.04406992 0.12872422 0.56150216 1.0505594
-0.25690466 0.6288467 0.11958614 -0.15517046 0.47097957 0.51399297 -0.29065794 -0.28476655
-0.24917121 -0.39443335 0.1862928 -0.43194947 -0.65298504 0.5964282 -0.3750801 0.38923317
-0.03623488 0.21787025 -0.27702728 0.54025203 0.49495822 0.047591902 -0.20484301 -0.40907922
-0.1396054 -0.37913147 0.30181754 -0.43461925 0.3546739 -0.72497916 -0.0013727151 -0.012632459
0.6960338 -0.13589379 -0.112336874 -0.116229765 -0.14438029 0.12008624 0.5226002 0.12556995
0.042248692 -0.012716583 -0.117470495 -0.66548455 -1.0634702 0.23662315 -0.22808525 0.12252444
-0.31795767 -0.6985038 -1.2601318 0.36075795 0.34347475 -0.0017066714 -0.05324124 -0.49956802
0.3660686 -0.3835941 0.24639468 0.75548 -0.022946415 -0.47100997 0.16106485 -0.3036426

inc.conv.conv2x.0.c.0.bias f4 [16]
00000000: e85b 95be 0bbf 933b 9c7c 9e3e 0664 06bd
00000010: f064 edbb 963c 3dbe 1af8 1c3e 3071 d03d
00000020: b8cd 833d 78ef c13e cc9d 293e eeab 4abe
00000030: 5f6e 13be 06c1 513e 3dc5 aebe b399 9bbe
-0.2917168 0.004508858 0.30954444 -0.032810234 -0.0072446987 -0.18480143 0.15329018 0.10177839
0.06435722 0.37878013 0.16564101 -0.19792148 -0.14397572 0.20483789 -0.34134856 -0.303907

inc.conv.conv2x.0.c.1.weight f4 [16]
00000000: 7c5d 533f 6253 0b3f a57a 7a3f 6cf5 433f
00000010: cfaa 583f 0ce9 be3e 2608 a03f ecf7 dc3e
00000020: 54dc 8a3f 1039 573f 70f9 a83f f0dc 013f
00000030: fe60 943e b610 a23f a0eb cd3e 5ae8 923f
0.8256452 0.5442411 0.9784339 0.7654636 0.84635633 0.37287176 1.2502487 0.431579
1.0848489 0.84071445 1.3201122 0.5072775 0.2898025 1.266135 0.4021883 1.1477158

inc.conv.conv2x.0.c.1.bias f4 [16]
00000000: df47 6440 fccc de3d bb7c bdbe 60f8 5040
00000010: 1985 1340 7c19 c33c 02a9 53bf e402 3dbe
00000020: 7336 4dbd dc1f ad3e 6541 603f 1320 713e
00000030: 05b9 803c 3a11 d73d 2e51 a23d 4085 f7bf
3.5668867 0.108789414 -0.37009224 3.2651596 2.3049986 0.023815863 -0.8267976 -0.18458134
-0.050100755 0.3381337 0.87599784 0.23547392 0.015713224 0.105013326 0.0792564 -1.933754

inc.conv.conv2x.0.c.1.running_mean f4 [16]
00000000: d1f4 58bf 5fb7 93bf fcbd c1be 7adb 2c3d
00000010: 8411 643f 5a12 a63f 4390 653f b5d0 ad3f
00000020: 540c f13f 4c04 9a3f b940 35bf d07b 1ebf
00000030: a83e 17bf f279 d3bf 41f1 89c0 75f3 22bf
-0.8474856 -1.1540335 -0.3784026 0.042201497 0.89089227 1.297435 0.8967325 1.3579317
1.8831887 1.2032561 -0.70801884 -0.6190767 -0.5907998 -1.652159 -4.3107 -0.63652736

inc.conv.conv2x.0.c.1.running_var f4 [16]
00000000: 569c 0a3f 7da5 633f 6a20 7f3f 8605 513e
00000010: 8c7a 263f 08eb a53f d028 2b3f 21fd 953f
00000020: bf22 0340 0cc9 a23f ca23 363f ee4c 2e3f
00000030: 44ad 543e 6622 1540 cbad b240 f633 973e
0.541448 0.8892439 0.99658835 0.20412263 0.6503074 1.2962351 0.6685915 1.1717874
2.0489957 1.2717605 0.7114836 0.68086135 0.2076922 2.3302245 5.583715 0.2953183

inc.conv.conv2x.1.c.0.weight f4 [16, 16, 3, 3]
00000000: 08cc 9abb 79a5 ba3e 865c 513e db3c 65be
00000010: f49b 243d 1653 a93e d158 53be 2d58 e0bd
00000020: 4a16 de3e 113d e8bd b2b8 c93d 446c 03be
00000030: 21e4 92be 9231 b6bc 7ec2 cebd e3a3 8fbe
00000040: ee29 ac3d 3206 bcbc f581 4d3e f238 113e
00000050: f929 afbd ccbf f1bd 4c12 9cbe 72f8 5bbe
00000060: cd97 8c3e e3cc 723e c93a 9ebe 1368 d03d
00000070: f6b5 e73e 185f bc3e 5247 623e 9c0f 4fbe
00000080: 6baa e73e a8bc ab3e 30a6 43be e64a b6be
00000090: c065 dbbe 1792 27bf 3ea0 78be ae42 c3be
000000a0: 007b 29bf e348 9abe 2d9a b0be 3d0d cfbe
000000b0: c2ff 37be 65c9 9fbe 7764 47be 9db7 81bd
000000c0: 0ea6 86be a779 aebe c1bc 16be 5820 70be
000000d0: 165c eabe c83f 16bc b885 d2be 4933 2fbf
000000e0: 1cdf b3bc e0d4 3c3c cbe6 00bf f875 23be
000000f0: e23f 59be dc78 f4be ca46 2fbe 7316 953e
00000100: deb8 083e 3672 63be b966 263e b077 e73d
00000110: bcb5 06be f8f2 e03d dc2d 963c b4ac 1a3e
00000120: 1d01 e03e 57a3 283d c744 dcbe b203 fc3e
00000130: 05a6 873e c351 8bbd 93f0 ec3e d40e bb3e
00000140: 5d00 ad3e 7a95 c53e 51c8 0fbe ceb8 e9be
00000150: c527 093f 3f16 633d 2c50 c5be e590 c33e
00000160: b4da ce3e 6134 1abe af00 853f 2d03 2c3f
00000170: 2698 af3e ea1f 0c3f e1ef 003f 0a17 953e
00000180: 4e08 e33e b178 e53e 95a0 013f b349 523d
00000190: f5e0 bebd 85fa 1abe 2ff9 603e e915 9b3e
000001a0: f776 733e ad5f e5be 7531 03be 8935 003e
000001b0: b261 af3e 80a9 27bb 63c8 3e3d 77bd ee3d
000001c0: 94c5 cd3d 64e4 383e b5f3 34bd e42d 8dbe
000001d0: 3951 1fbd 1d43 70be 9904 cebd 7f28 933d
000001e0: e385 7abc 5534 f63c 9ef0 ab3d 66b4 06bf
000001f0: 2e4e 8ebe 4f64 eebd b028 97be a5e6 9abd
00000200: 3ae7 323e c54a bebe d25d 19be ee20 f53d
00000210: 2738 a8be 5bcd ebbd 09c2 2d3d da1f ec3e
00000220: 3dfd fc3d dd76 36bf cbc9 ed3e c5da 47bd
00000230: 82ef 07bf db33 913d 79d2 d73e 6a35 e03e
00000240: 4e38 9cbe 1edf 433f 984d cbbd e124 dfbe
00000250: 6a6e 45bd a590 efbe 2d6a 903e c75b e4be
00000260: b1b9 3d3e 31cc 863e c3ef 323f f1aa a03d
00000270: 3e49 8abe 1812 bb3e ab29 4a3e bd83 63be
00000280: 70ba 89bd 5f11 d1bd 40cf a43d 66f2 ad3d
00000290: 9d2b 363f e237 b73d f5d4 e5be 3e5e c8bd
000002a0: 46de 6abe 4fac 92be 8d40 f1be ff41 6cbe
000002b0: 3207 57be 5371 553f 37c5 cb3e 8dd9 9ebf
000002c0: 1c4d 2dbf 96da 14bc f1cd 653e 9e20 b33c
000002d0: 2c00 d4bc 1c20 5abf ba85 d0be cda3 05bc
000002e0: ce1d 4d3b 1778 92bd 709a b1bd 329c 2abf
000002f0: aff2 283e 1d1c 5fbe 1e9f c63e dcdf 10be
00000300: 7dd1 fe3d 3075 95bd a95e 99bc 15da a63b
00000310: 303f 283e 9256 bc3d beb0 603e 372f c2be
00000320: 9cb5 3b3e 34c6 f1bc 0c28 473f 8db9 49bf
00000330: 810f a63e 5565 043f efff 6abc 944b 64bc
00000340: 37be 433e 2ced 953e 4019 a83d d587 2d3e
00000350: 6fbd c23e 64a7 2c3e efec 86be 8910 cc3c
00000360: cc0c d13c 676a a13e 1f2f 593e fb09 2b3e
00000370: 10e5 a23d d452 323e aa0a 463e a3c9 fabd
00000380: c937 243e 3786 03bf 33a2 6abe 5875 15bf
00000390: 0b67 64be 64a5 ee3e 81a1 da3b d636 07be
000003a0: d997 a4bd 12bb 133e 1cdc 3bbe 01e4 0d3e
000003b0: b4a4 88bc 8206 803f 7869 4b3e f26b ad3f
000003c0: 9c36 c4be fa8e 69be 02d2 fe3b 736e bcbe
000003d0: 8843 1a3f 95ef 6fbe 9a5f 2fbd 021a cabe
000003e0: 0e03 c5be 34c2 1ebe dad4 1a3f e0b8 dc3e
000003f0: 2534 24be 1788 9dbe a177 7dbe 2edd 5cbe
-0.0047240295 0.3645437 0.20445451 -0.22386496 0.04018779 0.33071202 -0.2063935 -0.10954318
0.4337638 -0.113397725 0.09849681 -0.12834269 -0.28689674 -0.022240434 -0.1009569 -0.28054723
0.08406435 -0.022952173 0.20069106 0.14181879 -0.085529275 -0.118041605 -0.3048271 -0.21481493
0.27459565 0.2371097 -0.30904225 0.101761006 0.45256013 0.367913 0.22097519 -0.20220798
0.45247206 0.3354237 -0.19106364 -0.35604018 -0.42851067 -0.6545729 -0.24279878 -0.3813681
-0.6620331 -0.30133733 -0.34492627 -0.40439788 -0.17968658 -0.3120834 -0.19471918 -0.063338496
-0.26298565 -0.34077188 -0.14720441 -0.23449838 -0.4577338 -0.00917048 -0.41117644 -0.6843763
-0.021956973 0.011525363 -0.5035216 -0.1596297 -0.21215776 -0.47748458 -0.17116848 0.2911869
0.13351771 -0.22211537 0.16250123 0.113021255 -0.13155264 0.109838426 0.018332414 0.15104944
0.4375085 0.041171398 -0.43021223 0.4922157 0.2649385 -0.06802704 0.46277294 0.3653475
0.3378934 0.38590604 -0.14041258 -0.45648807 0.5357631 0.055441137 -0.3853773 0.38196483
0.40401232 -0.15059043 1.0390834 0.67192346 0.34295768 0.54736197 0.50366026 0.2911914
0.44342273 0.44818643 0.50635654 0.051339816 -0.09320251 -0.15134628 0.21970056 0.30290154
0.2377585 -0.44799557 -0.12811835 0.12520422 0.34254223 -0.0025583208 0.046577822 0.11657231
0.10047451 0.18055874 -0.04417773 -0.27574074 -0.03889582 -0.23463102 -0.10059471 0.071854584
-0.01529071 0.03005425 0.083955035 -0.52619016 -0.2779402 -0.11640226 -0.2952323 -0.07563523
0.17471018 -0.3716642 -0.14977196 0.119691715 -0.3285534 -0.11513778 0.042421374 0.4611805
0.12352989 -0.7127512 0.46443018 -0.04879262 -0.53099835 0.07089969 0.42152765 0.43790752
-0.30511707 0.76512325 -0.09926909 -0.43582824 -0.048201002 -0.46790043 0.28206006 -0.4460127
0.18527867 0.2632766 0.698971 0.078451045 -0.27009004 0.36537242 0.19742458 -0.22218223
-0.06725013 -0.102083914 0.08047342 0.084934995 0.711603 0.08946206 -0.44889036 -0.097836
-0.22936353 -0.28647086 -0.4711956 -0.2307205 -0.20998839 0.83376044 0.397989 -1.2410141
-0.67695785 -0.009085318 0.22441842 0.021866139 -0.025878988 -0.85205245 -0.40727025 -0.008156729
0.0031298283 -0.071518116 -0.08672035 -0.66644585 0.16498826 -0.21788068 0.38793272 -0.14147896
0.124423005 -0.07297742 -0.018721895 0.0050919154 0.16430354 0.091961995 0.21942422 -0.37926647
0.18330997 -0.029513456 0.7779548 -0.78798753 0.32433704 0.5171712 -0.014343246 -0.013934035
0.1911553 0.2928251 0.08207941 0.16946347 0.3803515 0.1686073 -0.2635264 0.024910228
0.025518797 0.3152649 0.21209382 0.16703026 0.079538465 0.17414409 0.19340006 -0.122454904
0.16036905 -0.5137667 -0.22913437 -0.5838218 -0.22304933 0.46610558 0.006672085 -0.13204512
-0.08036775 0.1442683 -0.18345684 0.13856508 -0.0166801 1.0001986 0.19864452 1.3548567
-0.38322914 -0.22808447 0.0077764997 -0.36803016 0.60259295 -0.23431237 -0.042815782 -0.39472967
-0.38478893 -0.1550377 0.60481036 0.43109798 -0.16035517 -0.3076789 -0.24752666 -0.21568748

inc.conv.conv2x.1.c.0.bias f4 [16]
00000000: 7da9 ba3d f582 9cbd 5486 bcbc ede3 20be
00000010: 51b2 55bd d8e1 22bd cb79 0e3d 74d8 09be
00000020: 1443 f93c e407 e43d f7e6 953d 84db 0fbe
00000030: 3564 56bc 2254 bbbd fc78 263e 230a ef3d
0.091143586 -0.076421656 -0.023013271 -0.15711947 -0.05217201 -0.039766163 0.03478412 -0.13461477
0.030427493 0.111343175 0.07319444 -0.14048582 -0.013085415 -0.091469064 0.1625709 0.11671855

inc.conv.conv2x.1.c.1.weight f4 [16]
00000000: 4005 613f 968d a23f 0d8c 3e3f 4cc7 543f
00000010: 8a01 613f d7fb c33f dd49 573f 0545 3e3f
00000020: 45e5 7e3f 03c0 4f3f 1b99 713f a435 293f
00000030: 61a4 213f ebe6 713f 3093 633f 0ffe 573f
0.87898636 1.2699459 0.7443245 0.831166 0.87892973 1.531123 0.8409708 0.74324065
0.9956859 0.8115236 0.94374245 0.66097474 0.6314145 0.9449298 0.88896465 0.8437204

inc.conv.conv2x.1.c.1.bias f4 [16]
00000000: 064d 903f 647a debe 2a2e a63f 8859 343f
00000010: 4c69 ac3e 92c7 9840 d466 5a3f 1207 6c3e
00000020: 6207 f8bd b684 e83e b5bd e9bd 6372 9b3d
00000030: 0a94 e13e ed21 b93e 9fc2 e43e e28d c23f
1.1273506 -0.43452752 1.2982838 0.70449114 0.33674085 4.7743616 0.85313153 0.23049572
-0.12110783 0.4541375 -0.11413137 0.07590177 0.44058257 0.36158696 0.44679734 1.5199549

inc.conv.conv2x.1.c.1.running_mean f4 [16]
00000000: 4897 4340 389e eec0 adbf 9cbf 7502 ea3f
00000010: 42ce cec0 4448 bb40 40e2 6541 e0c4 6941
00000020: ff1a 1ac1 a1c5 9f40 b556 4ac0 2aa5 e9c0
00000030: ca7a 39c0 06b9 773f e06a 7bc1 b8ae 05c1
3.0561085 -7.456814 -1.2245995 1.8282 -6.462678 5.8525715 14.367737 14.610565
-9.631591 4.9928746 -3.1615422 -7.3014116 -2.8981194 0.967667 -15.713593 -8.355156

inc.conv.conv2x.1.c.1.running_var f4 [16]
00000000: d050 3742 ec85 9e41 616a d541 bcaf c041
00000010: c939 5942 b4e5 a541 ce54 2542 7224 1742
00000020: f405 7542 15bc 2942 90f8 1c41 0c7f 2541
00000030: 9c61 a041 ac59 b841 3956 d141 d19b 0642
45.82892 19.815392 26.676943 24.085808 54.30643 20.73716 41.332817 37.78559
61.255814 42.433674 9.810684 10.343517 20.04766 23.043785 26.1671 33.652164

down1.go_down.1.conv2x.0.c.0.weight f4 [32, 16, 3, 3]
00000000: 38ee f33e 9b85 a9bd e515 21be d9e8 c03e
00000010: 7638 893d 1b14 9a3d c430 093f cc3e 23be
00000020: c641 11bf d2d6 a73d 49b4 0bbf 069f 1e3e
00000030: 02d2 c63e 7bf4 023e 3f42 c6be 7686 913e
00000040: 5724 81be c369 1cbe 4469 d1be 2762 99be
00000050: 1e6a 50be 6aaa 90bd 9caf b03e 61fd adbd
00000060: ecef d7bf 2890 b7be 8648 5bbd aea1 74be
00000070: 0e6b 88bc 1f89 10be 624c 893d 6c5a 45bd
00000080: 48f5 4cbe 250e 983d 7907 66be f94b 113f
00000090: fd72 5abe d093 b7bd 94b7 aa3d 2d3f a1bd
000000a0: f7c3 64be 9c59 b7bd 96ef e7be 4f1c debe
000000b0: 7443 a6be cc42 30bd 9622 48be df93 48be
000000c0: 7cf1 81bc 6bb7 a5be de3d 513e 79cf e23e
000000d0: 87a7 82bd 7c24 a33d 8851 2ebf 751c 94bc
000000e0: 509e 793e 1791 20bf aed1 29be d1ea fabc
000000f0: d42b b93c 9bcb e2bd 36f8 debd 471c a5be
00000100: 7563 9bbe 3ad5 3cbe 5b57 d5be 4776 82be
00000110: b188 bbbe 9270 673f a904 423e c2d0 1a3e
00000120: 6831 13bf 6f03 4ebf efa5 3bbf a43e e6bd
00000130: 3743 7cbd 2680 dcbe 043c 65bd a040 5abe
00000140: 6b86 28be 3eba a1bf 7c78 1abf 8fb0 3ebf
00000150: adda f2be c8b9 dbbd 2bdb 2abf c1bf 783d
00000160: 9a53 393e 16df 80be 797f ccbd 66c7 f5bd
00000170: 12f1 e53d 5eb7 413e 8db2 c8be 5709 f5be
00000180: 730e 873d 60bc 3f3e b9e8 083f 124b 523e
00000190: 1155 12be f3cb 4ebe 0037 0e3f 335b d53e
000001a0: d043 94bd bd64 10bf 68d9 f63d ef9e 133f
000001b0: 6d91 c1bd 4151 a73d 57a6 88bc 3812 243e
000001c0: 37d3 f1bd 5e08 27be 27be 873f 5510 eb3e
000001d0: c391 363f 48b4 0d3e 398e 05be b8db debe
000001e0: b4bc 12bd 026f a3be 57f3 a0be 08c8 813e
000001f0: 85f1 a43e 59d3 ac3e 0ddd 123f e157 233d
00000200: 0aa8 2d3d e198 333f 1c91 84bd 54ff 183e
00000210: 8f31 093e 7b8c 003d 392c 0c3e baaa 2e3f
00000220: 9613 70bd e664 85bc 562a 933e da0f eabe
00000230: 79f2 0e3e 6018 4cbf 1e52 86bf fb73 37bf
00000240: a1ca 853f c8cc 903f 6977 933d f70b 023f
00000250: d029 b23f ca0a 8fbe d9f9 bd3e 3f08 b33f
00000260: 11c2 0d3e f942 333e c85c 01bf ae84 4e3d
00000270: 391a 063f ea70 3fbe 79d5 a33d 7254 ec3e
00000280: 0099 833e 912f b0be 7407 d3be b2a3 a8be
00000290: ca0a c4bd ceb3 4f3e 5439 3bbf 3f24 e43e
000002a0: 1b48 d2be b1b3 40bf 7399 183e 0931 d0bd
000002b0: 5751 ad3c c14d 6e3d a3bb 8d3d 1c42 123e
000002c0: dfc9 783e 3286 2ebe faa6 d13c 3e8d 0f3e
000002d0: e3f3 b2bd b730 483e 527b 063e 7b0e 56be
000002e0: 9c85 2e3e 8077 113e 81c2 f5be 2ec5 93bd
000002f0: 513f 9d3e 58be 603e 1e4e 953e 0ff3 8cbe
00000300: b880 88be 8090 ca3e cbc6 94be 9a2d 4dbe
00000310: dbdb b63d fe68 cabe 006e c4be 3fef 003e
00000320: f315 f5bd ba60 41bf e84f 76bb db63 70bc
00000330: 3b4a a9be e454 103d 6b2d 9e3d bafd 2d3e
00000340: 1b32 9ebe 80dd b2bd aace 753e f9ad 63bd
00000350: 23d1 883e 0c3e ad3e 016d f63d 3eae a6be
00000360: 18ce 4f3e fa1a 85be 85a0 a6bd 160d 1c3f
00000370: 5751 b4bd a942 7e3e d354 093f 650f 523e
00000380: 9d08 a53e 81b2 33bd ff7d c43e 6cc2 4fbe
00000390: b1a7 96be 20c5 65be 4272 a43e 0007 3fbe
000003a0: d5e4 58be ac8e 8b3e 5bfa 13bf 7a56 b0be
000003b0: b6eb 98be 3585 8fbd 51d9 3fbf 8b81 6ebe
000003c0: dcc5 173e 422b 84be 8cda 91bd 582d f3bc
000003d0: 2422 95be e0a6 84be 5145 41be f8a1 76bd
000003e0: 8729 57bd 5603 8dbf 437a 08bf e1e0 2b3e
000003f0: 8858 59bd b788 173e c5d0 9bbe 0c9c 533d
0.47642684 -0.08277436 -0.15731008 0.3767765 0.06700222 0.07523366 0.53590035 -0.15941924
-0.5674099 0.081952706 -0.5457197 0.1549035 0.38832098 0.12788574 -0.38722417 0.28422898
-0.25223038 -0.1527472 -0.40900624 -0.29957697 -0.2035298 -0.07063754 0.3450898 -0.08495594
-1.6870093 -0.3585217 -0.05353596 -0.23889801 -0.01665261 -0.14114808 0.06704022 -0.048181936
-0.20015442 0.07424573 -0.22463788 0.5675655 -0.21332927 -0.0896374 0.08335796 -0.07873378
-0.2234038 -0.089526385 -0.45299977 -0.43380973 -0.32473338 -0.043032452 -0.19544443 -0.19587658
-0.015862219 -0.323665 0.20433757 0.44298914 -0.063796096 0.07965943 -0.68093157 -0.018079976
0.24376798 -0.6272139 -0.16583893 -0.030629547 0.022603907 -0.11073991 -0.10887186 -0.32248136
-0.30349317 -0.18440714 -0.4166821 -0.25480863 -0.36627725 0.90406144 0.1894709 0.15118697
-0.5749726 -0.8047399 -0.7330007 -0.112424165 -0.06158754 -0.4306652 -0.05596544 -0.21313715
-0.16457526 -1.2634962 -0.60340095 -0.7448816 -0.4743246 -0.10728794 -0.66740674 0.060729746
0.18098298 -0.251702 -0.09985251 -0.12000923 0.11227621 0.18917605 -0.39198723 -0.47858688
0.06594553 0.18724203 0.53480107 0.2053645 -0.14290263 -0.20194988 0.55552673 0.41671142
-0.07239497 -0.56403714 0.12053186 0.5766439 -0.09451566 0.08169795 -0.01668088 0.16022575
-0.11807864 -0.16311786 1.0604905 0.45910898 0.71316165 0.13838303 -0.13042535 -0.43527007
-0.035824493 -0.3192063 -0.31435654 0.25347924 0.32215515 0.33754995 0.57368547 0.03987873
0.042396583 0.7015515 -0.0647299 0.1494115 0.13397811 0.031383973 0.13688745 0.6822926
-0.05861243 -0.016283464 0.28743237 -0.4571522 0.13959683 -0.79724693 -1.049381 -0.7166135
1.0452462 1.1312494 0.0720051 0.50799507 1.391901 -0.2793792 0.3710468 1.3986892
0.13843562 0.17506017 -0.505322 0.050419502 0.5238376 -0.18695417 0.07999701 0.46158177
0.25702667 -0.3441129 -0.41216624 -0.3293739 -0.0957237 0.20283434 -0.7313435 0.44558904
-0.41070637 -0.7527419 0.14902286 -0.10165603 0.02115695 0.05817962 0.069205545 0.14283031
0.24295758 -0.17043379 0.025592316 0.14018723 -0.08737924 0.19549833 0.1313298 -0.20903961
0.17043155 0.14205742 -0.47999957 -0.072153434 0.3071237 0.2194761 0.2916116 -0.2752919
-0.26660705 0.3956337 -0.29057917 -0.20036927 0.08928653 -0.39533228 -0.38365173 0.12591265
-0.11967077 -0.7553822 -0.003758425 -0.014672245 -0.33064446 0.035237208 0.077235065 0.1699132
-0.30897602 -0.08733654 0.24004617 -0.055585835 0.2672206 0.338364 0.120325096 -0.3255481
0.20293462 -0.25997144 -0.081360854 0.6095747 -0.08804577 0.24830116 0.53645056 0.20513685
0.32233134 -0.043871406 0.38377377 -0.2028901 -0.29424813 -0.22438478 0.32118422 -0.18655014
-0.21181042 0.27257288 -0.5780389 -0.34440976 -0.29867333 -0.07007829 -0.74940974 -0.23291604
0.14821571 -0.25814253 -0.07121763 -0.029684708 -0.2912761 -0.25908566 -0.18874098 -0.06021306
-0.052529838 -1.1016643 -0.53311557 0.16785003 -0.053062946 0.14798246 -0.30432716 0.05166249

down1.go_down.1.conv2x.0.c.0.bias f4 [32]
00000000: 7ac8 a8bc c594 92bd 9ed4 a1bd 8575 ae3c
00000010: 6190 a1bd 886f 033d 5335 243c 03a3 453d
00000020: 3e88 73bd 289c 92bd 939d 043c 4dc8 5cbd
00000030: 12d8 273c 4cf4 7cbd 4a04 b93d 30ed 843d
00000040: cfd1 d83c 35db 663c 1f42 7dbc 353f a83c
00000050: 82d8 843d cafa b0bd 9e3f 553d ea1f 09bd
00000060: 5813 203d 0d03 8fbd 8698 a3bb 16fb 5c3c
00000070: 5b0b 8fbc 1da9 77bc 99ca 863c 86d9 5bbc
-0.020603407 -0.07157282 -0.07901882 0.021296272 -0.07888866 0.032088786 0.010022479 0.048251163
-0.059456103 -0.07158691 0.008094209 -0.05390196 0.010244386 -0.061756417 0.09034021 0.064905524
0.026467232 0.014090349 -0.015457659 0.020537952 0.06486608 -0.08641584 0.052062623 -0.0334777
0.039080948 -0.06983004 -0.0049925474 0.013487598 -0.01746147 -0.015116003 0.016454028 -0.013418561

down1.go_down.1.conv2x.0.c.1.weight f4 [32]
00000000: 1bf1 7f3f 56ed a33f 3827 6b3f 4e93 9e3f
00000010: 6fea 823f 076f 9c3f 4f77 873f d4ee 8d3f
00000020: 7037 3e3f ca9c 8a3f 5b5f 6e3f f3cf 7f3f
00000030: 0969 7c3f a4cc b63f cac6 953f 75f3 8f3f
00000040: 0dcb 863f 1804 803f 848d 7a3f 07de 773f
00000050: f43e 913f 69d4 813f 4eeb 963f 71a2 923f
00000060: d5ef 943f b0f3 4c3f 7b1f 883f 6c9f 963f
00000070: 7985 893f 2b86 943f 6d95 5d3f ba14 763f
0.9997727 1.2806804 0.9185672 1.2388704 1.0227793 1.2221383 1.0583285 1.108851
0.7430334 1.0829098 0.9311425 0.9992668 0.9859777 1.4281201 1.1701291 1.1246172
1.0530716 1.0001249 0.97872186 0.9682316 1.1347337 1.0142947 1.1790559 1.1455823
1.1635691 0.8005934 1.0634607 1.1767402 1.0743858 1.1603445 0.8655613 0.96125376

down1.go_down.1.conv2x.0.c.1.bias f4 [32]
00000000: 5276 5b3f df19 8abe d396 3cbe 0202 71bf
00000010: 3cec b8bd b956 63bf ac39 423f 9a1e ec3e
00000020: d408 a5bd 5085 f43b 4fd1 96bd 7874 613e
00000030: 7b11 d4be e007 97bf c867 693e b147 1cbe
00000040: 62b3 ddbe 3502 143f 95bb edbe dd76 58bd
00000050: 08a6 4abf 464d 9cbe 6d4e 9abe 4dc9 223e
00000060: b169 0ebe 52e8 553c af8c 373f fd2a bdbe
00000070: 4b1f 15be 989b d8be a308 553e 389b 42bd
0.8572742 -0.26972863 -0.1841691 -0.9414369 -0.09029433 -0.88804203 0.7586925 0.46117097
-0.080583245 0.007462181 -0.07364141 0.22017086 -0.41419587 -1.1799278 0.22793496 -0.15261723
-0.4330092 0.5781587 -0.46432176 -0.05284773 -0.79159594 -0.30527705 -0.3013796 0.15897103
-0.13907506 0.013055878 0.7169904 -0.3694686 -0.14562719 -0.4230621 0.20804076 -0.04751131

down1.go_down.1.conv2x.0.c.1.running_mean f4 [32]
00000000: 324c 49c1 61fd 21c0 e2fc b5c1 8035 7f41
00000010: 986d cac0 1734 ba41 3321 e040 19f6 f640
00000020: 5497 00c2 8c14 c940 e45e 49c1 43a6 7fc1
00000030: cbfc b940 a4bd 7fc1 f0bb 78bf 119d 70c1
00000040: b6e7 dd41 5fb9 9a40 9cea 12c2 5aed 5cc1
00000050: eed5 2ec0 2ed9 fe3f 370c f240 627d 09c1
00000060: 7406 1a42 f6c6 f840 f64b 96c0 302f 6041
00000070: 6848 79c1 0882 7640 ae69 e4c1 b1f9 b640
-12.581102 -2.53109 -22.748478 15.950562 -6.325878 23.275434 7.0040526 7.717541
-32.14778 6.283758 -12.585667 -15.978091 5.8121085 -15.983799 -0.9716177 -15.038346
27.73814 4.8351283 -36.72911 -13.807947 -2.7318072 1.9910028 7.563991 -8.593111
38.5063 7.774287 -4.6967726 14.01152 -15.580177 3.8516865 -28.551601 5.71798

down1.go_down.1.conv2x.0.c.1.running_var f4 [32]
00000000: 20a4 3442 24c7 2e42 122c 8642 a4df ab41
00000010: 45d5 2042 b2f9 2c42 e8a8 2e42 0e5e 3e42
00000020: 9200 3942 2651 1b42 e0c5 0d42 4e30 a642
00000030: 0b60 3a42 fa76 de41 28ac da41 035c 4e42
00000040: 485e b142 c879 2242 a214 a542 cd86 0542
00000050: 14ef 1942 76de bb41 a197 6641 76b2 3a42
00000060: d78d 9d42 a715 f241 0c49 e141 97dc 1942
00000070: 0e0c 1542 6451 d041 2834 4342 7a8d ff41
45.16028 43.694473 67.086075 21.4842 40.20827 43.243843 43.664948 47.59185
46.250557 38.829247 35.443237 83.094345 46.593792 27.808094 27.33406 51.589855
88.68414 40.618927 82.5403 33.38164 38.483475 23.483624 14.412019 46.67428
78.77703 30.260572 28.160667 38.46542 37.261772 26.039742 48.800934 31.94408

down1.go_down.1.conv2x.1.c.0.weight f4 [32, 32, 3, 3]
00000000: d11c edbc a1c1 70bd 399b 93be 3f86 9d3e
00000010: df9a 10be 9966 c7be f2bf 2a3f 4e39 87be
00000020: 8bd9 53be 6267 543e e61b b1be 7731 02be
00000030: a521 c63d d6cb 063e e8bd c23b 8f56 4f3e
00000040: 7225 d53e 566f d63c c8c1 0cbd 18b8 093e
00000050: 8499 ab3d 4bae 6ebd 7592 473e 3729 d3be
00000060: 2d17 13be 7aab 2abe 4e96 cebe 9e57 6abf
00000070: 8349 19be 1e54 473e a4ac 62bf cf04 ebbe
00000080: 0200 76be 1488 5abd 5448 fdbe 16cc 973d
00000090: e112 ca3e ed97 763e 24fa 83bf ae17 ecbd
000000a0: 0096 d4be a7ef adbf 8fe9 cbbe ca20 4bbf
000000b0: 5457 59bf de24 f3b8 66e0 dbbe 3ef9 84be
000000c0: a2ba 9fbe efbc 283d bed1 c53e c31d a13e
000000d0: 6a61 22be e85f f4be e812 1ebc b197 ec3e
000000e0: 3b3f 673f 42e6 df3e b137 1d3f d6a0 163f
000000f0: 1469 633e 5d36 8abe e0eb 593e 7913 a23e
00000100: cc3f 2b3e 5c36 393f 6ce9 023e cf51 8f3e
00000110: 68d6 453f ac2c 09bd 46ab ce3e f686 8f3f
00000120: b5a0 043f 35fa 1a3e ecbd aebe 5079 c23e
00000130: fe4e 25be 55d6 44bf 009f 923d 1e37 acbe
00000140: f237 d4be 58bd 743d ea31 813e 73c9 0a3e
00000150: f9ee f23d 8de5 fd3e ad30 283e ba17 50bd
00000160: af39 ba3e 41f0 903e 60e6 433e cb97 643e
00000170: ca08 f1be f3ee 80be 35f5 16be 15fb 4abe
00000180: 6404 783e 1242 f3bb 9669 69be 320f 213e
00000190: 5f74 59bc 7515 c3bd d241 28bd 387b 1a3e
000001a0: 32a5 f03d 9028 4bbe 5c40 e13c 1d35 7ebe
000001b0: e52b 32bf 2377 34bf 1fbf 35bf b020 17bf
000001c0: 7a56 efbe e20d 3bbf f348 15bf 0751 4cbe
000001d0: 28de deba 312f 033e cdd5 273e 8008 16bf
000001e0: 264e 44be 495f 13be e122 83bf 74c3 07bf
000001f0: 9390 febe 5438 10bf f4eb 0fbe 088c 84bd
00000200: 79f2 e2be 33a5 4cbf d94b 3bbc ff9a 2fbd
00000210: 3e8e 93be 3614 f7bd 5558 47be 80da cebd
00000220: e867 6e3e e720 13bf 4021 f3bb 69ff 923e
00000230: d70f 8dbe 684a 99be 297d 293e bdd5 d23e
00000240: ec09 98be 4df5 d0be 8b4e aabc 5938 81be
00000250: f4b4 93be 8d26 6c3e 352c 253d 538d 98be
00000260: b135 96be 2d2d 6cbe d747 d1bb c800 f1be
00000270: 3ea7 103f 93a7 7b3e b270 2dbf b533 d23e
00000280: 46a9 393e b760 683e 1bb2 70be 0691 91be
00000290: 66b2 58bd 66f7 06be 2789 6cbe 4386 a2bd
000002a0: bcf8 aebe fb0f d8be 8d96 c5be 3d40 50bd
000002b0: 5cda de3d 8ea8 81be f84c d1bc 5f86 0dbd
000002c0: 861e 37bc 1329 b4be e119 283d 61ea f63e
000002d0: 2a8f d1be 6948 52bd 0380 81bf 9d03 6bbd
000002e0: 5cf4 b2be 9df7 90bf 3404 09bf bc05 ccbe
000002f0: 0c60 41bf 7772 f0bc 1011 cbbd c605 82be
00000300: 9ba5 4b3e ad87 2bbd ab70 15be f546 19be
00000310: bb13 b23e 1994 4b3f 8855 b93d c917 e2bd
00000320: 59a9 98be 97b3 44bd 134b cbbe 88ae 0a3e
00000330: 8ee2 633f 031b 83be 383f 163e 2a9c c93d
00000340: 5dc4 d23d e24e 003f 8ead f33e 17fa 853e
00000350: ada0 993e a482 1b3f cd54 f13d 73ea bf3e
00000360: 73f8 0dbf 9575 68be 97e7 0abe 514d c7be
00000370: 984b 83be 0484 cdbe b721 6a3e b909 f53d
00000380: e502 59bd 6d79 1bbd b914 f0be f362 d4be
00000390: 5cf2 863e ffb9 c2be 100a abbe 5e24 5abd
000003a0: c5a0 4cbe 231f 1abe c8ed 463f 6c45 08bf
000003b0: 7743 12be b3e6 333e 157c e5be 0edb 89be
000003c0: 32c3 fbbd eca6 1fbe 1e32 97be b2b6 e2be
000003d0: f1aa 4ebe 4c30 07be df90 ccbe fce0 13bf
000003e0: 4319 5dbe aff2 e43e 47bd 74be f469 36be
000003f0: e4a4 963d a1c9 28bd af05 6d3e 79c8 433e
-0.028944405 -0.05877841 -0.28829363 0.30766484 -0.14121579 -0.38945463 0.66699135 -0.26410908
-0.20688455 0.20742562 -0.34591597 -0.12714182 0.09674386 0.13163695 0.0059430487 0.20247863
0.4163013 0.026176136 -0.03436449 0.13449132 0.0837889 -0.058271687 0.19489463 -0.41242382
-0.1436431 -0.16666976 -0.40349048 -0.91539943 -0.14969449 0.19465682 -0.8854468 -0.45902106
-0.2402344 -0.05335243 -0.49469244 0.07411973 0.39467528 0.24081393 -1.0310712 -0.11527954
-0.4152069 -1.3588761 -0.3982663 -0.7934691 -0.8489888 -0.0001159401 -0.4294464 -0.25971407
-0.31197077 0.041195806 0.38636583 0.3146802 -0.15857473 -0.4772942 -0.009648062 0.4620948
0.9033086 0.4373036 0.61413103 0.58839166 0.22208053 -0.269946 0.21281385 0.3165548
0.16723555 0.7234857 0.12784356 0.27992103 0.7728028 -0.033489868 0.40365046 1.1213062
0.5180772 0.15134509 -0.34129274 0.3798318 -0.16143414 -0.76889545 0.07159233 -0.336358
-0.41448933 0.059750885 0.25233394 0.1355341 0.11861987 0.49589196 0.16424818 -0.050803877
0.36372134 0.283083 0.1913085 0.2232353 -0.47077018 -0.25182304 -0.14741977 -0.19822343
0.24220425 -0.0074236477 -0.22794184 0.15728453 -0.013272374 -0.09525577 -0.041078396 0.15086067
0.117502585 -0.19839692 0.02749651 -0.24824949 -0.6959823 -0.7049429 -0.7099475 -0.5903425
-0.46745664 -0.7306806 -0.58314437 -0.19952784 -0.0017003464 0.12810971 0.16390152 -0.5860672
-0.19170436 -0.14391817 -1.0245019 -0.5303261 -0.49719676 -0.5633595 -0.14054853 -0.06472021
-0.44325617 -0.79939574 -0.011431658 -0.042872425 -0.2881946 -0.12064402 -0.1946729 -0.10100269
0.23281825 -0.5747208 -0.007419735 0.28710487 -0.27551147 -0.2993958 0.16551651 0.41178694
-0.2969507 -0.4081215 -0.020789405 -0.25238302 -0.28848994 0.23061581 0.040325362 -0.29795322
-0.29337838 -0.23064108 -0.006386738 -0.4707091 0.5650519 0.24575643 -0.67750084 0.41055074
0.18130979 0.22693144 -0.23505442 -0.28430957 -0.05290451 -0.13180313 -0.23099194 -0.07935765
-0.34174144 -0.42199692 -0.38591424 -0.050842512 0.108814925 -0.2532391 -0.025549397 -0.034551974
-0.011176711 -0.35187587 0.041040305 0.48225692 -0.40929538 -0.051338587 -1.0117191 -0.057376493
-0.34952056 -1.1325566 -0.5352204 -0.39848125 -0.7553718 -0.029351456 -0.09915364 -0.2539503
0.19887392 -0.041877437 -0.1459376 -0.14968474 0.34780678 0.79522854 0.09049517 -0.11039693
-0.29816702 -0.048022833 -0.39705715 0.13543141 0.8901757 -0.25606546 0.14672554 0.09844239
0.102913596 0.50120366 0.4759335 0.26167366 0.30005398 0.60746217 0.117837526 0.37483558
-0.5545723 -0.22701104 -0.13564907 -0.38926175 -0.2564361 -0.40139782 0.22864424 0.11964745
-0.052981276 -0.037957598 -0.4689081 -0.41481742 0.2635678 -0.3803253 -0.33406115 -0.05325734
-0.19983204 -0.1505094 0.77706575 -0.5323093 -0.14283548 0.17568474 -0.4482123 -0.26924938
-0.1229309 -0.1559102 -0.29530424 -0.4428001 -0.20182396 -0.13202018 -0.39954278 -0.57765174
-0.21591668 0.44716403 -0.23900329 -0.17813855 0.07355669 -0.041207913 0.231467 0.19119443

down1.go_down.1.conv2x.1.c.0.bias f4 [32]
00000000: a77c c4bc 5684 0f3c 0b08 fe3b dc90 8fbd
00000010: 4e6b 87bd de97 573d 3fe1 06bd 8ff3 adbc
00000020: b741 2d3d 5f6c 86bb df08 fd3c a8b2 653d
00000030: 4bb0 323d e446 41bd ee79 a3bc 9faf 163d
00000040: 7f41 76bd 4966 88bd c91e 343d d487 10bc
00000050: 2bf0 82bd 0098 94b9 7aef c03c ca69 0bbd
00000060: deda 8fbd a277 763b d609 f3bc 7405 283b
00000070: 086d ab3a 3032 353c 678b 393d 605a 483d
-0.02398522 0.008759579 0.0077524236 -0.070100516 -0.066122636 0.052635066 -0.032929655 -0.021234302
0.042299 -0.0041022743 0.03088802 0.056078583 0.043625157 -0.047186747 -0.019955602 0.03678858
-0.060121056 -0.06660134 0.04397467 -0.008821446 -0.06393465 -0.0002834201 0.023551691 -0.034036435
-0.070241675 0.0037607928 -0.029667776 0.0025638016 0.0013078758 0.011059329 0.04529896 0.048914313

down1.go_down.1.conv2x.1.c.1.weight f4 [32]
00000000: 13c9 853f f990 603f 63d2 8d3f c5ad 563f
00000010: 464b 693f 9c85 663f 8673 8f3f 281c 8a3f
00000020: f401 923f de50 703f a7ee 6c3f 1842 663f
00000030: aca4 593f 2769 6f3f ae6e 5f3f 4d67 9f3f
00000040: 8cf6 833f ad56 753f 60f4 583f 339e 7e3f
00000050: 15af 553f 3c6c 703f 7014 6a3f a6c4 513f
00000060: ca32 433f 1b6a 4c3f 2d5d 8c3f 472e 8d3f
00000070: fd79 493f 374b 383f 6aaf 5d3f c72e 9d3f
1.0451988 0.8772121 1.107983 0.838589 0.91130483 0.9004762 1.120713 1.0789843
1.1406846 0.93873394 0.92551655 0.899446 0.85016894 0.93519825 0.8727826 1.24534
1.0309615 0.9583538 0.84747887 0.9946014 0.8347028 0.9391515 0.91437435 0.81940687
0.7624937 0.79849404 1.0965935 1.1029748 0.78701764 0.7198977 0.86595786 1.22799

down1.go_down.1.conv2x.1.c.1.bias f4 [32]
00000000: 6395 d53e c2b0 223f c3f0 31bf 4080 823e
00000010: 6742 8bbe a43c 803e a362 763d 65ed 4ebe
00000020: d2c6 e6be c617 0ebf 989c 7dbe eb6c f13e
00000030: 8835 8e3e e52a 2d3d b3a1 c4be 806a 03bf
00000040: aa15 353f 34a1 23bc d872 153e 1072 31be
00000050: 076b b8be b675 df3e dd3d 2ebf 64f6 963f
00000060: cd3b aa3d 006b 8d3d 5efb 64bf ae13 9dbe
00000070: 9bb9 ce3e 592f 34be fdaa 1c3f c9d7 8fbf
0.41715536 0.6355096 -0.69508 0.25488472 -0.27199098 0.25046265 0.06015266 -0.20207746
-0.45073563 -0.55505025 -0.24766767 0.4715341 0.27775216 0.042277236 -0.38404617 -0.5133438
0.7073618 -0.009987164 0.1459459 -0.17328668 -0.36019155 0.43644494 -0.68063146 1.1793942
0.08312187 0.06905174 -0.89446056 -0.30679077 0.4037598 -0.17596187 0.6119841 -1.1237727

down1.go_down.1.conv2x.1.c.1.running_mean f4 [32]
00000000: 9e8d c3bf 0b0a 45c0 a12a a040 028e 3c40
00000010: 7694 8dbf 0ab7 dbc0 16de 19c1 228c d0bf
00000020: 257d 5d3e 0c4c e240 44cf 6b41 8a25 9abd
00000030: 143f 05c0 5c76 edbf 90b8 1b40 984d a6bf
00000040: 0dac 0bc1 0e56 f9c0 5096 f2bf 2c64 c63f
00000050: b7bb ae3f d9c8 f5c0 78f5 d740 5e13 86c1
00000060: 76af ccc0 6403 64c0 ee85 0041 731e 9ec0
00000070: 846b 4ec0 b967 11c0 1b75 0bbe baa5 8bbf
-1.5277593 -3.078738 5.0052037 2.9461675 -1.1060932 -6.8660936 -9.61672 -1.6292765
0.2162977 7.071783 14.738102 -0.07526691 -2.081975 -1.8551745 2.4331398 -1.299243
-8.729505 -7.7917547 -1.8952122 1.549932 1.3651036 -7.6807675 6.7487144 -16.759457
-6.3964186 -3.562707 8.032698 -4.941217 -3.2253122 -2.2719557 -0.13618891 -1.0909951

down1.go_down.1.conv2x.1.c.1.running_var f4 [32]
00000000: baa4 1c43 435f 2a42 702c 8342 7a6c c542
00000010: e9ad 2c42 3892 8e42 bf15 ee42 f40f 8142
00000020: 4be6 b242 68a2 4e42 51a5 9742 dc6f c342
00000030: 9b1a e742 f29c 9642 4a8a fb41 74d5 cd41
00000040: 58a9 1043 2488 9d42 2503 1142 1ecc 2342
00000050: 14ab 3642 f6ae 0043 9792 8042 f6fe 2643
00000060: 6f32 2842 eee0 b342 f7a5 2b42 b912 8042
00000070: e27d 9842 6175 2042 4aa8 3b42 ac7f de41
156.64346 42.59303 65.58679 98.71187 43.169834 71.28558 119.04247 64.53116
89.44979 51.6586 75.82288 97.718475 115.55196 75.30653 31.442524 25.729225
144.6615 78.7659 36.25307 40.949333 45.66707 128.68344 64.28631 166.99594
42.04925 89.939316 42.912075 64.03657 76.245865 40.114628 46.914345 27.81234

down2.go_down.1.conv2x.0.c.0.weight f4 [64, 32, 3, 3]
00000000: 4310 bfbc 26ae 5cbd 38e3 a23e 1d10 d43e
00000010: 6d33 373d 4732 783e eb53 a03e 6189 bc3d
00000020: f8e4 aebc 111a 9f3e 2bbc abbe 0f05 21bf
00000030: 8458 a5be 8e5f 16be 83a4 aabd d0da 07bf
00000040: f3d5 d1bc 08e6 72bc 5edb 3f3e 955e dd3e
00000050: 0d96 ce3e 79ff 723e e0be 473e 8e6c 903e
00000060: 2e99 73bc c245 ae3d 6f0b 573e d313 50be
00000070: 18fa edbc 7617 953e 7cf8 17bd 21dd 8cbc
00000080: 1f0b a43e 080b 023f 85ac bfbd c25c 5c3d
00000090: d4dc fabd 3558 75bd b4d6 c73c 0a33 06be
000000a0: afeb 4c3e e577 033e cf98 bbbd d233 30bd
000000b0: 1033 da3c 8454 56be 473e 88be 62c2 8abe
000000c0: 7af5 29bd 5054 28be 42d8 11be 4f1a 3a3d
000000d0: ffa7 0dbe 6042 8cbe 679d 57be 6f9b aabe
000000e0: 3d7c e6bd 2042 dfbe a044 bfbe 6945 4f3b
000000f0: 93e5 8fbe d899 bd3c 72e7 2f3e a4a4 f43e
00000100: 29ec b03e 113a 923f 48dd 85bd 6fc8 e6be
00000110: 8e2b 213f 3a00 3bbd 7efc 38be be3d e93d
00000120: a6b5 e8bd 48b2 303e bda5 3ebe 52ae 883e
00000130: bde8 aa3e f47d 00bf f17d a73e 0ddb ab3e
00000140: abbf ebbc 3942 95be 8a6a 2abe 0b53 993e
00000150: 3943 86be c11d 42be 85ac 383f e5f2 093e
00000160: 5ff8 843e 5cc5 283f 41b4 72be 54a3 6d3e
00000170: 981d 363f f937 f63c a6cd d03e ded1 5f3f
00000180: cfc6 be3d 4107 5d3e 78fb f33e 5b3c 053f
00000190: 31f3 053f b699 ad3e 2c1b a73e 4fdb 773e
000001a0: 4e5d 783c bac6 f83d f20a 17be 229f e93c
000001b0: dee7 063e 560d fd3d d038 3fbe c2bf 213e
000001c0: 45a0 043e 0a9a b7bd 0812 153e aa00 393e
000001d0: 72c2 493c 9b93 e43e c6a5 ea3e e8e5 4cbc
000001e0: c2e9 dd3d 4dd6 9a3e 19ea b53c 36ff ec3e
000001f0: 0085 cf3e 10cc 093d 1c57 c73d 137b de3e
00000200: 2918 fd3d 0c2f db3e 8732 313f 283f 2c3f
00000210: 10cb 9a3e 2230 913e 2a68 c23e 9986 223f
00000220: d07e 89be 480e 88be 05cb 383e 1fb7 1ebf
00000230: e206 eebe c400 e5be 8084 56bf af32 a1be
00000240: bdc5 873d 1fc0 d43e 052d ac3e 8477 2e3f
00000250: 07a8 673f c317 183f c00b 013f 9670 153f
00000260: 17d9 e43e ae13 343e ba09 783e 723d 0c3e
00000270: e4cc 9ebb 87e7 d03e c2ad 893e e850 b8bd
00000280: 1d9c 4ebe d4a2 1bbe 9628 ddbe 0996 4abf
00000290: dc87 05bf f39a d4bd 5fae 4dbd b4e9 ff3e
000002a0: 9d81 afbe bb04 98be 159b 253f 2e15 943e
000002b0: 708c 933f f8cb 993f 1612 9b3e e7c9 033f
000002c0: 2681 233f cc13 3b3f 0b9d 2e3e ef95 b83e
000002d0: 7823 373f 5e74 ec3e 1926 cbbc 7eb4 da3e
000002e0: 5fdc 833e 56f9 3b3e dd9e 2f3e a5b6 16bc
000002f0: dab8 45bc f07e a03c bde4 dbbd 839f 0dbe
00000300: e3be b9bd ef01 96be 3468 c1bd ef2f 14be
00000310: 02e5 09be 7547 e43c 0627 473f 5c5c 0f3f
00000320: d3e6 803e 2d49 103f 1736 e13d 8f19 ef3e
00000330: 278b 043f 60eb 4d3e 7d4c c03e 7b32 193f
00000340: 14d4 3f3f cdba 083f d33d 123f f267 373f
00000350: 4d47 be3e 3b22 1b3f 89ac a83e 26b9 29bd
00000360: 3690 7abe a7ee 3fbe b095 073e 09ad f5be
00000370: 6468 e3be 537d c03c 6066 80be cf8c 61be
00000380: 15aa 84bd 7f1b e9bd 3465 63bd 92d7 3abd
00000390: 6d9f 85be b855 81be b126 44be d830 09bd
000003a0: 1d66 0c3d bb7c e3bd 8d71 21be 2155 9a3e
000003b0: 0d41 733e ce34 e23e c622 9f3f 552c 793f
000003c0: c1ba 373e b2cc 623f 566a 083f 1dec 03be
000003d0: ad41 c13d 89ff 9bbe 15bd 443e fb29 4a3e
000003e0: 7d73 c1be bf59 083e a073 433e 4308 0fbd
000003f0: 1fef 3e3f 492e 253f 6be4 663d c289 e73e
-0.023323184 -0.05387702 0.3181398 0.41418543 0.044726778 0.2423793 0.31314024 0.092058904
-0.021349415 0.31074575 -0.33541998 -0.62898344 -0.32294095 -0.14684889 -0.08332159 -0.53068256
-0.025614714 -0.014825352 0.18736026 0.43236223 0.40348855 0.23730268 0.19506407 0.2820782
-0.014868064 0.08509399 0.21000455 -0.20320062 -0.029049918 0.29119462 -0.037102208 -0.017195286
0.32039735 0.5079808 -0.09359077 0.0537994 -0.12249151 -0.059898574 0.02439437 -0.13105407
0.20011781 0.12838705 -0.09160005 -0.04301817 0.026635677 -0.20930678 -0.26610014 -0.27101427
-0.04149387 -0.16438413 -0.14242652 0.045435246 -0.13833617 -0.2739439 -0.21056138 -0.3332171
-0.11254165 -0.43605137 -0.37357044 0.0031627065 -0.2810484 0.023144647 0.17178133 0.4778186
0.34555176 1.142397 -0.06536347 -0.45074794 0.62957084 -0.045654513 -0.18065068 0.113887295
-0.11362772 0.17255509 -0.18617912 0.26695496 0.3338069 -0.5019219 0.32713273 0.3356556
-0.028777918 -0.29152086 -0.16642204 0.2994617 -0.26223162 -0.18956663 0.72138244 0.13471563
0.25970742 0.65926147 -0.23701574 0.23206836 0.71138906 0.030055987 0.40781897 0.87429607
0.093152635 0.21584798 0.47652793 0.5204522 0.52324206 0.33906335 0.32637918 0.24204753
0.015158964 0.12147279 -0.14750269 0.028518263 0.13174388 0.12356059 -0.18674016 0.15795806
0.12951763 -0.089649275 0.1455766 0.1806666 0.012314426 0.44643864 0.458296 -0.012505986
0.108356014 0.30241624 0.022206353 0.4628846 0.40531158 0.033641875 0.09733412 0.43453273
0.12358124 0.4280933 0.69217724 0.6728387 0.3023305 0.28357035 0.37970096 0.6348663
-0.26854563 -0.26573396 0.18046196 -0.6199817 -0.46489626 -0.44727147 -0.8379593 -0.3148398
0.066295125 0.41552827 0.33628097 0.68151116 0.90490764 0.5941126 0.50408554 0.5837492
0.44696876 0.17585632 0.2422246 0.13695315 -0.004846202 0.4080164 0.2689038 -0.08999807
-0.2017674 -0.15198833 -0.43195027 -0.79135185 -0.5216043 -0.10381117 -0.05021512 0.4998299
-0.34278575 -0.2969111 0.6468976 0.2892241 1.1527233 1.2015371 0.30287236 0.51479954
0.6386894 0.7307708 0.17052095 0.3605189 0.71538496 0.4618253 -0.02479844 0.4271583
0.25754067 0.18356833 0.17150445 -0.009198819 -0.012067998 0.019591779 -0.10736988 -0.1383038
-0.09069612 -0.2929835 -0.09443703 -0.1447141 -0.13466266 0.027866105 0.7779392 0.56000304
0.25176105 0.5636166 0.10996645 0.46699187 0.5177483 0.2010932 0.37558356 0.5984265
0.7493298 0.53410035 0.57125586 0.7164298 0.37163773 0.60599107 0.32944134 -0.041436337
-0.24469075 -0.18743382 0.13240695 -0.47983578 -0.4441558 0.02349726 -0.25078106 -0.2202637
-0.06477753 -0.113821976 -0.055516437 -0.04561574 -0.26098195 -0.2526071 -0.19155385 -0.033493847
0.03427707 -0.11107775 -0.15765972 0.30143073 0.23755284 0.44180912 1.2432487 0.9733327
0.17942335 0.8859359 0.53287256 -0.12883039 0.09436355 -0.30468395 0.19212754 0.19742577
-0.37783423 0.13315485 0.19087076 -0.03491999 0.7458362 0.6452375 0.05637018 0.45222288

down2.go_down.1.conv2x.0.c.0.bias f4 [64]
00000000: 8b3b 07bd ede7 d9bc b768 693c e92e f8bc
00000010: dee1 c13c 2836 e1bc 0fe1 783d 71ac 9b3c
00000020: 1f2d 48bc a4c0 103d dbe8 b43c 0067 943c
00000030: fa3f ebbc 633d 163d 501b 29bc 6fcc 29bd
00000040: 8c02 27bc e8ff 5fbd 2577 ebbc 41a6 643d
00000050: c07c bdbb 5747 afbc 37ca fbbc b945 2c3d
00000060: a264 d13c 21fb dbbb e32f 6dbc 495f 5d3c
00000070: 44da 2abc 7349 c5bc 6799 50bc 49b6 973b
00000080: 0c22 413a d698 a8bc 0bc6 a13c 1a78 06bd
00000090: 6d10 663c 7554 0b3d 20b3 b83c e579 15bd
000000a0: 6f76 6b3d 1ea2 fcbc 506a 643d 5c00 5abd
000000b0: e150 323d b846 363d 0500 fa3a 7dca c73b
000000c0: 8caf 72bc 6019 32bd 0a2b 4ebc e635 efbb
000000d0: d715 2d3c 5cdd 4dbd 4bab 5e3d 3f0d 2cbd
000000e0: 8b5e 733b a629 643d 2e36 01bd 6eb1 dd3c
000000f0: a81b 233d a4c6 9f3c 1252 37bd 2c4a fdbb
-0.03301577 -0.026599849 0.014246157 -0.030295806 0.023667272 -0.027491644 0.060761508 0.019003125
-0.012217789 0.035339966 0.02208369 0.01811552 -0.02871703 0.036679637 -0.010321453 -0.04145473
-0.010193478 -0.05468741 -0.028743336 0.055822615 -0.0057826936 -0.021396322 -0.030736072 0.04205868
0.02556068 -0.0067132865 -0.014476749 0.013511487 -0.010428015 -0.024082875 -0.0127318865 0.0046298844
0.0007367439 -0.02058069 0.019747755 -0.03282938 0.014042002 0.03401609 0.022546351 -0.0364932
0.057485994 -0.030839022 0.05576545 -0.053223 0.043534163 0.044501036 0.0019073492 0.0060971365
-0.014812361 -0.04348123 -0.0125835035 -0.0073001264 0.010564289 -0.050259933 0.054362576 -0.04200482
0.003713521 0.05570378 -0.03154581 0.027062144 0.039821297 0.019503899 -0.044756003 -0.0077297892

down2.go_down.1.conv2x.0.c.1.weight f4 [64]
00000000: 6d94 353f 9090 a43f 0fe7 893f bcc7 6c3f
00000010: 072b 7f3f 780c 833f 4394 5a3f 2c82 6f3f
00000020: c790 563f d98f 843f 97a2 713f 0f30 843f
00000030: 459c 623f e9c5 8f3f 18b8 8e3f 22fc 863f
00000040: 9cc1 943f 1448 7e3f 8c3c 703f 953b 7d3f
00000050: 4d2e b43f dfcd 523f 758a 683f 3766 933f
00000060: 0343 853f a1c2 763f e82c 8f3f df34 6a3f
00000070: b835 763f 6705 5f3f 5a30 a93f 4ca9 8c3f
00000080: 931c 653f 8774 a03f 8119 803f fab7 603f
00000090: 1a6b 6c3f 3193 8f3f 530e 913f 3704 8f3f
000000a0: 52c6 903f 6796 693f 79f3 643f 9f77 703f
000000b0: e849 983f 0987 8f3f 5c6a 853f a687 753f
000000c0: 23e5 8b3f c0ae 833f 0942 893f 1056 823f
000000d0: 6fee 913f cf1b 9e3f 4e2d 933f 0009 4a3f
000000e0: 870c b23f 92e1 a73f a826 5e3f 23b4 9c3f
000000f0: ffb3 943f b1e4 8a3f 3e2b 943f 2c10 913f
0.70929605 1.2856617 1.0773638 0.9249227 0.9967503 1.023818 0.8538248 0.93558
0.8381466 1.0356399 0.9438872 1.0327166 0.885197 1.1232272 1.1149931 1.0545695
1.1621585 0.9932873 0.9384239 0.9891904 1.407663 0.82345384 0.9083627 1.1515568
1.0411075 0.9639073 1.1185579 0.91486925 0.9617572 0.8711762 1.3217881 1.0989165
0.89496726 1.2535561 1.0007783 0.87780726 0.92350924 1.1216794 1.1332496 1.1173161
1.1310523 0.9124512 0.8943401 0.9393253 1.1897554 1.1213084 1.0423083 0.9591011
1.0929302 1.0287704 1.0723277 1.0182514 1.1400889 1.2352237 1.1498201 0.7891998
1.3910073 1.3115714 0.86777735 1.2242473 1.161743 1.0851041 1.1575696 1.133306

down2.go_down.1.conv2x.0.c.1.bias f4 [64]
00000000: ab17 20c0 e3e3 d3be 6836 60bf 3548 693e
00000010: 329d 883d c544 69bf ad8c ae3b a396 c43d
00000020: 96d4 703d 03b3 dabe 90c8 acbb 8600 c03d
00000030: 8cbf 243e faaa 62bf d3bf e2bd e750 7dbf
00000040: 72e0 b3be cdd8 5bbe f4da c3be b597 933e
00000050: b8cb a0bf 6d31 98bf ff4e d93c b724 81bf
00000060: 3d8b 84bd 0474 5dbe 67c7 1abe ca5c 5c3e
00000070: 0fdf 0ebe 1005 523e d71e a1bf f934 6c3d
00000080: 33ec 8a3e 8ac0 46be 18c3 fcbe f152 1ebe
00000090: fc5c d5bc c9bd 48bf 1cbb e93c cb0a 45bf
000000a0: d3d8 a9bf 8ae9 8dbd c5a6 3fbe 3a01 09bf
000000b0: da8a b0be ade0 003f bd28 68bf b02d 943e
000000c0: 94a1 2ebf 60e4 a7be d786 a9bf c320 bfbd
000000d0: b438 44bf e1fd 4fbd e3e0 42bf d543 cabd
000000e0: fbb3 69bf 3fc9 3dbf e667 023e 6b71 bd3e
000000f0: 3449 6abf 152e 8b3e 500a 00bf db22 6cbf
-2.5014446 -0.413848 -0.8758302 0.22781451 0.066706076 -0.9112056 0.0053268285 0.09599044
0.058796488 -0.427147 -0.0052729324 0.093751 0.16088694 -0.8854214 -0.11071744 -0.9895157
-0.35132176 -0.21469422 -0.38252985 0.2882668 -1.256217 -1.1890084 0.026526926 -1.008933
-0.0647187 -0.21626288 -0.15115128 0.21519771 -0.13952278 0.20509744 -1.2587537 0.057667706
0.2713333 -0.19409385 -0.49367595 -0.15461327 -0.026045315 -0.7841459 0.028531604 -0.76969594
-1.3269295 -0.0692931 -0.18715961 -0.53517497 -0.34480935 0.5034283 -0.9068716 0.28941107
-0.682153 -0.32791424 -1.3244275 -0.09332421 -0.7664902 -0.050779227 -0.761244 -0.09876219
-0.91290253 -0.741352 0.12734947 0.37000594 -0.9151795 0.27183595 -0.50015736 -0.92240685

down2.go_down.1.conv2x.0.c.1.running_mean f4 [64]
00000000: 4c86 9941 ca96 88c0 7eba 1ec1 8822 2bc1
00000010: e6a4 ca40 9645 8440 09bf bf40 576b abc0
00000020: 56a5 8b40 61bd cbc0 a8f2 fc3f eed5 0141
00000030: 4603 ad40 4cd9 39c1 b46b 0740 f341 1840
00000040: 1002 b9c0 ca89 94c0 7492 b9c0 888e d2c0
00000050: 8a51 9bbf 54ce 5941 a65a 9140 e01a f6c0
00000060: c8b2 75c0 94b5 03c0 4651 4f3f cc8b e440
00000070: d64b 99c1 5820 5f41 2c71 ebbf 121c 1dc1
00000080: a729 05bf 5f67 90c0 b3e5 abc0 15bc 57c1
00000090: 3b8f b0c0 e234 3fc1 7be0 5240 e944 8e40
000000a0: 52bd 363f da0b ecbf de92 0bc1 13ce 80c0
000000b0: 217a 343e bca6 87c1 821d e340 738d a640
000000c0: 3ad1 eec0 4fa0 4bc1 e47e 9dc0 d400 79c0
000000d0: fffa 79c0 32db cfbf 6439 43c0 aacf d440
000000e0: 09f6 2cc1 faa0 223f 825f 0abf f05c 23c1
000000f0: 3072 0fc1 b233 adc0 4047 a340 a1f6 ed40
19.190575 -4.268407 -9.92053 -10.6959305 6.332629 4.1334944 5.9920697 -5.356853
4.3639326 -6.3668675 1.9761553 8.114729 5.4066496 -11.615551 2.1159487 2.3790252
-5.781502 -4.64182 -5.7991276 -6.579899 -1.2134259 13.612873 4.5423155 -7.6907806
-3.839037 -2.0579576 0.8098339 7.142065 -19.16203 13.945396 -1.8393912 -9.819353
-0.5201668 -4.5126185 -5.3717895 -13.483418 -5.517484 -11.950411 3.2949512 4.445912
0.7138263 -1.8441117 -8.723356 -4.0251555 0.17624713 -16.956413 7.097352 5.2047668
-7.4630404 -12.726638 -4.9217396 -3.8906755 -3.9059446 -1.6238768 -3.0503778 6.6503496
-10.810067 0.6352688 -0.54051983 -10.21019 -8.965378 -5.4125605 5.1024475 7.436356

down2.go_down.1.conv2x.0.c.1.running_var f4 [64]
00000000: a874 ee42 ae03 c642 56d7 3042 f781 5e42
00000010: 8e24 2a42 3b64 6242 2517 1642 0367 7742
00000020: ec68 5042 9472 9d42 866b 5b42 7966 8542
00000030: 48df 2242 ca13 1642 a3dc 9842 d9a6 e241
00000040: 8a52 c542 f47e 3842 e9f4 3742 712f 9d42
00000050: b215 7d42 f932 c342 a29e 4142 eb34 2642
00000060: 9d6c 6d42 b5ab 1d42 f50a 7e42 25f8 5842
00000070: 589d cd42 9222 6142 7303 3b42 381b 1843
00000080: 7fc7 5842 7202 eb42 dd4f 5742 8cfe 4142
00000090: 1a06 6042 0e9e 2b42 2058 bc42 439d 5042
000000a0: a53e 0942 c0e0 2042 076f de42 f554 0042
000000b0: baa7 6b42 8c08 3443 d57b 0d42 411c 8342
000000c0: 53dd 1642 df4a 4a42 18ac 1d42 8836 8742
000000d0: 3005 8242 fca8 a142 95f0 5d42 b804 0542
000000e0: b403 4c42 7c5e 7842 5468 3242 4ce8 d842
000000f0: fbaa 3342 7792 ce42 a70b 9642 3a97 1d42
119.227844 99.00719 44.21029 55.62692 42.535698 56.59788 37.522602 61.850597
52.102463 78.723785 54.855003 66.70014 40.71805 37.519325 76.43093 28.331469
98.66121 46.123978 45.98917 78.59266 63.271187 97.599556 48.404915 41.551678
59.356068 39.417683 63.5107 54.24233 102.80731 56.28376 46.75337 152.10632
54.19482 117.504776 53.82799 48.49858 56.00596 42.90435 94.17212 52.153576
34.311176 40.219482 111.21685 32.082966 58.913795 180.03339 35.37093 65.55518
37.716137 50.573116 39.41806 67.60651 65.01013 80.83005 55.484943 33.25461
51.003616 62.09227 44.601883 108.453705 44.916973 103.286064 75.02276 39.397682
