data/model/1-test.pth (torch_old, 492009 bytes, 73 tensors)

inc.conv.conv2x.0.c.0.weight f4 [16, 1, 3, 3]
000000 0a fb 28 be a4 90 ba 3e a3 f0 49 3e 9a 09 ba bd
       -0.16502014 0.36438477 0.19720702 -0.090838626
000010 87 b5 9d 3b 5a d6 3c be 71 df f2 be 0d 82 d0 bc
       0.0048128995 -0.18441144 -0.47436097 -0.025452638
000020 d3 d3 3a be 4f 4d 40 3e 9e ce 98 be 4b db e3 bd
       -0.18244867 0.18779491 -0.29845136 -0.11125811
000030 f3 25 20 3e bf c1 89 bd bf 6b b8 be 09 92 2d be
       0.15639476 -0.06726407 -0.36019704 -0.16950239
000040 7e 3d ad be 43 f1 55 be ae cc a7 be 4a 24 40 3e
       -0.33835977 -0.20892815 -0.32773346 0.18763843
000050 e5 04 c4 3e cf e1 4f 3e c6 ac 38 be 4e 54 1e 3d
       0.38284984 0.20300983 -0.18034658 0.038654618
000060 e0 b9 b7 be 8b e6 27 be ef 46 82 bd 91 dd 55 be
       -0.35884 -0.16396539 -0.06361186 -0.20885302
000070 7f 50 42 be f1 48 4b be dc 45 47 3e 74 17 c7 bd
       -0.1897602 -0.19852044 0.19460243 -0.0972127
000080 85 e7 8a bd b6 f6 74 be 3e 33 80 be 16 81 84 3d
       -0.0678244 -0.23922238 -0.25039095 0.06469934
000090 a6 ae fc bd d4 da 25 3e 10 20 9f be c4 9d 36 bd
       -0.12337999 0.16196758 -0.3107915 -0.04458405
0000a0 b5 de 8a 3d 49 7d f0 3a fd 04 2f be 86 83 68 bd
       0.06780759 0.0018347885 -0.17091747 -0.056766056
0000b0 d5 8e 44 be 08 27 1e bc e5 83 b0 3e 12 f5 a7 3e
       -0.19195111 -0.00965286 0.34475628 0.3280416
0000c0 18 f1 84 3e e3 00 6a bd 04 bf 60 bd 36 d2 47 3e
       0.2596519 -0.057129752 -0.054869667 0.19513783
0000d0 4d ea 12 3e e1 cf 57 3e e9 76 63 be 8e 66 cc 3d
       0.14347191 0.21075393 -0.2221333 0.09980498
0000e0 fe 76 9c 3d 7d d4 68 3e f3 e1 bc be 00 1b 5c bd
       0.076398835 0.22737308 -0.36891136 -0.053736687
0000f0 2c 39 c5 be 90 e7 66 be e0 6e 4d 3d ef 1c d9 3e
       -0.3852018 -0.22549272 0.050154567 0.42404887
000100 15 e8 dd 3d 0f 12 df 3d d7 7c a8 bd f7 76 ba 3e
       0.10835282 0.10892116 -0.08226936 0.36418888
000110 1d e1 8f bd 7d 7a 13 3e fd d6 59 3c f6 57 0a 3e
       -0.07025359 0.14402194 0.013295886 0.13510117
000120 8f 88 09 be ff e0 ab 3c a7 df 9e 3e 53 ec 70 be
       -0.13430999 0.02098131 0.31030008 -0.2352765
000130 a5 15 b4 3e e2 b2 7d 3c e8 62 b8 bd b5 48 30 be
       0.35172763 0.0154845435 -0.0900324 -0.17215236
000140 64 43 cc 3e 03 6a fd bd db d2 a9 bd c8 65 2d be
       0.39895165 -0.12373736 -0.082921706 -0.16933358
000150 ba 41 ba 3e f1 ea ae 3d e9 40 01 be 49 c9 a3 bd
       0.3637827 0.08540905 -0.12622418 -0.079973765
000160 3b aa 64 be 03 da de be 28 82 a6 bb ec f0 d8 3d
       -0.22330563 -0.43525705 -0.005081434 0.10592827
000170 e8 1d a4 be 93 5d 9a be cb ab ba 3e a2 b7 6c be
       -0.32054067 -0.30149516 0.36459193 -0.23116925
000180 19 7f 9c 3c 3d 4c 07 be bb 3f 96 be 6e b1 4f bc
       0.019103574 -0.13212676 -0.29345497 -0.01267658
000190 7c 41 1d 3e 78 fa 90 ba 14 6d 22 3e 4d eb d1 bd
       0.15357012 -0.0011060974 0.15861923 -0.10249958
0001a0 c4 85 3d 3c 61 cd 08 be d3 8f 80 be a0 1f 56 be
       0.011567537 -0.13359596 -0.2510973 -0.20910501
0001b0 51 0f 51 3d ba 1c 9f be 88 5c cf 3d 92 35 cf 3c
       0.051039997 -0.31076604 0.10125071 0.025294099
0001c0 e8 7a 82 bc d6 13 c1 3e 12 a7 b3 bd 35 8c 96 3e
       -0.015927747 0.37710446 -0.087721005 0.29403844
0001d0 5b f9 96 bd d3 2f a2 3e 76 9a 1c 3e 23 9c a5 3d
       -0.073717795 0.31677112 0.15293297 0.08086421
0001e0 de c7 d6 3e 1d ef 5e be 51 59 09 bd 20 59 99 be
       0.41949362 -0.21770902 -0.033532444 -0.2995081
0001f0 d8 b0 6b 3e ff 51 46 bd e2 28 60 3c ec 29 28 3e
       0.2301668 -0.04841804 0.013681622 0.16422242
000200 76 70 27 be b8 a0 57 be 65 9a 77 3e 8f 65 b8 be
       -0.16351494 -0.21057403 0.2417999 -0.36014983
000210 a4 71 1c 3d e5 71 3a be 55 fa a8 bd 94 07 71 3e
       0.038194314 -0.1820751 -0.08250872 0.23538047
000220 b4 33 3d 3e d2 a4 57 3e 40 bc 80 3d e4 2e 59 3e
       0.18476754 0.21058968 0.06285906 0.21209294
000230 89 7c f8 3d 18 83 2f 3e a6 ad c9 3e 22 d4 0d be
       0.12133128 0.17139852 0.39390296 -0.13850453

inc.conv.conv2x.0.c.0.bias f4 [16]
000000 77 c5 55 3e 8b 64 b3 bd 0b ec 69 3e a0 72 d5 3d
       0.20876108 -0.087594114 0.2284395 0.104222536
000010 1b f9 26 be 88 06 a0 bd 99 09 8a 3e 56 2b 58 bd
       -0.16305964 -0.07813746 0.26960447 -0.052775703
000020 49 ee b9 bc a5 70 19 3e 5c 97 59 bd b8 a6 b5 be
       -0.022696631 0.14984377 -0.053122863 -0.3547876
000030 c6 25 c1 3e 8a 21 bb be 20 80 73 be 7b 0f ae bd
       0.3772413 -0.36549026 -0.23779345 -0.084990464

inc.conv.conv2x.0.c.1.weight f4 [16]
000000 e1 88 69 3f 3c 17 68 3f 09 eb 66 3f ab d9 8a 3f
       0.91224486 0.9066045 0.90202385 1.0847677
000010 4d a0 67 3f 5e c3 89 3f b8 3e 69 3f d2 72 65 3f
       0.90478975 1.0762746 0.91111326 0.89628327
000020 b2 f1 8c 3f b1 5f 8c 3f 72 b0 8e 3f de 54 8c 3f
       1.101126 1.0966703 1.1147597 1.09634
000030 b0 8e 8b 3f db c3 68 3f 67 f2 8b 3f 27 14 8b 3f
       1.090292 0.9092385 1.093335 1.0865525

inc.conv.conv2x.0.c.1.bias f4 [16]
000000 4d 04 a7 bd 9b 6d c0 bd 42 9d bd bd 27 cd ad 3d
       -0.08155117 -0.093959056 -0.0925851 0.08486395
000010 98 d1 be bd 01 db cd bd ba b0 bd bd b2 af d3 bd
       -0.093173206 -0.10051537 -0.092622235 -0.103362456
000020 97 9f e5 3d 87 5f d1 3d b2 bd fd 3d bf 23 cb 3d
       0.1121208 0.102232985 0.12389697 0.099189274
000030 8e e1 c3 3d 03 1e c0 bd 15 db cf 3d 20 cf 91 3d
       0.095645055 -0.09380724 0.101492085 0.07119584

inc.conv.conv2x.0.c.1.running_mean f4 [16]
000000 4c d6 0f 3e e1 d3 71 be a6 6a 46 3e be a9 90 bc
       0.14046592 -0.23615982 0.1937662 -0.017659064
000010 71 d2 7a be 91 0f b6 3d 00 41 2f 3e 82 fd b3 3d
       -0.2449434 0.08889688 0.1711464 0.08788587
000020 c8 45 0d 3d 10 99 57 3d 96 46 1a be 18 f1 cd be
       0.034490377 0.052636206 -0.15065989 -0.40223002
000030 02 d2 d7 3e b3 56 95 be ec c2 9b be b6 94 bf 3d
       0.4215241 -0.2916771 -0.3042215 0.09354536

inc.conv.conv2x.0.c.1.running_var f4 [16]
000000 dd 56 38 3c e4 1a 50 3d f4 d1 6c 3b 4b d1 09 3d
       0.011251179 0.050806895 0.0036135884 0.033646863
000010 cb 33 75 3c 69 0e 81 3d 92 36 b7 3c 13 54 38 3d
       0.014965962 0.06301577 0.022364888 0.045002054
000020 58 dc 09 3c 26 90 b2 3c e8 96 af 3c b2 5a b0 3b
       0.00841435 0.021797251 0.021434262 0.0053819055
000030 32 39 97 3b 01 f0 4f 3c 5a c6 24 3c 2f 9c 94 3d
       0.0046149725 0.012691499 0.010057056 0.07256352

inc.conv.conv2x.1.c.0.weight f4 [16, 16, 3, 3]
000000 85 51 7d bd 8f c3 1c bd 1e 3d 97 bd 4d 58 eb bb
       -0.06184532 -0.038272437 -0.07384704 -0.007182157
000010 52 79 04 bd bb 87 b1 bc ba 3b 7e bd ad cb 8d bd
       -0.032342263 -0.021671167 -0.06206868 -0.06923614
000020 b4 a0 8d bd c1 c5 08 be 92 27 e0 bd f8 82 95 bd
       -0.06915417 -0.13356687 -0.109450474 -0.07300371
000030 74 6f 4d bd cd 46 a8 bc e4 8b 5e bd 41 7f ae bd
       -0.050155118 -0.020541573 -0.05433263 -0.085203655
000040 0d 60 9a bb 0a d9 9d bd 64 98 b2 bd 5b e8 83 bc
       -0.004711157 -0.077074125 -0.087204725 -0.016102007
000050 bb c1 c5 bd 0e 73 32 bd 4a 29 e6 bd 87 c6 d4 bd
       -0.09656092 -0.043566756 -0.11238344 -0.103894286
000060 22 eb 7b bd 6d 50 ae bd 5e ca 3a bb 88 e4 68 bd
       -0.061503537 -0.08511434 -0.0028501968 -0.05685857
000070 34 0a 95 bd 24 67 9a bd ea 3a b5 bd d2 5f fb bb
       -0.07277337 -0.07539204 -0.088491276 -0.007671335
000080 75 4b cf bd d8 58 bd ba 7c 92 88 bd fa 33 0d be
       -0.10121814 -0.0014446033 -0.06668565 -0.13789359
000090 5d 66 61 bd 75 a4 11 bd 73 71 18 bd f8 f6 1f be
       -0.05502926 -0.03555723 -0.03721757 -0.15621555
0000a0 8a 5c 1f bd 45 53 1a be ee a7 82 bd e8 74 04 be
       -0.03890661 -0.15070827 -0.06379686 -0.12935221
0000b0 13 7b 43 be 1c 84 a6 bd d4 7f f3 bd 19 c7 0f bd
       -0.19089918 -0.081306666 -0.11889616 -0.035101984
0000c0 c6 90 ef bd c9 13 27 be 72 e1 7c bc b3 ca 10 bd
       -0.11697535 -0.16316141 -0.01543461 -0.03534956
0000d0 a3 ca cd bd ce 91 dd bd 3e 4a cc bd 5b 6d 9f bd
       -0.100484155 -0.10818826 -0.09975098 -0.0778453
0000e0 c2 92 52 bd d8 a3 32 be 6d aa 38 be 94 7c 27 be
       -0.05140949 -0.17445314 -0.18033762 -0.16356117
0000f0 af 45 7b bd 82 f0 10 be 38 21 39 be 9c 58 fb bd
       -0.061345752 -0.14154246 -0.18079078 -0.1227276
000100 5a fc b4 bd 54 fe 97 bc c8 53 be bd 09 a7 13 bd
       -0.08837195 -0.01855389 -0.09293324 -0.03604797
000110 c7 c5 db bd c2 23 da bd 3c 60 27 be 20 bf bd bc
       -0.107310824 -0.106513515 -0.16345304 -0.023162425
000120 26 d5 1d be 4a c4 30 bd 90 7e 14 bd 8d 1b 87 bd
       -0.15413341 -0.043155946 -0.036253512 -0.06597052
000130 84 9e 3f bb 1b e2 9a bb 4c 9e 8f bc a8 99 d1 bd
       -0.002923877 -0.004726661 -0.017531537 -0.10234386
000140 f5 fa 96 bc be 0a df bd 4a cc b3 bc 22 be c3 bc
       -0.018430213 -0.10890721 -0.021947999 -0.023894373
000150 fe be 80 bd 99 c6 04 be 71 94 bb bd 4d d8 96 bd
       -0.06286429 -0.12966384 -0.09159172 -0.07365475
000160 d1 41 42 bd 53 56 fa bb 52 ec de bd 95 5b e7 bd
       -0.04742605 -0.007639685 -0.10884918 -0.11296765
000170 fd 40 a8 bc 1d 53 8b bd 97 db 2f bc f6 43 12 bd
       -0.020538801 -0.06802962 -0.010733507 -0.035709344
000180 51 d4 4f bd 10 58 8d bd 2d e7 b4 bd bf 62 fd bc
       -0.05073959 -0.06901562 -0.08833156 -0.030930875
000190 96 cd 74 3c 02 94 5a bc 61 7e 96 bd fa a7 16 be
       0.014941594 -0.013340952 -0.073483236 -0.14712515
0001a0 81 5d 84 bd 88 ee 83 bd cc 11 19 be 94 05 b3 bd
       -0.06463147 -0.064419806 -0.14948195 -0.08741298
0001b0 c5 9a f5 bd 88 db 10 be f5 e4 2d bd 23 09 2e be
       -0.119924106 -0.14146245 -0.04245468 -0.16995673
0001c0 e9 45 30 bd 85 4c f1 bd 80 71 c3 bd 6d 1c 93 bd
       -0.04303542 -0.11782173 -0.09543133 -0.07183156
0001d0 05 a2 e7 bd ef 25 ff bc 9e c6 a8 bd 14 46 95 bd
       -0.113102 -0.031146018 -0.08241008 -0.07288757
0001e0 9a b9 03 bd 51 15 12 bd 22 ec cf bd cf 4e 9e bd
       -0.032159425 -0.03566486 -0.10152461 -0.07729875
0001f0 28 9f ae bd f2 09 13 be 15 e6 59 bc 4d c2 9e bc
       -0.085264504 -0.14359263 -0.013299485 -0.01937976
000200 02 05 42 bd 43 ef 5b bd 3d 33 1e be 32 03 d0 bd
       -0.047368057 -0.053694975 -0.15449233 -0.101568595
000210 4e 2f f3 bd 80 ef e2 bc 95 fd cf bd c2 56 f6 bd
       -0.11874257 -0.027702093 -0.10155789 -0.120282665
000220 f6 66 5b bd 93 c6 db bd 7d f3 78 bd bd fe 0f bd
       -0.053564988 -0.107312344 -0.060779084 -0.035155047
000230 28 59 13 be 9a 4d 9b bd b8 e3 36 be f8 12 0c be
       -0.14389479 -0.07583161 -0.17860305 -0.13679111
000240 bc 83 f7 3b 7e f8 48 3d 0f e7 ff 3d 1c 6d 11 3e
       0.0075535458 0.049065106 0.12495243 0.14201778
000250 e0 d2 db 3c d0 c3 2d 3e cd 67 79 3c 89 5e 23 3e
       0.026833951 0.16969228 0.015222502 0.15954031
000260 ab ca 0f 3e da db 8e bd bf 27 fa 3d 1d 5c 19 3e
       0.14042155 -0.06975527 0.12214612 0.14976545
000270 82 04 13 3e 0e 59 d5 3c a7 fb 42 3d 2f 6a 0a 3e
       0.14357188 0.026043441 0.047603276 0.13517068
000280 d9 ce fc 3d 33 c3 c4 3d 9c a4 d7 3d 1f 83 b5 3d
       0.123441406 0.09607544 0.105294436 0.088629
000290 3a 8e 1d 3e f2 0b 01 3d da 57 2b 3e 73 80 0b 3e
       0.15386286 0.031505533 0.16732731 0.13623218
0002a0 72 b0 19 3e d1 d6 ec 3c 81 c5 0d 3e 53 15 ac bd
       0.15008715 0.028911026 0.13844873 -0.08402505
0002b0 e6 10 2e bd 8e 57 61 3c ed df a2 bc 67 93 8a bb
       -0.042496584 0.013753785 -0.019882167 -0.0042289975
0002c0 a8 d4 9e bc 0a 8e a9 3c 1d 7c 64 bc f0 14 b0 bd
       -0.019388512 0.020697612 -0.013945607 -0.085977435
0002d0 3a b2 b4 3d 01 cf 9d 3d ff f9 d6 3d 3a d7 77 3d
       0.088230565 0.077054985 0.10496902 0.06050799
0002e0 d6 76 f7 3d 3a a0 1c 3e cf 18 15 3e 90 be 9d 3d
       0.12083213 0.15295497 0.14560245 0.077023625
0002f0 08 a0 11 3d ab d2 91 3b a4 42 32 bc bc 3d f6 bb
       0.03555301 0.0044501624 -0.010880146 -0.0075146835
000300 5d cc 00 3e 54 2a 04 3e 80 c0 12 3d aa 83 05 3e
       0.12577958 0.12906772 0.035828114 0.13038507
000310 c3 85 c6 3d 97 44 44 bc a8 a5 23 3e 32 b6 f4 3d
       0.09693482 -0.011979244 0.15981162 0.119488135
000320 7b 56 20 3e 6e 2c 1f 3e 21 2e a7 3d 11 5b 0e 3e
       0.1565799 0.15544292 0.08163095 0.13901927
000330 d1 39 c4 3d 30 2f 01 3e 03 b5 f1 3d 07 fd a9 3b
       0.0958134 0.12615657 0.11802103 0.005187634
000340 8e c3 03 3e 3a 93 12 bd 32 b6 4a bb 0e 97 fe 3d
       0.12867567 -0.035784937 -0.003093135 0.12431155
000350 c6 8e e2 3c e7 c3 0e 3e aa 50 73 bc cd 26 03 bd
       0.02765597 0.13941918 -0.014850775 -0.032019425
000360 0f d5 0f be 81 98 98 bd 2d 90 1f bd 42 a3 fe bd
       -0.14046119 -0.07450963 -0.038955856 -0.12433483
000370 e2 ef ff bd 5a 39 f5 bc 64 87 ef bd ab 57 a4 bc
       -0.12496926 -0.029934574 -0.116957456 -0.020061335
000380 76 af 67 bd 77 ec 6e bc ec 2b 87 3c bb 9f a2 3d
       -0.056563817 -0.014582745 0.016500436 0.079406224
000390 06 9d e2 3d b8 45 56 3d ca a6 20 3e 48 73 a6 3d
       0.11065106 0.052312583 0.15688625 0.08127457
0003a0 fb b8 27 3e 67 94 cb 3d 4c b3 47 3c 18 a7 c7 3d
       0.16379158 0.09940415 0.012188744 0.097486675
0003b0 56 72 3e 3e e8 b3 17 3e c5 ff 40 3e 83 4b 26 3e
       0.18598303 0.14814723 0.18847568 0.16239743
0003c0 7a 81 23 3d 01 a6 ae 3d 29 7d 1c 3e f9 59 e2 3c
       0.0399184 0.085277565 0.1528212 0.027630793
0003d0 82 33 49 3d ff a5 95 3c cd 0f 0d 3b 79 8f 14 3e
       0.049121387 0.01826763 0.002152431 0.14507855
0003e0 41 f8 2f 3e 17 e7 00 3d 38 71 ec 3c 48 38 84 3d
       0.17184545 0.031470384 0.02886258 0.06456047
0003f0 ff 61 b3 3d b4 9f a8 3d ad 12 6f bc 2d 7b ea bc
       0.08758926 0.08233586 -0.014591855 -0.028623188

inc.conv.conv2x.1.c.0.bias f4 [16]
000000 80 60 0e 3e 45 0a c7 bd 53 77 95 3c da b2 5b bd
       0.13904 -0.09718756 0.018245375 -0.053637363
000010 df 94 50 bd bd 97 4e 3c 8e 95 46 3c 57 5c 92 bc
       -0.050923225 0.012609419 0.012120618 -0.017866297
000020 11 5d c2 3d 6c d3 7f bb 7a 7b 85 bd f4 14 25 3e
       0.09490407 -0.003903593 -0.06517692 0.16121274
000030 e7 f6 12 be 4d 59 2e 3d e8 ba 8f 3d 30 47 18 be
       -0.14351998 0.042565633 0.070180714 -0.14870906

inc.conv.conv2x.1.c.1.weight f4 [16]
000000 5f 82 6a 3f 5c d8 89 3f 9b 13 5d 3f ee a3 8b 3f
       0.9160518 1.0769153 0.8635804 1.0909402
000010 75 d3 8d 3f eb e0 69 3f c8 bf 52 3f 9a c0 73 3f
       1.1080157 0.9135882 0.82323885 0.9521576
000020 89 f0 8c 3f 91 2b 86 3f 00 22 99 3f 66 cb 6a 3f
       1.1010906 1.0482045 1.1963501 0.9171661
000030 2e 9c 65 3f a5 f0 8e 3f 37 c7 66 3f fb a2 7b 3f
       0.89691436 1.1167189 0.9014773 0.98295563

inc.conv.conv2x.1.c.1.bias f4 [16]
000000 5f df e1 bd da 79 a8 3d de b1 07 be 56 b9 40 3d
       -0.11028933 0.08226366 -0.13251445 0.04705175
000010 d7 b4 d1 3d 29 c0 de bd bc 65 d8 ba df 6c fe bc
       0.102395706 -0.108764954 -0.0016509811 -0.031057773
000020 55 50 d4 3d 66 c5 6a 3d 9e e0 dc 3d 87 b4 ab bd
       0.103668846 0.05731716 0.1078503 -0.08384042
000030 34 45 d0 bd d9 36 88 bd ae 1f cf bd 6f de 86 3d
       -0.101694494 -0.06651086 -0.10113464 0.065853946

inc.conv.conv2x.1.c.1.running_mean f4 [16]
000000 87 1d 79 c0 04 b5 42 40 ec 40 62 c0 c0 21 12 40
       -3.8924272 3.0422983 -3.5352125 2.28331
000010 e6 b5 39 40 0e 78 1f c0 7a 79 db bf 23 ed e2 be
       2.9017272 -2.4917026 -1.7146447 -0.44321546
000020 3c 1d e0 bf 82 58 a5 3f 4e 9a 33 c0 64 3a ab be
       -1.7508922 1.2917635 -2.806293 -0.33442986
000030 d8 b3 91 c0 0b 84 dc be b2 22 ab be a6 fd ef bf
       -4.5532036 -0.4306949 -0.33424908 -1.8749282

inc.conv.conv2x.1.c.1.running_var f4 [16]
000000 b0 0f 12 41 6a e3 85 40 38 a9 d6 40 23 0c 6d 40
       9.12883 4.1840105 6.7081566 3.7038658
000010 be 63 a4 40 2a d2 75 40 60 7b 98 41 48 ce 8a 40
       5.1371756 3.8409524 19.060242 4.337681
000020 80 75 c1 40 0f 6f 34 41 05 3f 50 40 c8 52 b3 41
       6.0455933 11.277114 3.2538464 22.41542
000030 72 df 14 41 8a 2d cc 41 5c 50 2f 41 52 e8 95 40
       9.304552 25.522236 10.957119 4.6846094

down1.go_down.1.conv2x.0.c.0.weight f4 [32, 16, 3, 3]
000000 36 0d 18 be 0e ff 69 bd f9 97 bf bc 56 67 cc bd
       -0.1484879 -0.057128005 -0.023387896 -0.09980647
000010 95 b6 56 bc 26 57 0d be fc 6e b3 bd 5a c3 94 bd
       -0.013105054 -0.13802776 -0.08761403 -0.07263823
000020 ed ae 25 be 43 2f 6f bd a9 19 d7 bd 7d 66 14 bd
       -0.1618001 -0.05839468 -0.10502941 -0.036230553
000030 0c 34 0b be 28 dd 24 be fa 25 20 be ec 08 d8 bd
       -0.13594073 -0.1609999 -0.15639487 -0.10548577
000040 3f 24 86 bc df 6f f7 bd 70 d7 23 bd bb a8 47 bd
       -0.016374705 -0.120818846 -0.04000038 -0.0487449
000050 24 b0 69 bd 3d 4b 81 bd e8 b7 06 be 0e 40 82 bd
       -0.057052746 -0.06313179 -0.13156092 -0.06359874
000060 f8 8f 0d be ef 0f e1 bd 80 43 09 be 2c 30 c9 bd
       -0.13824451 -0.10989367 -0.13404655 -0.09823641
000070 26 18 8d bc 6a df e1 bd c3 50 78 bc f1 59 bd 39
       -0.017223429 -0.11028941 -0.015155974 0.000361159
000080 39 8e b6 bd fe ee 4d bd 81 01 ee bd 0c 43 ef bd
       -0.089138456 -0.05027675 -0.116213806 -0.1168271
000090 06 0e 0e be 19 10 fb bd 2f 89 90 bd 6f 17 a0 bc
       -0.13872537 -0.1225893 -0.07057416 -0.019542424
0000a0 25 55 e5 bd b6 3c 05 be 8d 04 04 bd 3e 28 14 be
       -0.11197881 -0.1301144 -0.032230902 -0.14468476
0000b0 31 cb 00 be da 2b 4a bd 3a 76 f6 bd 04 06 69 bd
       -0.12577511 -0.049358226 -0.12034269 -0.056890503
0000c0 2a f2 29 bd 05 96 05 be 87 cc bc bd 98 43 ea bb
       -0.04149071 -0.13045509 -0.09218698 -0.007149171
0000d0 92 3a ef bd e0 98 8f bd 85 14 b1 bc b8 6b 70 bd
       -0.11681093 -0.070115805 -0.02161623 -0.05869648
0000e0 d4 5b 6e bd d4 c0 ea bc c4 99 e7 bd 4d 23 1e be
       -0.058193043 -0.0286564 -0.11308625 -0.15443154
0000f0 c1 37 fe bc f7 f8 14 bd 7f 84 c1 bd 35 7a ab bd
       -0.031032445 -0.036370244 -0.094491 -0.083729185
000100 71 2c 26 be 39 24 93 bd e6 55 e4 bc 68 af d1 bc
       -0.1622789 -0.07184643 -0.02787299 -0.025596336
000110 ca a2 13 bd 9f 52 21 be de 92 30 bd dd b2 b1 bd
       -0.03604392 -0.15754174 -0.043108813 -0.086766936
000120 b0 cc f8 3d b7 23 c6 3d e0 1e bd 3d 92 94 c8 3d
       0.12148416 0.09674781 0.092344046 0.097939625
000130 fc f3 e9 3c d4 27 18 3e 4c 87 7c 3d ea 32 ed 3d
       0.028558724 0.14858943 0.061652467 0.11581977
000140 74 02 1f 3e c2 6b 64 bd c3 be f6 bd d7 d4 11 be
       0.1552828 -0.05576683 -0.12048104 -0.14241348
000150 02 a4 51 bd 07 cc 9a bd dd 27 27 be 22 4d f0 bd
       -0.0511818 -0.075584464 -0.163238 -0.11733462
000160 57 92 d4 bc e1 84 a5 bd 96 0c df 3d 07 c1 df 3d
       -0.025948687 -0.08081985 0.108910725 0.10925489
000170 17 df bc 3d 71 81 15 3e de fd 16 3d 6c f1 1c 3d
       0.092222385 0.14600159 0.0368632 0.038316175
000180 1a 22 83 3c 0e 6b 21 3e 33 0d 5c 3d 11 fc 10 3e
       0.016007472 0.15763494 0.053723525 0.14158656
000190 00 9e f3 3d cf c1 38 3d 3b 05 43 3c fe 6b 99 3c
       0.118953705 0.045106705 0.0119031025 0.018728253
0001a0 e5 b8 7a 3c 05 27 70 3d 97 68 cc 3d 8a b7 96 3c
       0.015302871 0.058630962 0.099808864 0.018398065
0001b0 bf 56 27 bd a8 a9 a4 bd 24 40 ec bd 6d 75 89 bd
       -0.040854212 -0.08040172 -0.11535671 -0.0671185
0001c0 86 f8 30 be 81 40 b6 bb 09 7b 0b be 51 4a 11 bd
       -0.17282304 -0.0055618887 -0.13621153 -0.035471264
0001d0 33 69 10 bd 3f e1 d4 3d 19 7c 32 3e e3 26 36 3e
       -0.035256576 0.10394525 0.17430152 0.17788272
0001e0 cc 79 42 3e bc e7 1e 3d ac e3 0a 3e 07 4d 43 3e
       0.18991774 0.038795218 0.13563412 0.19072352
0001f0 ff bc 1d 3e ac 62 1e 3e da 78 ae 3c d0 26 75 3d
       0.15404128 0.15467328 0.02129786 0.059851468
000200 3a b4 9d 3d 7a 53 16 3e a7 6b c4 3d 3b ce be 3d
       0.07700391 0.14680281 0.095908456 0.09316679
000210 d2 65 e4 3a 7e 8e 24 3e 86 7d dc 3d cf ad 02 3e
       0.0017425364 0.16069981 0.10766129 0.12761615
000220 92 5c 6f 3d c0 8a d8 3c 2c bf 14 3e 2d f3 d1 bd
       0.05843789 0.026433349 0.14526051 -0.1025146
000230 e3 8d 2b be 19 a0 9d bd 66 32 c5 bc 1d 4f 05 bd
       -0.16753344 -0.07696552 -0.024071883 -0.03254615
000240 2d 8a ef 3d ec 96 84 bb 33 49 94 3d 9c a4 d4 3d
       0.11696277 -0.0040463116 0.07240524 0.10382959
000250 e6 ab 16 3e 04 5b 12 3e 27 b1 26 3e ac c4 3d 3e
       0.14714012 0.14292532 0.16278516 0.18532056
000260 cd 42 d6 3d 74 88 44 bd 82 70 77 bc 12 8f 72 bc
       0.1046196 -0.047981694 -0.015102508 -0.014804618
000270 ee 5b 99 bd cd 26 f5 3b e2 bd 90 bd 12 04 02 bd
       -0.07488237 0.007481432 -0.07067467 -0.031742163
000280 ef a5 03 3c c9 3a 1e 3d 82 8a 0c 3e 88 2e 2b 3e
       0.008035167 0.03863028 0.13724712 0.16716969
000290 6e d3 c0 3d 9b d1 ab 3d 87 57 ba 3d e0 1b de 3d
       0.09415327 0.083895884 0.09098726 0.108451605
0002a0 b1 56 6c 3d 0b d9 b4 3d 3b f2 d4 3d 80 3f 15 3d
       0.057699863 0.0883046 0.10397764 0.03643751
0002b0 15 af ec bd e0 77 f9 bc 0d df 5b 3d a5 99 d4 bc
       -0.11556832 -0.030452669 0.053679515 -0.02595217
0002c0 18 54 f9 3c a1 52 55 3d cc ca fa bd 1e 67 d4 bd
       0.030435607 0.052080754 -0.12245712 -0.103712305
0002d0 6c e4 b7 bd 46 2d 92 bd c8 ce a7 bd 66 0c e1 3c
       -0.08979115 -0.071375415 -0.08193737 0.027471732
0002e0 58 d8 87 bd 0c 14 37 bd 98 22 a7 3c 73 c1 6b 3d
       -0.06633061 -0.044696853 0.020402238 0.057557534
0002f0 d4 7e e6 3c 95 46 29 3d 89 83 bc 3d 8c 4c cf 3d
       0.028136648 0.041327078 0.09204776 0.10122022
000300 1b e3 14 3d cc 6d c1 39 4a 14 44 3d 42 db 23 3e
       0.036349397 0.00036893634 0.04787091 0.16001609
000310 2a 82 f8 3d cc 17 ff 3d ee 33 91 3d 2c d5 d8 3c
       0.12134202 0.12455711 0.07089983 0.026468836
000320 1a 65 1c 3e d1 ba 9e 3b 7c ce 1b 3d 90 68 bc 3c
       0.15272942 0.0048440476 0.038038716 0.022999078
000330 38 be 12 3e 38 01 0c 3e f2 0f 28 bc 43 51 36 3c
       0.14330375 0.1367234 -0.010257708 0.011127773
000340 1e 82 8d 3d 4a ce 9b 3d 7a dc 71 bc 78 b0 84 bc
       0.069095835 0.07607706 -0.014762038 -0.016197428
000350 a2 7c c1 3d 2e 56 a9 3d 5f cd 1a bd 4a b7 cf 3d
       0.094476 0.082683906 -0.037793513 0.101423815
000360 26 cd 3e bd 5f ea 9c bd 6d a3 0d 38 2e 85 80 bd
       -0.046582364 -0.0766189 3.376922e-05 -0.06275402
000370 fa f7 e3 bd ff a4 fd bb 90 ec f4 bb 34 19 df bc
       -0.11131282 -0.0077406163 -0.0074744895 -0.027233697
000380 ec e8 e5 bd 45 d9 ac bd 15 4a 95 bd 0e f2 08 3d
       -0.11226067 -0.084398784 -0.07289521 0.033433966
000390 48 a9 47 3c af 3f 45 bd dd 39 6b bd 03 f7 cb bc
       0.012186356 -0.048156437 -0.05742823 -0.024898058
0003a0 83 99 8d bc a4 89 66 3d f8 76 2b bd 7b f0 73 bd
       -0.017285114 0.056283608 -0.041861504 -0.059555512
0003b0 2f 94 08 be 4b d0 a2 bd a8 40 8f bd 1c ca cd bd
       -0.13337778 -0.07949885 -0.06994754 -0.10048315
0003c0 b8 fc a5 bd 34 7d e3 bc 15 88 03 be 72 9c 0a bd
       -0.08104843 -0.027769662 -0.1284488 -0.033840604
0003d0 de ba 2f bd 91 67 ce bc f3 74 9d bd e6 4b af bd
       -0.04290282 -0.025195869 -0.07688322 -0.08559398
0003e0 9d 1c 26 be 35 75 06 be 56 be ae bd 82 4c 16 be
       -0.16221853 -0.13130648 -0.085323974 -0.14677623
0003f0 3d b4 1a 3e 30 e1 98 3d 5f e7 88 3d 8e 4f 2f 3e
       0.15107818 0.07464826 0.066847555 0.17120191

down1.go_down.1.conv2x.0.c.0.bias f4 [32]
000000 1e 80 b7 bd 64 9b 66 bd 14 67 58 bd 22 28 00 3e
       -0.08959983 -0.056300536 -0.052832678 0.1251531
000010 61 f7 b8 bd 7e e8 09 3d 7d 39 65 bc ed 68 b9 bd
       -0.09031559 0.033668987 -0.013990757 -0.09053216
000020 92 c0 7e bd f9 9c 63 3c a8 4a 1e 3d f0 0b f5 3c
       -0.062195368 0.013892406 0.038645416 0.029912919
000030 d6 d0 97 bd fc aa 3d 3d 28 8b 81 3d 4e a0 d4 bd
       -0.07412879 0.04630564 0.0632537 -0.10382138
000040 00 eb 73 bd 22 ff bd 3d 3b 8e b0 3c 32 25 6f 3c
       -0.059550285 0.09277178 0.021552196 0.01459627
000050 84 e6 0c bd f0 94 99 bd 37 34 85 3d fd 09 23 bd
       -0.034399524 -0.07499111 0.065041 -0.039804447
000060 44 17 9f 3c 46 2b 4d 3c bd 02 7b 3d a5 56 6c bd
       0.019420274 0.012522524 0.06128191 -0.05769982
000070 76 08 06 bd 51 91 17 3d ab f5 74 3d 19 01 dc 3d
       -0.032722913 0.03700382 0.0598046 0.10742397

down1.go_down.1.conv2x.0.c.1.weight f4 [32]
000000 9f 02 8e 3f f5 ca 8c 3f 86 54 68 3f be 75 68 3f
       1.109455 1.0999438 0.9075397 0.9080466
000010 eb 8b 66 3f c7 db 91 3f 40 dc 7b 3f 7e 5c 74 3f
       0.9005725 1.1395196 0.9838295 0.9545363
000020 1f fd 65 3f e2 01 5e 3f a2 6a 6c 3f 2f 30 88 3f
       0.8983936 0.8672162 0.9235021 1.0639704
000030 22 6f 6a 3f 8f 31 4c 3f c8 2d 7a 3f c8 01 82 3f
       0.91575825 0.7976312 0.97726107 1.0156794
000040 8c 0c 66 3f dd 62 6a 3f a2 a2 8c 3f 0d b4 6b 3f
       0.89862895 0.91557103 1.0987132 0.9207161
000050 d1 05 7c 3f 32 af 6d 3f 2e f6 7e 3f 6e a1 8b 3f
       0.98446375 0.9284545 0.9959439 1.090864
000060 29 8c 8f 3f ef 79 70 3f 69 d7 8a 3f f4 86 65 3f
       1.1214648 0.93936056 1.0846988 0.8965905
000070 1d 85 90 3f b0 fb 8a 3f fa bc 91 3f c5 d5 8a 3f
       1.1290623 1.0858059 1.1385796 1.0846487

down1.go_down.1.conv2x.0.c.1.bias f4 [32]
000000 d0 df 87 3d 8c 0d c4 3d e3 93 cc bd 5e f2 c4 bd
       0.06634486 0.09572896 -0.09989145 -0.0961654
000010 3c 71 f4 bd 4a b2 cb 3d 61 65 1f 3b ee 8c 56 3d
       -0.1193566 0.09946115 0.00243219 0.052380495
000020 fb df bf bd 2d de 20 be 12 8b 7a bd 26 e6 9d 3d
       -0.09368893 -0.15709753 -0.061167784 0.07709913
000030 59 21 a7 bd cd b3 e9 bd df f8 85 bd b7 57 34 3d
       -0.081606574 -0.114112474 -0.06541609 0.044028964
000040 d2 cd 95 3d 5d 54 a3 bd 48 9f 07 be 77 d3 1e bd
       0.07314648 -0.079750754 -0.13244355 -0.038775887
000050 83 39 31 bd a0 81 6f bd e7 29 76 3d ed 11 a6 3d
       -0.043267738 -0.05847323 0.060098555 0.08108888
000060 15 2f 59 3d 18 3c 80 bd a6 e4 c7 bc 44 6d e1 bd
       0.053023417 -0.06261462 -0.02440102 -0.11007169
000070 1d ef a5 3d fb 6f c3 3d 92 b5 be bd 43 38 1f bd
       0.08102248 0.09542843 -0.093119755 -0.038872015

down1.go_down.1.conv2x.0.c.1.running_mean f4 [32]
000000 34 c3 93 bf 34 23 66 3e 70 69 41 bf 2e 2b 13 3f
       -1.1543946 0.22474366 -0.7555151 0.5748776
000010 bd 04 8e 3f da e5 04 c0 74 c6 02 3f 8c a0 b8 3f
       1.1095196 -2.076529 0.51084065 1.4423995
000020 2d 66 6a c0 b0 b1 38 40 2a 36 e7 3e fc ad 19 c0
       -3.6624863 2.8858452 0.4515851 -2.4012442
000030 f2 00 b3 3f bc 15 b2 3f 18 ab 65 bf 36 57 a0 3f
       1.3984663 1.3912883 -0.89714193 1.2526615
000040 93 7b 10 bf 64 42 18 bf d2 61 d0 bf 66 04 60 c0
       -0.5643856 -0.59476304 -1.6279852 -3.5002685
000050 ce 96 2d 3f 31 21 38 3f 64 fe d8 3f 8f 42 24 40
       0.67808235 0.71925646 1.6952634 2.5665624
000060 3c cd 8d 3f 68 62 68 bf bc cf 86 bf 52 11 15 3e
       1.1078258 -0.90775156 -1.0532146 0.14557388
000070 84 24 40 bf 68 10 86 be 78 30 a4 bf ec f7 70 40
       -0.7505572 -0.26184392 -1.2827291 3.765132

down1.go_down.1.conv2x.0.c.1.running_var f4 [32]
000000 1e 36 49 40 fc ec 6a 40 ca 92 40 40 37 69 0e 40
       3.143928 3.6707144 3.0089593 2.2251718
000010 36 ba b4 3f 28 49 87 3e 6a 84 71 40 94 cd 10 40
       1.4119327 0.26423 3.773707 2.2625475
000020 2a 26 74 40 f0 fe 1e 41 6c fb aa 3e 12 73 33 40
       3.8148293 9.937241 0.33394945 2.8038983
000030 0e 56 8f 40 6d 6d bc 40 36 ca 10 40 b2 ff 60 3f
       4.4792547 5.8883576 2.262342 0.8789016
000040 47 4f 5e 40 16 83 f5 3e 4b d5 32 40 fc a4 d2 3f
       3.4735887 0.47951573 2.7942684 1.6456599
000050 3b cd ba 3f 74 ba 9c 40 e8 62 fb 3f be 5b 95 3f
       1.4593881 4.8977604 1.9639559 1.1668622
000060 b5 dd a9 3f 1a 0f 5a 40 ae ef 23 40 6c ee 20 3f
       1.3270785 3.4071717 2.561504 0.628638
000070 2a c8 83 40 34 7a fc 3f ae ed 26 40 8e 51 53 40
       4.118184 1.9724793 2.6082568 3.3018527

down1.go_down.1.conv2x.1.c.0.weight f4 [32, 32, 3, 3]
000000 aa d4 be 3d 8a 21 0b 3e 7b 4c 89 3c 0a 3d 90 3d
       0.09317906 0.13587013 0.016760102 0.07042892
000010 a7 91 66 3d 5d 67 8b bc 4c 71 02 3e 00 e6 fb 3d
       0.05629125 -0.01701706 0.12738532 0.122997284
000020 6d 81 bc 3b 72 8a 98 bc 9d 66 a7 bd 61 f2 89 bc
       0.0057527334 -0.018620703 -0.08173869 -0.016839208
000030 da ea 63 bd 08 b7 b4 bb ea 3c 1e be b3 55 76 bd
       -0.055643894 -0.005514983 -0.15452924 -0.060140323
000040 53 45 b0 bb d6 ba 32 bd 4d 8d 1f bd 3f 02 a8 3d
       -0.005379358 -0.043635212 -0.038953114 0.082035534
000050 89 66 8c 3d 95 a8 80 3a 2c d4 99 bc c0 c5 81 bc
       0.068554945 0.0009815866 -0.01877793 -0.015841365
000060 3b ee 5c bb 20 d4 59 3c 88 cf 59 bd 5b 62 da bc
       -0.0033711332 0.013295203 -0.053176433 -0.026658228
000070 8a 6b 61 3b 25 f7 f9 bb e7 49 35 bd 4a f6 c1 bb
       0.0034396374 -0.007628339 -0.044259932 -0.0059192525
000080 06 40 8b bd 00 e8 ad bd e8 b8 95 bd ff d9 fc 3c
       -0.06799321 -0.08491516 -0.07310659 0.030865667
000090 96 f4 3c 3d 6f 1a d9 bc 20 f6 5a 3d 79 c0 a6 bc
       0.046131693 -0.026501862 0.05345738 -0.02035545
0000a0 a6 c2 63 3c 93 a9 ab 3d 14 99 7c 3c 00 f8 ec 3c
       0.013901388 0.08381953 0.015417356 0.02892685
0000b0 97 e5 48 3d 4b 7d 80 bd 42 59 50 bd 55 b1 2e bd
       0.04904708 -0.06273898 -0.050866373 -0.042649586
0000c0 83 ad 55 bc 34 2d 8c bd ff a5 cd bb 9c 2a 19 bc
       -0.013041857 -0.06844559 -0.006275892 -0.009348538
0000d0 7b 2d da bd f9 67 bf bd 10 c7 27 bc 74 a7 aa 3d
       -0.10653206 -0.09346003 -0.010240331 0.083327204
0000e0 97 35 3a 3d 72 18 5a ba 16 d7 6d 3d e1 0f c6 bc
       0.045461264 -0.00083196827 0.05806645 -0.024177494
0000f0 e2 98 d0 3c cf a9 c0 3c 9e c7 0d bb d7 67 98 bd
       0.025463525 0.023518471 -0.0021633874 -0.07441681
000100 7c 0d 01 be a3 5e 74 bd 97 f0 3f bd 95 1b df bd
       -0.126028 -0.059660565 -0.046860304 -0.10893933
000110 f0 74 6c 3c 99 d5 56 bd f0 07 2c bd ab 38 aa bc
       0.014432177 -0.052449796 -0.041999757 -0.020778975
000120 5f 96 74 bd 40 7b 6c bd cd 4c 2e bd cb 47 71 3c
       -0.059713718 -0.057734728 -0.04255371 0.014726589
000130 e4 e9 02 bd 20 7d a3 bc 7c e3 fc bc 13 97 d4 bc
       -0.031961337 -0.019957125 -0.030870192 -0.025950944
000140 48 1f d2 3c 4c 9e 81 3d 10 39 bc 3d f8 53 99 3d
       0.025649682 0.06329021 0.09190571 0.07486719
000150 db 9a 7a 3d e5 6a 1d 3d 67 76 57 3d 7f d2 4e 3d
       0.061182838 0.03843202 0.05260315 0.050493713
000160 93 09 d2 3d 7e 8b 28 3d d1 dd 01 3d 85 b5 88 3d
       0.102557324 0.041148655 0.03170568 0.06675247
000170 7a 02 a8 bc b3 b5 94 3d 6a 33 9d 3d 80 f7 87 3d
       -0.020508993 0.07261219 0.07675822 0.06639004
000180 7c 8e b8 3b 3e 61 db bc 58 6f e0 bb de 42 ee 3c
       0.00563222 -0.026779767 -0.0068492107 0.02908462
000190 52 e6 8f bd 40 98 86 bd 82 fe 82 3c 92 10 72 bd
       -0.07026352 -0.06572008 0.0159905 -0.059097834
0001a0 0c b9 00 3d f5 af 22 bb 06 91 3c bd 86 93 04 bd
       0.031426474 -0.0024824117 -0.046036743 -0.03236725
0001b0 24 70 e5 3b e7 ba d9 bb 05 52 1d bd 05 d0 ef ba
       0.0070018936 -0.006644595 -0.038408298 -0.0018296248
0001c0 7c e1 13 3d 24 ea 0b bd 69 c9 1b bc 4b 63 a1 bc
       0.03610371 -0.03415884 -0.009508469 -0.019700667
0001d0 c6 22 99 bd 63 5a 84 bc 4f 74 3c bd 8e 45 2e 3c
       -0.07477336 -0.016156381 -0.046009358 0.0106367
0001e0 53 76 54 bd 54 ae 2a 3c f0 c9 83 3c 68 a3 07 3c
       -0.051870655 0.01041754 0.016087502 0.008278705
0001f0 a2 3c 69 bc 75 74 23 3d fe 27 17 3d b6 a7 ce 3d
       -0.014235647 0.039905984 0.036903374 0.10090582
000200 8f 0f 8c 3c 11 c0 a3 bb 23 f9 b6 3d ed 81 f8 bc
       0.017097263 -0.0049972613 0.08934238 -0.030335391
000210 96 e7 a0 3d f8 f9 8e bc 90 cc 98 3d 92 2b b7 bd
       0.078566715 -0.017453179 0.07460892 -0.08943857
000220 ec c4 5c bd e8 f9 17 3d 48 7a 6d bd 90 dd 30 bd
       -0.053898737 0.037103564 -0.057977945 -0.04318005
000230 4b c9 32 bd d4 b7 39 bc 1a b0 e1 39 9b d0 1f 3a
       -0.043649 -0.011335332 0.0004304655 0.0006096453
000240 a2 ed 14 3d e3 69 8e 3d 5f 08 f4 3d 3e f7 c0 3d
       0.036359437 0.0695379 0.11915659 0.09422158
000250 a5 fc c3 3d 96 57 93 3d 82 f2 48 3d a6 37 8a 3d
       0.095696725 0.0719444 0.0490594 0.06748895
000260 5a 83 19 3d 49 d2 97 bc 66 b3 a0 bc 4e 68 65 3d
       0.037478782 -0.018532889 -0.019616794 0.056007676
000270 3a 65 5e 3d 8a 3b 7d bc 7e ad 21 bd 31 b6 7b 3d
       0.054295756 -0.01545609 -0.039472096 0.06145305
000280 b6 40 a4 3c 9a 4a 98 3d 44 6e 7e 3c 4a 79 3b 3d
       0.020050388 0.07436104 0.015529219 0.045769967
000290 c4 67 8f 3b c4 b3 28 3d 28 ba 21 3d 70 37 d5 3c
       0.0043763835 0.041187063 0.039484173 0.026027411
0002a0 72 4d 94 3c 87 1f 4a 3d 24 21 9b 3d cd b6 0e 3c
       0.018103335 0.049346473 0.075746804 0.008710575
0002b0 e6 1e 86 3c e6 0a 0c 3a b0 71 94 bd 83 8b 17 bd
       0.016372155 0.00053422 -0.07248247 -0.036998283
0002c0 64 4b bf 3c 55 0f ac bd d0 47 fc bc 69 66 67 bc
       0.023351379 -0.08401362 -0.030795962 -0.014123538
0002d0 d3 c6 9f bc f3 6a ce 3b 06 73 ee 3c 93 c2 82 bc
       -0.019503986 0.0062993704 0.029107582 -0.01596192
0002e0 c3 36 4b bd de d0 e5 3c 29 a3 39 3d d0 24 95 bc
       -0.04961277 0.028053697 0.045321617 -0.01820603
0002f0 b9 d9 31 bd a2 76 18 bd d4 da de bd ca 53 15 be
       -0.043420527 -0.037222512 -0.10881582 -0.14582744
000300 bf 3c 0f be 70 db 64 bd 1e b8 15 bc 4a 72 95 bd
       -0.13988017 -0.055873334 -0.009138135 -0.072971895
000310 aa 80 e4 bd 0d 5e 4a bd bd 20 86 3d c5 4e 57 3c
       -0.11157353 -0.0494061 0.06549213 0.013141339
000320 c7 27 0c 3d 5b f8 81 3d 53 b1 85 bc 4d 2f fa 3c
       0.034217622 0.06346198 -0.016319906 0.030540133
000330 5a 2b db 3d 03 4b 14 bd 07 3e 73 bb 4f 57 7d 3d
       0.10701628 -0.03620435 -0.0037115829 0.061850842
000340 ab 74 9c 3d 1f 90 a5 3d 33 29 0e bd 29 cb ad 3b
       0.0763944 0.080841295 -0.03470726 0.0053037596
000350 e7 23 74 3d b3 08 a8 bc e1 d5 bd 3d f2 9d ab 3d
       0.05960455 -0.02051196 0.0926931 0.08379735
000360 83 42 86 3d f9 ea c2 ba c2 72 0f bc 59 17 79 3d
       0.06555655 -0.0014871053 -0.008755388 0.06081328
000370 07 10 3d 3d 01 48 18 bd 3b 19 1b 3d 22 c1 c3 bc
       0.046157863 -0.037178043 0.03786586 -0.023895804
000380 2c e5 2c bb 2c 04 1e bd 42 01 0e bd 7e 29 06 be
       -0.0026381714 -0.038578197 -0.03466917 -0.13101766
000390 20 98 58 bd da 87 de bd b3 b8 e8 bd 7e 43 61 bd
       -0.052879453 -0.108657554 -0.113633536 -0.054996006
0003a0 0f f6 ea bd 24 bc 4a bd 7e ec a2 3d 2b da d5 3d
       -0.11472713 -0.04949583 0.079552636 0.10442003
0003b0 e5 cc 13 bc 69 4b 56 3c b6 e7 2f 3d 86 0d 9c 3c
       -0.009021019 0.013079503 0.042945586 0.019049417
0003c0 a5 50 9a 3d 42 b0 5a 3c 2d e6 a4 bb 9f 2e 79 bc
       0.07534913 0.013347687 -0.005032322 -0.015208869
0003d0 5c 7e 8a bd 46 d2 a5 bc b3 cf a6 bd 9f 5c 8a bd
       -0.067623824 -0.020241868 -0.08145084 -0.06755947
0003e0 6b 75 81 bd ae c8 a4 bd c5 79 9a bd ac e1 30 bd
       -0.06321224 -0.08046089 -0.07542757 -0.043183967
0003f0 db d4 87 3b 46 a2 4b 3d d9 1d 2a bd 89 a4 47 3b
       0.0041452474 0.049715303 -0.04153237 0.003046306

down1.go_down.1.conv2x.1.c.0.bias f4 [32]
000000 22 23 be bc 36 0a 46 bd 52 37 1c bb 3f ce 09 3d
       -0.023210112 -0.04834958 -0.0023836684 0.033643957
000010 8c 05 3f bd 69 89 95 bc 5c 0c 82 3d ff b1 40 bb
       -0.04663615 -0.018253999 0.063500136 -0.002940297
000020 5a d4 76 bc a3 b6 cb 3c 15 4a 89 3c de c3 1a bd
       -0.015065277 0.024867361 0.016758958 -0.03778445
000030 ac db 39 bd 2d 73 20 3c ae d3 1a bd 2f 2a fd 3a
       -0.04537551 0.009793085 -0.03779953 0.001931494
000040 6a 81 5b 3d 1a c4 c1 bb 01 fd 92 3d 03 cc b4 bc
       0.053590216 -0.0059132697 0.07177163 -0.022069937
000050 20 d0 9b bd 80 78 1f 3d 58 9f 04 3c 32 1d d0 3c
       -0.07608056 0.038933277 0.008094631 0.025404546
000060 5c b1 98 bd ee 24 bf 3c 24 1b 98 bc cd d0 7b 3c
       -0.074557036 0.02333304 -0.01856763 0.015369606
000070 93 a9 af 3c 89 b4 40 bd cf ab 16 bd ee de 97 bd
       0.021443164 -0.04704717 -0.036784943 -0.07415567

down1.go_down.1.conv2x.1.c.1.weight f4 [32]
000000 81 46 6b 3f 8e ce 7c 3f 58 cc 4f 3f d1 0c 64 3f
       0.91904455 0.9875268 0.8117118 0.89082056
000010 72 be 82 3f b0 d1 6c 3f d8 71 8a 3f 1b 66 91 3f
       1.0214369 0.9250746 1.0815992 1.1359285
000020 5b a6 78 3f 87 62 60 3f 41 fa 5c 3f 23 da 7e 3f
       0.9712884 0.8765034 0.8631936 0.995516
000030 de c1 7c 3f bb 62 69 3f f3 70 69 3f 41 63 88 3f
       0.9873332 0.91166276 0.9118797 1.065529
000040 dc 9a 7f 3f e1 b0 87 3f ac c7 6c 3f 4c 27 74 3f
       0.9984567 1.0600854 0.92492175 0.9537246
000050 9e 6f 81 3f e0 b9 5c 3f 7f 44 8b 3f 0b d6 5d 3f
       1.0112188 0.8622112 1.0880278 0.8665473
000060 b2 bb 86 3f cf 00 7d 3f 82 c1 8b 3f 26 bd 6a 3f
       1.052603 0.9882936 1.0918429 0.9169487
000070 0e 7b 60 3f db d1 74 3f 2e 27 8b 3f 02 bd 8d 3f
       0.87687767 0.95632714 1.0871332 1.1073306

down1.go_down.1.conv2x.1.c.1.bias f4 [32]
000000 a7 04 f0 bd f9 27 85 bd da 3a 46 be df b8 a6 bd
       -0.11719637 -0.06501765 -0.19358388 -0.0814073
000010 bc a4 da bd 5e 61 c9 bd 0c 46 88 3d c8 83 ef 3d
       -0.10675952 -0.098330244 0.066539854 0.11695057
000020 7b 24 e5 bc e2 6b ad bd 83 c6 ea bd a5 75 79 bd
       -0.027971497 -0.08467843 -0.11463644 -0.06090321
000030 52 67 81 3c ab 28 54 bd c3 1a 87 3d 2d 26 02 be
       0.015796337 -0.051796596 0.06596901 -0.12709875
000040 91 f3 da 3d 00 fe f4 bc 0a cb 97 bd 59 53 75 3c
       0.10690988 -0.029906273 -0.074117735 0.014973485
000050 df 64 b1 3d 25 df 2a be 7d 6f 8e 3d 39 1c 4c bd
       0.08661818 -0.16686685 0.069548585 -0.049831603
000060 a8 20 6f 3d bf 05 cf bd 8f 9f bb bd 5c 08 9f bc
       0.058380753 -0.10108518 -0.09161293 -0.019413166
000070 c0 95 02 be f8 75 af bd 9f a7 9b 3d b2 e7 c8 3d
       -0.12752438 -0.08567423 0.076003306 0.098098174

down1.go_down.1.conv2x.1.c.1.running_mean f4 [32]
000000 8a 8a ca be 5e 13 93 bd 46 72 17 40 b9 68 2a bf
       -0.39558822 -0.071814284 2.3663497 -0.66566044
000010 ce 85 2d 3f 3e a6 55 40 40 b8 c1 40 1d 64 1c c0
       0.67782295 3.3382716 6.0537415 -2.4436104
000020 2c 1a 3d bf 52 de 4b bf b2 67 a5 bf 20 ce 80 bf
       -0.7386806 -0.7963611 -1.292227 -1.0062904
000030 58 72 d5 3f e4 94 c0 3e 7a 37 75 3f de 71 d9 3f
       1.667552 0.37613595 0.95787776 1.6987875
000040 14 4e 55 c0 4d a9 8f bf 7a 8b 83 3f bc 3d 28 3f
       -3.3328905 -1.1223541 1.027694 0.657192
000050 e4 ec b5 3f 44 14 b9 be 26 e6 da 3f f8 c1 26 3f
       1.4212918 -0.36148274 1.7101486 0.6513972
000060 99 c5 f8 3f 93 cc ad 3e b8 a3 e4 3e dc c5 84 3f
       1.9435302 0.3394514 0.44656157 1.0372882
000070 06 d7 81 c0 de e8 fc c0 a4 bc 1e 40 ba 3d a7 40
       -4.057498 -7.903426 2.4802637 5.226285

down1.go_down.1.conv2x.1.c.1.running_var f4 [32]
000000 24 44 85 3f f5 5b 19 41 db c7 44 41 2c a5 2d 41
       1.041142 9.58495 12.298793 10.852825
000010 06 f0 01 41 8e 34 0a 40 e2 fc b9 40 d0 21 90 41
       8.121099 2.1594577 5.8121195 18.01651
000020 0e bf 01 40 1f ba 8d 40 9c 08 0b 41 f2 b3 1d 40
       2.027286 4.42897 8.689602 2.464108
000030 66 05 56 41 e2 b0 c7 40 1b 34 95 40 a6 cd 8e 40
       13.376318 6.240342 4.6626105 4.4626036
000040 a0 bc 74 41 04 f2 ee 40 80 29 53 41 16 6d 9e 40
       15.296051 7.467043 13.197632 4.950816
000050 01 e4 03 41 74 d7 84 3f 71 64 65 41 ba 96 ae 40
       8.243165 1.0378251 14.337022 5.4558992
000060 2a 99 b8 40 c8 fe 17 41 fc fc f5 40 79 c7 e3 3f
       5.768697 9.499702 7.687132 1.7795249
000070 28 7f 72 40 fc cc 8d 40 a0 90 6b 40 42 48 c9 40
       3.789011 4.4312725 3.6807022 6.2900705

down2.go_down.1.conv2x.0.c.0.weight f4 [64, 32, 3, 3]
000000 9d 77 08 3d bf 23 0e 3d 97 93 83 3c 32 84 00 3e
       0.033317197 0.03470206 0.016061587 0.12550429
000010 63 8d f8 3d 6f 20 94 3d 0c ff eb 3d 52 5d a8 3d
       0.121363424 0.07232749 0.11523256 0.082209244
000020 20 4c d7 bb 43 09 0f be d2 6d 54 bd b2 f2 b0 bd
       -0.006570354 -0.13968377 -0.051862545 -0.086400405
000030 6a 05 23 bc 66 2e d3 bd 6b d8 20 bd b9 78 79 3c
       -0.009950021 -0.10311584 -0.039268892 0.015226536
000040 4e 18 ba bc 18 0b ca bd 8f ad a7 3d f3 0b c6 3d
       -0.022716668 -0.09865397 0.081874005 0.09670248
000050 00 3f 97 3d 60 09 d7 3c 94 bb 0b 3e 0b c0 87 3c
       0.07385063 0.026249588 0.13645774 0.016571065
000060 a5 a0 12 3d d5 38 b4 3d 20 3d df 3d f6 9f bb bd
       0.035797734 0.08799902 0.109003305 -0.091613695
000070 1f 5f c4 bd 4a 11 cb bd b9 ff 83 bd d3 a5 37 bd
       -0.095884554 -0.09915407 -0.064452596 -0.044835877
000080 1b 09 d1 bd 33 92 8f bd 23 9c d1 bd ac 89 af ba
       -0.10206815 -0.07010307 -0.10234859 -0.001339247
000090 bb 5e a1 bd bc eb a8 bd 20 76 99 bd c0 39 b0 bd
       -0.078793965 -0.08248088 -0.07493234 -0.08604765
0000a0 42 2d c6 bd d8 22 0c bd 6a d6 02 be 08 66 b3 3b
       -0.09676601 -0.034212917 -0.12777105 0.0054748096
0000b0 92 1b 7c bd 3c a5 80 bd 0e 0d 6b bd a1 f9 d6 bd
       -0.06154973 -0.06281516 -0.057385497 -0.10496832
0000c0 5f 70 9b bc 89 fe 1d bd 1a 16 e4 bd 76 3f 93 bd
       -0.018974481 -0.03857282 -0.11137028 -0.071898386
0000d0 49 6f 26 bd da cb 0a be 1e fa ea bd db e2 27 be
       -0.040633474 -0.13554326 -0.11473487 -0.16395132
0000e0 c5 51 94 bd 17 ba e5 bd a9 41 9b bd cf 3a 8f bd
       -0.07242159 -0.112171344 -0.07580883 -0.06993639
0000f0 74 3d 8c bd f3 f3 89 bd c2 be 55 bc 84 09 82 bd
       -0.06847659 -0.06735983 -0.0130459685 -0.06349471
000100 7e 81 23 bd 30 87 e3 bd 24 95 9a bd 3c 9a a7 bd
       -0.039918415 -0.11109769 -0.075479776 -0.08183715
000110 26 28 2d bd fe 46 0a be 71 12 a6 bd e0 b1 4c bc
       -0.042274617 -0.13503644 -0.08108986 -0.012493581
000120 b2 4c de bd 41 42 2d bd 26 55 d2 bd 53 53 00 be
       -0.10854472 -0.042299513 -0.10270147 -0.12531786
000130 42 de 04 be 09 95 05 be 9e 09 5a bd 03 3a 85 bd
       -0.1297541 -0.13045134 -0.053231828 -0.065052055
000140 8f 91 43 bd e9 88 cd bd 12 6f 0c bd 18 dd ea bd
       -0.047746237 -0.10035879 -0.034285612 -0.114679515
000150 55 86 d3 bd 0b f6 bb bd b8 40 66 3c 54 f7 c2 bd
       -0.10328356 -0.09177788 0.014053516 -0.0951983
000160 80 47 12 3c 7e e4 6c 3c 30 8e b8 3c df 53 72 3c
       0.00892818 0.014458774 0.022528738 0.014790504
000170 87 27 f9 3d ac e5 af 3d 9f 5a 6d 3d fb c2 a8 3d
       0.12165742 0.08588728 0.05794775 0.082403146
000180 2a 1c b2 3d 9a 5a f3 bb 16 16 fa 39 3d ba af bd
       0.08696778 -0.007426572 0.0004770017 -0.08580444
000190 86 4b 2f 3c df 42 4b bd 46 0a 93 bd df a1 25 bc
       0.010699159 -0.04962432 -0.07179694 -0.010109394
0001a0 fd 43 b6 bd c0 1a ac bd aa 51 6a bd 03 8c ac bd
       -0.088996865 -0.0840354 -0.057206787 -0.084251426
0001b0 57 48 ee bd b8 5c b8 bd 77 cc 47 bd e2 bd f0 bd
       -0.116348915 -0.0900206 -0.048778977 -0.11754967
0001c0 90 ea 11 be 5f 5e a8 3c cb 84 33 bd b7 31 8e bd
       -0.14249635 0.020552812 -0.043827813 -0.06943076
0001d0 9e 4f 8b 3c db c3 f0 bc 38 d5 8f bd 39 b8 c7 bd
       0.017005738 -0.029390266 -0.0702309 -0.097519346
0001e0 69 4b 7b bd 9d fd 1b bd 97 9c 8d bd 9e 0a 9c bd
       -0.061351214 -0.03808366 -0.06914633 -0.076192126
0001f0 72 68 bd 3b 48 2f 6e bd 84 28 af bc 84 cd 3c bd
       0.005780273 -0.05815056 -0.021381624 -0.046094432
000200 3c 34 aa bd c0 48 eb bd 49 fb 36 bd 87 3e ca bc
       -0.08310744 -0.11488485 -0.044673238 -0.024688018
000210 ef 66 c8 bd c7 11 f0 bb 4d 0a ac bc e5 d6 ed bd
       -0.09785258 -0.007326338 -0.021001006 -0.116132535
000220 72 0e 9c bd c2 6b 94 bc ab e6 c7 bd b9 c6 db bc
       -0.07619943 -0.01811779 -0.09760793 -0.026828157
000230 4e 00 36 bd 56 87 c1 bd 4b 5f 48 3c 8d 06 0f 3c
       -0.044433884 -0.094496414 0.012229751 0.008729589
000240 ec b6 0e 3d 9f b7 94 3d c8 3d cb 3d 17 b9 11 3e
       0.034842417 0.072615854 0.09923893 0.14230762
000250 83 b1 60 3d d7 8a 1e 3d 0c e9 5d 3d 19 37 9e 3c
       0.05485679 0.038706627 0.05417733 0.019313382
000260 62 65 58 3d e3 e7 ba 3d af 84 46 3d 2d d7 e7 3d
       0.05283106 0.0912626 0.04846638 0.113203384
000270 e4 64 5d 3d bb 09 0f 3e 95 aa e5 3d 71 65 f7 3d
       0.054051295 0.13968556 0.112141766 0.12079895
000280 73 2a 14 3e 27 63 ba 3c 49 8c 1e be f3 d6 c8 bd
       0.14469318 0.022752358 -0.15483202 -0.09806623
000290 21 1f 89 bd 58 d5 9a bd 8b 3f 87 bd 1d 9d cd bd
       -0.066953905 -0.07560223 -0.06603917 -0.100397326
0002a0 8c a3 c5 bd 7b c4 b5 bd ac aa eb bd 9b ca df bd
       -0.09650335 -0.08875366 -0.115071625 -0.10927316
0002b0 bc 68 ac bd 3b c0 e4 bc 9c e9 bd bd aa 0e 08 bd
       -0.08418414 -0.027923694 -0.09273073 -0.03321711
0002c0 8c e6 06 be 67 2c 40 bd 3c b6 52 bd e1 f5 e5 bd
       -0.13173884 -0.046917345 -0.051443323 -0.11228538
0002d0 11 4b c1 3d b8 3c e2 3d 71 b7 d0 3d 62 98 cf 3d
       0.09438146 0.110467374 0.10191239 0.101364866
0002e0 46 f6 da 3c b2 8b 92 3d 96 05 87 3d ad ee b2 3d
       0.02672876 0.07155551 0.06592862 0.0873693
0002f0 24 71 e4 bc 13 60 db bd 99 88 fc ba 48 a2 b6 3b
       -0.02788598 -0.10711684 -0.0019266783 0.0055735447
000300 0f bc ac bc ef 58 8b bd 2c a0 ce bc 9e 49 bc 3a
       -0.021085767 -0.06804072 -0.02522286 0.0014365201
000310 a4 02 77 bd 51 b7 2c bd 4d 3e 49 bd 3b 22 e0 bc
       -0.060305253 -0.04216701 -0.04913168 -0.027360072
000320 75 24 1b bd 34 55 ad bd d0 01 b6 bb 18 97 68 3b
       -0.037876565 -0.08463517 -0.0055544153 0.003549045
000330 c0 c4 fa bd 12 7e cf 3c d5 4c 8d bb f2 5c ad bd
       -0.12244558 0.02532867 -0.0043121376 -0.084649935
000340 31 5f 9e bc 58 f6 df 3c db a9 09 bd 34 b0 7b bd
       -0.0193325 0.027339146 -0.033609252 -0.061447337
000350 a4 49 c5 bd 6e 17 e6 bd 04 c8 0a be f1 ce 39 bd
       -0.096331865 -0.112349376 -0.13552862 -0.04536337
000360 c4 1f 70 3d ae 02 87 3d 44 fd 9f 3d cb b6 a9 3d
       0.058624044 0.06592308 0.078119785 0.08286818
000370 2e 7f 6d 3d d8 40 4c ba 26 29 eb 3d 42 66 20 3d
       0.057982616 -0.0007791645 0.11482458 0.03916002
000380 89 2f ab 3d 6e 9f 5a bd 3b d7 ca bd 14 b1 fa bb
       0.08358676 -0.0533747 -0.09904333 -0.007650504
000390 12 cd d9 bd 43 4f 26 bd 54 66 3c bd 7e 52 64 bd
       -0.10634817 -0.040602934 -0.045996025 -0.055742733
0003a0 73 2f 82 3c 63 b4 d4 bd cb 23 ce bd d3 45 e2 bd
       0.015891766 -0.103859685 -0.10065421 -0.11048474
0003b0 35 e2 1a be 41 9a 73 bd 3a 26 28 bd c4 bb 33 bc
       -0.15125354 -0.05947328 -0.04105208 -0.01097006
0003c0 6d 79 cd bd 75 d1 85 3d 87 07 1c be f5 2d 90 bd
       -0.10032926 0.065340914 -0.15237246 -0.070400156
0003d0 36 a0 6e bd bc 0e 13 ba d5 79 be bd fe 55 e7 bc
       -0.058258258 -0.00056098006 -0.09300581 -0.028239246
0003e0 e0 96 fa bd 08 2c 38 bd 10 04 ac bd 2e 4c c6 bd
       -0.12235808 -0.044963866 -0.08399212 -0.09682499
0003f0 1a ee 41 3d 8b 0d 87 3d 85 47 96 3d f8 e9 e8 3d
       0.047346212 0.0659438 0.0733786 0.11372751

down2.go_down.1.conv2x.0.c.0.bias f4 [64]
000000 64 13 9b bc 21 72 29 bd df 3f d6 bc 8e 54 0a bc
       -0.018930145 -0.041368607 -0.026153503 -0.008443011
000010 12 ac ac 3c 9f 70 5a 3d 64 0e 81 3a e1 d3 3e 3d
       0.021078143 0.05333006 0.0009846208 0.046588782
000020 96 99 6f 3c b3 63 10 bd 4c 5d 51 bd 7f 26 11 3d
       0.01462402 -0.03525133 -0.051114365 0.035437103
000030 1c 09 1a bd 59 1c 86 bb a9 2d 3e bd e4 ac 5e 3d
       -0.037606344 -0.004092735 -0.046430264 0.0543641
000040 6b 55 39 bd 10 14 50 3d c3 c9 8c bc 7a f8 7d bc
       -0.045247477 0.050800383 -0.017186051 -0.015501136
000050 ff c8 1a 3d cb 7a 26 bd a2 d2 2f 3d c4 61 2d 3d
       0.03778934 -0.04064445 0.042925484 0.042329565
000060 c5 20 ee 3c f8 c3 08 ba d1 00 6e 3d f3 44 e0 bc
       0.02906836 -0.000521719 0.058106247 -0.027376628
000070 bc d8 1b 3d cb cb 26 3d 61 e7 df 3b c5 55 4e 3c
       0.03804849 0.040721696 0.0068330024 0.012593691
000080 45 58 06 bb 66 0f 59 bd 29 09 e0 3c 16 23 14 bd
       -0.002049939 -0.0529932 0.027348118 -0.036166273
000090 18 a5 57 3d 17 e0 9d 3c bb 7f 18 bd 43 e2 6b bb
       0.05264768 0.019271893 -0.03723119 -0.0035993017
0000a0 12 2c 79 bd 54 ee 2b 3d f5 66 d4 bc 04 ad f6 bc
       -0.060833044 0.041975334 -0.025928 -0.030111797
0000b0 e0 9f 26 38 e5 a5 fc 3c c8 7d 62 bd 4c a3 d3 3c
       3.972638e-05 0.030840823 -0.055295736 0.025834702
0000c0 a0 7e ad 3a ce 8a 80 3c 7c 92 53 3a ec c5 59 bd
       0.001323659 0.015691187 0.0008070839 -0.05316727
0000d0 e6 c6 c9 3c ff 06 77 3c 70 9e 41 3d 6b 65 03 3d
       0.024630975 0.015077352 0.04727024 0.03207914
0000e0 4c ae 0b 3c 5c 91 00 bd 32 c6 ba 3c 80 b4 5b 3d
       0.008525442 -0.031388626 0.022799585 0.053638935
0000f0 17 27 45 bc c8 ee b4 3c 3f 81 6c bd 9a 89 a0 3c
       -0.0120332455 0.022086516 -0.057740446 0.019596864

down2.go_down.1.conv2x.0.c.1.weight f4 [64]
000000 4d f4 8c 3f 6d d5 68 3f 26 6c 77 3f e8 af 86 3f
       1.1012055 0.9095066 0.96649396 1.0522432
000010 bc 5f 83 3f d8 c1 76 3f 35 4b 78 3f 91 41 71 3f
       1.0263591 0.9638953 0.96989757 0.9424067
000020 71 47 8d 3f 3f 7b 87 3f a4 4e 5b 3f 0a 93 74 3f
       1.1037427 1.0584487 0.8566687 0.95536864
000030 d3 62 89 3f 2d 4f 7c 3f 5f dc 8a 3f 69 78 87 3f
       1.0733284 0.9855831 1.0848502 1.0583621
000040 1d ef 66 3f fa 17 83 3f 85 48 60 3f b7 21 77 3f
       0.9020861 1.0241692 0.87610656 0.9653582
000050 0d c5 84 3f f4 94 64 3f a1 bd 8e 3f 64 d3 5c 3f
       1.0372635 0.89289784 1.115162 0.86260056
000060 4e e6 88 3f 51 72 69 3f 58 5e 7a 3f da af 84 3f
       1.0695283 0.9119006 0.9780021 1.0366166
000070 7a c2 8d 3f 85 65 5a 3f 06 fa 8f 3f 76 28 57 3f
       1.1074975 0.85311157 1.1248176 0.84046113
000080 30 bd 7e 3f dc e0 60 3f 07 eb 65 3f 52 a7 68 3f
       0.9950743 0.8784311 0.8981175 0.9088031
000090 63 ce 89 3f 09 45 70 3f af cd 8c 3f 4d 9d 72 3f
       1.0766109 0.9385534 1.100027 0.9477127
0000a0 6e 92 8c 3f 68 17 5d 3f 60 88 8e 3f f3 25 85 3f
       1.0982187 0.8636384 1.1135368 1.0402206
0000b0 df d5 8b 3f 05 66 8d 3f d8 0d 72 3f e3 3a 79 3f
       1.0924643 1.1046759 0.94552374 0.9735548
0000c0 fc 46 81 3f c8 04 67 3f 44 b2 8e 3f c6 eb 70 3f
       1.0099788 0.9024167 1.1148152 0.9410976
0000d0 89 88 75 3f cd 00 67 3f 70 11 5d 3f 89 80 8b 3f
       0.9591146 0.90235597 0.8635473 1.0898601
0000e0 50 81 85 3f 74 c7 60 3f c3 ff 67 3f dc 5a 94 3f
       1.0430088 0.8780434 0.90624636 1.1590228
0000f0 c1 3b 8b 3f 5b 02 79 3f 8b 0b 84 3f b6 45 77 3f
       1.087761 0.9726922 1.0316023 0.96590745
