data/model/1.onnx (onnx, 483073 bytes, 73 tensors)

down1.go_down.1.conv2x.0.c.0.bias f4 [32]
0	0xbdb7801e	-0.08959983
1	0xbd669b64	-0.056300536
2	0xbd586714	-0.052832678
3	0x3e002822	0.1251531
4	0xbdb8f761	-0.09031559
5	0x3d09e87e	0.033668987
6	0xbc65397d	-0.013990757
7	0xbdb968ed	-0.09053216
8	0xbd7ec092	-0.062195368
9	0x3c639cf9	0.013892406
10	0x3d1e4aa8	0.038645416
11	0x3cf50bf0	0.029912919
12	0xbd97d0d6	-0.07412879
13	0x3d3daafc	0.04630564
14	0x3d818b28	0.0632537
15	0xbdd4a04e	-0.10382138
16	0xbd73eb00	-0.059550285
17	0x3dbdff22	0.09277178
18	0x3cb08e3b	0.021552196
19	0x3c6f2532	0.01459627
20	0xbd0ce684	-0.034399524
21	0xbd9994f0	-0.07499111
22	0x3d853437	0.065041
23	0xbd2309fd	-0.039804447
24	0x3c9f1744	0.019420274
25	0x3c4d2b46	0.012522524
26	0x3d7b02bd	0.06128191
27	0xbd6c56a5	-0.05769982
28	0xbd060876	-0.032722913
29	0x3d179151	0.03700382
30	0x3d74f5ab	0.0598046
31	0x3ddc0119	0.10742397

down1.go_down.1.conv2x.0.c.0.weight f4 [32, 16, 3, 3]
0	0xbe180d36	-0.1484879
1	0xbd69ff0e	-0.057128005
2	0xbcbf97f9	-0.023387896
3	0xbdcc6756	-0.09980647
4	0xbc56b695	-0.013105054
5	0xbe0d5726	-0.13802776
6	0xbdb36efc	-0.08761403
7	0xbd94c35a	-0.07263823
8	0xbe25aeed	-0.1618001
9	0xbd6f2f43	-0.05839468
10	0xbdd719a9	-0.10502941
11	0xbd14667d	-0.036230553
12	0xbe0b340c	-0.13594073
13	0xbe24dd28	-0.1609999
14	0xbe2025fa	-0.15639487
15	0xbdd808ec	-0.10548577
16	0xbc86243f	-0.016374705
17	0xbdf76fdf	-0.120818846
18	0xbd23d770	-0.04000038
19	0xbd47a8bb	-0.0487449
20	0xbd69b024	-0.057052746
21	0xbd814b3d	-0.06313179
22	0xbe06b7e8	-0.13156092
23	0xbd82400e	-0.06359874
24	0xbe0d8ff8	-0.13824451
25	0xbde10fef	-0.10989367
26	0xbe094380	-0.13404655
27	0xbdc9302c	-0.09823641
28	0xbc8d1826	-0.017223429
29	0xbde1df6a	-0.11028941
30	0xbc7850c3	-0.015155974
31	0x39bd59f1	0.000361159
32	0xbdb68e39	-0.089138456
33	0xbd4deefe	-0.05027675
34	0xbdee0181	-0.116213806
35	0xbdef430c	-0.1168271
36	0xbe0e0e06	-0.13872537
37	0xbdfb1019	-0.1225893
38	0xbd90892f	-0.07057416
39	0xbca0176f	-0.019542424
40	0xbde55525	-0.11197881
41	0xbe053cb6	-0.1301144
42	0xbd04048d	-0.032230902
43	0xbe14283e	-0.14468476
44	0xbe00cb31	-0.12577511
45	0xbd4a2bda	-0.049358226
46	0xbdf6763a	-0.12034269
47	0xbd690604	-0.056890503
48	0xbd29f22a	-0.04149071
49	0xbe059605	-0.13045509
50	0xbdbccc87	-0.09218698
51	0xbbea4398	-0.007149171
52	0xbdef3a92	-0.11681093
53	0xbd8f98e0	-0.070115805
54	0xbcb11485	-0.02161623
55	0xbd706bb8	-0.05869648
56	0xbd6e5bd4	-0.058193043
57	0xbceac0d4	-0.0286564
58	0xbde799c4	-0.11308625
59	0xbe1e234d	-0.15443154
60	0xbcfe37c1	-0.031032445
61	0xbd14f8f7	-0.036370244
62	0xbdc1847f	-0.094491
63	0xbdab7a35	-0.083729185
64	0xbe262c71	-0.1622789
65	0xbd932439	-0.07184643
66	0xbce455e6	-0.02787299
67	0xbcd1af68	-0.025596336
68	0xbd13a2ca	-0.03604392
69	0xbe21529f	-0.15754174
70	0xbd3092de	-0.043108813
71	0xbdb1b2dd	-0.086766936
72	0x3df8ccb0	0.12148416
73	0x3dc623b7	0.09674781
74	0x3dbd1ee0	0.092344046
75	0x3dc89492	0.097939625
76	0x3ce9f3fc	0.028558724
77	0x3e1827d4	0.14858943
78	0x3d7c874c	0.061652467
79	0x3ded32ea	0.11581977
80	0x3e1f0274	0.1552828
81	0xbd646bc2	-0.05576683
82	0xbdf6bec3	-0.12048104
83	0xbe11d4d7	-0.14241348
84	0xbd51a402	-0.0511818
85	0xbd9acc07	-0.075584464
86	0xbe2727dd	-0.163238
87	0xbdf04d22	-0.11733462
88	0xbcd49257	-0.025948687
89	0xbda584e1	-0.08081985
90	0x3ddf0c96	0.108910725
91	0x3ddfc107	0.10925489
92	0x3dbcdf17	0.092222385
93	0x3e158171	0.14600159
94	0x3d16fdde	0.0368632
95	0x3d1cf16c	0.038316175
96	0x3c83221a	0.016007472
97	0x3e216b0e	0.15763494
98	0x3d5c0d33	0.053723525
99	0x3e10fc11	0.14158656
100	0x3df39e00	0.118953705
101	0x3d38c1cf	0.045106705
102	0x3c43053b	0.0119031025
103	0x3c996bfe	0.018728253
104	0x3c7ab8e5	0.015302871
105	0x3d702705	0.058630962
106	0x3dcc6897	0.099808864
107	0x3c96b78a	0.018398065
108	0xbd2756bf	-0.040854212
109	0xbda4a9a8	-0.08040172
110	0xbdec4024	-0.11535671
111	0xbd89756d	-0.0671185
112	0xbe30f886	-0.17282304
113	0xbbb64081	-0.0055618887
114	0xbe0b7b09	-0.13621153
115	0xbd114a51	-0.035471264
116	0xbd106933	-0.035256576
117	0x3dd4e13f	0.10394525
118	0x3e327c19	0.17430152
119	0x3e3626e3	0.17788272
120	0x3e4279cc	0.18991774
121	0x3d1ee7bc	0.038795218
122	0x3e0ae3ac	0.13563412
123	0x3e434d07	0.19072352
124	0x3e1dbcff	0.15404128
125	0x3e1e62ac	0.15467328
126	0x3cae78da	0.02129786
127	0x3d7526d0	0.059851468
128	0x3d9db43a	0.07700391
129	0x3e16537a	0.14680281
130	0x3dc46ba7	0.095908456
131	0x3dbece3b	0.09316679
132	0x3ae465d2	0.0017425364
133	0x3e248e7e	0.16069981
134	0x3ddc7d86	0.10766129
135	0x3e02adcf	0.12761615
136	0x3d6f5c92	0.05843789
137	0x3cd88ac0	0.026433349
138	0x3e14bf2c	0.14526051
139	0xbdd1f32d	-0.1025146
140	0xbe2b8de3	-0.16753344
141	0xbd9da019	-0.07696552
142	0xbcc53266	-0.024071883
143	0xbd054f1d	-0.03254615
144	0x3def8a2d	0.11696277
145	0xbb8496ec	-0.0040463116
146	0x3d944933	0.07240524
147	0x3dd4a49c	0.10382959
148	0x3e16abe6	0.14714012
149	0x3e125b04	0.14292532
150	0x3e26b127	0.16278516
151	0x3e3dc4ac	0.18532056
152	0x3dd642cd	0.1046196
153	0xbd448874	-0.047981694
154	0xbc777082	-0.015102508
155	0xbc728f12	-0.014804618
156	0xbd995bee	-0.07488237
157	0x3bf526cd	0.007481432
158	0xbd90bde2	-0.07067467
159	0xbd020412	-0.031742163
160	0x3c03a5ef	0.008035167
161	0x3d1e3ac9	0.03863028
162	0x3e0c8a82	0.13724712
163	0x3e2b2e88	0.16716969
164	0x3dc0d36e	0.09415327
165	0x3dabd19b	0.083895884
166	0x3dba5787	0.09098726
167	0x3dde1be0	0.108451605
168	0x3d6c56b1	0.057699863
169	0x3db4d90b	0.0883046
170	0x3dd4f23b	0.10397764
171	0x3d153f80	0.03643751
172	0xbdecaf15	-0.11556832
173	0xbcf977e0	-0.030452669
174	0x3d5bdf0d	0.053679515
175	0xbcd499a5	-0.02595217
176	0x3cf95418	0.030435607
177	0x3d5552a1	0.052080754
178	0xbdfacacc	-0.12245712
179	0xbdd4671e	-0.103712305
180	0xbdb7e46c	-0.08979115
181	0xbd922d46	-0.071375415
182	0xbda7cec8	-0.08193737
183	0x3ce10c66	0.027471732
184	0xbd87d858	-0.06633061
185	0xbd37140c	-0.044696853
186	0x3ca72298	0.020402238
187	0x3d6bc173	0.057557534
188	0x3ce67ed4	0.028136648
189	0x3d294695	0.041327078
190	0x3dbc8389	0.09204776
191	0x3dcf4c8c	0.10122022
192	0x3d14e31b	0.036349397
193	0x39c16dcc	0.00036893634
194	0x3d44144a	0.04787091
195	0x3e23db42	0.16001609
196	0x3df8822a	0.12134202
197	0x3dff17cc	0.12455711
198	0x3d9133ee	0.07089983
199	0x3cd8d52c	0.026468836
200	0x3e1c651a	0.15272942
201	0x3b9ebad1	0.0048440476
202	0x3d1bce7c	0.038038716
203	0x3cbc6890	0.022999078
204	0x3e12be38	0.14330375
205	0x3e0c0138	0.1367234
206	0xbc280ff2	-0.010257708
207	0x3c365143	0.011127773
208	0x3d8d821e	0.069095835
209	0x3d9bce4a	0.07607706
210	0xbc71dc7a	-0.014762038
211	0xbc84b078	-0.016197428
212	0x3dc17ca2	0.094476
213	0x3da9562e	0.082683906
214	0xbd1acd5f	-0.037793513
215	0x3dcfb74a	0.101423815
216	0xbd3ecd26	-0.046582364
217	0xbd9cea5f	-0.0766189
218	0x380da36d	3.376922e-05
219	0xbd80852e	-0.06275402
220	0xbde3f7fa	-0.11131282
221	0xbbfda4ff	-0.0077406163
222	0xbbf4ec90	-0.0074744895
223	0xbcdf1934	-0.027233697
224	0xbde5e8ec	-0.11226067
225	0xbdacd945	-0.084398784
226	0xbd954a15	-0.07289521
227	0x3d08f20e	0.033433966
228	0x3c47a948	0.012186356
229	0xbd453faf	-0.048156437
230	0xbd6b39dd	-0.05742823
231	0xbccbf703	-0.024898058
232	0xbc8d9983	-0.017285114
233	0x3d6689a4	0.056283608
234	0xbd2b76f8	-0.041861504
235	0xbd73f07b	-0.059555512
236	0xbe08942f	-0.13337778
237	0xbda2d04b	-0.07949885
238	0xbd8f40a8	-0.06994754
239	0xbdcdca1c	-0.10048315
240	0xbda5fcb8	-0.08104843
241	0xbce37d34	-0.027769662
242	0xbe038815	-0.1284488
243	0xbd0a9c72	-0.033840604
244	0xbd2fbade	-0.04290282
245	0xbcce6791	-0.025195869
246	0xbd9d74f3	-0.07688322
247	0xbdaf4be6	-0.08559398
248	0xbe261c9d	-0.16221853
249	0xbe067535	-0.13130648
250	0xbdaebe56	-0.085323974
251	0xbe164c82	-0.14677623
252	0x3e1ab43d	0.15107818
253	0x3d98e130	0.07464826
254	0x3d88e75f	0.066847555
255	0x3e2f4f8e	0.17120191

down1.go_down.1.conv2x.0.c.1.bias f4 [32]
0	0x3d87dfd0	0.06634486
1	0x3dc40d8c	0.09572896
2	0xbdcc93e3	-0.09989145
3	0xbdc4f25e	-0.0961654
4	0xbdf4713c	-0.1193566
5	0x3dcbb24a	0.09946115
6	0x3b1f6561	0.00243219
7	0x3d568cee	0.052380495
8	0xbdbfdffb	-0.09368893
9	0xbe20de2d	-0.15709753
10	0xbd7a8b12	-0.061167784
11	0x3d9de626	0.07709913
12	0xbda72159	-0.081606574
13	0xbde9b3cd	-0.114112474
14	0xbd85f8df	-0.06541609
15	0x3d3457b7	0.044028964
16	0x3d95cdd2	0.07314648
17	0xbda3545d	-0.079750754
18	0xbe079f48	-0.13244355
19	0xbd1ed377	-0.038775887
20	0xbd313983	-0.043267738
21	0xbd6f81a0	-0.05847323
22	0x3d7629e7	0.060098555
23	0x3da611ed	0.08108888
24	0x3d592f15	0.053023417
25	0xbd803c18	-0.06261462
26	0xbcc7e4a6	-0.02440102
27	0xbde16d44	-0.11007169
28	0x3da5ef1d	0.08102248
29	0x3dc36ffb	0.09542843
30	0xbdbeb592	-0.093119755
31	0xbd1f3843	-0.038872015

down1.go_down.1.conv2x.0.c.1.running_mean f4 [32]
0	0xbf93c334	-1.1543946
1	0x3e662334	0.22474366
2	0xbf416970	-0.7555151
3	0x3f132b2e	0.5748776
4	0x3f8e04bd	1.1095196
5	0xc004e5da	-2.076529
6	0x3f02c674	0.51084065
7	0x3fb8a08c	1.4423995
8	0xc06a662d	-3.6624863
9	0x4038b1b0	2.8858452
10	0x3ee7362a	0.4515851
11	0xc019adfc	-2.4012442
12	0x3fb300f2	1.3984663
13	0x3fb215bc	1.3912883
14	0xbf65ab18	-0.89714193
15	0x3fa05736	1.2526615
16	0xbf107b93	-0.5643856
17	0xbf184264	-0.59476304
18	0xbfd061d2	-1.6279852
19	0xc0600466	-3.5002685
20	0x3f2d96ce	0.67808235
21	0x3f382131	0.71925646
22	0x3fd8fe64	1.6952634
23	0x4024428f	2.5665624
24	0x3f8dcd3c	1.1078258
25	0xbf686268	-0.90775156
26	0xbf86cfbc	-1.0532146
27	0x3e151152	0.14557388
28	0xbf402484	-0.7505572
29	0xbe861068	-0.26184392
30	0xbfa43078	-1.2827291
31	0x4070f7ec	3.765132

down1.go_down.1.conv2x.0.c.1.running_var f4 [32]
0	0x4049361e	3.143928
1	0x406aecfc	3.6707144
2	0x404092ca	3.0089593
3	0x400e6937	2.2251718
4	0x3fb4ba36	1.4119327
5	0x3e874928	0.26423
6	0x4071846a	3.773707
7	0x4010cd94	2.2625475
8	0x4074262a	3.8148293
9	0x411efef0	9.937241
10	0x3eaafb6c	0.33394945
11	0x40337312	2.8038983
12	0x408f560e	4.4792547
13	0x40bc6d6d	5.8883576
14	0x4010ca36	2.262342
15	0x3f60ffb2	0.8789016
16	0x405e4f47	3.4735887
17	0x3ef58316	0.47951573
18	0x4032d54b	2.7942684
19	0x3fd2a4fc	1.6456599
20	0x3fbacd3b	1.4593881
21	0x409cba74	4.8977604
22	0x3ffb62e8	1.9639559
23	0x3f955bbe	1.1668622
24	0x3fa9ddb5	1.3270785
25	0x405a0f1a	3.4071717
26	0x4023efae	2.561504
27	0x3f20ee6c	0.628638
28	0x4083c82a	4.118184
29	0x3ffc7a34	1.9724793
30	0x4026edae	2.6082568
31	0x4053518e	3.3018527

down1.go_down.1.conv2x.0.c.1.weight f4 [32]
0	0x3f8e029f	1.109455
1	0x3f8ccaf5	1.0999438
2	0x3f685486	0.9075397
3	0x3f6875be	0.9080466
4	0x3f668beb	0.9005725
5	0x3f91dbc7	1.1395196
6	0x3f7bdc40	0.9838295
7	0x3f745c7e	0.9545363
8	0x3f65fd1f	0.8983936
9	0x3f5e01e2	0.8672162
10	0x3f6c6aa2	0.9235021
11	0x3f88302f	1.0639704
12	0x3f6a6f22	0.91575825
13	0x3f4c318f	0.7976312
14	0x3f7a2dc8	0.97726107
15	0x3f8201c8	1.0156794
16	0x3f660c8c	0.89862895
17	0x3f6a62dd	0.91557103
18	0x3f8ca2a2	1.0987132
19	0x3f6bb40d	0.9207161
20	0x3f7c05d1	0.98446375
21	0x3f6daf32	0.9284545
22	0x3f7ef62e	0.9959439
23	0x3f8ba16e	1.090864
24	0x3f8f8c29	1.1214648
25	0x3f7079ef	0.93936056
26	0x3f8ad769	1.0846988
27	0x3f6586f4	0.8965905
28	0x3f90851d	1.1290623
29	0x3f8afbb0	1.0858059
30	0x3f91bcfa	1.1385796
31	0x3f8ad5c5	1.0846487

down1.go_down.1.conv2x.1.c.0.bias f4 [32]
0	0xbcbe2322	-0.023210112
1	0xbd460a36	-0.04834958
2	0xbb1c3752	-0.0023836684
3	0x3d09ce3f	0.033643957
4	0xbd3f058c	-0.04663615
5	0xbc958969	-0.018253999
6	0x3d820c5c	0.063500136
7	0xbb40b1ff	-0.002940297
8	0xbc76d45a	-0.015065277
9	0x3ccbb6a3	0.024867361
10	0x3c894a15	0.016758958
11	0xbd1ac3de	-0.03778445
12	0xbd39dbac	-0.04537551
13	0x3c20732d	0.009793085
14	0xbd1ad3ae	-0.03779953
15	0x3afd2a2f	0.001931494
16	0x3d5b816a	0.053590216
17	0xbbc1c41a	-0.0059132697
18	0x3d92fd01	0.07177163
19	0xbcb4cc03	-0.022069937
20	0xbd9bd020	-0.07608056
21	0x3d1f7880	0.038933277
22	0x3c049f58	0.008094631
23	0x3cd01d32	0.025404546
24	0xbd98b15c	-0.074557036
25	0x3cbf24ee	0.02333304
26	0xbc981b24	-0.01856763
27	0x3c7bd0cd	0.015369606
28	0x3cafa993	0.021443164
29	0xbd40b489	-0.04704717
30	0xbd16abcf	-0.036784943
31	0xbd97deee	-0.07415567

down1.go_down.1.conv2x.1.c.0.weight f4 [32, 32, 3, 3]
0	0x3dbed4aa	0.09317906
1	0x3e0b218a	0.13587013
2	0x3c894c7b	0.016760102
3	0x3d903d0a	0.07042892
4	0x3d6691a7	0.05629125
5	0xbc8b675d	-0.01701706
6	0x3e02714c	0.12738532
7	0x3dfbe600	0.122997284
8	0x3bbc816d	0.0057527334
9	0xbc988a72	-0.018620703
10	0xbda7669d	-0.08173869
11	0xbc89f261	-0.016839208
12	0xbd63eada	-0.055643894
13	0xbbb4b708	-0.005514983
14	0xbe1e3cea	-0.15452924
15	0xbd7655b3	-0.060140323
16	0xbbb04553	-0.005379358
17	0xbd32bad6	-0.043635212
18	0xbd1f8d4d	-0.038953114
19	0x3da8023f	0.082035534
20	0x3d8c6689	0.068554945
21	0x3a80a895	0.0009815866
22	0xbc99d42c	-0.01877793
23	0xbc81c5c0	-0.015841365
24	0xbb5cee3b	-0.0033711332
25	0x3c59d420	0.013295203
26	0xbd59cf88	-0.053176433
27	0xbcda625b	-0.026658228
28	0x3b616b8a	0.0034396374
29	0xbbf9f725	-0.007628339
30	0xbd3549e7	-0.044259932
31	0xbbc1f64a	-0.0059192525
32	0xbd8b4006	-0.06799321
33	0xbdade800	-0.08491516
34	0xbd95b8e8	-0.07310659
35	0x3cfcd9ff	0.030865667
36	0x3d3cf496	0.046131693
37	0xbcd91a6f	-0.026501862
38	0x3d5af620	0.05345738
39	0xbca6c079	-0.02035545
40	0x3c63c2a6	0.013901388
41	0x3daba993	0.08381953
42	0x3c7c9914	0.015417356
43	0x3cecf800	0.02892685
44	0x3d48e597	0.04904708
45	0xbd807d4b	-0.06273898
46	0xbd505942	-0.050866373
47	0xbd2eb155	-0.042649586
48	0xbc55ad83	-0.013041857
49	0xbd8c2d34	-0.06844559
50	0xbbcda5ff	-0.006275892
51	0xbc192a9c	-0.009348538
52	0xbdda2d7b	-0.10653206
53	0xbdbf67f9	-0.09346003
54	0xbc27c710	-0.010240331
55	0x3daaa774	0.083327204
56	0x3d3a3597	0.045461264
57	0xba5a1872	-0.00083196827
58	0x3d6dd716	0.05806645
59	0xbcc60fe1	-0.024177494
60	0x3cd098e2	0.025463525
61	0x3cc0a9cf	0.023518471
62	0xbb0dc79e	-0.0021633874
63	0xbd9867d7	-0.07441681
64	0xbe010d7c	-0.126028
65	0xbd745ea3	-0.059660565
66	0xbd3ff097	-0.046860304
67	0xbddf1b95	-0.10893933
68	0x3c6c74f0	0.014432177
69	0xbd56d599	-0.052449796
70	0xbd2c07f0	-0.041999757
71	0xbcaa38ab	-0.020778975
72	0xbd74965f	-0.059713718
73	0xbd6c7b40	-0.057734728
74	0xbd2e4ccd	-0.04255371
75	0x3c7147cb	0.014726589
76	0xbd02e9e4	-0.031961337
77	0xbca37d20	-0.019957125
78	0xbcfce37c	-0.030870192
79	0xbcd49713	-0.025950944
80	0x3cd21f48	0.025649682
81	0x3d819e4c	0.06329021
82	0x3dbc3910	0.09190571
83	0x3d9953f8	0.07486719
84	0x3d7a9adb	0.061182838
85	0x3d1d6ae5	0.03843202
86	0x3d577667	0.05260315
87	0x3d4ed27f	0.050493713
88	0x3dd20993	0.102557324
89	0x3d288b7e	0.041148655
90	0x3d01ddd1	0.03170568
91	0x3d88b585	0.06675247
92	0xbca8027a	-0.020508993
93	0x3d94b5b3	0.07261219
94	0x3d9d336a	0.07675822
95	0x3d87f780	0.06639004
96	0x3bb88e7c	0.00563222
97	0xbcdb613e	-0.026779767
98	0xbbe06f58	-0.0068492107
99	0x3cee42de	0.02908462
100	0xbd8fe652	-0.07026352
101	0xbd869840	-0.06572008
102	0x3c82fe82	0.0159905
103	0xbd721092	-0.059097834
104	0x3d00b90c	0.031426474
105	0xbb22aff5	-0.0024824117
106	0xbd3c9106	-0.046036743
107	0xbd049386	-0.03236725
108	0x3be57024	0.0070018936
109	0xbbd9bae7	-0.006644595
110	0xbd1d5205	-0.038408298
111	0xbaefd005	-0.0018296248
112	0x3d13e17c	0.03610371
113	0xbd0bea24	-0.03415884
114	0xbc1bc969	-0.009508469
115	0xbca1634b	-0.019700667
116	0xbd9922c6	-0.07477336
117	0xbc845a63	-0.016156381
118	0xbd3c744f	-0.046009358
119	0x3c2e458e	0.0106367
120	0xbd547653	-0.051870655
121	0x3c2aae54	0.01041754
122	0x3c83c9f0	0.016087502
123	0x3c07a368	0.008278705
124	0xbc693ca2	-0.014235647
125	0x3d237475	0.039905984
126	0x3d1727fe	0.036903374
127	0x3dcea7b6	0.10090582
128	0x3c8c0f8f	0.017097263
129	0xbba3c011	-0.0049972613
130	0x3db6f923	0.08934238
131	0xbcf881ed	-0.030335391
132	0x3da0e796	0.078566715
133	0xbc8ef9f8	-0.017453179
134	0x3d98cc90	0.07460892
135	0xbdb72b92	-0.08943857
136	0xbd5cc4ec	-0.053898737
137	0x3d17f9e8	0.037103564
138	0xbd6d7a48	-0.057977945
139	0xbd30dd90	-0.04318005
140	0xbd32c94b	-0.043649
141	0xbc39b7d4	-0.011335332
142	0x39e1b01a	0.0004304655
143	0x3a1fd09b	0.0006096453
144	0x3d14eda2	0.036359437
145	0x3d8e69e3	0.0695379
146	0x3df4085f	0.11915659
147	0x3dc0f73e	0.09422158
148	0x3dc3fca5	0.095696725
149	0x3d935796	0.0719444
150	0x3d48f282	0.0490594
151	0x3d8a37a6	0.06748895
152	0x3d19835a	0.037478782
153	0xbc97d249	-0.018532889
154	0xbca0b366	-0.019616794
155	0x3d65684e	0.056007676
156	0x3d5e653a	0.054295756
157	0xbc7d3b8a	-0.01545609
158	0xbd21ad7e	-0.039472096
159	0x3d7bb631	0.06145305
160	0x3ca440b6	0.020050388
161	0x3d984a9a	0.07436104
162	0x3c7e6e44	0.015529219
163	0x3d3b794a	0.045769967
164	0x3b8f67c4	0.0043763835
165	0x3d28b3c4	0.041187063
166	0x3d21ba28	0.039484173
167	0x3cd53770	0.026027411
168	0x3c944d72	0.018103335
169	0x3d4a1f87	0.049346473
170	0x3d9b2124	0.075746804
171	0x3c0eb6cd	0.008710575
172	0x3c861ee6	0.016372155
173	0x3a0c0ae6	0.00053422
174	0xbd9471b0	-0.07248247
175	0xbd178b83	-0.036998283
176	0x3cbf4b64	0.023351379
177	0xbdac0f55	-0.08401362
178	0xbcfc47d0	-0.030795962
179	0xbc676669	-0.014123538
180	0xbc9fc6d3	-0.019503986
181	0x3bce6af3	0.0062993704
182	0x3cee7306	0.029107582
183	0xbc82c293	-0.01596192
184	0xbd4b36c3	-0.04961277
185	0x3ce5d0de	0.028053697
186	0x3d39a329	0.045321617
187	0xbc9524d0	-0.01820603
188	0xbd31d9b9	-0.043420527
189	0xbd1876a2	-0.037222512
190	0xbddedad4	-0.10881582
191	0xbe1553ca	-0.14582744
192	0xbe0f3cbf	-0.13988017
193	0xbd64db70	-0.055873334
194	0xbc15b81e	-0.009138135
195	0xbd95724a	-0.072971895
196	0xbde480aa	-0.11157353
197	0xbd4a5e0d	-0.0494061
198	0x3d8620bd	0.06549213
199	0x3c574ec5	0.013141339
200	0x3d0c27c7	0.034217622
201	0x3d81f85b	0.06346198
202	0xbc85b153	-0.016319906
203	0x3cfa2f4d	0.030540133
204	0x3ddb2b5a	0.10701628
205	0xbd144b03	-0.03620435
206	0xbb733e07	-0.0037115829
207	0x3d7d574f	0.061850842
208	0x3d9c74ab	0.0763944
209	0x3da5901f	0.080841295
210	0xbd0e2933	-0.03470726
211	0x3badcb29	0.0053037596
212	0x3d7423e7	0.05960455
213	0xbca808b3	-0.02051196
214	0x3dbdd5e1	0.0926931
215	0x3dab9df2	0.08379735
216	0x3d864283	0.06555655
217	0xbac2eaf9	-0.0014871053
218	0xbc0f72c2	-0.008755388
219	0x3d791759	0.06081328
220	0x3d3d1007	0.046157863
221	0xbd184801	-0.037178043
222	0x3d1b193b	0.03786586
223	0xbcc3c122	-0.023895804
224	0xbb2ce52c	-0.0026381714
225	0xbd1e042c	-0.038578197
226	0xbd0e0142	-0.03466917
227	0xbe06297e	-0.13101766
228	0xbd589820	-0.052879453
229	0xbdde87da	-0.108657554
230	0xbde8b8b3	-0.113633536
231	0xbd61437e	-0.054996006
232	0xbdeaf60f	-0.11472713
233	0xbd4abc24	-0.04949583
234	0x3da2ec7e	0.079552636
235	0x3dd5da2b	0.10442003
236	0xbc13cce5	-0.009021019
237	0x3c564b69	0.013079503
238	0x3d2fe7b6	0.042945586
239	0x3c9c0d86	0.019049417
240	0x3d9a50a5	0.07534913
241	0x3c5ab042	0.013347687
242	0xbba4e62d	-0.005032322
243	0xbc792e9f	-0.015208869
244	0xbd8a7e5c	-0.067623824
245	0xbca5d246	-0.020241868
246	0xbda6cfb3	-0.08145084
247	0xbd8a5c9f	-0.06755947
248	0xbd81756b	-0.06321224
249	0xbda4c8ae	-0.08046089
250	0xbd9a79c5	-0.07542757
251	0xbd30e1ac	-0.043183967
252	0x3b87d4db	0.0041452474
253	0x3d4ba246	0.049715303
254	0xbd2a1dd9	-0.04153237
255	0x3b47a489	0.003046306

down1.go_down.1.conv2x.1.c.1.bias f4 [32]
0	0xbdf004a7	-0.11719637
1	0xbd8527f9	-0.06501765
2	0xbe463ada	-0.19358388
3	0xbda6b8df	-0.0814073
4	0xbddaa4bc	-0.10675952
5	0xbdc9615e	-0.098330244
6	0x3d88460c	0.066539854
7	0x3def83c8	0.11695057
8	0xbce5247b	-0.027971497
9	0xbdad6be2	-0.08467843
10	0xbdeac683	-0.11463644
11	0xbd7975a5	-0.06090321
12	0x3c816752	0.015796337
13	0xbd5428ab	-0.051796596
14	0x3d871ac3	0.06596901
15	0xbe02262d	-0.12709875
16	0x3ddaf391	0.10690988
17	0xbcf4fe00	-0.029906273
18	0xbd97cb0a	-0.074117735
19	0x3c755359	0.014973485
20	0x3db164df	0.08661818
21	0xbe2adf25	-0.16686685
22	0x3d8e6f7d	0.069548585
23	0xbd4c1c39	-0.049831603
24	0x3d6f20a8	0.058380753
25	0xbdcf05bf	-0.10108518
26	0xbdbb9f8f	-0.09161293
27	0xbc9f085c	-0.019413166
28	0xbe0295c0	-0.12752438
29	0xbdaf75f8	-0.08567423
30	0x3d9ba79f	0.076003306
31	0x3dc8e7b2	0.098098174

down1.go_down.1.conv2x.1.c.1.running_mean f4 [32]
0	0xbeca8a8a	-0.39558822
1	0xbd93135e	-0.071814284
2	0x40177246	2.3663497
3	0xbf2a68b9	-0.66566044
4	0x3f2d85ce	0.67782295
5	0x4055a63e	3.3382716
6	0x40c1b840	6.0537415
7	0xc01c641d	-2.4436104
8	0xbf3d1a2c	-0.7386806
9	0xbf4bde52	-0.7963611
10	0xbfa567b2	-1.292227
11	0xbf80ce20	-1.0062904
12	0x3fd57258	1.667552
13	0x3ec094e4	0.37613595
14	0x3f75377a	0.95787776
15	0x3fd971de	1.6987875
16	0xc0554e14	-3.3328905
17	0xbf8fa94d	-1.1223541
18	0x3f838b7a	1.027694
19	0x3f283dbc	0.657192
20	0x3fb5ece4	1.4212918
21	0xbeb91444	-0.36148274
22	0x3fdae626	1.7101486
23	0x3f26c1f8	0.6513972
24	0x3ff8c599	1.9435302
25	0x3eadcc93	0.3394514
26	0x3ee4a3b8	0.44656157
27	0x3f84c5dc	1.0372882
28	0xc081d706	-4.057498
29	0xc0fce8de	-7.903426
30	0x401ebca4	2.4802637
31	0x40a73dba	5.226285

down1.go_down.1.conv2x.1.c.1.running_var f4 [32]
0	0x3f854424	1.041142
1	0x41195bf5	9.58495
2	0x4144c7db	12.298793
3	0x412da52c	10.852825
4	0x4101f006	8.121099
5	0x400a348e	2.1594577
6	0x40b9fce2	5.8121195
7	0x419021d0	18.01651
8	0x4001bf0e	2.027286
9	0x408dba1f	4.42897
10	0x410b089c	8.689602
11	0x401db3f2	2.464108
12	0x41560566	13.376318
13	0x40c7b0e2	6.240342
14	0x4095341b	4.6626105
15	0x408ecda6	4.4626036
16	0x4174bca0	15.296051
17	0x40eef204	7.467043
18	0x41532980	13.197632
19	0x409e6d16	4.950816
20	0x4103e401	8.243165
21	0x3f84d774	1.0378251
22	0x41656471	14.337022
23	0x40ae96ba	5.4558992
24	0x40b8992a	5.768697
25	0x4117fec8	9.499702
26	0x40f5fcfc	7.687132
27	0x3fe3c779	1.7795249
28	0x40727f28	3.789011
29	0x408dccfc	4.4312725
30	0x406b90a0	3.6807022
31	0x40c94842	6.2900705

down1.go_down.1.conv2x.1.c.1.weight f4 [32]
0	0x3f6b4681	0.91904455
1	0x3f7cce8e	0.9875268
2	0x3f4fcc58	0.8117118
3	0x3f640cd1	0.89082056
4	0x3f82be72	1.0214369
5	0x3f6cd1b0	0.9250746
6	0x3f8a71d8	1.0815992
7	0x3f91661b	1.1359285
8	0x3f78a65b	0.9712884
9	0x3f606287	0.8765034
10	0x3f5cfa41	0.8631936
11	0x3f7eda23	0.995516
12	0x3f7cc1de	0.9873332
13	0x3f6962bb	0.91166276
14	0x3f6970f3	0.9118797
15	0x3f886341	1.065529
16	0x3f7f9adc	0.9984567
17	0x3f87b0e1	1.0600854
18	0x3f6cc7ac	0.92492175
19	0x3f74274c	0.9537246
20	0x3f816f9e	1.0112188
21	0x3f5cb9e0	0.8622112
22	0x3f8b447f	1.0880278
23	0x3f5dd60b	0.8665473
24	0x3f86bbb2	1.052603
25	0x3f7d00cf	0.9882936
26	0x3f8bc182	1.0918429
27	0x3f6abd26	0.9169487
28	0x3f607b0e	0.87687767
29	0x3f74d1db	0.95632714
30	0x3f8b272e	1.0871332
31	0x3f8dbd02	1.1073306

down2.go_down.1.conv2x.0.c.0.bias f4 [64]
0	0xbc9b1364	-0.018930145
1	0xbd297221	-0.041368607
2	0xbcd63fdf	-0.026153503
3	0xbc0a548e	-0.008443011
4	0x3cacac12	0.021078143
5	0x3d5a709f	0.05333006
6	0x3a810e64	0.0009846208
7	0x3d3ed3e1	0.046588782
8	0x3c6f9996	0.01462402
9	0xbd1063b3	-0.03525133
10	0xbd515d4c	-0.051114365
11	0x3d11267f	0.035437103
12	0xbd1a091c	-0.037606344
13	0xbb861c59	-0.004092735
14	0xbd3e2da9	-0.046430264
15	0x3d5eace4	0.0543641
16	0xbd39556b	-0.045247477
17	0x3d501410	0.050800383
18	0xbc8cc9c3	-0.017186051
19	0xbc7df87a	-0.015501136
20	0x3d1ac8ff	0.03778934
21	0xbd267acb	-0.04064445
22	0x3d2fd2a2	0.042925484
23	0x3d2d61c4	0.042329565
24	0x3cee20c5	0.02906836
25	0xba08c3f8	-0.000521719
26	0x3d6e00d1	0.058106247
27	0xbce044f3	-0.027376628
28	0x3d1bd8bc	0.03804849
29	0x3d26cbcb	0.040721696
30	0x3bdfe761	0.0068330024
31	0x3c4e55c5	0.012593691
32	0xbb065845	-0.002049939
33	0xbd590f66	-0.0529932
34	0x3ce00929	0.027348118
35	0xbd142316	-0.036166273
36	0x3d57a518	0.05264768
37	0x3c9de017	0.019271893
38	0xbd187fbb	-0.03723119
39	0xbb6be243	-0.0035993017
40	0xbd792c12	-0.060833044
41	0x3d2bee54	0.041975334
42	0xbcd466f5	-0.025928
43	0xbcf6ad04	-0.030111797
44	0x38269fe0	3.972638e-05
45	0x3cfca5e5	0.030840823
46	0xbd627dc8	-0.055295736
47	0x3cd3a34c	0.025834702
48	0x3aad7ea0	0.001323659
49	0x3c808ace	0.015691187
50	0x3a53927c	0.0008070839
51	0xbd59c5ec	-0.05316727
52	0x3cc9c6e6	0.024630975
53	0x3c7706ff	0.015077352
54	0x3d419e70	0.04727024
55	0x3d03656b	0.03207914
56	0x3c0bae4c	0.008525442
57	0xbd00915c	-0.031388626
58	0x3cbac632	0.022799585
59	0x3d5bb480	0.053638935
60	0xbc452717	-0.0120332455
61	0x3cb4eec8	0.022086516
62	0xbd6c813f	-0.057740446
63	0x3ca0899a	0.019596864

down2.go_down.1.conv2x.0.c.0.weight f4 [64, 32, 3, 3]
0	0x3d08779d	0.033317197
1	0x3d0e23bf	0.03470206
2	0x3c839397	0.016061587
3	0x3e008432	0.12550429
4	0x3df88d63	0.121363424
5	0x3d94206f	0.07232749
6	0x3debff0c	0.11523256
7	0x3da85d52	0.082209244
8	0xbbd74c20	-0.006570354
9	0xbe0f0943	-0.13968377
10	0xbd546dd2	-0.051862545
11	0xbdb0f2b2	-0.086400405
12	0xbc23056a	-0.009950021
13	0xbdd32e66	-0.10311584
14	0xbd20d86b	-0.039268892
15	0x3c7978b9	0.015226536
16	0xbcba184e	-0.022716668
17	0xbdca0b18	-0.09865397
18	0x3da7ad8f	0.081874005
19	0x3dc60bf3	0.09670248
20	0x3d973f00	0.07385063
21	0x3cd70960	0.026249588
22	0x3e0bbb94	0.13645774
23	0x3c87c00b	0.016571065
24	0x3d12a0a5	0.035797734
25	0x3db438d5	0.08799902
26	0x3ddf3d20	0.109003305
27	0xbdbb9ff6	-0.091613695
28	0xbdc45f1f	-0.095884554
29	0xbdcb114a	-0.09915407
30	0xbd83ffb9	-0.064452596
31	0xbd37a5d3	-0.044835877
32	0xbdd1091b	-0.10206815
33	0xbd8f9233	-0.07010307
34	0xbdd19c23	-0.10234859
35	0xbaaf89ac	-0.001339247
36	0xbda15ebb	-0.078793965
37	0xbda8ebbc	-0.08248088
38	0xbd997620	-0.07493234
39	0xbdb039c0	-0.08604765
40	0xbdc62d42	-0.09676601
41	0xbd0c22d8	-0.034212917
42	0xbe02d66a	-0.12777105
43	0x3bb36608	0.0054748096
44	0xbd7c1b92	-0.06154973
45	0xbd80a53c	-0.06281516
46	0xbd6b0d0e	-0.057385497
47	0xbdd6f9a1	-0.10496832
48	0xbc9b705f	-0.018974481
49	0xbd1dfe89	-0.03857282
50	0xbde4161a	-0.11137028
51	0xbd933f76	-0.071898386
52	0xbd266f49	-0.040633474
53	0xbe0acbda	-0.13554326
54	0xbdeafa1e	-0.11473487
55	0xbe27e2db	-0.16395132
56	0xbd9451c5	-0.07242159
57	0xbde5ba17	-0.112171344
58	0xbd9b41a9	-0.07580883
59	0xbd8f3acf	-0.06993639
60	0xbd8c3d74	-0.06847659
61	0xbd89f3f3	-0.06735983
62	0xbc55bec2	-0.0130459685
63	0xbd820984	-0.06349471
64	0xbd23817e	-0.039918415
65	0xbde38730	-0.11109769
66	0xbd9a9524	-0.075479776
67	0xbda79a3c	-0.08183715
68	0xbd2d2826	-0.042274617
69	0xbe0a46fe	-0.13503644
70	0xbda61271	-0.08108986
71	0xbc4cb1e0	-0.012493581
72	0xbdde4cb2	-0.10854472
73	0xbd2d4241	-0.042299513
74	0xbdd25526	-0.10270147
75	0xbe005353	-0.12531786
76	0xbe04de42	-0.1297541
77	0xbe059509	-0.13045134
78	0xbd5a099e	-0.053231828
79	0xbd853a03	-0.065052055
80	0xbd43918f	-0.047746237
81	0xbdcd88e9	-0.10035879
82	0xbd0c6f12	-0.034285612
83	0xbdeadd18	-0.114679515
84	0xbdd38655	-0.10328356
85	0xbdbbf60b	-0.09177788
86	0x3c6640b8	0.014053516
87	0xbdc2f754	-0.0951983
88	0x3c124780	0.00892818
89	0x3c6ce47e	0.014458774
90	0x3cb88e30	0.022528738
91	0x3c7253df	0.014790504
92	0x3df92787	0.12165742
93	0x3dafe5ac	0.08588728
94	0x3d6d5a9f	0.05794775
95	0x3da8c2fb	0.082403146
96	0x3db21c2a	0.08696778
97	0xbbf35a9a	-0.007426572
98	0x39fa1616	0.0004770017
99	0xbdafba3d	-0.08580444
100	0x3c2f4b86	0.010699159
101	0xbd4b42df	-0.04962432
102	0xbd930a46	-0.07179694
103	0xbc25a1df	-0.010109394
104	0xbdb643fd	-0.088996865
105	0xbdac1ac0	-0.0840354
106	0xbd6a51aa	-0.057206787
107	0xbdac8c03	-0.084251426
108	0xbdee4857	-0.116348915
109	0xbdb85cb8	-0.0900206
110	0xbd47cc77	-0.048778977
111	0xbdf0bde2	-0.11754967
112	0xbe11ea90	-0.14249635
113	0x3ca85e5f	0.020552812
114	0xbd3384cb	-0.043827813
115	0xbd8e31b7	-0.06943076
116	0x3c8b4f9e	0.017005738
117	0xbcf0c3db	-0.029390266
118	0xbd8fd538	-0.0702309
119	0xbdc7b839	-0.097519346
120	0xbd7b4b69	-0.061351214
121	0xbd1bfd9d	-0.03808366
122	0xbd8d9c97	-0.06914633
123	0xbd9c0a9e	-0.076192126
124	0x3bbd6872	0.005780273
125	0xbd6e2f48	-0.05815056
126	0xbcaf2884	-0.021381624
127	0xbd3ccd84	-0.046094432
128	0xbdaa343c	-0.08310744
129	0xbdeb48c0	-0.11488485
130	0xbd36fb49	-0.044673238
131	0xbcca3e87	-0.024688018
132	0xbdc866ef	-0.09785258
133	0xbbf011c7	-0.007326338
134	0xbcac0a4d	-0.021001006
135	0xbdedd6e5	-0.116132535
136	0xbd9c0e72	-0.07619943
137	0xbc946bc2	-0.01811779
138	0xbdc7e6ab	-0.09760793
139	0xbcdbc6b9	-0.026828157
140	0xbd36004e	-0.044433884
141	0xbdc18756	-0.094496414
142	0x3c485f4b	0.012229751
143	0x3c0f068d	0.008729589
144	0x3d0eb6ec	0.034842417
145	0x3d94b79f	0.072615854
146	0x3dcb3dc8	0.09923893
147	0x3e11b917	0.14230762
148	0x3d60b183	0.05485679
149	0x3d1e8ad7	0.038706627
150	0x3d5de90c	0.05417733
151	0x3c9e3719	0.019313382
152	0x3d586562	0.05283106
153	0x3dbae7e3	0.0912626
154	0x3d4684af	0.04846638
155	0x3de7d72d	0.113203384
156	0x3d5d64e4	0.054051295
157	0x3e0f09bb	0.13968556
158	0x3de5aa95	0.112141766
159	0x3df76571	0.12079895
160	0x3e142a73	0.14469318
161	0x3cba6327	0.022752358
162	0xbe1e8c49	-0.15483202
163	0xbdc8d6f3	-0.09806623
164	0xbd891f21	-0.066953905
165	0xbd9ad558	-0.07560223
166	0xbd873f8b	-0.06603917
167	0xbdcd9d1d	-0.100397326
168	0xbdc5a38c	-0.09650335
169	0xbdb5c47b	-0.08875366
170	0xbdebaaac	-0.115071625
171	0xbddfca9b	-0.10927316
172	0xbdac68bc	-0.08418414
173	0xbce4c03b	-0.027923694
174	0xbdbde99c	-0.09273073
175	0xbd080eaa	-0.03321711
176	0xbe06e68c	-0.13173884
177	0xbd402c67	-0.046917345
178	0xbd52b63c	-0.051443323
179	0xbde5f5e1	-0.11228538
180	0x3dc14b11	0.09438146
181	0x3de23cb8	0.110467374
182	0x3dd0b771	0.10191239
183	0x3dcf9862	0.101364866
184	0x3cdaf646	0.02672876
185	0x3d928bb2	0.07155551
186	0x3d870596	0.06592862
187	0x3db2eead	0.0873693
188	0xbce47124	-0.02788598
189	0xbddb6013	-0.10711684
190	0xbafc8899	-0.0019266783
191	0x3bb6a248	0.0055735447
192	0xbcacbc0f	-0.021085767
193	0xbd8b58ef	-0.06804072
194	0xbccea02c	-0.02522286
195	0x3abc499e	0.0014365201
196	0xbd7702a4	-0.060305253
197	0xbd2cb751	-0.04216701
198	0xbd493e4d	-0.04913168
199	0xbce0223b	-0.027360072
200	0xbd1b2475	-0.037876565
201	0xbdad5534	-0.08463517
202	0xbbb601d0	-0.0055544153
203	0x3b689718	0.003549045
204	0xbdfac4c0	-0.12244558
205	0x3ccf7e12	0.02532867
206	0xbb8d4cd5	-0.0043121376
207	0xbdad5cf2	-0.084649935
208	0xbc9e5f31	-0.0193325
209	0x3cdff658	0.027339146
210	0xbd09a9db	-0.033609252
211	0xbd7bb034	-0.061447337
212	0xbdc549a4	-0.096331865
213	0xbde6176e	-0.112349376
214	0xbe0ac804	-0.13552862
215	0xbd39cef1	-0.04536337
216	0x3d701fc4	0.058624044
217	0x3d8702ae	0.06592308
218	0x3d9ffd44	0.078119785
219	0x3da9b6cb	0.08286818
220	0x3d6d7f2e	0.057982616
221	0xba4c40d8	-0.0007791645
222	0x3deb2926	0.11482458
223	0x3d206642	0.03916002
224	0x3dab2f89	0.08358676
225	0xbd5a9f6e	-0.0533747
226	0xbdcad73b	-0.09904333
227	0xbbfab114	-0.007650504
228	0xbdd9cd12	-0.10634817
229	0xbd264f43	-0.040602934
230	0xbd3c6654	-0.045996025
231	0xbd64527e	-0.055742733
232	0x3c822f73	0.015891766
233	0xbdd4b463	-0.103859685
234	0xbdce23cb	-0.10065421
235	0xbde245d3	-0.11048474
236	0xbe1ae235	-0.15125354
237	0xbd739a41	-0.05947328
238	0xbd28263a	-0.04105208
239	0xbc33bbc4	-0.01097006
240	0xbdcd796d	-0.10032926
241	0x3d85d175	0.065340914
242	0xbe1c0787	-0.15237246
243	0xbd902df5	-0.070400156
244	0xbd6ea036	-0.058258258
245	0xba130ebc	-0.00056098006
246	0xbdbe79d5	-0.09300581
247	0xbce755fe	-0.028239246
248	0xbdfa96e0	-0.12235808
249	0xbd382c08	-0.044963866
250	0xbdac0410	-0.08399212
251	0xbdc64c2e	-0.09682499
252	0x3d41ee1a	0.047346212
253	0x3d870d8b	0.0659438
254	0x3d964785	0.0733786
255	0x3de8e9f8	0.11372751

down2.go_down.1.conv2x.0.c.1.bias f4 [64]
0	0x3db4b4ac	0.08823523
1	0xbd7d4de9	-0.06184188
2	0xbe0c1ac1	-0.13682081
3	0x3ddc4f9b	0.10757371
4	0x3c0b8592	0.008515732
5	0x3e19d27f	0.15021704
6	0xbd4f7a0b	-0.0506535
7	0xbd51008b	-0.05102591
8	0x3b780782	0.0037846272
9	0xbce870c0	-0.028374076
10	0xbddc6fa6	-0.10763483
11	0xbc5a9427	-0.013340986
12	0x3db1cd78	0.08681768
13	0xbca80082	-0.020508055
14	0x3d5ee9bb	0.05442212
15	0x3d869a27	0.06572371
16	0xbd99a366	-0.07501869
17	0xbca7b7bf	-0.02047336
18	0xbdb6d923	-0.08928134
19	0x3afb7e16	0.0019187357
20	0x3d3d094e	0.04615145
21	0xbc5adfc0	-0.01335901
22	0xbe0220f6	-0.12707886
23	0xbdd6fc2d	-0.104973175
24	0x3d4eaec0	0.050459623
25	0xbdbb98e4	-0.09160021
26	0x3dc53c25	0.09630612
27	0x3c7ee042	0.015556397
28	0x396a8dbc	0.00022368779
29	0xbdac93ac	-0.08426604
30	0xbcb435b1	-0.021998258
31	0xbde44a7e	-0.11147021
32	0x3c22b381	0.009930492
33	0xbdd5f8b6	-0.104478285
34	0xbdab2fdd	-0.083587386
35	0xbd9c3575	-0.076273836
36	0x3d5857a2	0.05281795
37	0x3d8afe65	0.06786803
38	0xbdc85ddb	-0.097835265
39	0xbdc1487d	-0.09437654
40	0x3c712037	0.014717153
41	0xbddbadf1	-0.10726536
42	0x3d369f90	0.044585764
43	0x3d77575d	0.06038605
44	0xbe19bc87	-0.15013324
45	0xbb27703c	-0.0025549075
46	0xbd640918	-0.055672735
47	0xbe0acaf0	-0.13553977
48	0x3d1a03c3	0.037601244
49	0xbdc12a19	-0.094318576
50	0x3d1a9820	0.037742734
51	0x3ca24324	0.019807406
52	0xbd84301f	-0.06454491
53	0xbcfa4c38	-0.030553922
54	0xbde97e56	-0.1140105
55	0xbe0141e1	-0.12622787
56	0x3d5ebf01	0.054381374
57	0xbdd70c1d	-0.10500357
58	0xbdb4d703	-0.08830073
59	0xbdb92a6d	-0.09041295
60	0x3d2c303a	0.04203818
61	0x3c7c2e32	0.015391873
62	0x3d2ee182	0.04269553
63	0xbd1c5c0f	-0.03817373

down2.go_down.1.conv2x.0.c.1.running_mean f4 [64]
0	0xc02ace16	-2.6688285
1	0xc03b489b	-2.9263065
2	0x3f17dc03	0.59320086
3	0xc01d0a6f	-2.4537618
4	0x3f92dff2	1.1474593
5	0x3ffed7e4	1.9909635
6	0xc01ddd68	-2.4666386
7	0x3e79ce64	0.24395138
8	0x3fb41046	1.4067466
9	0x40726be0	3.7878342
10	0x400162c7	2.021654
11	0xbf806363	-1.003033
12	0xbf8a6d32	-1.0814574
13	0x3f55cb75	0.83513576
14	0x3f73a05a	0.9516655
15	0xc020bb67	-2.5114381
16	0x400abfbf	2.1679533
17	0x3fc885e3	1.5665859
18	0x3fcceb07	1.6009225
19	0x3f9f5db2	1.2450469
20	0x3ef78738	0.4834535
21	0xc01c4fc3	-2.4423683
22	0x3e2bf37a	0.16792098
23	0xbfa2e716	-1.2726772
24	0x404ce50a	3.2014794
25	0xbdd593be	-0.1042857
26	0xbf0782d7	-0.5293402
27	0x4012718e	2.2881808
28	0x40013edc	2.0194616
29	0x3cc3af54	0.023887314
30	0x3f879e6b	1.059522
31	0xc004b812	-2.0737348
32	0x3ede150a	0.43375427
33	0x3fdcb488	1.7242594
34	0xbff906e2	-1.9455225
35	0xc02828d1	-2.6274912
36	0x3f53bd4c	0.8271072
37	0xc027bd90	-2.620945
38	0x3f2fe178	0.68703413
39	0xbfa4929b	-1.285724
40	0x4083a7e2	4.1142435
41	0x3f16aacc	0.58854365
42	0x3f0244ea	0.50886405
43	0x3fe94e3e	1.8227003
44	0x3f0c4a0c	0.54800487
45	0x3eeff838	0.46869063
46	0xc02f48c6	-2.7388167
47	0x40728983	3.789643
48	0x3f97ce28	1.1859789
49	0xbfac7698	-1.3473692
50	0x3e6c2cf7	0.23064028
51	0x3fbd687a	1.4797509
52	0x3fc71a7a	1.5554955
53	0xc08a758a	-4.326848
54	0xbfd2cef1	-1.6469404
55	0x3f08dbf1	0.53460604
56	0x3f8d4048	1.1035242
57	0xc025656c	-2.5843153
58	0xc03c1c32	-2.939221
59	0x3f11564c	0.56772304
60	0xbf870be2	-1.0550501
61	0x3fb29127	1.3950547
62	0x3fc0c64c	1.5060515
63	0x3f0c65fd	0.5484312

down2.go_down.1.conv2x.0.c.1.running_var f4 [64]
0	0x41076b8a	8.463755
1	0x41a8aca0	21.08429
2	0x401a7ed3	2.4139907
3	0x4068f47d	3.6399224
4	0x406432d4	3.5656023
5	0x410f9fa2	8.976473
6	0x40e8a002	7.269532
7	0x403aa028	2.9160252
8	0x3fa132c9	1.2593623
9	0x41a196f8	20.198715
10	0x40fd304c	7.9121456
11	0x411fa880	9.978638
12	0x3ebe53c0	0.3717327
13	0x402a99be	2.6656337
14	0x3faa0896	1.328387
15	0x415e4521	13.891877
16	0x40c16c71	6.0444875
17	0x403abee5	2.9179013
18	0x401a435e	2.4103618
19	0x400ad5f9	2.1693099
20	0x4065d794	3.5912828
21	0x412de95c	10.8694725
22	0x40636c4d	3.5534852
23	0x411f81cf	9.969192
24	0x418136ff	16.151854
25	0x40e16eff	7.0447993
26	0x3ef690a4	0.48157227
27	0x410fc39f	8.985259
28	0x40ad4162	5.4142313
29	0x3fd7b2c8	1.6851435
30	0x4029d458	2.6535854
31	0x41c0b66d	24.089075
32	0x40f60dd3	7.6891875
33	0x4019a595	2.4007313
34	0x411e39fc	9.889156
35	0x414da61a	12.853052
36	0x40c36db6	6.1071424
37	0x4113fff5	9.2499895
38	0x4021898d	2.5240204
39	0x412ed87a	10.927851
40	0x41aca0c3	21.578497
41	0x4061956f	3.5247457
42	0x409ca0b8	4.894619
43	0x412a9b0f	10.662856
44	0x40097c52	2.148213
45	0x40bf820c	5.984625
46	0x4161b099	14.105615
47	0x4194813c	18.563103
48	0x40560b78	3.34445
49	0x409e2cc3	4.942964
50	0x40393855	2.8940632
51	0x40170fa7	2.3603303
52	0x403944e3	2.8948295
53	0x41edea07	29.739271
54	0x414e3bd0	12.889603
55	0x40530735	3.297315
56	0x40c09ad5	6.0189004
57	0x4135a5d8	11.352989
58	0x41e665b0	28.799652
59	0x409a78c7	4.8272433
60	0x40aa67b8	5.325161
61	0x40de0cd0	6.939064
62	0x414e18e1	12.881074
63	0x3fc2d0af	1.5219935

down2.go_down.1.conv2x.0.c.1.weight f4 [64]
0	0x3f8cf44d	1.1012055
1	0x3f68d56d	0.9095066
2	0x3f776c26	0.96649396
3	0x3f86afe8	1.0522432
4	0x3f835fbc	1.0263591
5	0x3f76c1d8	0.9638953
6	0x3f784b35	0.96989757
7	0x3f714191	0.9424067
8	0x3f8d4771	1.1037427
9	0x3f877b3f	1.0584487
10	0x3f5b4ea4	0.8566687
11	0x3f74930a	0.95536864
12	0x3f8962d3	1.0733284
13	0x3f7c4f2d	0.9855831
14	0x3f8adc5f	1.0848502
15	0x3f877869	1.0583621
16	0x3f66ef1d	0.9020861
17	0x3f8317fa	1.0241692
18	0x3f604885	0.87610656
19	0x3f7721b7	0.9653582
20	0x3f84c50d	1.0372635
21	0x3f6494f4	0.89289784
22	0x3f8ebda1	1.115162
23	0x3f5cd364	0.86260056
24	0x3f88e64e	1.0695283
25	0x3f697251	0.9119006
26	0x3f7a5e58	0.9780021
27	0x3f84afda	1.0366166
28	0x3f8dc27a	1.1074975
29	0x3f5a6585	0.85311157
30	0x3f8ffa06	1.1248176
31	0x3f572876	0.84046113
32	0x3f7ebd30	0.9950743
33	0x3f60e0dc	0.8784311
34	0x3f65eb07	0.8981175
35	0x3f68a752	0.9088031
36	0x3f89ce63	1.0766109
37	0x3f704509	0.9385534
38	0x3f8ccdaf	1.100027
39	0x3f729d4d	0.9477127
40	0x3f8c926e	1.0982187
41	0x3f5d1768	0.8636384
42	0x3f8e8860	1.1135368
43	0x3f8525f3	1.0402206
44	0x3f8bd5df	1.0924643
45	0x3f8d6605	1.1046759
46	0x3f720dd8	0.94552374
47	0x3f793ae3	0.9735548
48	0x3f8146fc	1.0099788
49	0x3f6704c8	0.9024167
50	0x3f8eb244	1.1148152
51	0x3f70ebc6	0.9410976
52	0x3f758889	0.9591146
53	0x3f6700cd	0.90235597
54	0x3f5d1170	0.8635473
55	0x3f8b8089	1.0898601
56	0x3f858150	1.0430088
57	0x3f60c774	0.8780434
58	0x3f67ffc3	0.90624636
59	0x3f945adc	1.1590228
60	0x3f8b3bc1	1.087761
61	0x3f79025b	0.9726922
62	0x3f840b8b	1.0316023
63	0x3f7745b6	0.96590745

down2.go_down.1.conv2x.1.c.0.bias f4 [64]
0	0x3af7fcf2	0.0018919988
1	0xbb7c8ca1	-0.003853597
2	0x3c51fbd9	0.012816393
3	0x3d18c204	0.037294403
4	0xbc86a1ca	-0.016434569
5	0xbb95c2fc	-0.004570363
6	0xbd2849ec	-0.041086122
7	0xbd0eb3d3	-0.034839462
8	0xbcde5e5b	-0.027144602
9	0x3ce7c9a6	0.028294396
10	0xbaded7cb	-0.0017001567
11	0x3d4294e2	0.047505267
12	0xbcf2180e	-0.029552486
13	0xbcb814e9	-0.022470908
14	0x3c687bdd	0.014189688
15	0xbce48f40	-0.027900338
16	0x3aa20564	0.0012361226
17	0xbcecdd3a	-0.028914083
18	0x3cc5d16c	0.024147712
19	0xbd1eaf26	-0.038741253
20	0x3d11486d	0.03546946
21	0x3b80f124	0.003934996
22	0xbd121cf5	-0.035672147
23	0xbcdf754a	-0.027277607
24	0xbc94b5c6	-0.018153083
25	0xbcd30c38	-0.025762662
26	0x3cc2e365	0.02379007
27	0x3ca51642	0.020152215
28	0x3c2e086a	0.010622123
29	0xbc86021e	-0.016358431
30	0x3b16cedd	0.0023011484
31	0x3d2680e1	0.040650252
32	0x3d28c3cd	0.041202355
33	0xbd0399b3	-0.032129
34	0x3cb13830	0.021633238
35	0x3c019be6	0.007910704
36	0xbcf64fc3	-0.03006733
37	0x3c9a8052	0.018860016
38	0xbc8733ef	-0.016504256
39	0x3cfffe89	0.031249302
40	0xbcedfaba	-0.02905022
41	0xbc4cc8e7	-0.012499071
42	0xbba10a5f	-0.0049145664
43	0x3c68a402	0.014199259
44	0xbd0b65e1	-0.034032706
45	0xbba8d534	-0.005152369
46	0x3cf1fa2e	0.02953824
47	0x3d1e93ea	0.03871528
48	0xbbd7cb08	-0.0065854825
49	0x3d105de0	0.035245776
50	0x39a8ccd9	0.0003219608
51	0x3ba07375	0.004896576
52	0xbb28db02	-0.0025765304
53	0xbd192d4e	-0.03739672
54	0x3d0ccdc1	0.03437591
55	0x3c86cd4c	0.016455315
56	0xbd03cc34	-0.032177165
57	0x3d20b8b5	0.03923865
58	0x3c6c8b31	0.014437483
59	0xbb2772e1	-0.002555065
60	0x3beba008	0.007190708
61	0xbc0b27e0	-0.008493394
62	0x3d0bb20b	0.034105342
63	0x3ce4a196	0.027909081

down2.go_down.1.conv2x.1.c.0.weight f4 [64, 64, 3, 3]
0	0xbda5854e	-0.080820665
1	0xbd9c1968	-0.07622033
2	0xbd0660be	-0.032807104
3	0xbd857d07	-0.06517988
4	0xbd3b124e	-0.045671754
5	0xbd3fa32b	-0.04678647
6	0xbdbabfff	-0.091186516
7	0xbdc2cfb5	-0.09512273
8	0xbb7e1a65	-0.0038773057
9	0xbb9d7f74	-0.0048064534
10	0x3c74c67e	0.014939902
11	0xbcdd8bf7	-0.02704428
12	0xbc57d82c	-0.013174098
13	0xbd69b412	-0.057056494
14	0xbd8b0474	-0.06787959
15	0xbdea0d99	-0.11428375
16	0xbdb4f369	-0.08835489
17	0xbd49a0da	-0.049225666
18	0xbcb2194b	-0.021740576
19	0xbd4f95be	-0.050679915
20	0xbdb037b1	-0.08604372
21	0xbd9d4398	-0.07678908
22	0xbd61b68b	-0.055105727
23	0xbd649ea8	-0.05581537
24	0xbdd13bb5	-0.10216466
25	0xbceb9125	-0.028755734
26	0xbcfccf56	-0.030860584
27	0x3cc40bb9	0.023931371
28	0x3d4a1508	0.049336463
29	0x3d7e72e7	0.0621213
30	0x3d7ef98f	0.062249716
31	0x3ca93930	0.020657152
32	0x3d1b9c00	0.03799057
33	0x3d75e794	0.060035303
34	0xbc7e78fb	-0.015531774
35	0xbc93a893	-0.018024718
36	0x3bc9febd	0.0061644004
37	0xbd247bfb	-0.0401573
38	0xbddd0b86	-0.107932135
39	0xbd14c583	-0.036321174
40	0xbdf9f2fb	-0.12204548
41	0xbda2c7e5	-0.07948283
42	0xbdb794f5	-0.08963958
43	0xbd891b34	-0.06694642
44	0xbdc5d9d5	-0.09660689
45	0xbd613326	-0.05498042
46	0xbd94a457	-0.07257908
47	0xbd6829cd	-0.05668049
48	0xbdbf74ae	-0.09348427
49	0xbdd90b3f	-0.10597848
50	0xbc66fb4a	-0.014097998
51	0xbd6bf1d0	-0.057603657
52	0xbd9f0036	-0.07763712
53	0xbd254f27	-0.04035869
54	0xbd9e7fc7	-0.07739215
55	0xbd27f27c	-0.041002735
56	0xbde29f64	-0.110655576
57	0xbd374fe3	-0.04475392
58	0xbdb5ab7d	-0.088705994
59	0xbdca99fd	-0.09892652
60	0xbd9d6223	-0.07684734
61	0xbd091faf	-0.03347748
62	0xbda2ffe8	-0.079589665
63	0xbd2f62d2	-0.04281885
64	0xbda3e5dd	-0.08002827
65	0xbdb8702e	-0.090057716
66	0xbd84ceb0	-0.06484735
67	0xbd40a303	-0.04703046
68	0xbcdfad32	-0.027304266
69	0xbd900fbe	-0.070342526
70	0xbd8fd01f	-0.07022118
71	0xbd77642e	-0.060398273
72	0xbd93fe2f	-0.07226216
73	0xbd8f7c3e	-0.07006119
74	0xbdfaffbd	-0.122558095
75	0xbdd294ec	-0.10282311
76	0xbd554d3c	-0.05207561
77	0xbde01a04	-0.10942462
78	0xbd93159b	-0.07181855
79	0xbda632b0	-0.081151366
80	0xbdfd2406	-0.123603866
81	0x3c47a4f4	0.012185324
82	0x3b171073	0.0023050576
83	0x3dd39caa	0.10332616
84	0xbd7767b9	-0.060401652
85	0x3d50cfdb	0.050979476
86	0x3d4aec0c	0.049541518
87	0x3de73c10	0.11290753
88	0x3d9be518	0.076120555
89	0x3d8950ef	0.0670489
90	0xbcdacbd1	-0.026708515
91	0xbd61d331	-0.05513305
92	0xbdbf1812	-0.09330763
93	0xbdd473a3	-0.103736185
94	0xbdd749da	-0.10512133
95	0xbd4c44bf	-0.04987025
96	0xbd7c9957	-0.061669674
97	0xbd969c42	-0.073540226
98	0xbd64c20c	-0.05584912
99	0xbcf36582	-0.029711489
100	0xbc784ff1	-0.015155778
101	0x3daec490	0.08533585
102	0xbe02e44c	-0.12782401
103	0xbd1c730f	-0.038195666
104	0xbc3c0178	-0.01147496
105	0xbd6d27a1	-0.05789912
106	0xbd37684f	-0.04477721
107	0xbd3495bf	-0.04408812
108	0x3de2a2a2	0.11066176
109	0x3d93f908	0.07225233
110	0x3db2f870	0.08738792
111	0x3d5e1e63	0.054228198
112	0x3db02358	0.08600491
113	0x3dfa218a	0.12213428
114	0x3d7a6bb3	0.061137866
115	0x3d681ed6	0.056670032
116	0x3dfd90f4	0.12381163
117	0xbdb39f88	-0.087706625
118	0xbdd06ac2	-0.101766124
119	0xbd99919a	-0.074984744
120	0xbdb8c74c	-0.09022388
121	0xbdc1d4e6	-0.09464435
122	0xbda573fd	-0.08078764
123	0xbdcdc1a7	-0.10046702
124	0xbdcf29cc	-0.10115394
125	0xbd231d70	-0.039822996
126	0xbddd8a3f	-0.10817384
127	0xbda63d7b	-0.08117195
128	0xbd627086	-0.055283092
129	0xbe054cf9	-0.13017644
130	0xbdb1e22c	-0.08685717
131	0xbdcd3a77	-0.10020917
132	0xbdf974c6	-0.12180476
133	0xbdbe892d	-0.09303508
134	0xbd9f41dc	-0.077762336
135	0x3daef999	0.08543701
136	0x3de78552	0.11304726
137	0x3d85baf1	0.06529797
138	0x3d71d77c	0.059043393
139	0x3d8dd145	0.069246806
140	0x3dcc1a45	0.09965948
141	0x3d846f9c	0.064666
142	0x3dca7c30	0.09886968
143	0x3d645d8d	0.05575328
144	0x3d83819f	0.06421208
145	0x3d26deb3	0.040739726
146	0x3daa3571	0.083109744
147	0x3d55d3e9	0.052204046
148	0x3dd55975	0.10417453
149	0x3ddd5da7	0.108088784
150	0x3d2e02c4	0.042483106
151	0x3d8d19ef	0.06889712
152	0x3db6e48a	0.08930309
153	0xbd1b89f3	-0.037973356
154	0xbdaa088f	-0.08302414
155	0xbd903844	-0.07041982
156	0xbdf42040	-0.11920214
157	0xbdf75b31	-0.1207794
158	0xbd14d9d0	-0.036340535
159	0xbd812c1f	-0.063072436
160	0xbd300f35	-0.042983253
161	0xbcb2a492	-0.021806989
162	0xbd2dd3fc	-0.042438492
163	0x3cee0afd	0.029057974
164	0x3ce316b4	0.027720787
165	0x3d36f78a	0.044669665
166	0x3d0ff4ea	0.035145678
167	0x3cc15f19	0.023604916
168	0x3c9c70d8	0.019096777
169	0xbb3a8990	-0.0028463341
170	0x3d0470d8	0.03233418
171	0x3d8abd5d	0.067743994
172	0x3db9af6c	0.09066662
173	0x3d8db8c6	0.06920008
174	0x3dc29122	0.09500338
175	0x3dcae0c7	0.09906154
176	0x3d870ac2	0.06593849
177	0x3d3c057f	0.04590368
178	0x3d9a9557	0.075480156
179	0x3d021535	0.031758506
180	0xbdc61e93	-0.096738
181	0xbd3492a4	-0.04408516
182	0xbcffb918	-0.03121619
183	0xbdbe7599	-0.09299774
184	0xbc91ffab	-0.017822107
185	0xbd30b043	-0.043136846
186	0xbd17e4ab	-0.03708331
187	0xbd177a1d	-0.03698169
188	0xbd3765c3	-0.044774782
189	0xbdb98c91	-0.09060014
190	0xbdda50f0	-0.10659969
191	0xbdcd12c2	-0.100133434
192	0xbd547eb8	-0.05187866
193	0xbde04466	-0.10950546
194	0xbd79df16	-0.061003767
195	0xbd8fd260	-0.07022548
196	0xbdba1227	-0.090854935
197	0xbd99ebb9	-0.07515664
198	0xbdbcb590	-0.09214318
199	0xbd0e8590	-0.034795344
200	0xbdb42b47	-0.08797317
201	0xbd825cfe	-0.06365393
202	0xbd916d4b	-0.07100924
203	0xbdb0efbe	-0.08639477
204	0xbd4ec6f9	-0.050482724
205	0xbddfb370	-0.10922897
206	0xbd03de2a	-0.032194294
207	0x3d546cd9	0.051861618
208	0x3d6becb3	0.05759878
209	0x3d038b89	0.032115493
210	0x3d9600b8	0.07324356
211	0x3ce18bbe	0.027532455
212	0x3dd42c85	0.10360054
213	0x3da417f3	0.080123805
214	0x3d14fe8b	0.036375564
215	0x3de1e72a	0.11030419
216	0x3da4ebb0	0.08052766
217	0x3d921798	0.071334064
218	0x3dd2a392	0.10285105
219	0x3dea45c1	0.11439086
220	0x3d808a37	0.062763624
221	0x3d96036f	0.07324874
222	0x3d6f858e	0.058476977
223	0x3d8204b5	0.06348554
224	0x3dd5c626	0.104381844
225	0xbd34724d	-0.04405432
226	0xbd7ff446	-0.062488817
227	0xbda493a1	-0.080359705
228	0xbdac74b2	-0.08420695
229	0xbcc5d531	-0.02414951
230	0xbdb74b38	-0.08949894
231	0xbd49b82c	-0.049247906
232	0xbbf274cc	-0.007399177
233	0xbd216665	-0.03940429
234	0x3c4e3ba5	0.012587463
235	0x3d2c2e67	0.04203644
236	0xbca981f5	-0.020691851
237	0x3a712221	0.0009198506
238	0x3c9581e6	0.018250417
239	0xbcbb483a	-0.022861589
240	0xbbfcfa44	-0.0077202637
241	0x3d127bd7	0.035762634
242	0x3d135cb7	0.03597709
243	0x3df42409	0.11920936
244	0x3dcb7d8f	0.09936058
245	0x3d04e203	0.032442104
246	0x3d211510	0.039326727
247	0x3d544b0e	0.05182939
248	0x3d9f622b	0.07782396
249	0x3d3c32b4	0.04594679
250	0x3cdd1b01	0.026990416
251	0x3d95d78a	0.073165014
252	0x3d543b37	0.051814284
253	0x3be9549c	0.007120682
254	0xbd4e4001	-0.050354008
255	0x3dbf543a	0.09342237

down2.go_down.1.conv2x.1.c.1.bias f4 [64]
0	0x3d319840	0.043358088
1	0xbd9c4d13	-0.07631888
2	0x3c74ac7d	0.014933703
3	0xbe1ba204	-0.15198523
4	0xbda485cf	-0.080333345
5	0xbbfb1366	-0.0076622246
6	0xbc9c7ee9	-0.019103484
7	0xbd0065b3	-0.031346988
8	0xbd85ce63	-0.06533506
9	0x3c67b804	0.014142994
10	0xbd5b555c	-0.053548202
11	0x3d4a5a03	0.049402248
12	0x3d1877d8	0.037223667
13	0xbd52bd91	-0.051450316
14	0xbc8a03ee	-0.016847577
15	0x3abff10f	0.0014643985
16	0xbd56ada8	-0.052411705
17	0x3d7fde8a	0.06246809
18	0x3d407ce0	0.04699409
19	0xbd7f5602	-0.062337883
20	0xbd8ac652	-0.06776108
21	0xbd50ff4b	-0.051024716
22	0x3cd05c73	0.025434708
23	0xbd86e8b6	-0.06587355
24	0xbd8200da	-0.06347819
25	0xbbd3f399	-0.006468248
26	0xbc86359c	-0.016382985
27	0xbdd73d19	-0.105097
28	0x3c143b3b	0.009047325
29	0xbdc0338d	-0.093848325
30	0xbd040058	-0.03222689
31	0xbd13c0c7	-0.03607252
32	0xbd958489	-0.0730067
33	0xbdbb6911	-0.09150899
34	0xbb43c1d0	-0.002987016
35	0x3d8a46eb	0.06751808
36	0xbc8c9bca	-0.01716413
37	0xbbf9cef2	-0.0076235468
38	0xbc9772c7	-0.018487347
39	0xbce72336	-0.028215032
40	0x3d82621d	0.0636637
41	0x3d6c1e95	0.057646353
42	0x3c418635	0.011811783
43	0xbdb025ee	-0.086009845
44	0xbddab342	-0.10678722
45	0x3cf3dd35	0.029768566
46	0x3c69c905	0.014269118
47	0x3d594949	0.053048406
48	0xbb01cdf4	-0.0019806596
49	0xbdab3a93	-0.083607815
50	0xbda7fbd2	-0.08202328
51	0xbd160008	-0.036621124
52	0x3d5cee78	0.05393836
53	0x3d0f871a	0.035040952
54	0x3d20b376	0.039233647
55	0x3da816e1	0.08207489
56	0xbd9ac7c7	-0.07557636
57	0xbdaa8537	-0.0832619
58	0x3c898e52	0.016791496
59	0x3d0aa1fc	0.033845887
60	0xbda37a5f	-0.07982325
61	0x3ca6369e	0.020289715
62	0x3d2ea352	0.042636223
63	0xbc81b72e	-0.015834417

down2.go_down.1.conv2x.1.c.1.running_mean f4 [64]
0	0xc070c018	-3.7617245
1	0xc0017d98	-2.0232906
2	0x3fccaede	1.5990865
3	0x40ae9b5a	5.456464
4	0x40c4c836	6.14944
5	0xbf430370	-0.7617712
6	0x403395d5	2.80602
7	0xbf8b3f42	-1.087868
8	0x408bbfca	4.3671618
9	0xc058925e	-3.3839335
10	0x3f26ecc0	0.65205
11	0x40665975	3.59921
12	0x3f89509b	1.0727724
13	0x400ececa	2.2313714
14	0xbf563824	-0.83679414
15	0x3fa71ad0	1.3055058
16	0xc08f9234	-4.486597
17	0x3f90f62c	1.1325126
18	0x4014a2b2	2.3224301
19	0x40c1338c	6.0375423
20	0x40843b43	4.132234
21	0x3ff940a4	1.9472852
22	0xc01fe93d	-2.4986107
23	0xc02ebcfb	-2.7302845
24	0x3fe1ce56	1.7641094
25	0xbfa37100	-1.276886
26	0x3ff75b00	1.9324646
27	0xc00cc96c	-2.1997938
28	0xbfc87737	-1.5661381
29	0xbdd94736	-0.106092855
30	0x3e4d0c36	0.2002419
31	0xbfab7036	-1.3393619
32	0xbf9ece2c	-1.2406669
33	0xc0b9e45e	-5.809127
34	0x40357403	2.8352058
35	0xbf090cf6	-0.535354
36	0x3fee9dd6	1.8641918
37	0x40751667	3.8294923
38	0x3ffc589e	1.9714544
39	0xbf6e76ba	-0.9314991
40	0x402d070c	2.703555
41	0x403230ae	2.7842212
42	0xc015e7a4	-2.3422632
43	0xbf968a5e	-1.1760976
44	0xbff286e9	-1.8947421
45	0x3e8b8a6f	0.27254054
46	0xbf7a5784	-0.9778979
47	0x3f0884e8	0.533278
48	0x4034516a	2.8174691
49	0xbf665e33	-0.89987487
50	0x40a45520	5.135391
51	0x3dd061ff	0.10174941
52	0x403e5c5c	2.9743872
53	0x3b19daa0	0.0023476258
54	0xbffb9370	-1.9654369
55	0x3fa1a6b2	1.2628996
56	0x40ba8d82	5.829774
57	0xc09591b0	-4.674034
58	0xbf802085	-1.0009924
59	0x402e0216	2.7188773
60	0xc01fdb34	-2.497754
61	0x4083b98e	4.1164007
62	0x3ffccdd0	1.9750309
63	0xbf23f8f6	-0.6405176

down2.go_down.1.conv2x.1.c.1.running_var f4 [64]
0	0x414c5229	12.770059
1	0x4197b77a	18.964588
2	0x40a3ec99	5.1226315
3	0x419b27c7	19.394423
4	0x41bc41e9	23.532183
5	0x3fc82896	1.5637386
6	0x404ae2b2	3.1700864
7	0x3fa5ecd1	1.2962896
8	0x418e779a	17.8084
9	0x415c9cd7	13.788291
10	0x4107863e	8.470274
11	0x411d3658	9.8257675
12	0x4042be4f	3.0428655
13	0x4181dbe8	16.232376
14	0x400ef28b	2.2335536
15	0x40c7acab	6.2398276
16	0x40bb2eb0	5.849449
17	0x40a84a26	5.2590513
18	0x40ec67ac	7.3876553
19	0x41d58724	26.690987
20	0x414dce0c	12.862804
21	0x400bf2dc	2.186698
22	0x40dda0ac	6.9258633
23	0x40809ace	4.018897
24	0x42111289	36.2681
25	0x4044c440	3.0744781
26	0x40099ed9	2.1503203
27	0x4209e68a	34.475136
28	0x400bbe3c	2.183486
29	0x3fe29f0b	1.7704786
30	0x41262f5d	10.386563
31	0x41850af3	16.630346
32	0x41adf149	21.742815
33	0x41b14681	22.159426
34	0x409be5ad	4.8717866
35	0x40b36bcb	5.6069083
36	0x40ed55ae	7.416709
37	0x4127437b	10.453975
38	0x41348fb4	11.285084
39	0x4134b5d7	11.2943945
40	0x4109cd3c	8.612606
41	0x40ee40cb	7.4454093
42	0x4026409c	2.5976934
43	0x4106f722	8.435335
44	0x40c9536f	6.291435
45	0x40846ba2	4.138139
46	0x3efe379a	0.49651796
47	0x4042af72	3.0419583
48	0x409c6280	4.887024
49	0x4103e82d	8.244184
50	0x4187a8b5	16.957376
51	0x41e13cf4	28.154762
52	0x4148c45d	12.54794
53	0x400046c9	2.0043204
54	0x411ac37a	9.672724
55	0x4120717a	10.027704
56	0x41b90088	23.12526
57	0x40db807f	6.8594356
58	0x413ad8d0	11.677933
59	0x41150ef6	9.316153
60	0x412890aa	10.535318
61	0x4117c907	9.486579
62	0x40ceb811	6.459969
63	0x401c3054	2.4404497
