data/model/1.onnx (onnx, 483073 bytes, 73 tensors)

down1.go_down.1.conv2x.0.c.0.bias f4 [32]
0	0xbacc9011	-0.00156069
1	0xbd87717d	-0.06613443
2	0xbbf828ed	-0.007573238
3	0x3da636b8	0.081159055
4	0xbd793b4b	-0.06084756
5	0xbd972b12	-0.07381262
6	0x3cb5a6ea	0.022174317
7	0x3cd91e24	0.02650363
8	0x3d2e6e01	0.042585377
9	0xbd88ae7f	-0.066739075
10	0x3da92758	0.08259457
11	0xbc307cf7	-0.010771981
12	0xbc521741	-0.012822927
13	0x3d91b0b5	0.07113782
14	0x3d2f08ef	0.04273313
15	0xbc7e0d57	-0.01550611
16	0x3d154c83	0.03644992
17	0x3d6f4094	0.058411196
18	0xbbab3b1a	-0.0052255513
19	0xbcdf8daf	-0.02728924
20	0xbd54f72f	-0.051993545
21	0xbc2af166	-0.01043353
22	0xbd2d1c00	-0.04226303
23	0xbd64bf1f	-0.05584633
24	0x3d0fabdc	0.035076007
25	0xbc9f1743	-0.019420272
26	0x3bafeb38	0.0053686164
27	0x3d438857	0.047737446
28	0x3c32dc52	0.010916786
29	0x3da89256	0.08231036
30	0xbcfab2cc	-0.030602835
31	0x3c95d05b	0.018287828

down1.go_down.1.conv2x.0.c.0.weight f4 [32, 16, 3, 3]
0	0x3d4b65b6	0.049657546
1	0xbc912750	-0.017718941
2	0xbd08a994	-0.033364847
3	0x3d4ab987	0.04949334
4	0x3a8d8e73	0.00107999
5	0xbd0c3918	-0.034234136
6	0x3c321686	0.010869628
7	0xbb14cdc9	-0.0022705665
8	0x3db07611	0.086162694
9	0x3d608be2	0.054820903
10	0xbd803154	-0.062594086
11	0xbe295d1e	-0.16539428
12	0xbd2d243e	-0.04227089
13	0xbd9da9fa	-0.07698436
14	0x3d9e3b17	0.07726114
15	0xbd192440	-0.037388086
16	0xbc193c82	-0.009352805
17	0xbd701817	-0.058616724
18	0xbdb6970b	-0.08915528
19	0xbd127c9e	-0.035763375
20	0xbe01ac3c	-0.12663358
21	0xbc6dff1b	-0.014526154
22	0xbd040467	-0.03223076
23	0x3da37b7c	0.07982537
24	0xbd317f18	-0.043334097
25	0x3cdb60cb	0.026779553
26	0xbc2fbc9a	-0.010726118
27	0x3d6bb476	0.057545148
28	0xbb4a58fd	-0.0030875795
29	0xbc862d70	-0.016379088
30	0x3d5dcef9	0.054152463
31	0x3d8fb0f8	0.07016176
32	0x3d96871c	0.07349989
33	0xbd48c6a2	-0.049017556
34	0xbcfa059b	-0.030520251
35	0x3d16236f	0.036654886
36	0x3d8b59ec	0.068042606
37	0xbdc38318	-0.095464885
38	0xbd89c6b7	-0.06727355
39	0xbdd0b1dc	-0.10190174
40	0x3d4acf22	0.049513943
41	0x3c8dcf1f	0.017310677
42	0xbdce9de7	-0.10088711
43	0x3d326d9a	0.043561555
44	0x3d8cf40d	0.068824865
45	0x3db8ac45	0.09017233
46	0xbca261d7	-0.019822044
47	0x3cd8c088	0.026458994
48	0x3c669af9	0.014075034
49	0xbc1a8302	-0.009430649
50	0x3d69a9ae	0.057046585
51	0xbd40c126	-0.0470592
52	0x3ca6d365	0.020364473
53	0xbd5895fb	-0.052877408
54	0xbdcec866	-0.10096817
55	0xbdabfd34	-0.08397904
56	0xbc58779a	-0.013212109
57	0xbdf378f5	-0.11888305
58	0xbdd39cca	-0.103326395
59	0x3c443f22	0.011977943
60	0x3cb43e79	0.022002446
61	0x3c342017	0.010993979
62	0xba5739a7	-0.000821019
63	0x3c7e1c5c	0.015509691
64	0x3cd9e7a6	0.026599716
65	0x3d519ed9	0.05117688
66	0x3cac7bbd	0.021055097
67	0x3d95b4cf	0.07309877
68	0xbd5c4c14	-0.05378349
69	0xbdfcd9d0	-0.12346232
70	0xbd6a8517	-0.05725583
71	0x3df1cedf	0.11807036
72	0xbdcca3d4	-0.09992185
73	0x3a9eb47e	0.0012108234
74	0xbdaa8784	-0.08326629
75	0x3d979dbe	0.07403134
76	0xbd1d0dc6	-0.038343213
77	0xbd5856ea	-0.052817263
78	0x3d1a4171	0.037660066
79	0x3d1d17f1	0.03835291
80	0xbd50be38	-0.050962657
81	0xbdb5dfc8	-0.088805735
82	0x39b57baf	0.00034615162
83	0x3c867319	0.016412305
84	0xbc0ea850	-0.008707121
85	0xbbf2c0f8	-0.0074082576
86	0xbd1fe50c	-0.039036795
87	0x3cdbaf07	0.026816858
88	0xbd80b5e5	-0.06284694
89	0x3d988914	0.074480206
90	0xbbe56064	-0.007000016
91	0x3d6042e6	0.0547513
92	0xbdcc73a9	-0.09982998
93	0xbdd1245a	-0.10212012
94	0x3c7d7714	0.015470285
95	0xbc675caa	-0.014121214
96	0x3c95f18c	0.018303655
97	0x3d9c58b7	0.076341085
98	0x3da46d21	0.08028627
99	0xbd641c0b	-0.055690806
100	0x3d5226d2	0.051306553
101	0xbd3a5b3d	-0.045497168
102	0x3cba1f95	0.022720138
103	0xbcf82035	-0.030288795
104	0x3cdc910b	0.02692463
105	0xbdec1c3a	-0.11528821
106	0xbde9336a	-0.113867596
107	0x3c351e2a	0.011054555
108	0xbca1e9e6	-0.019764852
109	0xbd6916fa	-0.056906678
110	0xbcd890b0	-0.02643618
111	0xbe0f1c41	-0.13975622
112	0xbdf95a93	-0.12175479
113	0xbdb00fb2	-0.08596744
114	0xbd5b472c	-0.05353467
115	0xbd84844f	-0.06470548
116	0xbd2062e3	-0.039156806
117	0x3d48967b	0.048971634
118	0x3d12fa0c	0.035882995
119	0x3cf5baaa	0.029996235
120	0xbdcb8e17	-0.09939211
121	0x3d4a209d	0.04934751
122	0x3c49f3ac	0.012326162
123	0xbcf4e157	-0.029892607
124	0xbda73275	-0.08163921
125	0xbd9ad17e	-0.07559489
126	0x3c681b14	0.014166612
127	0xbd83943b	-0.06424757
128	0x3d2e30d5	0.04252704
129	0x3d604111	0.054749552
130	0x3d4f9e01	0.050687794
131	0x3d2b4f50	0.041823685
132	0xbc371bf2	-0.011176096
133	0x3b80033e	0.0039066365
134	0xbcb6ea9d	-0.02232867
135	0xbd83baab	-0.064320885
136	0xbdc93538	-0.09824604
137	0x3b9f46a2	0.004860715
138	0xbcd62f85	-0.026145706
139	0x3d3c7a43	0.046015035
140	0x3da26a08	0.0793038
141	0x3c25d4f0	0.010121569
142	0x3c203dfe	0.009780405
143	0xbd83c6a1	-0.0643437
144	0xbc5f6043	-0.01363379
145	0xbd40207b	-0.046905976
146	0x3d0c2189	0.03421167
147	0x3c7a1685	0.015264158
148	0xbd3ac8b7	-0.045601573
149	0xbcf8652b	-0.030321678
150	0xbdad2640	-0.08454561
151	0xbda20e26	-0.07912855
152	0x3c46784c	0.012113642
153	0x3b51aa55	0.0031992395
154	0x3cab4f09	0.02091171
155	0xbd5b9a41	-0.053613905
156	0x3caf4e65	0.021399686
157	0x3d73eabd	0.059550036
158	0xbd08741e	-0.033313863
159	0xbd9efee4	-0.0776346
160	0x3c8d05ad	0.01721462
161	0xbcec0584	-0.028811224
162	0x3cb0bb40	0.021573663
163	0x3c770c3e	0.015078602
164	0xbc157a13	-0.009123343
165	0x3db59200	0.08865738
166	0x3cf017c3	0.029308205
167	0x3c8394ad	0.016062105
168	0x3cb89dbf	0.022536157
169	0x3b937a8f	0.004500694
170	0xbb6f6c14	-0.0036532925
171	0x3d4e3b14	0.05034931
172	0x3de144c7	0.10999446
173	0x3d2f212a	0.042756237
174	0xbde79d7b	-0.11309334
175	0xbdb80fdf	-0.08987402
176	0x3da90ec6	0.08254771
177	0xbb4fa340	-0.0031682998
178	0x3d87bbb2	0.06627597
179	0x3dbbdd24	0.091730386
180	0xbd4364d3	-0.047703575
181	0x3d7374ec	0.059437677
182	0x3d9abc07	0.075553946
183	0xbda73c7c	-0.08165833
184	0xbb48dd46	-0.0030649467
185	0x3cdf38b7	0.027248723
186	0xbd44c7bc	-0.048042044
187	0x3d0656bc	0.03279756
188	0xbd90f7aa	-0.07078488
189	0xbd364162	-0.044495948
190	0xbcae71d3	-0.02129451
191	0xbd37fe0d	-0.044920016
192	0xbcb28c27	-0.021795345
193	0x3c40e9d8	0.011774503
194	0xbddd48e4	-0.108049184
195	0xbde58fc3	-0.11209061
196	0xbbe62710	-0.0070236996
197	0xbdcd1277	-0.100132875
198	0xbba10c8a	-0.004914825
199	0x3d8e570e	0.06950198
200	0x3d3185b8	0.043340415
201	0x3c9aa531	0.018877598
202	0xbd86e984	-0.06587508
203	0xbd7f2c65	-0.062298197
204	0xbda1ab0f	-0.07893955
205	0x3d5a4cd1	0.053295914
206	0xbd5333de	-0.051563136
207	0x3d607139	0.054795478
208	0xbd4ba4a7	-0.04971757
209	0x3c3f9c9c	0.011695053
210	0xbdbb8820	-0.09156823
211	0xbe0706f3	-0.13186245
212	0xbdd9673e	-0.10615395
213	0x3d753ffd	0.059875477
214	0xbd98cce7	-0.07460957
215	0x3d0a2fa6	0.033736847
216	0xbaa80fc5	-0.0012822082
217	0x3d02a11c	0.031891927
218	0xbd96e376	-0.073676035
219	0x3d516430	0.051120937
220	0x3d802ba7	0.06258326
221	0xbd42b0f5	-0.04753204
222	0xbd27511c	-0.040848836
223	0xbcad2aa0	-0.02113849
224	0xbd6049ba	-0.05475781
225	0x3d81cdd1	0.063380845
226	0x3d4702d8	0.048586696
227	0xbcdb76fd	-0.026790136
228	0xbb9c9482	-0.0047784457
229	0x3d86759b	0.065654
230	0x3d44ca39	0.048044417
231	0xbbf67563	-0.007521318
232	0xbd08026a	-0.033205427
233	0xbca314c2	-0.019907359
234	0x3b72853c	0.0037005683
235	0xbbcf1282	-0.006319345
236	0x3cd87230	0.026421636
237	0x3cf7715d	0.030205423
238	0x3d57d481	0.052692894
239	0xbd1a6b4d	-0.037699986
240	0xbe10417c	-0.1408748
241	0x3d971de9	0.07378752
242	0xbd8d9cba	-0.06914659
243	0xbd42f97a	-0.0476012
244	0xbd930598	-0.07178801
245	0x3d5c47bf	0.05377936
246	0xbdcf3821	-0.101181276
247	0x3d0d84c0	0.03455043
248	0xbdf3f1d9	-0.11911363
249	0xbcc5e030	-0.024154752
250	0xbdc1eeb6	-0.094693586
251	0xbd80e7c3	-0.06294205
252	0x3d1cccf0	0.03828138
253	0x3ce3bf9c	0.027801327
254	0xbd696c5b	-0.0569881
255	0x3d42dd41	0.047574285

down1.go_down.1.conv2x.0.c.1.bias f4 [32]
0	0x3df87603	0.12131884
1	0xbcff4700	-0.031161785
2	0xbca071de	-0.019585546
3	0xbacc4c49	-0.00155867
4	0xbdcbc2ac	-0.0994924
5	0xbd5e2608	-0.05423549
6	0xbce30a4c	-0.02771487
7	0x3d1d3019	0.038375948
8	0xbcfcc01e	-0.030853327
9	0xbdd10cb9	-0.10207505
10	0xbaab358a	-0.001306222
11	0xbcf63a85	-0.030057201
12	0x3bf0b6c1	0.0073460047
13	0x3c4ba9e2	0.01243064
14	0x3d268f0f	0.040663775
15	0xbd71f0de	-0.0590676
16	0x3d3e46ea	0.046454348
17	0x3ce77625	0.028254578
18	0xbd4210df	-0.04737937
19	0x3c323a1d	0.010878113
20	0xbd5ae972	-0.053445287
21	0x3e2ff537	0.17183386
22	0xbd60fc96	-0.054928385
23	0x3c234f2c	0.0099676065
24	0xbd0fef33	-0.035140228
25	0xbd745350	-0.059649765
26	0xbbbe4851	-0.0058069606
27	0x3d1e3801	0.03862763
28	0xbc3e9007	-0.0116310185
29	0x3d699ee2	0.057036288
30	0x3c4f3f19	0.012649321
31	0xbc80ef2f	-0.015739052

down1.go_down.1.conv2x.0.c.1.running_mean f4 [32]
0	0xbfd5098c	-1.6643538
1	0xbfc3b834	-1.5290589
2	0xbf194522	-0.59871113
3	0x3e619e4c	0.22033042
4	0xbeef984a	-0.46795875
5	0x3febef53	1.8432411
6	0x3d3696e2	0.044577487
7	0xbe431824	-0.19052178
8	0xbf1ca4c6	-0.61188924
9	0x405c33ce	3.440662
10	0xbffa4e90	-1.9555225
11	0xc009bc07	-2.1521013
12	0xbf234845	-0.6378215
13	0xbf830a86	-1.0237586
14	0xbf306b0e	-0.6891335
15	0x3f9ff386	1.2496192
16	0xbf625564	-0.88411546
17	0xbfc9f87c	-1.5778956
18	0x3f7bf7dc	0.9842508
19	0x3dc62a00	0.096759796
20	0xbf256927	-0.64613575
21	0xc076d852	-3.8569531
22	0x3f01bb9f	0.5067691
23	0x3f626650	0.88437366
24	0x3f0ca8cc	0.54945064
25	0x3be7485a	0.0070581855
26	0x3c950cb8	0.018194541
27	0x3eedb98a	0.46430618
28	0x3e5103e5	0.20411642
29	0xbf9da571	-1.2316114
30	0xbed42366	-0.41433257
31	0x3e329ec6	0.1744338

down1.go_down.1.conv2x.0.c.1.running_var f4 [32]
0	0x3f46ab56	0.7760519
1	0x3f246ed9	0.6423164
2	0x3ebd618b	0.36988482
3	0x3ed8f432	0.42373806
4	0x3ea4d31d	0.32192317
5	0x3f06f45f	0.5271663
6	0x3ec5d58c	0.38639486
7	0x3eaf4472	0.34231907
8	0x3ed18f21	0.4092951
9	0x3ef288ce	0.4737
10	0x3f1446f5	0.5792077
11	0x3ec0ac82	0.37631613
12	0x3ed5e328	0.4177487
13	0x3f0b9772	0.5452796
14	0x3f08953c	0.53352714
15	0x3e98598f	0.29755828
16	0x3f0d275e	0.55138195
17	0x3ed6a82d	0.41925183
18	0x3e8aa436	0.27078408
19	0x3ef245fa	0.47319013
20	0x3f0d315a	0.5515343
21	0x3f446ef9	0.7673183
22	0x3eaa7398	0.33291316
23	0x3e970fbf	0.295042
24	0x3e868b36	0.26278085
25	0x3eb305a8	0.34965253
26	0x3f14ca98	0.58121634
27	0x3f095bcc	0.53655696
28	0x3ee18cf7	0.4405286
29	0x3f578f7e	0.84203327
30	0x3f157746	0.5838512
31	0x3e6bc775	0.23025306

down1.go_down.1.conv2x.0.c.1.weight f4 [32]
0	0x3f807933	1.0036987
1	0x3f8365d5	1.0265452
2	0x3f7fc8b7	0.9991564
3	0x3f7c7d5e	0.98628795
4	0x3f76b4c6	0.9636959
5	0x3f6ca6e8	0.9244218
6	0x3f7f76a6	0.9979042
7	0x3f8418ff	1.0320128
8	0x3f7cfefe	0.9882659
9	0x3f81d55b	1.0143236
10	0x3f80b169	1.0054141
11	0x3f80012e	1.000036
12	0x3f7d93ec	0.99053836
13	0x3f838bd1	1.0277044
14	0x3f8091b5	1.0044466
15	0x3f7d6e14	0.9899609
16	0x3f7ecd19	0.99531704
17	0x3f81b595	1.013354
18	0x3f79aee7	0.97532505
19	0x3f819f06	1.0126655
20	0x3f789e89	0.97116905
21	0x3f85f83d	1.0466381
22	0x3f7dca59	0.99136883
23	0x3f7ecfe6	0.9953598
24	0x3f7e129a	0.99247134
25	0x3f7d1596	0.9886106
26	0x3f7c72b4	0.98612523
27	0x3f811698	1.008502
28	0x3f7b8f62	0.9826566
29	0x3f859128	1.0434923
30	0x3f84fa42	1.0388873
31	0x3f7efe66	0.9960693

down1.go_down.1.conv2x.1.c.0.bias f4 [32]
0	0x3d14a056	0.03628572
1	0x3c2ad0c5	0.010425751
2	0xbd58892c	-0.052865192
3	0xbc30785c	-0.010770883
4	0xbd4d9beb	-0.050197523
5	0x3c930cde	0.017950471
6	0x3d3c20b7	0.045929637
7	0x3cbeb6c9	0.023280518
8	0x3d5d9464	0.054096594
9	0xbca02681	-0.01954961
10	0x3d400dc6	0.046888135
11	0xbcb5c6ec	-0.02218958
12	0xbd1ce03f	-0.038299795
13	0x3c12f3b3	0.008969235
14	0xbd26737a	-0.04063747
15	0x3c98fdb5	0.018675664
16	0xbcdbc8b6	-0.026829105
17	0xbd33fdcd	-0.043943215
18	0xbd2a1c41	-0.04153085
19	0xbcecef04	-0.028922565
20	0x3d1f3044	0.03886439
21	0x3c30f12b	0.010799686
22	0x3d1e0faa	0.038589157
23	0x3d53459b	0.051580053
24	0xbd38d969	-0.045129213
25	0x3d2269ff	0.039651867
26	0xbd0bfe7e	-0.03417825
27	0xbd59b9cd	-0.05315571
28	0xbb04de25	-0.002027401
29	0x3ce7ef3f	0.028312324
30	0x3cf0a4d2	0.029375467
31	0x3d1a5813	0.03768165

down1.go_down.1.conv2x.1.c.0.weight f4 [32, 32, 3, 3]
0	0xbc5217ea	-0.012823084
1	0x3d54cf60	0.05195558
2	0x3c314dab	0.01082174
3	0x3dbc63cd	0.09198723
4	0x3d3e1322	0.046404965
5	0xbc29f621	-0.010373623
6	0x3d1aa842	0.03775812
7	0xbd0482f3	-0.032351445
8	0xbd0eba58	-0.03484568
9	0xbd647bb2	-0.055782028
10	0xbc317c89	-0.010832914
11	0xbc8ebd95	-0.017424384
12	0x3d74e8ed	0.059792448
13	0xbd9b20a9	-0.07574589
14	0x3cd6e414	0.026231803
15	0xbbf9e6ab	-0.0076263747
16	0xbd3ad3d4	-0.04561217
17	0xbcda7a6f	-0.026669709
18	0x3ce454c4	0.02787245
19	0xbd274544	-0.04083754
20	0x3ca31759	0.019908594
21	0x3d5adaab	0.053431194
22	0x3d829f7c	0.063780755
23	0xbcf3feb3	-0.029784536
24	0xbca4a0bb	-0.020096174
25	0xbd3c0d01	-0.04591084
26	0xbc219c2a	-0.009863893
27	0x3caf796c	0.021420203
28	0x3d421456	0.047382675
29	0xbd95dc72	-0.07317437
30	0x3c027084	0.007961396
31	0xbcb4dbbd	-0.022077436
32	0xbc3b7154	-0.011440594
33	0x3cf95bfd	0.030439371
34	0xbc602eba	-0.0136830155
35	0xbd968bc5	-0.07350878
36	0x3d74ceae	0.059767418
37	0x3d4fa87e	0.050697796
38	0x3d8bfef2	0.06835736
39	0x3d2a9006	0.041641258
40	0xbd08ba80	-0.033380985
41	0xbc3972ef	-0.011318906
42	0xbc811511	-0.015757116
43	0x3bd58b20	0.006516829
44	0x3d14da9d	0.0363413
45	0xbcec1743	-0.028819686
46	0x3d07f9d3	0.033197235
47	0xbb560b1e	-0.0032660435
48	0x3d468732	0.048468776
49	0x3d4b329d	0.049608815
50	0x3d682ea5	0.05668511
51	0xbcb18de2	-0.0216741
52	0x3d8390ae	0.0642408
53	0x3c67a98c	0.014139544
54	0x3c64c681	0.013963343
55	0x3d524a4d	0.05134039
56	0x3c0ab39e	0.008465676
57	0xbd5648e7	-0.05231562
58	0xbd7d5f17	-0.061858263
59	0xbd14fa3c	-0.036371455
60	0x3aa32c6b	0.0012449151
61	0x3c82fd8c	0.015990041
62	0xbd70ae87	-0.058760192
63	0xbd09d4ff	-0.033650395
64	0xbcf85b21	-0.030316891
65	0x3d24fc61	0.04027975
66	0x3cbb6c93	0.02287892
67	0xbca51ee6	-0.020156335
68	0xbd00d0bf	-0.031449076
69	0x3ae88664	0.0017740247
70	0xbc1bf204	-0.00951815
71	0xbcacd49e	-0.021097478
72	0xbd9b85f8	-0.07593912
73	0x3d6c60e1	0.05770958
74	0x3d6b3488	0.057423145
75	0xbd39b105	-0.045334835
76	0x3d7f3a90	0.06231171
77	0xbbbb4bf5	-0.005715842
78	0xbd9b1ea6	-0.07574205
79	0xbd02d605	-0.031942386
80	0x3bb232bf	0.0054381783
81	0xbcf24674	-0.02957461
82	0x3c614d81	0.0137513885
83	0xbbc7136d	-0.006075314
84	0x3d628fbc	0.055312857
85	0xbcedd176	-0.029030543
86	0xbc08d813	-0.008352297
87	0x3d48ffaa	0.049071945
88	0x3c9fd84b	0.019512316
89	0xbd156e87	-0.03648236
90	0xbd8b149c	-0.0679104
91	0x3d0e3e7a	0.03472755
92	0x3c80f00e	0.015739467
93	0x3d34199c	0.043969736
94	0x3cf993e7	0.030466033
95	0xbde715b5	-0.11283437
96	0x3c793a33	0.01521163
97	0x3c3d9b69	0.011572697
98	0x3ce57d42	0.02801383
99	0x3cc8b264	0.024499126
100	0xbd3d08cf	-0.04615098
101	0xbcf2407d	-0.029571766
102	0x3c21d002	0.009876253
103	0x3c8b7eaf	0.01702818
104	0xba587477	-0.00082571007
105	0x3d000c53	0.031261753
106	0xbb7e02a6	-0.0038758903
107	0xbd3ff2d6	-0.046862446
108	0xbd12cd6c	-0.035840437
109	0x3d81df24	0.06341389
110	0x3d1574c5	0.036488313
111	0xbbf02137	-0.0073281783
112	0x3c80d398	0.015725896
113	0x3d3bd41a	0.045856573
114	0x3c613f32	0.013747977
115	0x3d7c480c	0.061592147
116	0x3cb45370	0.022012442
117	0xbd434fa6	-0.04768338
118	0xb9c33ede	-0.00037240138
119	0xbcc6ad74	-0.02425263
120	0x3cb1bcda	0.021696497
121	0x3d845c13	0.06462874
122	0x3ab908b2	0.0014116971
123	0x3d0b9b6e	0.034083776
124	0x3cb1977b	0.021678677
125	0xbd54bddd	-0.05193888
126	0xbd41b12b	-0.0472881
127	0xbcb5a4ac	-0.022173248
128	0xbd357752	-0.044303246
129	0xbdb5e4a4	-0.088815
130	0xbc91624e	-0.01774707
131	0xbd484f54	-0.04890378
132	0x3d5392b7	0.05165359
133	0xbd398eb4	-0.045302108
134	0x3c8e643f	0.017381785
135	0x3d38c56d	0.045110155
136	0xbc216a29	-0.009851971
137	0x3d181166	0.037125967
138	0x3c8d450e	0.017244842
139	0xbcdec80f	-0.027195005
140	0x3cd9b20f	0.026574163
141	0xbc651855	-0.013982852
142	0xbc819b69	-0.015821176
143	0x3c85f7f9	0.016353594
144	0x3d070e2d	0.032972503
145	0xbcb7a4b8	-0.022417411
146	0xbd3df404	-0.04637529
147	0xbd47b43b	-0.048755866
148	0x3c95137d	0.01819777
149	0x3c875f9d	0.016525084
150	0x3cbc9c2c	0.023023687
151	0xbcf73b6f	-0.030179707
152	0xbcc42bf0	-0.023946732
153	0x3d69c1ce	0.057069592
154	0x3be2ffb5	0.0069274553
155	0x3cab4998	0.020909116
156	0xbd91235b	-0.07086822
157	0xbd8bfdde	-0.06835531
158	0xbc45fed1	-0.012084679
159	0xbd214401	-0.039371494
160	0xbb1631e6	-0.0022917925
161	0xbd511c1b	-0.051052194
162	0x3b8e5242	0.004343302
163	0x3d4645db	0.048406463
164	0x3c964366	0.018342685
165	0xbba872f6	-0.0051406575
166	0xbd707032	-0.058700748
167	0xbc3db949	-0.01157982
168	0x3bf0aa79	0.0073445407
169	0x3d725d03	0.059170734
170	0x3d58a821	0.052894715
171	0xbc4033f8	-0.01173114
172	0xbc407c0b	-0.011748324
173	0x3a980eac	0.0011601052
174	0x3d3a8731	0.045539085
175	0xbd23790a	-0.039910354
176	0xbd762336	-0.060092174
177	0xbd262795	-0.040565092
178	0x3b1feb1b	0.0024401608
179	0x3c745025	0.014911686
180	0x3c56b199	0.013103866
181	0xbd674841	-0.05646539
182	0xbd00d2f7	-0.03145119
183	0xba864105	-0.0010242766
184	0xbc4e72d0	-0.012600616
185	0x3d1d31fe	0.038377754
186	0xbd36137e	-0.044452183
187	0xb9d10992	-0.00039870717
188	0x3d8b50da	0.068025306
189	0xbca96165	-0.020676324
190	0xbd1ce52b	-0.03830449
191	0x3a855fed	0.0010175683
192	0x3c067420	0.008206397
193	0x3c5b7c58	0.013396345
194	0xbc9f1296	-0.019418042
195	0xbd766b79	-0.060161088
196	0x3caa33e4	0.020776697
197	0xbdfe7a6e	-0.12425695
198	0xbd1585a5	-0.036504406
199	0x3cb0b525	0.021570751
200	0x3d1974fc	0.03746508
201	0x3d4334cc	0.047657773
202	0x3d1a0a62	0.037607558
203	0x3c59aac5	0.013285344
204	0x3d2fc49b	0.042912107
205	0xbd54848f	-0.05188423
206	0x3d335415	0.04378136
207	0x3ce691dc	0.028145723
208	0xbd39eaf9	-0.045390103
209	0x3c9f2cef	0.019430606
210	0x3d4a9651	0.04945976
211	0xbd568674	-0.05237432
212	0xbb4cfdf6	-0.0031279302
213	0xbb9d29d8	-0.004796248
214	0x3bb89bbf	0.0056338008
215	0x39ed8194	0.00045300706
216	0x3a5e38f9	0.00084771175
217	0xbc047620	-0.008084804
218	0xbcb94f81	-0.022620918
219	0x3bfcda5c	0.00771646
220	0xbd3d0f63	-0.046157252
221	0x3c38af78	0.011272304
222	0x3afc9bbf	0.001927249
223	0x3c7d83b1	0.015473292
224	0xbc8889ca	-0.016667265
225	0x3d0c5a34	0.034265712
226	0xbc2b3c27	-0.010451353
227	0x3d4869f1	0.04892916
228	0xbb547e5b	-0.0032423947
229	0x3cc8adc3	0.024496919
230	0x3d696a92	0.0569864
231	0xbae6b7c2	-0.0017602372
232	0xbcc97e54	-0.02459637
233	0x3ce7c124	0.028290339
234	0xbd25fd9a	-0.040525056
235	0xbc0c990d	-0.008581412
236	0x3d452cc7	0.048138406
237	0x3b671a62	0.0035263528
238	0xbc763113	-0.015026349
239	0x3d3dbdf7	0.046323743
240	0xbcc30746	-0.02380718
241	0x3c0f4467	0.008744336
242	0x3d786934	0.060647205
243	0xbccd1598	-0.02503471
244	0xbd42d49b	-0.047566038
245	0x3d24b127	0.04020801
246	0x3d3c1e0e	0.0459271
247	0xbd622508	-0.055211097
248	0x3d6b5df0	0.057462633
249	0xbca83a16	-0.02053551
250	0x3beb544d	0.0071816803
251	0x3cd56435	0.026048759
252	0x3d973552	0.07383217
253	0x3d685f0a	0.05673126
254	0x3ccb4a2c	0.024815641
255	0x3d204f82	0.039138325

down1.go_down.1.conv2x.1.c.1.bias f4 [32]
0	0xbdc752d7	-0.09732597
1	0xbd41821c	-0.047243223
2	0x3c975300	0.018472195
3	0x3bf61264	0.0075095166
4	0xbd23faba	-0.040034033
5	0xbd757528	-0.059926182
6	0x3d52f2bb	0.051501017
7	0xbc60b712	-0.013715522
8	0xbbeebf52	-0.0072859908
9	0xbd3c31ad	-0.045945812
10	0xba543b12	-0.00080959604
11	0xbcd722ef	-0.026261775
12	0xbbfe0d21	-0.00775303
13	0xbdb79afb	-0.08965107
14	0x3c4fc67a	0.012681598
15	0xbcdc3abb	-0.026883474
16	0xbd621e1b	-0.055204492
17	0x3c265534	0.01015215
18	0x3c6c7755	0.014432748
19	0xbd9d07ef	-0.07667529
20	0xbd6ce74c	-0.05783777
21	0xbc556c4b	-0.013026307
22	0x3cab3dab	0.020903429
23	0xbd1cdc6b	-0.038296144
24	0xbd854029	-0.06506378
25	0x3d4f3681	0.05058909
26	0x3cd887d5	0.026431957
27	0xbd719b74	-0.058986142
28	0xba9cb970	-0.001195712
29	0xbc123cc6	-0.008925622
30	0xbdab5bd4	-0.08367124
31	0x3d3ae8b4	0.04563208

down1.go_down.1.conv2x.1.c.1.running_mean f4 [32]
0	0x3e25e435	0.16200335
1	0xbe9e38cb	-0.30902705
2	0xbea0d530	-0.3141265
3	0xbe627d8e	-0.22118208
4	0x3de6b920	0.112657785
5	0x3ee4aa5a	0.44661218
6	0xbf7fd838	-0.999393
7	0xbfa51f9b	-1.290027
8	0xbf3654e2	-0.7122327
9	0xbeb93f6a	-0.36181194
10	0xbee312db	-0.44350323
11	0x3ed7e3a7	0.42165872
12	0x3d04a6cd	0.032385636
13	0x3e2060a8	0.15661871
14	0xbf65221c	-0.8950517
15	0xbe13cdf4	-0.14434034
16	0x3e016bfd	0.1263885
17	0xbf77edee	-0.96847427
18	0x3d84d269	0.06485445
19	0x3f34246b	0.7036807
20	0xbe9ffe08	-0.31248498
21	0xbf89586c	-1.0730109
22	0xbeda4264	-0.42628777
23	0x3e488682	0.1958256
24	0x3e791cf4	0.24327451
25	0xbead8654	-0.33891547
26	0xbe784edc	-0.24248832
27	0x3d21e3d0	0.0395239
28	0xbe512d4a	-0.20427433
29	0xbf12ef70	-0.573966
30	0x3efef08c	0.49792898
31	0xbf8f74d6	-1.120753

down1.go_down.1.conv2x.1.c.1.running_var f4 [32]
0	0x3e385a13	0.1800311
1	0x3ecc93be	0.39956468
2	0x3f1d3c98	0.61420584
3	0x3eb4906f	0.35266444
4	0x3f0a0620	0.53915596
5	0x3e78150a	0.24226776
6	0x3ef5aa96	0.4798171
7	0x3f87d93d	1.0613171
8	0x3f0d6ffe	0.5524901
9	0x3eb67256	0.35634106
10	0x3f3b7e58	0.7323966
11	0x3eac3aaa	0.33638507
12	0x3ebd9d8a	0.37034255
13	0x3e54a385	0.20765503
14	0x3ecf5826	0.4049694
15	0x3e90593e	0.28193086
16	0x3f0f0254	0.5586293
17	0x3f27c2ee	0.65531814
18	0x3f095a14	0.53653073
19	0x3e227457	0.15864693
20	0x3ecf3b84	0.40475094
21	0x3f0292dc	0.5100534
22	0x3edfa510	0.4368062
23	0x3e8c541c	0.2740792
24	0x3e372b20	0.17887545
25	0x3edeccc5	0.43515602
26	0x3ebad582	0.3649102
27	0x3e848eb7	0.25890133
28	0x3ed7ff70	0.4218707
29	0x3eb3a218	0.35084605
30	0x3ea7cd98	0.32774043
31	0x3f0124f8	0.50447035

down1.go_down.1.conv2x.1.c.1.weight f4 [32]
0	0x3f7f5ced	0.9975117
1	0x3f7ba19a	0.9829346
2	0x3f725dce	0.94674385
3	0x3f79b578	0.97542524
4	0x3f7ae498	0.98005056
5	0x3f7cdadd	0.9877146
6	0x3f83eda4	1.0306897
7	0x3f8306ad	1.0236412
8	0x3f805383	1.0025486
9	0x3f82652d	1.0187126
10	0x3f7ff591	0.9998408
11	0x3f7e05af	0.9922742
12	0x3f7f8357	0.99809784
13	0x3f85fddc	1.0468097
14	0x3f7e86bc	0.9942434
15	0x3f7e4cd8	0.99336004
16	0x3f7c81c1	0.9863549
17	0x3f7819ef	0.9691457
18	0x3f81f0e3	1.0151638
19	0x3f7ff697	0.9998564
20	0x3f7da506	0.9907993
21	0x3f7e5e4a	0.99362624
22	0x3f82eef1	1.0229169
23	0x3f7dde6b	0.9916751
24	0x3f7ef82b	0.99597424
25	0x3f84b12a	1.0366566
26	0x3f81633c	1.0108409
27	0x3f7cd6f8	0.98765516
28	0x3f7d3eac	0.98923755
29	0x3f801891	1.0007497
30	0x3f7c840a	0.98638976
31	0x3f838a6e	1.027662

down2.go_down.1.conv2x.0.c.0.bias f4 [64]
0	0xbd0bf477	-0.034168687
1	0x3ba2d018	0.0049686544
2	0xbd6d6b78	-0.05796382
3	0x3c86b40c	0.016443275
4	0xbb694c36	-0.0035598404
5	0xbb2b1563	-0.0026105277
6	0x3cccf421	0.025018753
7	0x3d4d003b	0.050049048
8	0xbd44b7b2	-0.048026748
9	0xbc8f71cb	-0.017510315
10	0x3d399fed	0.045318533
11	0x3c8f8122	0.01751763
12	0x3d278a15	0.04090317
13	0x3aeee5dc	0.0018226462
14	0xbd642ee7	-0.055708792
15	0xbb840d51	-0.0040299078
16	0xbc3d8f5e	-0.011569826
17	0xbd369d4c	-0.044583604
18	0x3d55bd3e	0.05218243
19	0x3c3274b5	0.010892083
20	0x3d5ca55e	0.053868644
21	0xbd39d297	-0.04536685
22	0x3d0a321f	0.033739205
23	0x3ba8ac3e	0.005147486
24	0x3d6b5f5f	0.057464
25	0xbd0f9471	-0.035053674
26	0xbc1fdc99	-0.009757184
27	0x3c0dd40f	0.008656516
28	0xbd1a09a5	-0.037606854
29	0xbd05161b	-0.032491785
30	0x3cf9ec14	0.030508079
31	0x3d5af0fe	0.053452484
32	0x3c8497de	0.016185697
33	0x3d5e7af9	0.054316495
34	0xbd54ec3c	-0.051983103
35	0x3d365063	0.044510256
36	0xbc8cc405	-0.017183313
37	0xbca57f4f	-0.020202307
38	0x3d41529b	0.04719792
39	0xbd5e7bd7	-0.05431732
40	0xbcbfbd81	-0.023405792
41	0x3d5b353c	0.053517565
42	0x3d0f05b3	0.034917545
43	0x39f9646b	0.00047567798
44	0x3cc63388	0.024194494
45	0x3ceea7ae	0.02913269
46	0x3d214451	0.039371792
47	0x3cc6bbc4	0.024259456
48	0x3d44a97e	0.048013203
49	0x3c94fcee	0.018187013
50	0x3b8f05cf	0.004364706
51	0x3cf6058b	0.03003194
52	0xbca3e051	-0.020004423
53	0x3cd3079f	0.02576047
54	0x3c8f59bf	0.017498849
55	0x3d14a761	0.036292437
56	0xbd66b6b3	-0.05632658
57	0x3d682ddd	0.056684364
58	0xbb0c44dc	-0.0021403348
59	0x3d22265f	0.039587375
60	0x3b930088	0.0044861473
61	0xbb7e8e2a	-0.003884206
62	0xbd37c817	-0.044868555
63	0xbcb3388f	-0.021877555

down2.go_down.1.conv2x.0.c.0.weight f4 [64, 32, 3, 3]
0	0xbd2abe08	-0.041685134
1	0x3d3a8a97	0.045542326
2	0xbcfc8d02	-0.030828957
3	0x3c7aec50	0.01531513
4	0x3c588898	0.01321616
5	0x3d46ab89	0.048503432
6	0x3d101176	0.035172902
7	0x3d24c679	0.04022834
8	0xbd85a8c2	-0.065263286
9	0x3db06b11	0.08614171
10	0x3cf35cb0	0.029707283
11	0xbb6553c5	-0.0034992557
12	0x3cf7230a	0.030168075
13	0x3d1b269c	0.037878618
14	0x3d4f43d2	0.050601788
15	0xbc52fb36	-0.012877276
16	0x3d2df1d6	0.04246696
17	0x3da66ac3	0.08125832
18	0xbcd160f7	-0.025558932
19	0xbcc59d60	-0.024122894
20	0x3cdb82a8	0.0267957
21	0xbd1a0feb	-0.037612837
22	0xbd64041c	-0.05566798
23	0xbc64a08a	-0.013954291
24	0x3bf0b709	0.0073460382
25	0x3d071e25	0.032987732
26	0x3dcc7454	0.09983125
27	0xbcaf5997	-0.021405024
28	0x3c1e0e11	0.009646908
29	0xbd5aacfd	-0.05338763
30	0x3d853430	0.065040946
31	0xbc933523	-0.017969673
32	0x3cfcaee0	0.030845106
33	0x3cb6b35a	0.022302318
34	0xbb9684c2	-0.0045934627
35	0x3cb11935	0.021618465
36	0x3d2e7e7a	0.042601086
37	0xbd5015d1	-0.050802056
38	0x3daaed3d	0.08346031
39	0x3bc47575	0.0059954473
40	0xbcd7e922	-0.026356284
41	0x3cb4af67	0.022056295
42	0x3d2b4112	0.041810103
43	0xbd088336	-0.033328258
44	0x3d1c191c	0.038109884
45	0xbd51d460	-0.051227927
46	0xbd80a79c	-0.06281969
47	0xbc2444af	-0.010026141
48	0xbbbc8c37	-0.0057540196
49	0xbcecffd0	-0.028930575
50	0x3d564159	0.052308414
51	0x3c811bb6	0.015760284
52	0x3d74222b	0.059602898
53	0xbd043f49	-0.032286916
54	0xbd608d9a	-0.05482254
55	0xbcbabc6c	-0.022794925
56	0xbcde2418	-0.02711682
57	0x3d2ef29b	0.042711835
58	0xbd075996	-0.03304442
59	0x3d168150	0.036744416
60	0xbd8f25e6	-0.069896504
61	0xbcc8e374	-0.02452252
62	0xbc23f143	-0.010006252
63	0x3d79ab40	0.060954332
64	0x3d9da7f5	0.07698051
65	0x3d502975	0.050820787
66	0x3cbaeddf	0.022818504
67	0x3d7e0a0f	0.06202131
68	0xbd356904	-0.044289604
69	0xbc80d21b	-0.015725186
70	0xbd86427c	-0.0655565
71	0xbc6bfe72	-0.014403926
72	0xbd3c9620	-0.046041608
73	0x3c401a6c	0.0117250495
74	0xbd00197c	-0.031274304
75	0xbc3d76d4	-0.011563975
76	0x3c5b9430	0.01340203
77	0xbc127778	-0.008939616
78	0x3e14ec8c	0.1454336
79	0xbd0c1114	-0.034195974
80	0x3d4dbaf9	0.05022714
81	0x3d469502	0.04848195
82	0x3d14a45a	0.03628955
83	0x3cf9a2fc	0.030473225
84	0xbcf615ed	-0.030039752
85	0x3b7c2462	0.0038473834
86	0xbd461ab2	-0.048365302
87	0xbd2daeb0	-0.042402923
88	0x3d0ff2dd	0.03514372
89	0x3c8d03a7	0.017213656
90	0x3d05af0b	0.032637637
91	0x3d4dca7d	0.050241936
92	0xbc88299d	-0.016621405
93	0x3c5f64b4	0.013634849
94	0xbd24a00e	-0.040191703
95	0x3d1ec28b	0.03875975
96	0x3da1c132	0.07898177
97	0xbc95f6fe	-0.018306252
98	0x3d7bf16e	0.061509542
99	0x391e6735	0.00015106502
100	0xbd0122fc	-0.031527504
101	0xbd1179d8	-0.03551659
102	0xbbabeb77	-0.0052465755
103	0xbd67af3c	-0.0565636
104	0xbcdf478b	-0.027255794
105	0x3cc5b8e0	0.024136007
106	0xbc632648	-0.013864107
107	0xbcd81460	-0.026376903
108	0x3c0cc595	0.008592029
109	0x3c8a1516	0.016855758
110	0xbd69d983	-0.0570922
111	0x3da0d08e	0.07852279
112	0xbc4134ea	-0.011792401
113	0xbcdf755e	-0.027277645
114	0x3cac2fb5	0.021018842
115	0x3d9036a4	0.07041672
116	0x3ae2a712	0.0017292222
117	0x3deda3e9	0.11603529
118	0x3cc656e1	0.024211349
119	0xbcf675d0	-0.030085474
120	0x3cbccde1	0.02304739
121	0xbd538f29	-0.0516502
122	0x3dd18413	0.10230269
123	0x3d1534f4	0.036427453
124	0xbd466c09	-0.048442874
125	0xbd0af84f	-0.03392821
126	0x3d463742	0.04839254
127	0x3d0eac29	0.034832153
128	0xba743490	-0.0009315694
129	0x3ce8b474	0.02840636
130	0xbbf6b878	-0.0075293146
131	0xbc308711	-0.01077439
132	0x3d847eb9	0.06469483
133	0xbb2b6881	-0.0026154818
134	0x3da0c465	0.07849959
135	0xbc77b617	-0.015119097
136	0x3af1ddb7	0.0018452917
137	0x3cbddfde	0.023178037
138	0x3d0376ab	0.032095592
139	0xbad172b2	-0.0015979616
140	0x3c28cc95	0.010302682
141	0x3c2bff0c	0.01049782
142	0x3cb07eca	0.021544833
143	0xbd4f47af	-0.050605472
144	0xbc8058d9	-0.015667366
145	0x3c8be53b	0.017077079
146	0x3dc0b719	0.09409923
147	0x3ca54fb8	0.020179614
148	0xbd07dfcf	-0.033172425
149	0xbbdfd46c	-0.0068307426
150	0xbe199ab6	-0.15000424
151	0x3c6c3288	0.014416344
152	0xbda878ca	-0.08226164
153	0x3d1be043	0.03805567
154	0x3daf0e91	0.085477
155	0x3cdc9055	0.026924292
156	0x3adeda60	0.0017002337
157	0xbb93e09c	-0.0045128595
158	0x3da4c734	0.080458075
159	0x3da4ca78	0.0804643
160	0x3c91b693	0.017787253
161	0x3c56358d	0.013074291
162	0x3c1489b1	0.009066031
163	0xbcfd69f3	-0.03093431
164	0xbc916ce0	-0.017752111
165	0xbce248b1	-0.027622553
166	0xbd4646c3	-0.048407327
167	0xbcbaec0d	-0.022817636
168	0x3d49a5a3	0.04923023
169	0xbb80afa3	-0.0039271875
170	0xbdac6975	-0.08418552
171	0xbb639cc0	-0.0034730881
172	0x3d10a3d5	0.035312492
173	0xbc7154ec	-0.01472972
174	0x3d58cb6d	0.052928377
175	0x3cdbe811	0.026844056
176	0x3cccd646	0.025004517
177	0xbd5361f6	-0.051607095
178	0xbb98c372	-0.004661971
179	0xbcbaad9d	-0.022787863
180	0x3db45ed7	0.08807152
181	0xbd314513	-0.043278765
182	0x3d48aa3d	0.048990477
183	0x3d18c714	0.03729923
184	0x3ce4a505	0.027910719
185	0x3d0a4044	0.033752695
186	0xbc8e2957	-0.017353697
187	0xbdc76457	-0.09735935
188	0xbd870bac	-0.06594023
189	0x3d5dc067	0.054138567
190	0xbcba13fe	-0.022714611
191	0x3d86fdca	0.06591375
192	0xbcc2376d	-0.02370807
193	0x3d3d1872	0.04616589
194	0xbd487d7b	-0.048947793
195	0xbd1deb04	-0.038554206
196	0xbd612c80	-0.05497408
197	0xbd10f636	-0.035391055
198	0xbdc492dc	-0.09598324
199	0x3cfc40bc	0.030792587
200	0xba3b75db	-0.0007151046
201	0x3bd536d7	0.0065067816
202	0x3c7c096d	0.015383107
203	0x3d1afe32	0.037840076
204	0x3dcd22fc	0.10016438
205	0xbbb1b7b8	-0.0054235123
206	0xbc6d4207	-0.014481074
207	0x3d6f77ce	0.058463864
208	0x3c088fb7	0.008335046
209	0x3c3b38cc	0.011427116
210	0x3d7fbdc8	0.06243685
211	0x3c647c58	0.0139456615
212	0xbd04bbad	-0.032405544
213	0xbd3448cd	-0.04401474
214	0xbc08fcc9	-0.00836105
215	0x3d83353b	0.06406637
216	0xbb8fbb2d	-0.0043863268
217	0x3c61225e	0.013741104
218	0xbdb6f12b	-0.08932718
219	0x3d00911b	0.031388383
220	0xbc2bb90f	-0.010481133
221	0x3d3af1ec	0.04564087
222	0x3be2b873	0.0069189607
223	0x3d325d8d	0.04354625
224	0xbc9f1c76	-0.01942275
225	0x3dafd92d	0.08586345
226	0x3bce15d9	0.0062892255
227	0x3b73f031	0.0037222023
228	0x3c364ea9	0.0111271525
229	0xbc65b916	-0.014021179
230	0xbd8e715f	-0.069552176
231	0xbd954a4d	-0.072895624
232	0xbd04832a	-0.03235165
233	0xbd93c409	-0.07215125
234	0x3d645560	0.055745482
235	0xbcc1b0f5	-0.02364395
236	0xbc3dfe7f	-0.011596321
237	0x3a220441	0.00061804435
238	0x3c5a0841	0.013307632
239	0xbdbaa05d	-0.09112618
240	0x3bc4653d	0.005993514
241	0xbd0dc402	-0.034610756
242	0xbd3f7c03	-0.046749126
243	0xbd2d869e	-0.04236471
244	0xbd349806	-0.044090293
245	0x3d91c569	0.07117731
246	0x3db220dd	0.086976744
247	0x3ce59783	0.028026348
248	0x3c0178d9	0.0079023475
249	0x3af406ff	0.0018617808
250	0xbd1a269c	-0.037634477
251	0x3c4b5005	0.012409215
252	0x3ba88aed	0.0051435144
253	0xbd912473	-0.0708703
254	0x3d47cac0	0.04877734
255	0xbd0044f3	-0.031315755

down2.go_down.1.conv2x.0.c.1.bias f4 [64]
0	0x3c8cfe86	0.01721121
1	0x3c714153	0.014725047
2	0x3d23ac6c	0.039959356
3	0xbdacf35e	-0.08444856
4	0xbbaa3ef2	-0.005195492
5	0xbca055d8	-0.019572183
6	0xbd323f69	-0.043517504
7	0xbdc105a5	-0.09424905
8	0xbd5490e9	-0.05189601
9	0xbd832265	-0.064030446
10	0xbd090e83	-0.033461105
11	0xbdd9a6d6	-0.106275246
12	0xbe3bdfb1	-0.1834705
13	0xbcae3a44	-0.021268018
14	0xbd21e7ac	-0.03952758
15	0xbd8b6b72	-0.06807603
16	0xbdd92855	-0.10603396
17	0xbcffc44b	-0.03122153
18	0xbd34365f	-0.043997165
19	0xbd0819d2	-0.03322775
20	0xbcc84016	-0.024444621
21	0xbd5995c8	-0.05312136
22	0x3d51c885	0.05121662
23	0xbd5e9bc6	-0.054347776
24	0x3d913843	0.07090809
25	0xbc9ea27e	-0.019364592
26	0xbbe95b40	-0.0071214736
27	0xbd27f648	-0.041006356
28	0xbb3a12a2	-0.0028392454
29	0x3d99e939	0.07515187
30	0xbda25cf7	-0.07927888
31	0xbb22af0c	-0.0024823574
32	0xbceed45f	-0.029154
33	0x3d903896	0.07042043
34	0x3c8ac027	0.016937329
35	0xbd5d6c2c	-0.05405824
36	0xbdefd886	-0.117112204
37	0x3cf27aee	0.029599633
38	0xbdb25563	-0.087076925
39	0xbd3d15f7	-0.046163525
40	0xbd706865	-0.05869331
41	0xbe0d353a	-0.13789836
42	0xbd6c6e10	-0.05772215
43	0xbc8cd8ca	-0.017193217
44	0xbd1cbc4d	-0.038265515
45	0xbd8d2ccc	-0.0689331
46	0xbde3c3c2	-0.11121322
47	0x3c044d01	0.008075
48	0xbc39b297	-0.011334083
49	0xbccf6cbb	-0.025320401
50	0x3ce210a9	0.027595835
51	0xbddb9c62	-0.10723187
52	0xbb47496c	-0.0030408753
53	0x3ce06e12	0.027396236
54	0xbc80e95a	-0.01573627
55	0xbd5aea8c	-0.053446338
56	0xbd87e663	-0.0663574
57	0xbd9801ad	-0.07422195
58	0xbcb19fa5	-0.02168257
59	0x3ba0b49b	0.0049043423
60	0xbdb65c3e	-0.089043126
61	0x3d0b9ae0	0.034083247
62	0xbdde60be	-0.10858296
63	0xba91224b	-0.0011072842

down2.go_down.1.conv2x.0.c.1.running_mean f4 [64]
0	0x3f869889	1.05153
1	0xbfcef9d0	-1.6169987
2	0xbfe9d039	-1.826667
3	0x3f39e6f7	0.7261805
4	0x3f10f918	0.56630087
5	0xbf335910	-0.70057774
6	0xbfbcf592	-1.4762442
7	0x3f56b4cf	0.8386964
8	0xbeb728de	-0.35773367
9	0xbffa1422	-1.9537394
10	0x3f9290a4	1.1450391
11	0x40157e3c	2.3358297
12	0x3eeca485	0.46219268
13	0xbf247ad8	-0.64249945
14	0x3fc11648	1.5084925
15	0xbeb726ae	-0.35771698
16	0x3ecd7cce	0.4013428
17	0xbf4816e6	-0.7815994
18	0xbb98df9b	-0.0046653277
19	0xbf863404	-1.0484624
20	0xbf32c33c	-0.69829154
21	0x3f43087c	0.7618482
22	0x3c91a818	0.017780349
23	0x400ce6ce	2.2015872
24	0xbf7a91aa	-0.97878516
25	0x3d4459e1	0.047937278
26	0xbfa4e286	-1.288163
27	0x3e16d7ba	0.1473073
28	0x3e614824	0.22000176
29	0xbeade8c2	-0.33966643
30	0xbf5dafc1	-0.86596304
31	0xc00bbbec	-2.1833448
32	0xbfbdc402	-1.4825442
33	0x3ea5f530	0.32413626
34	0x3de769a7	0.112994485
35	0x3f8c79bf	1.0974654
36	0x3deadece	0.11468278
37	0xbfd6be2c	-1.6776786
38	0x3f609ea7	0.87742084
39	0x3f97dd72	1.1864455
40	0x3f08aac2	0.53385556
41	0xc03af14f	-2.9209783
42	0x3d6b1724	0.057395115
43	0x3e566a5e	0.20939013
44	0xbf8cd792	-1.1003287
45	0x3fc4f71d	1.5387913
46	0x3f5057be	0.81383884
47	0xbe29b194	-0.16571647
48	0xbff15468	-1.8853884
49	0x3ef80020	0.48437595
50	0xbfe06839	-1.7531806
51	0xbfff9a9f	-1.9969062
52	0xc0350a4c	-2.8287535
53	0xbf9591ba	-1.1685097
54	0x3dcb5106	0.09927563
55	0x3f5b0ef7	0.8556971
56	0xbf5b4ba3	-0.8566229
57	0xbf645208	-0.8918767
58	0xbf3b69ff	-0.7320861
59	0x3d87fe39	0.06640286
60	0x3f85c348	1.045022
61	0xbcc0572a	-0.023479063
62	0x3f41bfb9	0.7568317
63	0xbfaf8575	-1.3712603

down2.go_down.1.conv2x.0.c.1.running_var f4 [64]
0	0x3edcfd16	0.4316184
1	0x3f087b18	0.53312826
2	0x3f371023	0.71509
3	0x3ef8bd1a	0.48581773
4	0x3f3b6050	0.73193836
5	0x3f188ebb	0.5959279
6	0x3ecdf2e3	0.4022437
7	0x3e8eb795	0.27874437
8	0x3f490a0b	0.7853095
9	0x3f42f37e	0.7615279
10	0x3f746a44	0.9547465
11	0x3f44a635	0.7681611
12	0x3ee4353c	0.44571865
13	0x3ef880f1	0.48535874
14	0x3ed07bce	0.40719455
15	0x3f15a6b7	0.5845751
16	0x3e7dc08c	0.24780482
17	0x3f068816	0.525514
18	0x3ebf290a	0.37335998
19	0x3f119495	0.56867343
20	0x3ea692e7	0.32533953
21	0x3eff6042	0.49878126
22	0x3f15863c	0.5840795
23	0x3f11e90e	0.5699624
24	0x3f1e5624	0.6185019
25	0x3ee2761f	0.44230744
26	0x3f3d77e6	0.74011075
27	0x3f05682a	0.52112067
28	0x3f36c588	0.7139516
29	0x3f42a5dd	0.7603434
30	0x3ee1c712	0.4409719
31	0x3ecdd3b8	0.4020059
32	0x3f14d13b	0.5813176
33	0x3f1e4c7e	0.6183547
34	0x3f243d01	0.64155585
35	0x3efd8d6f	0.49521968
36	0x3ed13ac2	0.4086514
37	0x3f4cce6c	0.80002475
38	0x3ef366ef	0.4753947
39	0x3f6de705	0.9293063
40	0x3f103030	0.5632353
41	0x3f2d655e	0.677328
42	0x3eea8505	0.4580461
43	0x3f5be167	0.8589081
44	0x3f1f0465	0.6211608
45	0x3f13509d	0.5754488
46	0x3ef14c0e	0.47128338
47	0x3f201220	0.62527657
48	0x3ea210d4	0.31653464
49	0x3f117f31	0.56834704
50	0x3f8236f4	1.017302
51	0x3f45b509	0.7722936
52	0x3f50b6cd	0.8152893
53	0x3f320ffb	0.69555634
54	0x3edbe38d	0.42947045
55	0x3ec9a7bc	0.39385784
56	0x3f825b5c	1.0184131
57	0x3f3fbbf0	0.74896145
58	0x3ecbee01	0.3983002
59	0x3f0b73bb	0.54473466
60	0x3ea66ac2	0.32503325
61	0x3f220e1f	0.633028
62	0x3ec2dfdb	0.38061413
63	0x3f5512c8	0.8323178

down2.go_down.1.conv2x.0.c.1.weight f4 [64]
0	0x3f82640c	1.0186782
1	0x3f8038d2	1.001734
2	0x3f81b392	1.0132926
3	0x3f6c0494	0.92194486
4	0x3f826580	1.0187225
5	0x3f81dbf7	1.0145253
6	0x3f7de183	0.9917223
7	0x3f7e6866	0.9937805
8	0x3f7665da	0.96249163
9	0x3f797381	0.9744187
10	0x3f79df4f	0.97606367
11	0x3f70b184	0.9402087
12	0x3f76fdd7	0.9648108
13	0x3f7e08cb	0.99232167
14	0x3f770494	0.9649136
15	0x3f7ced16	0.98799264
16	0x3f7bee5a	0.9841057
17	0x3f9229c4	1.1418996
18	0x3f7ce6f9	0.98789936
19	0x3f818516	1.011874
20	0x3f7d6775	0.9898599
21	0x3f77c2dd	0.9678171
22	0x3f86747f	1.0504302
23	0x3f864b4c	1.0491729
24	0x3f7eedbd	0.9958151
25	0x3f7c11e1	0.9846478
26	0x3f83e823	1.0305218
27	0x3f852dbd	1.0404583
28	0x3f84bc03	1.0369877
29	0x3f889569	1.0670596
30	0x3f8299ed	1.0203224
31	0x3f818fd9	1.0122024
32	0x3f7d0f43	0.9885141
33	0x3f875020	1.0571327
34	0x3f8ad1ab	1.0845236
35	0x3f7cfc44	0.98822427
36	0x3f831252	1.0239966
37	0x3f821498	1.0162535
38	0x3f81d252	1.014231
39	0x3f79bb24	0.9755118
40	0x3f88d817	1.0690945
41	0x3f8a00cf	1.0781497
42	0x3f7b1937	0.9808535
43	0x3f7edea3	0.99558467
44	0x3f79e85b	0.9762017
45	0x3f7d7cb8	0.9901843
46	0x3f7c3b6c	0.9852817
47	0x3f856558	1.0421553
48	0x3f8250a5	1.0180861
49	0x3f78da97	0.9720854
50	0x3f823b90	1.0174427
51	0x3f712c0c	0.94207835
52	0x3f7f4e1f	0.9972858
53	0x3f83636d	1.0264717
54	0x3f8073cd	1.003534
55	0x3f7e050c	0.9922645
56	0x3f7344a1	0.95026594
57	0x3f78d100	0.9719391
58	0x3f7d4a0e	0.98941123
59	0x3f821cbc	1.0165019
60	0x3f7dd030	0.99145794
61	0x3f82afd5	1.020991
62	0x3f791306	0.9729465
63	0x3f809545	1.0045553

down2.go_down.1.conv2x.1.c.0.bias f4 [64]
0	0xbcf0438a	-0.02932908
1	0xbd107355	-0.03526624
2	0x3ce16009	0.027511613
3	0xbcb0efd7	-0.02159874
4	0x3c0920cb	0.008369635
5	0x3d1c862b	0.03821389
6	0xbc2d60cf	-0.010582163
7	0x3bc433e6	0.005987632
8	0x3d028a5f	0.031870242
9	0x3ba9904e	0.005174673
10	0xbd032c34	-0.032024577
11	0xbce25281	-0.027627232
12	0x3bca1bf4	0.006167883
13	0x3c2162f4	0.009850252
14	0x3c9c680e	0.019092586
15	0xbbaed0af	-0.0053349356
16	0xbbec3d3e	-0.007209449
17	0xbd14325a	-0.03618083
18	0xbd076ba6	-0.033061646
19	0x3d12c605	0.035833377
20	0x3c3aedcc	0.011409234
21	0x3cc02de2	0.023459379
22	0xbbb7067b	-0.0055854893
23	0x3ce4c8d6	0.027927797
24	0x3bf9f30a	0.0076278495
25	0xbd25aa6e	-0.040445738
26	0xbcd6fd2a	-0.026243765
27	0xbc6bc81b	-0.014390971
28	0x3b341090	0.0027475692
29	0xbca263b5	-0.019822935
30	0x3caf460d	0.021395708
31	0x3d048926	0.032357357
32	0xbd03ccd8	-0.032177776
33	0x3c3415c6	0.010991519
34	0x3d0b6494	0.034031466
35	0xbab223aa	-0.0013590951
36	0x3ce2784c	0.027645253
37	0xbcddda86	-0.02708174
38	0xbb3acee4	-0.0028504664
39	0xbc2fd349	-0.010731527
40	0xbc1cf1b4	-0.009579111
41	0xba0322fc	-0.00050024665
42	0xbba2daa5	-0.004969912
43	0xbc49b691	-0.012311594
44	0xbca72e09	-0.020407693
45	0xbcf92e11	-0.030417474
46	0x3cada96e	0.021198954
47	0xbcd77d60	-0.0263049
48	0x3d1cc603	0.038274776
49	0x3d233a66	0.039850615
50	0xbd1405aa	-0.036138214
51	0xbca56cfe	-0.020193573
52	0x3d0cd7cd	0.03438549
53	0xbcfef9d5	-0.031124989
54	0x3cf669df	0.03007978
55	0xbbf769bc	-0.0075504463
56	0xbc23e81c	-0.01000407
57	0xbc9d0549	-0.01916756
58	0x3c99e97f	0.018788097
59	0x3ce5ca9d	0.028050715
60	0x3d1c4be3	0.03815831
61	0x3c71342c	0.014721911
62	0x3c58ab67	0.013224459
63	0x3cb2e4b4	0.02183757

down2.go_down.1.conv2x.1.c.0.weight f4 [64, 64, 3, 3]
0	0x3c384592	0.011247056
1	0xbc63ce3f	-0.013904153
2	0x3d9242fb	0.07141682
3	0xbd0b397a	-0.03399036
4	0xbcc3fb99	-0.023923682
5	0xbb1094c9	-0.002206134
6	0x3d09eeae	0.03367489
7	0x3d588e9e	0.052870385
8	0xbb170916	-0.0023046187
9	0xbcca1af6	-0.02467106
10	0xbc417b77	-0.0118092215
11	0xbc37df8f	-0.011222734
12	0x3d3578ae	0.044304542
13	0x3cc897f4	0.02448652
14	0xbd3f1cee	-0.04665845
15	0x3c78346a	0.015149215
16	0x3cd7ee70	0.026358813
17	0x3cfb903d	0.030708427
18	0xbd01e76a	-0.031714834
19	0x3d0343fa	0.03204725
20	0x3d18ef2f	0.03733748
21	0xb9f392d9	-0.00046457982
22	0xbd6b48fb	-0.057442646
23	0xb8a897aa	-8.039114e-05
24	0xbd6a9483	-0.057270538
25	0xbda5aa8f	-0.08089172
26	0xbdb6e89a	-0.08931084
27	0xbcc3fa98	-0.023923203
28	0x3c99fbe0	0.018796861
29	0xbcb4f39e	-0.022088822
30	0x3c2dd998	0.01061096
31	0xbc49bd47	-0.012313194
32	0x3c6e11f9	0.014530652
33	0x3d678147	0.056519773
34	0xbc9daa3f	-0.019246219
35	0xbcd3a1f4	-0.025834061
36	0x3c52deb5	0.01287048
37	0xbd52ebfb	-0.05149458
38	0xb9d4c1b7	-0.0004058012
39	0xbc803cac	-0.01565393
40	0x3d10ebc7	0.035381105
41	0x3ccc5380	0.02494216
42	0xbd15e559	-0.036595676
43	0x3d82506e	0.06362997
44	0x3cc02b14	0.023458041
45	0xbc9abd03	-0.018888956
46	0xbc209300	-0.0098006725
47	0x3ade17ac	0.0016944311
48	0x3bac1411	0.0052514155
49	0xbd1dcf01	-0.038527492
50	0xbd02f19a	-0.03196869
51	0xbceebde7	-0.029143287
52	0x3bd3a731	0.0064591398
53	0x3d5a3a15	0.053278048
54	0x3cf64efa	0.030066956
55	0xbc2b00f6	-0.010437241
56	0x3b93103a	0.0044880183
57	0x3d081a5a	0.033228256
58	0x3d17e0a5	0.037079472
59	0x3e095132	0.1340988
60	0xbcb939ed	-0.022610629
61	0xbc42df39	-0.011894041
62	0x3d49b951	0.049248997
63	0x3caaa119	0.02082877
64	0xbcaf23b1	-0.021379324
65	0xbb869b9f	-0.004107907
66	0x3cf03d62	0.029326145
67	0x3c160f2f	0.0091588935
68	0x3d59a1ec	0.053132936
69	0xba8087db	-0.0009806113
70	0xbc0fd19b	-0.008778001
71	0xbd016685	-0.03159191
72	0x3d5153dc	0.051105365
73	0x3d23b434	0.039966777
74	0x3d855c2f	0.06511723
75	0x3c89589d	0.016765887
76	0xbcf18188	-0.02948071
77	0x3d2f8c0b	0.042858165
78	0x3c58fcda	0.013243878
79	0xbc1baae3	-0.009501192
80	0xbcef1ef6	-0.029189568
81	0xba3056a2	-0.00067267765
82	0x3cb8ac84	0.0225432
83	0xbcf96a0c	-0.030446075
84	0x3c7a871b	0.015291001
85	0xbdbda870	-0.092606425
86	0xbcdb4aeb	-0.026769122
87	0x3d265674	0.040609792
88	0x3d227d30	0.03967017
89	0xbd2fdf64	-0.04293765
90	0x3c81a921	0.015827717
91	0xbc8d8a07	-0.01727773
92	0xba0de743	-0.0005413184
93	0xb91aa219	-0.0001474697
94	0x3d2199fb	0.039453488
95	0x3d1eacb8	0.038738936
96	0x3d3b121b	0.045671564
97	0x3d38a266	0.04507675
98	0x3c2116f0	0.009832129
99	0x3c64cb21	0.013964445
100	0xbc61d7bc	-0.013784345
101	0xbd3a100e	-0.045425467
102	0xbc03c379	-0.00804221
103	0xbcb08092	-0.021545682
104	0x3cc170b9	0.02361332
105	0xbcda707a	-0.026664961
106	0x3cb2f121	0.021843495
107	0xbc8c4c63	-0.017126268
108	0x3cae7415	0.021295587
109	0x3cfdeb39	0.030995952
110	0x3cdc9523	0.026926583
111	0x3c26d7b9	0.010183268
112	0xbcb0aa63	-0.021565622
113	0x3d87ecea	0.06636985
114	0xbd06a573	-0.03287263
115	0x3cf04ba7	0.029332949
116	0xbc6813f9	-0.014164918
117	0xbb192ec2	-0.0023373817
118	0x3c85c9c0	0.016331553
119	0xbcdfee0c	-0.02733519
120	0xbcc4978a	-0.02399804
121	0x3c95c4d6	0.018282335
122	0x3d811a74	0.06303874
123	0xbd276c2e	-0.040874653
124	0x3c432720	0.011911184
125	0xbc292a40	-0.010325015
126	0x3c16df22	0.009208472
127	0x3ca0102f	0.019538967
128	0xbd0b211e	-0.03396713
129	0x3ced9c3e	0.029005166
130	0xbcbc3ef1	-0.022979232
131	0x3d818ef6	0.06326096
132	0x3ba7febd	0.0051268027
133	0x3cffcd12	0.031225715
134	0xbb11d2e1	-0.0022250938
135	0xbdb051f7	-0.086093836
136	0xbd012190	-0.03152615
137	0x3d6d0ad5	0.05787166
138	0x3be68ab1	0.0070355763
139	0x3d08ccf1	0.033398572
140	0xba6e750d	-0.00090964214
141	0x3c2ea4f4	0.010659445
142	0xba4a93ef	-0.00077277323
143	0x3c84103d	0.016121024
144	0xbd1a5353	-0.03767712
145	0xbc7c2f38	-0.015392117
146	0xbbca3354	-0.0061706696
147	0xbda7fcb1	-0.08202494
148	0x3bda66f4	0.006665105
149	0xbc4083af	-0.011750146
150	0x3c58f5fe	0.013242243
151	0xbc5cbd78	-0.013472907
152	0x3bfdb274	0.0077422205
153	0xbc17a809	-0.009256371
154	0xbc963ee3	-0.018340534
155	0xbd6b868d	-0.057501364
156	0xbd9118b2	-0.070847884
157	0xbd4dab47	-0.05021217
158	0xbc9e6c85	-0.019338856
159	0x3c6961a3	0.01424447
160	0xbd6c4204	-0.057680145
161	0x3d20fda1	0.03930438
162	0xbd883013	-0.066497944
163	0xbd7e569a	-0.06209431
164	0x3b9f70f8	0.004865762
165	0x3d07eb02	0.033183105
166	0x3c5e951f	0.013585358
167	0xbcc7bfae	-0.024383392
168	0xbb573608	-0.0032838602
169	0x3d1c352c	0.038136646
170	0xbcb0a45a	-0.021562744
171	0xbbad3d7e	-0.0052868715
172	0xbcd675b7	-0.026179178
173	0xbd1ba788	-0.038001567
174	0xbc0ba067	-0.00852213
175	0x3d2c79d2	0.042108364
176	0xbd28ee28	-0.04124275
177	0x3cc8702c	0.02446755
178	0x3cff4d3f	0.031164763
179	0x3cc5a3f6	0.024126034
180	0x3b7f6d7a	0.0038975165
181	0x3d85006e	0.064942226
182	0x3d78e31f	0.060763475
183	0xbcdf9613	-0.02729324
184	0xbc9b4fdd	-0.01895898
185	0xbd6713b9	-0.056415293
186	0x3bc30b35	0.0059522637
187	0xbc33cae8	-0.01097367
188	0xbd2b8517	-0.04187497
189	0x3c809f46	0.015700947
190	0x3c87453b	0.016512504
191	0x3c2fb91c	0.010725286
192	0x3aab411c	0.0013065669
193	0xbc806f80	-0.015678167
194	0xbbfe7cf2	-0.0077663595
195	0xbd0e74c5	-0.03477933
196	0x3bbe1f4d	0.005802071
197	0xba15d80e	-0.00057160936
198	0xbd00b7bb	-0.03142522
199	0xbca71aa1	-0.02039844
200	0x3cab61ff	0.020920752
201	0x3bd7ee2d	0.006589672
202	0x3d0dcf52	0.034621544
203	0x3df8cb9a	0.12148209
204	0x3bcfb64c	0.00633887
205	0x3c0d311e	0.0086176675
206	0x3d9efad2	0.07762684
207	0x3caf719f	0.021416483
208	0x3c0e07e8	0.008668877
209	0xbd80a615	-0.06281678
210	0x3cec0890	0.028812677
211	0x3d2ecbdf	0.042674895
212	0x3c9dfc2d	0.019285286
213	0x3d842d76	0.064539835
214	0xbd0ccf8d	-0.034377623
215	0x3c993afa	0.01870488
216	0xbba7e195	-0.005123327
217	0xbd0717c1	-0.032981638
218	0xbd293ba8	-0.04131666
219	0xbd97bdc6	-0.07409243
220	0xbc9a2c9c	-0.0188201
221	0x3c99d031	0.018776031
222	0x3d403f73	0.04693551
223	0x3960c44d	0.00021435432
224	0x3d6d64f7	0.057957616
225	0xbc8b534c	-0.017007492
226	0x3d42a187	0.047517326
227	0x3dac2367	0.0840519
228	0xbb2ab6dc	-0.0026048934
229	0x3d2ae018	0.04171762
230	0xbd2cf3fb	-0.042224865
231	0xbd222fe9	-0.039596472
232	0xbc59c829	-0.013292351
233	0xbd5a72d9	-0.053332184
234	0xbd502d90	-0.0508247
235	0xbd742536	-0.0596058
236	0xbaa8152d	-0.0012823694
237	0x3d017c39	0.03161261
238	0xbcb1a8d3	-0.021686947
239	0xbd1513ac	-0.036395714
240	0xbc623454	-0.013806421
241	0x3d8976b1	0.06712092
242	0x3ca9b1f6	0.020714741
243	0xbd2b0edf	-0.04176223
244	0xbcdb52ba	-0.026772846
245	0xbdbe9c40	-0.09307146
246	0x3d3ddd09	0.046353374
247	0x3bb0ccea	0.0053955214
248	0xbcdeca75	-0.027196148
249	0xbd5150e7	-0.051102545
250	0xbb818652	-0.00395278
251	0xbcdfbe0b	-0.0273123
252	0xbd5605ea	-0.052251734
253	0xbcaf4be9	-0.021398501
254	0xbcdaf46b	-0.026727876
255	0xbdae098d	-0.084979154

down2.go_down.1.conv2x.1.c.1.bias f4 [64]
0	0x3d8c8497	0.06861227
1	0xbdf4cbed	-0.11952958
2	0xbdc0dff6	-0.09417717
3	0xbd1a3d3c	-0.037656054
4	0xbe0b6344	-0.13612086
5	0xbd09c3fc	-0.03363417
6	0x3c459917	0.012060425
7	0x3d2bb2db	0.041918617
8	0xbcb84abd	-0.022496575
9	0x3c9a74c5	0.018854508
10	0xbd8da6f5	-0.0691661
11	0x3cc86eaa	0.024466831
12	0xbd4fa9e6	-0.050699137
13	0xbb79fb4a	-0.0038144165
14	0xbc813056	-0.015770119
15	0xbd836ccd	-0.064172365
16	0x3d311c10	0.043239653
17	0x3ce494ac	0.027902924
18	0xb9985413	-0.0002905434
19	0x3d0ced9f	0.0344063
20	0xbc42be02	-0.011886122
21	0x3ca25c30	0.019819349
22	0xbd084f7b	-0.033278923
23	0x3d2ceb66	0.04221668
24	0x3c2dd794	0.01061048
25	0xbd920bb9	-0.07131142
26	0x3c08c75d	0.008348313
27	0xbd03fdca	-0.032224454
28	0xbcdf09c7	-0.027226342
29	0xbc815ac5	-0.015790353
30	0xbd236aef	-0.0398969
31	0x3b8795dc	0.0041377377
32	0xbdb90d07	-0.09035688
33	0xbe0d06a4	-0.13772064
34	0xbd5d3445	-0.054004926
35	0xbd9bacd4	-0.07601324
36	0x3c931c70	0.017957896
37	0x3baaa6fb	0.005207894
38	0xbdf3face	-0.119130716
39	0x3c8761c6	0.016526114
40	0xbb463ed7	-0.0030249858
41	0x3cb86498	0.022508904
42	0xbd976872	-0.07392968
43	0xbd009e5f	-0.031401034
44	0x3c67f5c3	0.014157715
45	0x3c199fe7	0.009376503
46	0x3c334aa1	0.010943086
47	0x3d00e681	0.031469826
48	0xbd07acf6	-0.033123933
49	0x3a242231	0.00062611984
50	0x3b76841c	0.0037615364
51	0x3cbefc3d	0.023313636
52	0xbddd0f08	-0.107938826
53	0x3d258056	0.040405594
54	0x3c5d0c1f	0.013491659
55	0x3d2a37c1	0.041557077
56	0x3baecf64	0.0053347815
57	0xbc98dd76	-0.018660288
58	0x3dbf17ed	0.09330735
59	0xbd07df45	-0.03317191
60	0xbcef9e56	-0.029250305
61	0xbcb555eb	-0.022135695
62	0xbd945a52	-0.0724379
63	0xbaf99345	-0.0019041082

down2.go_down.1.conv2x.1.c.1.running_mean f4 [64]
0	0xbe70b38c	-0.23505992
1	0x3f4088a6	0.7520851
2	0x3f25e04a	0.6479536
3	0xbf23abd2	-0.6393405
4	0x3eda63b4	0.42654192
5	0x3e9da885	0.30792633
6	0xbeb8011e	-0.35938352
7	0x3ede3499	0.43399504
8	0xbff528e2	-1.9153101
9	0x3e84d72a	0.25945407
10	0x3f720ef9	0.94554096
11	0xbf87fcc8	-1.0624018
12	0x3e6d5b32	0.2317932
13	0x3e9ab5e0	0.30216885
14	0xbf8f67ed	-1.1203591
15	0x3f5b876a	0.857535
16	0xbead4eb8	-0.3384912
17	0xbc780f6c	-0.015140396
18	0xbfd0dd22	-1.6317484
19	0x3f790f9b	0.9728944
20	0x3f272df8	0.6530452
21	0x3e30d2a5	0.17267855
22	0xbf5e07d4	-0.86730695
23	0x3f1a5cd6	0.60297906
24	0xbf5d648e	-0.8648156
25	0x3fb29eab	1.3954672
26	0xbf879fc8	-1.0595636
27	0xbf7b7236	-0.9822115
28	0x3f223baf	0.6337232
29	0x3deacfa2	0.11465384
30	0x3f02c61d	0.51083547
31	0x3f84699a	1.0344727
32	0x3f290cfa	0.66035426
33	0x3f8f6e30	1.1205502
34	0x3fdc2f76	1.7201984
35	0x3f56f258	0.8396354
36	0xbfc04a99	-1.5022765
37	0x3f32a99e	0.69790065
38	0x3f0c3387	0.54766124
39	0x3e20c692	0.15700749
40	0x3d768f2e	0.06019514
41	0xbcf10277	-0.02942012
42	0x3f114a51	0.5675402
43	0x3e6cb28c	0.23114985
44	0xbf1105f8	-0.5664973
45	0xbf79df6e	-0.9760655
46	0xbfb32c1a	-1.3997834
47	0xbf1f24a0	-0.6216526
48	0x3f5d52d2	0.864545
49	0xbe247d07	-0.16063319
50	0x3e0e0af3	0.13871364
51	0xbf5f0f8e	-0.8713311
52	0x3f8df2d6	1.1089733
53	0xbf1ecc86	-0.6203083
54	0xbe27b211	-0.1637652
55	0xbf8787ac	-1.0588279
56	0xbe9f0343	-0.31057176
57	0x3cd03f92	0.025420938
58	0xbf7f13f7	-0.9963984
59	0x3f04f3f1	0.51934725
60	0xbe7e366e	-0.24825451
61	0x3f1efdde	0.6210612
62	0x3e611950	0.21982312
63	0x3edc3def	0.43016002

down2.go_down.1.conv2x.1.c.1.running_var f4 [64]
0	0x3f562914	0.8365643
1	0x3f06121b	0.52371377
2	0x3ed7327e	0.4203071
3	0x3f2b13b3	0.66826934
4	0x3e80d5a6	0.25163
5	0x3f1690ed	0.5881489
6	0x3f8ead8f	1.1146716
7	0x3f5fe03b	0.87451524
8	0x3fac4338	1.3458014
9	0x3f878b20	1.0589333
10	0x3f0796c3	0.5296442
11	0x3f1ed3cf	0.62041944
12	0x3f4abb76	0.7919229
13	0x3ef48211	0.47755483
14	0x3f8b9e12	1.0907614
15	0x3edee7e5	0.43536296
16	0x3f1602bb	0.58597916
17	0x3f92e2c7	1.1475457
18	0x4035fe63	2.8436515
19	0x3fad0090	1.3515797
20	0x3fa4c9d3	1.2874092
21	0x3ef17840	0.47162056
22	0x3f90adf7	1.130309
23	0x3fdf0733	1.7424072
24	0x3f92abf8	1.1458731
25	0x3f1d12cf	0.61356825
26	0x3f452d70	0.7702246
27	0x3f99c2e3	1.20126
28	0x3f84bd9e	1.0370367
29	0x3f35f823	0.7108175
30	0x3f200aaf	0.625163
31	0x3f58cf1b	0.8469102
32	0x3ea6d686	0.32585543
33	0x3f322ce7	0.69599766
34	0x3f76f7c4	0.9647181
35	0x3efd5e8f	0.49486205
36	0x3fd04528	1.6271105
37	0x3f16bc08	0.5888066
38	0x3ee2ac08	0.44271874
39	0x3f065a4a	0.5248152
40	0x3ece6194	0.4030882
41	0x3f132390	0.5747614
42	0x3f197557	0.5994467
43	0x3ee3e6c2	0.44511992
44	0x3f138657	0.5762686
45	0x3f689061	0.90845305
46	0x3f8671c1	1.0503465
47	0x3f5a9cb6	0.8539537
48	0x3efbcbcb	0.4917892
49	0x3fa0764c	1.2536101
50	0x3eee17dc	0.46502578
51	0x3f392590	0.7232294
52	0x3ef5f310	0.48037004
53	0x3f22afaf	0.6354932
54	0x3f53e9f5	0.82778865
55	0x3eeff960	0.46869946
56	0x3f2ab95c	0.66689086
57	0x3f66aa42	0.9010354
58	0x40074863	2.1137931
59	0x3eb43d95	0.35203233
60	0x3ef02791	0.46905187
61	0x3f3e146e	0.74249923
62	0x3e8ac6d6	0.27104825
63	0x3f26f5f5	0.6521905
