data/model/2-test.pth (torch_old, 492009 bytes, 73 tensors)

inc.conv.conv2x.0.c.0.weight f4 [16, 1, 3, 3]
00000000: 62db bc3d 61fc 84be a4fe 033e 3ccf 8abe
00000010: a729 fe3d eaca a63e 957c 88ba 6e82 fb3d
00000020: 41f2 2abb 997e 14bd c11d 4e3d 2cfb 8fbe
00000030: 7850 bbbd 2d62 74be 7f92 89be f8e6 233e
00000040: 1521 c63d 23a8 88be 0894 b53d 2506 82be
00000050: 8fde 413e 7b4c df3b 491b 01be afad bbbd
00000060: 074a 43bd ef64 183d 27ba cc3d 336c 113e
00000070: a387 eabd 5085 d8bd 08f5 203e 3f1f 81bd
00000080: 1680 263e 9a68 9a3e 68a1 8e3e 2914 2cbe
00000090: 1b33 a83e 196e 97be ed60 a83c 552a 9abe
000000a0: 9a8a 05bd aee9 31be 88cb 10be 23cf 94bd
000000b0: fd8a 30be 0afd 993e cdbc 85be 68da 833e
000000c0: c640 ac3e a93a 7f3d 42a0 92bd ddac a53d
000000d0: 664b 78be 91d6 afbd 1434 ad3d 0f77 64bc
000000e0: 861e c1bc 73e0 bb3d bf7e 20be d117 3dbe
000000f0: c461 a8bd 55fc a23e 41aa 873d e64e 613e
00000100: 034d 003e e558 57be 2389 503e a63e 8fbd
00000110: bc83 893d 31b5 7ebe 2d25 27be 8d19 febd
00000120: b572 14be 390d 1f3e 775f 6fbe 7a00 d1bd
00000130: 7370 453e bd25 44be 5693 8dbe edcc b53c
00000140: cab2 503e 8444 6ebe 0b06 6bbe eab9 be3d
00000150: e7a6 b7bc 6c28 2c3d 5cf4 96bd 3f0a 9bbd
00000160: b891 8a3e eb18 613e d9c9 a3be a951 8ebd
00000170: 03c8 38be ccb9 80be 330d c03e fb0c 203e
00000180: f735 723e 5815 2e3e 669e 91be c9e2 183e
00000190: 4639 76be c82d e33c 56e8 44be b836 4b3e
000001a0: 6b42 75bd 5e92 633d bfbf dc3c 23d1 9e3c
000001b0: 96b1 333e f8a9 c13e 3f29 25be fac8 89be
000001c0: fe98 6fbe 434f 57bd 1d2c 5c3e e8cf 0f3e
000001d0: 258e 79be 557c ac3e 8479 a8be 6c28 99be
000001e0: 42e1 073d 9c35 983e 21a6 20bc 7202 7fbe
000001f0: 3663 6f3e 6006 83be 96ef d83d d1bd 133e
00000200: 7d7f 593e eb09 283d 1356 c73d aa67 a73e
00000210: 6d8e 28be 457e 81be 3280 8b3e 14c2 81be
00000220: 53b8 7c3e 48e9 a13d 9f39 8f3e f38d f4bd
00000230: 9d10 ca3d a709 7bbe ff76 49bd 3eee 5ebe
0.092215315 -0.259738 0.12890106 -0.27111232 0.12410288 0.32576686 -0.0010413105 0.12280737
-0.0026084336 -0.036253545 0.050321344 -0.28121316 -0.091462076 -0.23865576 -0.2686958 0.16006076
0.09674279 -0.26690778 0.08866125 -0.25395313 0.18932556 0.006814537 -0.12608065 -0.09163987
-0.04767802 0.037205633 0.09996443 0.14201431 -0.11451652 -0.10572302 0.15718472 -0.06304788
0.16259798 0.3015793 0.27857518 -0.16804565 0.3285149 -0.29576185 0.02055403 -0.30110422
-0.032602884 -0.17374298 -0.14140141 -0.07266071 -0.1724052 0.30075866 -0.26120606 0.25752568
0.33643168 0.062311802 -0.07159473 0.08089612 -0.24247512 -0.08585847 0.08457199 -0.013944401
-0.023574125 0.0917367 -0.1567335 -0.18466116 -0.08221772 0.3183314 0.0662427 0.22002754
0.12529378 -0.21030004 0.20364814 -0.06994371 0.067145795 -0.24873807 -0.16322775 -0.12407217
-0.14496882 0.15532388 -0.2337626 -0.10205169 0.19281177 -0.19155021 -0.2765147 0.022192443
0.20380703 -0.23268324 -0.22951524 0.09312804 -0.022418452 0.042030737 -0.073708266 -0.07570314
0.270643 0.21982162 -0.31989935 -0.06949169 -0.18045048 -0.25141752 0.3751007 0.15629952
0.23653398 0.1700033 -0.2844116 0.14930262 -0.24045286 0.027731791 -0.19229254 0.19845092
-0.059877794 0.05555951 0.0269469 0.019386834 0.17548212 0.37824988 -0.16129015 -0.26911145
-0.23398206 -0.052565824 0.21501203 0.14044154 -0.2437063 0.33688608 -0.3290521 -0.29913652
0.033173807 0.297284 -0.009805233 -0.24903277 0.2337769 -0.255908 0.105925724 0.14427878
0.21240039 0.041025084 0.09733214 0.32696277 -0.16460581 -0.25291649 0.27246243 -0.25343382
0.24679689 0.07905823 0.2797365 -0.11941137 0.0986645 -0.24515401 -0.04918575 -0.2177057

inc.conv.conv2x.0.c.0.bias f4 [16]
00000000: 7294 85be 061b 9fbe e577 96bd 9885 e03d
00000010: c362 863e 228a e8bd 28dc 7cbd 5d04 3f3e
00000020: 1a05 39be 7c1d 2a3e f995 c53d 58ef 983d
00000030: cc53 96be 1ac7 173e fa0f 783d a17e c6bd
-0.26089817 -0.31075305 -0.07347087 0.10962981 0.26247224 -0.11354472 -0.061733395 0.18654008
-0.18068352 0.1661281 0.09647746 0.07467526 -0.29360807 0.14822045 0.06056211 -0.09692121

inc.conv.conv2x.0.c.1.weight f4 [16]
00000000: 6e4f 813f 467a 7b3f 5848 873f b9b2 7e3f
00000010: 61a1 7d3f ec88 823f d981 783f e10b 763f
00000020: a381 773f f152 823f 2e23 803f a390 733f
00000030: b99f 7d3f f9bf 7c3f b43f 803f a983 7d3f
1.0102365 0.9823345 1.0568953 0.9949146 0.9907437 1.0198035 0.9707313 0.96111876
0.96682185 1.0181562 1.0010736 0.95142573 0.9907184 0.9873043 1.0019441 0.9902902

inc.conv.conv2x.0.c.1.bias f4 [16]
00000000: 9be0 d13c fa72 503c e0b1 9d3e f81f ea3b
00000010: 41fb 353d 677e 6a3d 4e8d 783b be97 d6b9
00000020: 9bb9 183d bf32 4c3d 0e14 243e ef0e 833e
00000030: bd04 e73d 351b 7f3e 0973 7fbc 9e61 dd3d
0.025619796 0.012722725 0.3079977 0.0071449243 0.044429068 0.057249453 0.003792602 -0.00040930317
0.037286382 0.049853083 0.16023275 0.2559733 0.11280201 0.24912722 -0.015591391 0.108096346

inc.conv.conv2x.0.c.1.running_mean f4 [16]
00000000: e584 2c3f 2529 5ec0 1242 dcbe ec53 0f40
00000010: b677 31c0 19f0 9e3f c4a3 973e 0853 08bf
00000020: 4764 c3bf 220c 0b3e 8e7a ffbe 32cc 9b3c
00000030: 1495 f6be ac4c 37bf 9584 3840 5444 3ebf
0.6739028 -3.4712613 -0.43019158 2.2394972 -2.7729316 1.2417022 0.2961713 -0.53251696
-1.5264977 0.13578847 -0.4989819 0.019018266 -0.48160613 -0.71601367 2.8830922 -0.7432301

inc.conv.conv2x.0.c.1.running_var f4 [16]
00000000: 9c58 6b3e caf5 953f c21b 4d3d 9a7d 1d3f
00000010: f19d 823f 9d49 c03e de84 923d 0ecf 7c3e
00000020: 42c4 733e 4aea 783e 23a6 7e3e 8be6 cf3c
00000030: 9a8b 213e eb30 793e ff55 833f 7d96 253e
0.2298302 1.1715634 0.0500753 0.6151978 1.020445 0.37556162 0.07154249 0.2468836
0.23805335 0.24308124 0.24868064 0.025378486 0.1577591 0.24335067 1.0260619 0.16170688

inc.conv.conv2x.1.c.0.weight f4 [16, 16, 3, 3]
00000000: cc20 a0bd e865 84bd 5a1e 313d 4e84 15bc
00000010: a816 f13b 1e9c 49bc 4c87 9e3d f379 00bd
00000020: 7012 093c 372c 273d c354 0bbd 96d5 01bc
00000030: 980a 0dbc 5531 5fbd 75ab 76bd e8f5 0b3c
00000040: e73e 63bd f9b1 f93c 5183 383d 61e9 7dbc
00000050: 6664 1ebd 58d4 793d b69e c33d 6026 14bd
00000060: 2bbf 9fbd a836 9abc b6a2 3a3d f5c7 333d
00000070: ceeb c73b 73bf 94bd dcfd 2c3d c031 703d
00000080: 71d9 bfbd 4c3f 51bb 1e22 1d3c 63cf 4fbd
00000090: 94a4 643d 1706 613d 386b f8bc e65b 6b3d
000000a0: d40d d63c a0ea f2bc 896a 82bd 6b80 1e3d
000000b0: 513c eebd 14c7 363c 968b 3abd 4064 38bd
000000c0: 6324 e13c 8a2e 9abc 0177 86bd 92a1 003d
000000d0: 2b34 623d 09bd 8a3c 5c69 883d ed1c 7b3d
000000e0: 9bf3 20bd d8e5 a03d 7e3f 873c 8c9d 8dbd
000000f0: d0c8 743d 6d5f 183d 2c84 5f3d cd8f 4fbd
00000100: dd75 6dbc e7c2 563c d2b8 d73c 017a fdbc
00000110: 7111 9cbc cfce 093d 82af 3abd c8bd 2a3d
00000120: 9eb6 333d d66c 8e3d 87a4 043d 0add b53c
00000130: c222 c2bc 7a8e c23c 683c 83bd f56b b53d
00000140: ea14 483b 09d8 0d3d 1c77 823b 9c86 b63d
00000150: d9cd 983d 5ad1 133e 1b52 da3d 0ef8 f9bb
00000160: b89c a93d 03fb ab3d f333 6e3d 82f5 92bd
00000170: de4f c53c 0e02 08bd ae03 913d 0947 c83d
00000180: ec83 9f3d 2185 09bc d040 41bd c1e2 3c3c
00000190: 2c14 1dbc 5c43 8a3d 00bd b63d e2fe 29bd
000001a0: a735 6ebb 849c 86bc dd20 c63d dca1 febd
000001b0: e4ea c4bb 47d9 643c 5a82 b93c 9bcd 4b3d
000001c0: 0fed c83c bfd7 91bd b9bf f7bc 7a6e 013d
000001d0: 3bd0 05bd 7367 25bd bf9e 55bc 5b14 78bd
000001e0: eaf8 533d 6c12 e33d cb0e 0abd 0cbb bfbc
000001f0: 1c39 383d b2bf 88bd f272 203d 9918 143c
00000200: afd9 ac3d 272c 8b3c 8760 28bb 83e1 833c
00000210: b217 adbc d3b5 93bc ad0e 4e3d 8181 3e3d
00000220: 3e42 783d 2b80 7abd f578 af3b f205 4b3d
00000230: 9d0c c03c dccd a1bc 2767 84bd 1de7 0f3d
00000240: 07a5 97bd 673b 91bc d048 e63c f0b1 82bc
00000250: e7b8 f63c 5cff a5bd 43ce 59ba aa7f 3fbd
00000260: 9793 373d e3d1 883b 5aa1 abbd 6e73 1c3d
00000270: 8e62 acbd 3b77 d1bc 932c aabd a821 b73c
00000280: a773 843d 5abd 093d 831d f63d 7f94 ab3d
00000290: baae 4f3d fc8f 8cbd 4ebf 973a fbad a9bc
000002a0: 1ffd b33d 2c2a fb3d 629d 0ebc ca39 eb3c
000002b0: 106d 64ba 268b 75bd 2b14 2f3d 98b7 0b3c
000002c0: 43c3 b5bc f001 37bd 1277 643d 2842 5abd
000002d0: 2342 6abd adda 20bd 0847 3e3d 083f 8ebd
000002e0: c975 663b 031c c3bb c142 9a3a 9904 193c
000002f0: 6a5d a73d 04d2 59bd 498d 853d c62b 1ebd
00000300: 6873 913a 0ac5 873d 0d1f 073d 40ff 7abc
00000310: ebf2 923d d580 84bd 4847 943d ebb5 a33d
00000320: cde8 8f3d 4743 eebc 0437 7d3c fc8e 22bd
00000330: c431 3e3d 286e d93c a77f 17bd 3e8a cdbc
00000340: cb69 86bd 2ed3 6dbd 5251 4b3d 4c93 c13d
00000350: 0013 963d 73b8 5ebd 946f 2b3d 8efa 68bd
00000360: bba2 6f3d 71cd b9bb 1b76 7c3c f94f 05bc
00000370: 3274 0fbd ae7d 813d 98b7 f5ba 52ef a2bd
00000380: 8365 2b3d b0da aa3c 8a9d 133d 7416 c3bc
00000390: 0271 0cbe 215a 79bb 5447 9dbc 64e2 033e
000003a0: f484 8abc 602b 063d f6f6 d83b 33aa 97bd
000003b0: ed69 b03c 58a8 993d 8e65 a5bd 644b a4bc
000003c0: 8026 253d c0a5 833c 37ea ff3c 7313 0b3d
000003d0: b5ad 62bc 7051 323d c4e2 ddbc 3609 573d
000003e0: c1d0 42bb 4cfe 95bc 71ae 1cbc dda9 703d
000003f0: 7c83 283b 5f1d 0cbd a50a 7d3d 78c3 f43c
-0.078187555 -0.064647496 0.043241836 -0.009125782 0.007357437 -0.012305288 0.077406496 -0.0313663
0.008366212 0.04081365 -0.034016382 -0.007924458 -0.008608483 -0.054490406 -0.060222108 0.008542515
-0.05547991 0.030480372 0.045047108 -0.015497536 -0.038669966 0.060993522 0.09551756 -0.03616941
-0.07800134 -0.01882489 0.04556533 0.043891866 0.006101108 -0.072630785 0.042234287 0.058641195
-0.093676455 -0.0031928597 0.009590654 -0.05073489 0.055821016 0.05493745 -0.030324563 0.057460688
0.02612964 -0.029652894 -0.06367976 0.038696688 -0.11632598 0.011155862 -0.045543276 -0.04501748
0.02748317 -0.01882102 -0.06565667 0.031404085 0.055225533 0.016935842 0.06660721 0.061306883
-0.03929482 0.07856339 0.016509768 -0.06914815 0.059761822 0.03720038 0.05456941 -0.05067425
-0.014493433 0.013107992 0.026333246 -0.030941965 -0.019051285 0.033644494 -0.045577534 0.041684896
0.04387533 0.069543526 0.032383468 0.022200126 -0.023698214 0.023749579 -0.06408006 0.08858482
0.0030530044 0.034629855 0.003981484 0.089123935 0.07461137 0.1443533 0.106601916 -0.0076284474
0.08281845 0.08397486 0.05815501 -0.07175733 0.024085935 -0.033205085 0.0708078 0.09779174
0.07788834 -0.008393557 -0.04718095 0.011528672 -0.009587329 0.06751129 0.08922768 -0.04150284
-0.0036347897 -0.016432054 0.09674237 -0.12433216 -0.0060094465 0.013967819 0.022645164 0.049756628
0.0245271 -0.071212284 -0.030242788 0.0315995 -0.032669287 -0.04038186 -0.013038336 -0.060566287
0.051751055 0.11087498 -0.033705514 -0.02340462 0.04497634 -0.06677188 0.03917212 0.009039068
0.08439957 0.016988827 -0.00256923 0.016098743 -0.021129463 -0.018031036 0.050306965 0.046510223
0.06061005 -0.061157387 0.0053549954 0.049566217 0.023443514 -0.019751482 -0.06464987 0.035132516
-0.07404523 -0.01772852 0.028110892 -0.015953988 0.030117465 -0.081053466 -0.00083086285 -0.04675261
0.044818487 0.004175411 -0.08380385 0.03819602 -0.08417235 -0.025569549 -0.08309283 0.022354916
0.064673714 0.033627845 0.12017348 0.08377933 0.05070374 -0.068634 0.0011577399 -0.020712843
0.087885134 0.12263903 -0.008704515 0.02871408 -0.00087137613 -0.059947155 0.042743843 0.008527659
-0.022187835 -0.044679582 0.055777617 -0.053285748 -0.05719198 -0.039271045 0.04645446 -0.06945616
0.003516542 -0.005954267 0.0011769162 0.009339475 0.08172114 -0.053178802 0.06521089 -0.038615964
0.0011097016 0.06629379 0.032988597 -0.015319645 0.07175239 -0.06469885 0.07240158 0.079936825
0.07026825 -0.029084815 0.015455011 -0.03968714 0.04643418 0.026541784 -0.036986973 -0.025090333
-0.06563147 -0.058062725 0.0496381 0.09451923 0.07327843 -0.054375123 0.041854456 -0.056879573
0.0585048 -0.0056702425 0.015409018 -0.008136743 -0.03502292 0.063227996 -0.0018746732 -0.07955803
0.041844856 0.020856231 0.036038913 -0.023814417 -0.13714984 -0.0038048106 -0.019199051 0.1287933
-0.0169091 0.03275621 0.006621237 -0.0740551 0.021534884 0.07502812 -0.08076011 -0.02005548
0.04031992 0.016070247 0.031239612 0.033954095 -0.01383536 0.043534696 -0.02708567 0.05249902
-0.0029726478 -0.018309735 -0.009563074 0.058755744 0.0025713136 -0.034207698 0.06177773 0.029878363

inc.conv.conv2x.1.c.0.bias f4 [16]
00000000: e9f4 61bd f88d b7bc 24af 8bbd 19b2 b03c
00000010: f8d8 a13c 880d 4bbd 5fbe 1d3d 204c b4bd
00000020: b42b 32bd eb24 55bd ea6a f73b 5435 9bbd
00000030: 9f00 06bc 5276 15bd f4c1 623d 57ef ec3c
-0.055165205 -0.022406563 -0.06820515 0.021569299 0.01975678 -0.04957345 0.03851163 -0.08803582
-0.04349871 -0.05203716 0.007550587 -0.07578531 -0.008178859 -0.036489792 0.05536075 0.02892272

inc.conv.conv2x.1.c.1.weight f4 [16]
00000000: f5cb 873f 13f8 823f ef6d 8a3f c0cf 7e3f
00000010: 1400 823f 2e81 813f fca2 803f 4525 803f
00000020: c9d6 803f 94a5 7e3f 0298 813f 02ba 753f
00000030: b892 813f 1619 7a3f d5ed 7d3f c4cd 803f
1.0609118 1.0231956 1.0814799 0.9953575 1.0156274 1.0117548 1.0049739 1.0011374
1.0065547 0.994714 1.0124514 0.9598695 1.01229 0.9769453 0.9919103 1.0062795

inc.conv.conv2x.1.c.1.bias f4 [16]
00000000: 73dc 1a3e cacc 3f3e 2ab7 953d 4cc4 bd3d
00000010: c17d 3c3d 7cfa 013e 0e1d 5b3d 8f4d cd3d
00000020: 2e92 673d 8a02 c53d 9ff2 043e ac86 313d
00000030: 0da5 2c3e f0b5 903b 2f4e fe3d 012a 3c3e
0.15123157 0.18730465 0.073103264 0.09265956 0.046018366 0.12693208 0.053494506 0.10024559
0.056535892 0.09619625 0.12983178 0.043341324 0.16859837 0.00441622 0.12417256 0.18375398

inc.conv.conv2x.1.c.1.running_mean f4 [16]
00000000: 2825 e43e 3c2b 703e 4c91 0bbe 9ae1 253f
00000010: 56c6 44be bead 49be 0d55 a73e 8b0f b0bc
00000020: 7fe7 c43d ba0d d53d 9a05 c93d be14 7fbe
00000030: ba13 333e f18a 5d3e 96c3 883d af50 8bbe
0.44559598 0.23453993 -0.13629645 0.64797366 -0.19216284 -0.19695184 0.32682076 -0.021491786
0.09614467 0.10403009 0.098155215 -0.24910256 0.17487994 0.21635033 0.0667793 -0.27209994

inc.conv.conv2x.1.c.1.running_var f4 [16]
00000000: 5033 c43e 78da 253e 8a48 db3e e187 f33e
00000010: 4017 e13e eb51 923e 7123 5d3e f726 f23e
00000020: 8807 c63e 3e58 663e c400 803e e69f e73e
00000030: 260f 343e 80c0 303e 18ff ac3e ea6a 183f
0.38320398 0.1619662 0.4282878 0.47564605 0.4396305 0.28578123 0.21595551 0.47295353
0.3867762 0.22494599 0.25000584 0.4523918 0.17583904 0.17260933 0.3378837 0.5953814

down1.go_down.1.conv2x.0.c.0.weight f4 [32, 16, 3, 3]
00000000: b959 2d3d 2a41 d4bc cab5 25bd 7d4e 293d
00000010: c2dd 9fbb f4f7 21bd f944 153c 52ca 3fbb
00000020: 9956 ae3d a99d 463d 1a01 91bd 14e1 30be
00000030: 1f1c 54bd 4b6a b2bd c35e 8d3d b465 33bd
00000040: be81 80bc b202 85bd ce85 b2bd ad25 13bd
00000050: 2533 05be 4b4c 3abc 6d88 ebbc a49b a63d
00000060: 1d24 35bd 9d2c d53c ba4e 45bc 6e7a 513d
00000070: ea61 15bc ebf3 abbc 7ea0 4d3d 2687 8a3d
00000080: 72b8 913d 4955 38bd 0756 ddbc 3200 213d
00000090: 9fd6 833d 8701 c7bd d602 88bd 2852 cebd
000000a0: ccbe 483d 8902 933c d310 c4bd 7729 333d
000000b0: 6e9d 8b3d 80fb a93d 562a ffbc 1bab 883c
000000c0: 7d9d 513b d6ab bbbc 6f27 323d de6f 5bbd
000000d0: 753f 323c dca5 83bd 9ded d7bd 8d23 b4bd
000000e0: 06e3 67bc f3af f3bd d0a0 d2bd ab3b 3a3c
000000f0: 7c3a b53c 6ed5 323c 2a38 35ba 1442 083c
00000100: 2856 a43c c821 3e3d 7ac5 a33c fd8c 8f3d
00000110: 3bc4 64bd ac4e f8bd 4514 67bd 1fb9 ee3d
00000120: 1f2f dbbd 1c28 dabb 5e69 b3bd 7b01 933d
00000130: beff 2dbd 69e4 6abd f03b 153d e356 183d
00000140: 296f 59bd 8ff7 babd 9205 f0ba 378a 693c
00000150: f121 60bc cfe2 41bc debe 32bd 8fcd bf3c
00000160: 12e1 85bd 7b14 953d 5d07 17bc 3728 573d
00000170: 9e82 cebd 57ff d3bd e8d7 593c 69f8 9bbc
00000180: 5af4 853c 0310 963d 8311 9c3d c249 70bd
00000190: 6aa3 393d 8fde 4abd 1bd3 b23c 8ff4 08bd
000001a0: 0172 c53c 4667 ebbd b01a e9bd 8e20 1e3c
000001b0: 2681 c8bc 03ff 80bd 1094 00bd eab0 0dbe
000001c0: 60b2 f3bd df8b afbd bddd 60bd 99b8 85bd
000001d0: 7142 28bd e8b7 383d d1cb 043d 8fb2 dc3c
000001e0: 3e5e c3bd 02ea 5b3d 4880 733c f16b efbc
000001f0: 6d3d a1bd 7db9 9dbd fe1a da3b c436 8ebd
00000200: 16d0 303d 2ca4 4d3d e62a 3d3d 9b09 213d
00000210: caa4 55bc 371f f53a 7316 c9bc 5b84 8ebd
00000220: 3912 cfbd c581 c23b 93cc 03bd a499 213d
00000230: fb63 9e3d 42df 043c b5f8 c43b bf71 86bd
00000240: e7b6 3fbc fcb2 33bd 215e 143d be95 893c
00000250: bd6b 2abd 5ffa dcbc 88d2 b1bd f9ac a2bd
00000260: 21b9 6c3c bbb2 de3b 36e6 cb3c 1a26 4ebd
00000270: ffb2 c63c 15f6 833d 97b5 f2bc 91d6 9bbd
00000280: 769d a63c 4fa3 d2bc dda7 c83c 0dde 733c
00000290: 455c 32bc d23c bd3d 18df 033d 1b1a 8d3c
000002a0: 2c77 cb3c 94cb c73b e7c1 21bb 6bbc 5d3d
000002b0: a267 ea3d 4ff5 383d da3d d9bd 476a adbd
000002c0: 7025 ae3d 3eca ae3b 788d 953d 677c c13d
000002d0: 6bca 29bd 4599 783d 2254 943d fc7a 9cbd
000002e0: ed8b 49bb 11bf c13c 2603 32bd 4682 fc3c
000002f0: 1de6 9abd ef80 2dbd 2e56 bebc 3fbe 44bd
00000300: acef a4bc 231e 293c 923f e4bd c172 f5bd
00000310: 2402 31bc a7a8 d3bd 9514 94ba 22b1 953d
00000320: 7826 3a3d ef20 bd3c 460c 7dbd 4ad1 6fbd
00000330: 1134 99bd 9257 6a3d 231a 43bd b5b8 6d3d
00000340: 74cf 37bd 40d2 4a3c cbc9 b1bd 03a9 00be
00000350: dfd0 d4bd 918b 863d 568f 88bd fd4d 0e3d
00000360: 6762 a53a d129 f93c b73a 9bbd 4e16 5e3d
00000370: 252e 843d 1c33 4abd 15f1 1fbd a7eb 9ebc
00000380: 6291 5bbd 477c 883d 6ace 533d d6de c3bc
00000390: 8826 65bb f07a 8d3d cfe1 513d 6208 01bc
000003a0: 6085 0abd 4e96 92bc fd83 e33b 38a9 8dbb
000003b0: b0b9 e93c ede7 0b3d 1517 693d a53a 0dbd
000003c0: bc1f 0cbe 9a12 a03d 615b 86bd 855b 3abd
000003d0: 502c 90bd ef9e 5c3d c15c c9bd 2e36 1f3d
000003e0: 6c13 eebd 4ccd c1bc c9ed babd 7032 75bd
000003f0: 9cb5 2c3d 3376 fd3c a22e 56bd 3989 5e3d
0.042321894 -0.025909979 -0.04045657 0.041334618 -0.0048787305 -0.039543107 0.009110683 -0.002926488
0.08512611 0.0484902 -0.07080288 -0.1727336 -0.05178463 -0.0871168 0.0690284 -0.043798164
-0.015686866 -0.06494655 -0.087169275 -0.035924602 -0.13007791 -0.011370729 -0.028751576 0.08135155
-0.044223893 0.02602225 -0.012042696 0.05114215 -0.009117583 -0.020990333 0.050201885 0.06764059
0.07115258 -0.04500321 -0.02701856 0.039306827 0.0643742 -0.09717088 -0.06641166 -0.10074264
0.049010083 0.017945545 -0.095735215 0.043740716 0.06817137 0.08299923 -0.031148117 0.016683152
0.003198474 -0.022909086 0.043494638 -0.05357348 0.010879387 -0.064281195 -0.10543368 -0.08795843
-0.014153248 -0.11898794 -0.10284579 0.011366765 0.022122614 0.010915143 -0.0006912971 0.0083165355
0.020060614 0.046418935 0.019991625 0.07009313 -0.055851202 -0.121243805 -0.056415815 0.11656403
-0.10702347 -0.0066576134 -0.087603316 0.07178017 -0.042480223 -0.057346735 0.036434114 0.037192237
-0.053084526 -0.09129249 -0.0018312207 0.014254144 -0.013679967 -0.011833861 -0.043639056 0.023413448
-0.065370694 0.07279297 -0.009218064 0.052528586 -0.10083507 -0.103514366 0.013296105 -0.01903935
0.016351867 0.07327273 0.076205276 -0.05866409 0.04532186 -0.049528655 0.021829179 -0.033436354
0.024102213 -0.11494307 -0.11382043 0.009651316 -0.024475645 -0.062986396 -0.031391203 -0.13837019
-0.11899257 -0.085716 -0.054898966 -0.0652935 -0.04107899 0.04509726 0.032420937 0.026940612
-0.0953946 0.053689964 0.014862128 -0.029226275 -0.07873044 -0.07701395 0.0066560498 -0.069440395
0.043167196 0.050205395 0.04618349 0.0393158 -0.013039777 0.0018701319 -0.024546837 -0.069588386
-0.101108976 0.00593588 -0.03217752 0.039453164 0.077339135 0.008109869 0.0060110935 -0.06564664
-0.011701322 -0.043871865 0.03622258 0.016795035 -0.041606653 -0.026974855 -0.08682734 -0.07943148
0.014448435 0.0067962087 0.024890047 -0.050329305 0.024255274 0.06443421 -0.029627604 -0.07609285
0.020338755 -0.025712637 0.024494106 0.014884484 -0.010886257 0.09240116 0.03219518 0.017224362
0.024837099 0.0060972665 -0.0024682225 0.054134768 0.11445548 0.04515582 -0.106075004 -0.084675364
0.085032344 0.0053341677 0.07302374 0.09447556 -0.041452806 0.060693044 0.072426096 -0.07640645
-0.0030753568 0.023650678 -0.043460034 0.030823838 -0.07563422 -0.04235929 -0.023234453 -0.048032995
-0.020133816 0.010322127 -0.111449376 -0.11984778 -0.010803733 -0.10334902 -0.0011297638 0.07309176
0.045446843 0.023086993 -0.061779283 -0.058549203 -0.07480634 0.05721242 -0.047632348 0.05803748
-0.044875577 0.012379229 -0.08681067 -0.12564473 -0.103914015 0.06569589 -0.06667964 0.034742344
0.0012617827 0.030415447 -0.07579558 0.05422049 0.06454114 -0.049365148 -0.039048273 -0.019399477
-0.053605445 0.06664329 0.051710524 -0.023909967 -0.0034965593 0.06908214 0.05124074 -0.007875534
-0.033818603 -0.017893936 0.0069432245 -0.004323151 0.028530926 0.03415673 0.05690678 -0.034479756
-0.1368398 0.07816048 -0.06560398 -0.045497436 -0.07039702 0.05386251 -0.098321445 0.03887003
-0.11624798 -0.023657463 -0.09127385 -0.059862554 0.042165384 0.03094015 -0.052290566 0.054330084

down1.go_down.1.conv2x.0.c.0.bias f4 [32]
00000000: 0b79 cdba 657d 87bd 318e f9bb e842 a63d
00000010: fb3c 79bd d826 97bd f7c4 b53c 148c d93c
00000020: 0479 2e3d a9c8 88bd d52b a93d bd7e 30bc
00000030: 24cf 51bc d2b5 913d ab04 2f3d 60e3 7dbc
00000040: e655 153d d634 6f3d 232d abbb 6676 dfbc
00000050: 25ef 54bd 1b1a 2bbc 8f0c 2dbd b6cc 64bd
00000060: eec5 0f3d 062b 9fbc c665 b03b c889 433d
00000070: f942 333c 0e88 a83d 087a fabc c8db 953c
-0.0015676332 -0.06615714 -0.0076158275 0.0811823 -0.06084917 -0.07380456 0.022188647 0.026556052
0.04259588 -0.06678898 0.082603134 -0.010772404 -0.012805734 0.071147576 0.04272906 -0.015496105
0.036458872 0.058399998 -0.0052238866 -0.027278136 -0.05198588 -0.010443236 -0.042248305 -0.05585929
0.03510087 -0.019429695 0.005383226 0.04773882 0.0109412605 0.08229075 -0.030575767 0.018293276

down1.go_down.1.conv2x.0.c.1.weight f4 [32]
00000000: e24e 803f b6e7 823f 0913 803f 4351 7d3f
00000010: 14dc 763f e9e8 6c3f 1616 803f b3af 833f
00000020: ea54 7d3f 91ea 813f 920a 803f 9cfa 803f
00000030: 84f7 7c3f 7f6d 833f ab55 803f 6a51 7d3f
00000040: e61e 7f3f 245f 813f 2975 7b3f c56a 813f
00000050: 01f1 773f e15f 863f de8a 7d3f c111 7f3f
00000060: 3122 7e3f 31d1 7d3f 374e 7b3f 62e9 803f
00000070: c972 7c3f eaa4 853f 1b97 843f e076 7f3f
1.0024073 1.0226963 1.0005809 0.9895212 0.9642956 0.9254289 1.000674 1.0287994
0.98957694 1.0149709 1.0003226 1.007648 0.9881518 1.026779 1.0026144 0.98952353
0.9965652 1.010716 0.9822565 1.0110708 0.9685212 1.049801 0.9904002 0.99636465
0.9927092 0.99147326 0.9816622 1.0071223 0.9861265 1.0440953 1.0358614 0.99790764

down1.go_down.1.conv2x.0.c.1.bias f4 [32]
00000000: af15 fb3d 4b16 10bd ec5b acbc d9b7 36bb
00000010: 2c81 dabd aa86 50bd ea46 05bd b54a 093d
00000020: a5a3 00bd 6d36 d0bd ccd1 dbbb cb26 cdbc
00000030: 345a be3b 60e7 583c ade0 103d 107c 68bd
00000040: 8ff5 453d cb83 cd3c 7cd5 0fbd 84b9 913b
00000050: 6dc8 63bd d744 353e 0eed 79bd daec 793c
00000060: d30a 15bd 1ca8 70bd 8386 1bbc 6f34 0f3d
00000070: fec3 2cbc 67eb 6f3d 22b0 df3b da42 36bc
0.12259995 -0.03517751 -0.021039926 -0.0027880578 -0.10669169 -0.050909676 -0.032538332 0.03351851
-0.031406064 -0.10166631 -0.0067083593 -0.025042912 0.005809093 0.013238758 0.035370518 -0.05675894
0.048329886 0.025087258 -0.035115704 0.004447164 -0.055611063 0.17702042 -0.06101709 0.015254224
-0.036387276 -0.05875407 -0.009492519 0.034962114 -0.010544775 0.058574107 0.0068264166 -0.011124337

down1.go_down.1.conv2x.0.c.1.running_mean f4 [32]
00000000: e4a1 f1bf b864 8ebf 6c54 12bf 882a d73e
00000010: a8f1 ffbe d893 c53f b249 873e 74b5 fe3d
00000020: 7009 d3be e772 4640 6c98 ddbf 6a79 fdbf
00000030: 2e67 d3be 1000 a1bf eea9 9ebe 7603 763f
00000040: 8c57 91bf 04cd a7bf 76ea 903f 6423 b53e
00000050: 100e 09bf 28ca 6ac0 5ac5 ba3e 3aa1 843f
00000060: 604d 383f 44e4 463e c564 b8bc 4a70 283f
00000070: 580d f73e c23b b2bf a995 19bf 1418 383e
-1.887753 -1.1124487 -0.5716007 0.42024636 -0.49989057 1.5435743 0.26423413 0.12436953
-0.41218138 3.100763 -1.731214 -1.9802678 -0.41289657 -1.2578144 -0.3098902 0.9609903
-1.1354842 -1.3109441 1.1321552 0.35378563 -0.5353708 -3.6685886 0.36478692 1.0361702
0.71993065 0.19423014 -0.022508988 0.6579634 0.48252368 -1.3924487 -0.5999399 0.17977935

down1.go_down.1.conv2x.0.c.1.running_var f4 [32]
00000000: 8367 973f 6b65 183f d047 b43e 9efe d23e
00000010: 5b29 b43e efb8 2a3f 5f11 b43e 4a6e 963e
00000020: 0ea8 c33e a007 853f 1b66 673f 2ed2 bf3e
00000030: f6eb ee3e 1aa6 133f fb34 1c3f 72a7 ac3e
00000040: 1024 473f d3c0 483f 0236 993e c0a7 dc3e
00000050: 3d8d f73e c808 fb3f e9b0 bb3e 9c88 cb3e
00000060: 6738 b33e 0ed1 b13e ccef 193f b6aa 0e3f
00000070: 8abe d23e 221a 813f 8e66 063f 826d 823e
1.1828464 0.5952975 0.3521104 0.41209882 0.35187802 0.66688436 0.35169503 0.2938102
0.38214153 1.0392952 0.90390176 0.37465042 0.466644 0.57675326 0.6101834 0.337215
0.777894 0.78419226 0.29924017 0.43096733 0.48349944 1.9612055 0.3665841 0.39752662
0.3500397 0.3472981 0.60131526 0.55729234 0.41160995 1.00861 0.52500236 0.25474173

down1.go_down.1.conv2x.1.c.0.weight f4 [32, 32, 3, 3]
00000000: d3ba a9bb 541e 603d b06b 373c 79cf c63d
00000010: e148 4c3d 6cfe 19bc b8db 2b3d a8d4 f9bc
00000020: ddee ffbc 9ddf 69bd e210 49bc 37ad a5bc
00000030: 44d3 6d3d c2a9 a5bd 3fad b13c abdb ddbb
00000040: 605d 41bd 1609 efbc 93a5 023d e025 14bd
00000050: 5df8 c03c 580e 6c3d c8e0 8e3d 0288 d6bc
00000060: a388 8fbc aa79 2ebd 680d f1bb 85c0 923c
00000070: 03e0 303d 0d94 9dbd 73ef a63b d726 cbbc
00000080: 4d03 64bc bf5a f53c 716f 2abc 4d2a 8ebd
00000090: 8e8c 743d b950 523d bf88 8c3d 848a 2b3d
000000a0: 62e3 07bd 7645 4cbc 65f4 72bc e5a1 de3b
000000b0: 6da8 0b3d 854a ecbc 5750 0b3d 0ace 0ebb
000000c0: cbaa 453d ea74 473d bf5c 603d 2632 b2bc
000000d0: 5451 813d 589d 443c 0894 853c f359 583d
000000e0: 43ec 413c 7436 53bd 7eef 7bbd 137a 09bd
000000f0: 0ced 9d3b 0f74 ab3c 14b1 5abd e070 13bd
00000100: c77b 02bd 3869 1d3d eb70 a63c 8281 b4bc
00000110: 84ac 00bd ae68 103a 6811 4bbc 4b21 b9bc
00000120: 2c6e a3bd f90a 5f3d cbdf 633d c69f 48bd
00000130: b482 693d faeb 1bbc 88b2 a1bd b490 14bd
00000140: eff5 373b c6c8 07bd adeb 293c 198c 20bc
00000150: e9ec 563d c090 02bd 639c 36bc 8d48 3d3d
00000160: ba4d 8e3c d30b 1cbd d6ea 81bd 8ad2 0b3d
00000170: 5847 b13c a796 443d 8837 ec3c 2381 debd
00000180: 70ea 943c 0c36 033c 5b40 f83c 5b28 113d
00000190: 4344 1abd 2a12 ddbc 8248 903c e873 c73c
000001a0: 9d89 06b9 2893 ff3c 629c f3bb bd93 58bd
000001b0: e007 10bd 05ad 873d 1141 213d 09b4 83bb
000001c0: ac0e a63c e090 403d 202d 843c 631e 833d
000001d0: 43cd b73c f770 1ebd d119 a73b f220 8ebc
000001e0: d0df d03c 0add 883d ed8c 903b 89a4 093d
000001f0: 8ea6 9e3c fce8 5fbd e165 40bd 0680 c0bc
00000200: c393 39bd 6cfb b7bd 372d 8abc 198b 3cbd
00000210: caaf 553d ccea 30bd 19af c13c 0ba9 363d
00000220: f6b4 06bc 28ed 223d 736c 6c3c 2455 f1bc
00000230: 3912 cc3c e00f 84bc 3684 92bc 9683 643c
00000240: 801f 0c3d 3264 9ebc 2a04 27bd 610e 3ebd
00000250: 1af3 8d3c 251d 843c ab43 da3c 486b bfbc
00000260: f86b a5bc 647d 813d 0fd2 1f3c ac34 c23c
00000270: a5db 8cbd 614d 90bd 35c5 42bc 9052 12bd
00000280: 8ece d2ba 9b31 47bd 56c2 ab3a 20a4 393d
00000290: 34ee 793c e75a c5bb 4520 78bd 3ee9 5fbc
000002a0: 5e9c fd3b 83b5 743d 58ee 5b3d 3e2a 53bc
000002b0: 31d3 2ebc 8d68 093b 4a13 353d a474 29bd
000002c0: 3cb8 7cbd bd26 2bbd 43f0 5b3a a1cb 463c
000002d0: d1f8 313c 2e09 66bd 0c2e 21bd 9f8f 7dba
000002e0: 0d1f 69bc 6387 033d 02d7 45bd d3b6 98bb
000002f0: ce38 7a3d 7d32 2abc 84d5 f3bc 0613 de3b
00000300: af44 783c dc83 853c d461 b4bc 7842 5cbd
00000310: 8d59 c53c 54dd 01be cc0b 1bbd bbb3 a73c
00000320: 5316 153d 6a22 403d 70a0 103d 56f2 253c
00000330: 85ea 2b3d cfd7 5cbd d27c 2c3d e1c3 ce3c
00000340: f793 46bd 305f 8d3c a86d 3e3d c083 60bd
00000350: 21ff c1bb 8a98 ddbb 49b7 703b 0b61 e8ba
00000360: 6974 0a3b 589e 87bb b960 95bc ab9c ae3b
00000370: 59a2 3ebd 19c5 073c b91c e0b9 ef38 4e3c
00000380: a2eb a1bc 6649 0e3d 7908 1abc 88b8 543d
00000390: b5f8 e1bb 6720 c03c 3d2e 693d 1561 f9ba
000003a0: 2b2f b7bc 2dd3 fa3c a85c 33bd 73c7 27bc
000003b0: f351 3e3d 7bb9 af39 d957 96bc c8b6 2e3d
000003c0: 672d d9bc aa20 e73b 7252 733d 7756 e1bc
000003d0: 355e 4abd 0925 123d 38d8 2f3d a97a 73bd
000003e0: 30b9 563d 59ad bcbc 344b 963b 2e78 c33c
000003f0: 989b 9d3d 319f 7b3d 406d d03c 3e18 193d
-0.005179742 0.054716423 0.011195108 0.09707541 0.04987419 -0.009399038 0.041957587 -0.03049691
-0.031241829 -0.05709802 -0.012272092 -0.020224197 0.058062807 -0.08089019 0.021689055 -0.006770571
-0.04720819 -0.029179137 0.031896185 -0.036168933 0.023555929 0.057630867 0.06976467 -0.0261879
-0.017521208 -0.042596497 -0.0073563345 0.017914066 0.043182384 -0.07694254 0.0050944625 -0.024798794
-0.013916803 0.029950498 -0.010402546 -0.06941662 0.059704356 0.051346514 0.0686202 0.041880146
-0.033175834 -0.012467733 -0.014828776 0.0067942017 0.03409617 -0.028844127 0.034012165 -0.002179029
0.048258584 0.048695482 0.05477595 -0.021752428 0.0631434 0.012000404 0.016305938 0.052820157
0.011836114 -0.051565602 -0.061507694 -0.033563685 0.004819518 0.020929364 -0.05339153 -0.035996318
-0.031856325 0.038430423 0.020317515 -0.02203441 -0.031414524 0.00055087626 -0.012394287 -0.022598883
-0.07979998 0.054453824 0.055633347 -0.048980497 0.057009414 -0.00951671 -0.0789538 -0.036270812
0.0028070172 -0.033150457 0.010371131 -0.009799027 0.05247203 -0.031876326 -0.011145684 0.046211768
0.017371047 -0.038097214 -0.063436195 0.034136333 0.021640465 0.047995236 0.028835073 -0.108644746
0.018178195 0.008008491 0.030304125 0.035438877 -0.037662756 -0.0269862 0.0176127 0.02434726
-0.00012830501 0.0311981 -0.007434414 -0.05287527 -0.03516376 0.06624798 0.039368693 -0.0040192646
0.020270668 0.047013164 0.016134799 0.0640228 0.022436744 -0.03868195 0.005099513 -0.017349694
0.025497347 0.06682785 0.004411331 0.03360418 0.019366529 -0.05466555 -0.04697216 -0.023498546
-0.045306932 -0.08983502 -0.016867263 -0.04603109 0.0521696 -0.04319267 0.023643063 0.044594806
-0.008221855 0.03977695 0.014430153 -0.029459544 0.024911033 -0.016120851 -0.017885309 0.013947388
0.03420973 -0.019334886 -0.040775456 -0.04640043 0.017327834 0.016127178 0.026643595 -0.023366585
-0.020193085 0.063227445 0.009754672 0.023706757 -0.06877831 -0.07046009 -0.011887838 -0.03572327
-0.0016083287 -0.04863129 0.0013104181 0.045322537 0.015254546 -0.0060227993 -0.06057765 -0.013666449
0.0077395877 0.059743416 0.0536941 -0.012888489 -0.010670469 0.0020966858 0.04420785 -0.041371003
-0.061699137 -0.04178499 0.0008389989 0.01213351 0.010862545 -0.0561611 -0.039350554 -0.00096725853
-0.0142285945 0.032111537 -0.04830075 -0.004660466 0.06108933 -0.010388014 -0.029764898 0.00677717
0.015153094 0.016298227 -0.022019304 -0.053774327 0.024090553 -0.12682086 -0.037853047 0.020471444
0.036398243 0.04690782 0.035309255 0.010128578 0.041971702 -0.05391675 0.042111225 0.025239887
-0.048480954 0.017257303 0.046491295 -0.054813147 -0.0059203063 -0.006762569 0.003673034 -0.0017729116
0.0021126515 -0.004138749 -0.018234598 0.005328735 -0.046541546 0.008286738 -0.0004274601 0.012586816
-0.019765679 0.034737967 -0.009401434 0.051933795 -0.0068961033 0.02345295 0.056928862 -0.0019026125
-0.022361359 0.030618275 -0.043789536 -0.0102404235 0.04646487 0.00033516795 -0.018352436 0.042654783
-0.026510907 0.0070534544 0.059404798 -0.02750705 -0.04940625 0.03567985 0.04293081 -0.05944315
0.052422702 -0.023031877 0.0045866016 0.023861017 0.07695693 0.061431114 0.02544272 0.037376635

down1.go_down.1.conv2x.1.c.0.bias f4 [32]
00000000: b3a1 143d 4963 2a3c 876f 58bd eeb5 30bc
00000010: 979b 4dbd e32b 933c 6223 3c3d 8dff be3c
00000020: 7c9a 5d3d 5304 a0bc 8e2d 403d d3b1 b5bc
00000030: 79d6 1cbd 6d86 123c 5685 26bd 122a 993c
00000040: 168a dbbc 6b00 34bd ab09 2abd baf9 ecbc
00000050: 4125 1f3d 892c 313c 2339 1e3d 674b 533d
00000060: 30c6 38bd 3576 223d cafd 0bbd 25bf 59bd
00000070: 6a58 04bb 5b0e e83c 8fab f03c ae56 1a3d
0.03628702 0.010399648 -0.052840736 -0.010785563 -0.05019721 0.017965263 0.04593218 0.023315215
0.054102406 -0.019533312 0.046918444 -0.02217952 -0.038290475 0.008943182 -0.040654503 0.018696819
-0.026799243 -0.04394571 -0.041513126 -0.028927673 0.038853887 0.010813841 0.03862871 0.05158558
-0.04511088 0.039663512 -0.03417758 -0.053160805 -0.00201943 0.028327158 0.02937868 0.03768032

down1.go_down.1.conv2x.1.c.1.weight f4 [32]
00000000: c7bb 7f3f 46d2 7b3f ba62 713f a46c 793f
00000010: eeaa 7a3f 1574 7d3f d065 833f 847e 823f
00000020: 976b 7f3f 2ad7 813f 057f 7e3f 468c 7e3f
00000030: 1fc2 7f3f 8e22 863f a12a 7e3f b524 7d3f
00000040: 487f 7b3f 953a 7a3f c358 813f fe1a 803f
00000050: 2736 7d3f 322c 7e3f 2ea6 823f 9c08 7e3f
00000060: cd3e 7f3f 069b 843f ed50 813f 2492 7d3f
00000070: 108f 7b3f bc9d 7f3f 87c4 7c3f fd8b 833f
0.998959 0.98367727 0.9429127 0.974314 0.9791707 0.9900525 1.0265446 1.019486
0.99773544 1.0143788 0.99412566 0.9943279 0.9990558 1.0479295 0.99283797 0.98884135
0.9824109 0.9774564 1.0105213 1.0008237 0.98910755 0.99286187 1.0206964 0.99231887
0.997052 1.0359809 1.0102822 0.9905112 0.9826517 0.9985006 0.98737377 1.0277096

down1.go_down.1.conv2x.1.c.1.bias f4 [32]
00000000: 5819 d2bd 9cbb 31bd ad18 623c 8dc9 553b
00000010: c305 35bd 1afa 85bd caed 443d d2b6 90bc
00000020: 0d9f 5cbc 5f86 54bd b6fe e6bb 7e40 ddbc
00000030: 79c9 35bc 97fe b4bd fa18 4d3c f41a 0cbd
00000040: e91b 75bd ef1a 933c 04c8 0c3c a277 8bbd
00000050: 2d14 7cbd f76c 29bc 7092 923c 6a2d 13bd
00000060: cdbc 8fbd 0243 4a3d 8964 e13c ff8d 3bbd
00000070: dc7d 1ebc 0496 43bc 40ef a7bd a0d7 2e3d
-0.1025874 -0.04339181 0.0137998285 0.0032621354 -0.044194948 -0.06541844 0.048078336 -0.0176653
-0.013465655 -0.05188596 -0.007049407 -0.027008291 -0.011095398 -0.08837622 0.012518162 -0.034205392
-0.05984107 0.017957179 0.008592609 -0.068099275 -0.06154268 -0.010340921 0.017892092 -0.035931982
-0.07018433 0.04938031 0.02751376 -0.045789715 -0.009673562 -0.011937622 -0.0819993 0.042686105

down1.go_down.1.conv2x.1.c.1.running_mean f4 [32]
00000000: 7aef 223e f797 a8be a485 62be 924f 77be
00000010: 6fb4 293e 92a2 b53e 2aaf 67bf 42fa 9cbf
00000020: 7acf 27bf 3411 13be 65a1 53be 829f ed3e
00000030: d432 643d 788d ff3d 934f 53bf 90ce d9bd
00000040: 17af 113e e6d7 35bf 6d74 893d 9491 f83e
00000050: 8182 20be a40f 68bf d04a adbe c289 063e
00000060: b2ac 743e 24d9 adbe f454 9ebe 980f e7bd
00000070: 89d5 12be 301e d0be 1260 d13e 34d9 81bf
0.15911666 -0.3292844 -0.22121292 -0.24151447 0.16572736 0.35475594 -0.90501654 -1.2263873
-0.6555096 -0.14362031 -0.20667036 0.46410757 0.055712536 0.12478155 -0.82543296 -0.10635102
0.14226948 -0.7103256 0.067116596 0.48548567 -0.15674783 -0.90648866 -0.3384614 0.13138488
0.23894003 -0.33954728 -0.3092419 -0.11282271 -0.1433927 -0.4064803 0.40893608 -1.014441

down1.go_down.1.conv2x.1.c.1.running_var f4 [32]
00000000: db8d 563e 10a6 c93e 7d48 fd3e afc8 c43e
00000010: 9b7a fc3e 8879 cd3e 8763 df3e 1f3f a93f
00000020: 3e7d 113f ea98 a43e f5f1 343f c4a4 973e
00000030: 506b 9f3e 3a3a 853e 49fc 353f 502f 733e
00000040: bb56 be3e d42c 803f f9b0 f43e 2a6b 623e
00000050: 9239 ab3e c70a 423f 989d ec3e b451 943e
00000060: 1ae2 573e 0496 fe3e 3739 9c3e 7130 8c3e
00000070: c277 ab3e 419e a73e d5b4 9f3e 0c8a 4a3f
0.20952551 0.39384508 0.49469367 0.3843436 0.4931229 0.40131783 0.4363062 1.3222388
0.5683173 0.32147914 0.706817 0.29617894 0.3113656 0.26020986 0.7108808 0.23748517
0.37175545 1.001368 0.4779127 0.22111192 0.3344236 0.75797695 0.46213984 0.28968585
0.21082345 0.49723828 0.305124 0.27380708 0.33489805 0.32737926 0.3119265 0.7911689

down2.go_down.1.conv2x.0.c.0.weight f4 [64, 32, 3, 3]
00000000: 9c69 3dbd fff0 2d3d 4622 03bd 1bfe 273c
00000010: d877 103c 7a94 363d 7060 053d 3600 0f3d
00000020: 03ac 8dbd 5002 af3d 2d6a d03c 25e8 b8bb
00000030: 49bc d53c eca8 0e3d 5cde 413d 7451 8ebc
00000040: 76d7 173d 9c1c 9d3d 6e9b dfbc 6caa c5bc
00000050: a18b a93c 0f84 18bd 7a14 67bd 1b40 50bc
00000060: 4df5 da3b 6f4c f83c 8c29 c73d 1886 c1bc
00000070: 48b5 123c e2f9 5bbd 9ef2 823d bed3 b5bc
00000080: b6b2 013d 2b5c c53c b5bf d3b9 f00f d03c
00000090: d981 1f3d ad49 5dbd d236 a93d 3e17 803b
000000a0: 930f f9bc 93ff 8f3c 1829 203d 6df5 1cbd
000000b0: 819d 033d cbc2 5dbd c7ca 86bd 3ff7 47bc
000000c0: 2e7e 14bc 56df 06bd a32f 4d3d 5950 653c
000000d0: f81d 5c3d 5ecb 15bd e6fd 5bbd c945 a3bc
000000e0: 07ff dabc 4301 363d 4008 08bd eec1 123d
000000f0: de1b 88bd f16e b8bc eecb 43bc 6c6a 7d3d
00000100: 31d1 973d 1467 463d e469 c23c e914 813d
00000110: b338 34bd 0be0 83bc b029 8dbd a3d3 79bc
00000120: 6193 27bd e5df 2b3c 7e54 08bd 8340 77bc
00000130: a6b0 373c 31f7 c4bb 0df9 163e 6a09 0dbd
00000140: 2f88 553d 1d78 3f3d 4660 0a3d 60e4 d73c
00000150: 015a 01bd a4e2 cfba 0dc0 5cbd d920 37bd
00000160: c00e 083d 0bb2 863c 0c91 fb3c 696c 523d
00000170: d950 91bc d430 573c 447e 28bd f11b 183d
00000180: dd2e 9e3d 4ede c1bc ef7a 553d 9830 423a
00000190: 736d 0ebd 24b3 12bd 8e13 b2bb 6918 7bbd
000001a0: 1847 ecbc 92c0 ce3c 1695 50bc 86ec 9fbc
000001b0: fc05 0a3c 06b8 723c a1b8 77bd 2ec3 a43d
000001c0: 5e6b 6abc 1e49 00bd 3b74 ab3c 532f 953d
000001d0: fe38 273a 90a2 e73d f82a a63c 37b9 01bd
000001e0: 0fc2 993c 4bc0 70bd a0db c53d 6fd3 103d
000001f0: c301 58bd 81ef 15bd dcd7 533d 56d6 153d
00000200: 3777 4a3a 9bfc 033d 9b4e d8bb cee1 30bc
00000210: 9b78 8c3d b2ba 1f39 220d a63d 0aff 9fbc
00000220: 04a0 04bb aa20 ac3c 12fd 093d 323e 88ba
00000230: 4e7a 133c 8b5c 063c f435 983c 0b49 55bd
00000240: a998 8abc 6772 863c c754 c53d f40f 9c3c
00000250: 114d 13bd 9c7f fcbb a49a 19be 9ccd 833c
00000260: 3aaa aabd 201b 0f3d af22 b33d ba6b fe3c
00000270: 1b25 043b bca2 71bb e88b a03d dea7 9f3d
00000280: 5a51 b43c 91ee 413c fc7c 1c3c 1bae 10bd
00000290: 41eb 8ebc 8e48 dcbc 1a42 4cbd ac21 d0bc
000002a0: 176a 533d c36f 623a dab6 a4bd e796 93bb
000002b0: c438 053d 5c3f 8bbc 3f7c 553d 2e53 b73c
000002c0: a126 a13c 1d81 5abd b629 08bc 7707 e7bc
000002d0: 5fe3 ac3d fe75 33bd 5cf6 4a3d 952f 1e3d
000002e0: 9cdd ff3c d4a4 143d f92f 92bc 67d6 cdbd
000002f0: 1186 8abd 18fc 5f3d ba4d b7bc ab58 883d
00000300: 8d09 b7bc 3bcc 493d e5e9 50bd 97c2 1dbd
00000310: d54f 5cbd e708 1bbd 075c c3bd cf7b 053d
00000320: f8a1 3039 c7d2 8b3b ee88 553c d767 223d
00000330: aebd d33d ae38 a4bb c37d 97bc e16b 653d
00000340: 72c0 af3b 1ef5 363c 0474 763d 5149 1a3c
00000350: 5e0e 27bd f560 49bd 0e88 66bc ad5f 6a3d
00000360: 5f6c 8fbb 66c8 263c d5c5 bcbd dca6 fe3c
00000370: c606 7ebc f5ad 1d3d 6792 a13b e517 233d
00000380: 55de d0bc e8eb af3d def4 d03b a65d d83b
00000390: 64a3 4d3c 2bdd 46bc 6aba 94bd c394 93bd
000003a0: 3333 dcbc 8cd3 91bd 4e92 643d e8eb d5bc
000003b0: 94e6 47bc bf08 8139 fbe3 563c 2259 c0bd
000003c0: 025b ad3b bb13 05bd 1f66 38bd 0a2a 38bd
000003d0: c0bb 48bd 1f73 943d d663 a73d 22d5 ba3c
000003e0: d5a2 593b e433 cfb9 118d 2ebd e352 233c
000003f0: 7de4 163b add5 95bd 843b 443d f01c 09bd
-0.046243295 0.04246616 -0.032015108 0.010253455 0.0088176355 0.044575192 0.032562673 0.03491231
-0.06917574 0.08545363 0.025441254 -0.005642908 0.026090758 0.034829065 0.0473312 -0.017372824
0.037070714 0.076714724 -0.027295794 -0.024129115 0.020696463 -0.037235316 -0.056416012 -0.012710596
0.006682074 0.030309884 0.09724721 -0.023623511 0.008954354 -0.053705104 0.06393932 -0.022195693
0.031664573 0.0240918 -0.0004038789 0.025398225 0.03894219 -0.05402534 0.08262409 0.0039090207
-0.030402934 0.017577922 0.03910169 -0.038319994 0.03213263 -0.054140847 -0.065816455 -0.012204944
-0.009063287 -0.032927833 0.050094258 0.013996207 0.053739518 -0.0365709 -0.053708933 -0.019930737
-0.026732935 0.044434797 -0.033210993 0.035829477 -0.0664594 -0.022513838 -0.011950476 0.06186907
0.07412947 0.048438147 0.023732133 0.063028164 -0.043999385 -0.016098043 -0.06892717 -0.015248212
-0.040912036 0.010490392 -0.033283703 -0.015091064 0.01121155 -0.006010913 0.14743443 -0.034432806
0.052131828 0.04674541 0.03378322 0.026354015 -0.031579975 -0.0015860391 -0.05389409 -0.04470906
0.03321719 0.01644232 0.030708812 0.05137292 -0.017738746 0.0131342 -0.04113604 0.037136022
0.07723782 -0.023665573 0.05211919 0.0007407754 -0.034772348 -0.035815373 -0.00543446 -0.061302576
-0.028842494 0.025238309 -0.012730857 -0.019521963 0.008424278 0.014814382 -0.06047881 0.0804504
-0.014307825 -0.03131973 0.020929446 0.07284417 0.0006379037 0.11310303 0.020284161 -0.031670775
0.018769292 -0.058777135 0.09661031 0.03535789 -0.052736055 -0.03660536 0.05171953 0.03658136
0.0007723453 0.032223325 -0.0066011674 -0.0107960235 0.06858941 0.00015232971 0.08107974 -0.019530792
-0.0020236978 0.02101167 0.033688612 -0.0010394512 0.009001328 0.008200775 0.018580414 -0.052071612
-0.016918497 0.016411973 0.096353106 0.019050576 -0.035962168 -0.007705642 -0.15000397 0.016089253
-0.083332494 0.034937978 0.0874685 0.031057227 0.0020163718 -0.003687068 0.07839185 0.0779569
0.022011448 0.011836664 0.009551283 -0.03532229 -0.017446162 -0.026890066 -0.049867727 -0.025406681
0.051614847 0.00086378696 -0.08042689 -0.004504073 0.03252484 -0.016997986 0.052120443 0.02237853
0.01967174 -0.05334579 -0.008310726 -0.028201802 0.08441805 -0.043813698 0.049551353 0.038619597
0.031233601 0.036290005 -0.01784514 -0.100506596 -0.067638524 0.054683775 -0.02237593 0.06657537
-0.022343421 0.049267035 -0.05100431 -0.038515653 -0.05378707 -0.037850287 -0.09539037 0.032588776
0.00016845006 0.00426707 0.013033135 0.03964981 0.10338913 -0.0050116396 -0.018492585 0.056011084
0.0053635174 0.011166839 0.060169235 0.009416894 -0.040785186 -0.04916473 -0.014070524 0.05722015
-0.0043769325 0.010179615 -0.09217421 0.031085424 -0.015504545 0.038495976 0.0049307826 0.03981771
-0.025496641 0.085899174 0.0063768467 0.0066029606 0.012551162 -0.0121376915 -0.07262118 -0.072061084
-0.026879882 -0.071204275 0.05580359 -0.026113465 -0.01220097 0.00024611314 0.013115878 -0.09392001
0.00529039 -0.03248952 -0.045019265 -0.044961967 -0.049007177 0.0724852 0.08173339 0.022806708
0.0033208628 -0.00039520778 -0.042615 0.009968492 0.0023024373 -0.07316146 0.04790832 -0.033474863

down2.go_down.1.conv2x.0.c.0.bias f4 [64]
00000000: e1f2 0bbd 4bcf a23b 1d69 6dbd c0ab 863c
00000010: c56a 69bb 929d 2abb 7ef5 cc3c c300 4d3d
00000020: 97b6 44bd 1e5b 8fbc 299c 393d 498e 8f3c
00000030: ef87 273d e4da ee3a c02b 64bd a90f 84bb
00000040: 8587 3dbc 4d9e 36bd 33be 553d aa71 323c
00000050: 94a7 5c3d 4ed6 39bd 622b 0a3d 08b0 a83b
00000060: a964 6b3d 839c 0fbd 25f3 1fbc 6ce8 0d3c
00000070: a304 1abd 9210 05bd 28e4 f93c e6eb 5a3d
00000080: dda4 843c 8b7d 5e3d 67ea 54bd 4b54 363d
00000090: dcc0 8cbc 617f a5bc a955 413d b781 5ebd
000000a0: acd2 bfbc 243e 5b3d 0c07 0f3d 345d fa39
000000b0: 2a31 c63c 44b4 ee3c e342 213d 57bf c63c
000000c0: c3ac 443d 1500 953c f212 8f3b 0407 f63c
000000d0: 1cdf a3bc 7007 d33c fe51 8f3c 8ca4 143d
000000e0: acb4 66bd 5630 683d 834b 0cbb af22 223d
000000f0: 0a18 933b 620d 7ebb 4ac6 37bd a235 b3bc
-0.034167174 0.004968559 -0.057961572 0.016439319 -0.0035616618 -0.002603386 0.025019404 0.050049555
-0.048025694 -0.017499503 0.04531494 0.017523902 0.04090112 0.0018223193 -0.055705786 -0.004030187
-0.011567955 -0.04458456 0.05218334 0.010891357 0.053870752 -0.045370393 0.03373278 0.0051479377
0.057469044 -0.03506137 -0.00976256 0.008661371 -0.03760208 -0.032486506 0.030504301 0.053447627
0.016191894 0.054318946 -0.051981356 0.04451398 -0.017181806 -0.02020234 0.047200833 -0.054322924
-0.023415886 0.05352606 0.03491883 0.00047753158 0.024193365 0.029138692 0.03937043 0.02426116
0.04801632 0.018188516 0.004366272 0.030032642 -0.020003848 0.025760382 0.017495152 0.036289737
-0.056324646 0.05668672 -0.0021407313 0.039583858 0.0044889497 -0.00387653 -0.044866838 -0.02187616

down2.go_down.1.conv2x.0.c.1.weight f4 [64]
00000000: fdd9 813f 0f91 803f 2aa5 813f c17d 6c3f
00000010: e1e9 813f 141d 813f 127a 7d3f f0af 7e3f
00000020: d18c 753f 6333 793f b94f 7a3f 785c 703f
00000030: 651c 763f afcc 7e3f 5978 773f 72a8 7c3f
00000040: 2c3a 7c3f 549c 923f 2a8d 7b3f cb56 813f
00000050: 1672 7d3f 3dda 783f 5bb1 863f 3db7 863f
00000060: 5a3d 803f d136 7d3f 16e7 843f 2e09 853f
00000070: 6c80 843f 3859 883f c1b4 823f 05c4 823f
00000080: 862f 7c3f 31d2 863f 7137 8a3f 863a 7d3f
00000090: 228a 833f 360f 833f 2eef 813f 1e23 7a3f
000000a0: 47e9 883f 47d6 893f deb7 7a3f 5397 7e3f
000000b0: 9481 793f 4f04 7d3f 0c0d 7c3f 0da3 853f
000000c0: d57e 823f acc7 783f fd62 823f 1eae 723f
000000d0: e766 7f3f 3fca 833f c3d9 803f 14bb 7e3f
000000e0: 36b1 733f a12b 793f 303f 7d3f f61e 823f
000000f0: cb62 7d3f 8911 823f 0c99 793f 70d2 803f
1.014465 1.0044268 1.0128529 0.92379385 1.0149499 1.0086999 0.9901439 0.9948721
0.95917994 0.97344035 0.977779 0.93891096 0.96137077 0.9953107 0.9666801 0.9869453
0.98526263 1.1453958 0.98262274 1.0104612 0.99002206 0.97208005 1.0522875 1.052467
1.0018723 0.9891177 1.0383022 1.0393426 1.0351691 1.0652227 1.0211412 1.021607
0.98510015 1.0532895 1.0798169 0.98917425 1.027653 1.0239017 1.0151117 0.97709835
1.069619 1.0768517 0.9793681 0.9944965 0.97463346 0.988347 0.9845741 1.0440384
1.0194956 0.97179675 1.0186459 0.9479693 0.9976639 1.0296096 1.0066456 0.9950421
0.9519228 0.973322 0.9892454 1.0165699 0.9897887 1.0161601 0.97499156 1.006422

down2.go_down.1.conv2x.0.c.1.bias f4 [64]
00000000: 9643 683c eb28 833c bc07 1b3d 581d abbd
00000010: c9f4 b2bb bdd0 d3bc ddf8 37bd f030 cfbd
00000020: 60dd 5ebd c1ea 89bd 298f 0abd abd7 e0bd
00000030: 81fb 3fbe 165d 8dbc 4d62 25bd 2fe4 93bd
00000040: 3b92 dbbd 0858 febc 5b21 46bd e569 1fbd
00000050: 6407 ccbc d31b 50bd 994e 663d c2e2 53bd
00000060: ca67 9e3d 3e9b 69bc 9ed3 31ba 12b8 35bd
00000070: a784 07bc eed3 913d de90 a4bd 0963 b33b
00000080: 28ef 09bd 36a3 873d 966f 513c eebd 63bd
00000090: 8d3d e9bd 5cad 083d 788b aabd 1aeb 4cbd
000000a0: 0e52 7bbd 6136 0ebe 2a82 80bd b804 8ebc
000000b0: ea59 26bd eee5 92bd 6f02 e8bd 2551 dd3b
000000c0: c312 33bc f44e e9bc 307d e73c 6915 d6bd
000000d0: 07a8 63bb e833 e23c 0a5d 82bc f0df 57bd
000000e0: 3b1c 87bd 7f5a 96bd c636 d6bc fbce 143b
000000f0: 7960 bbbd efda de3c 16ae debd fc3f d7ba
0.01417627 0.016010722 0.037849173 -0.08355206 -0.0054613096 -0.02585637 -0.04491507 -0.10116756
-0.05441034 -0.06734229 -0.033827934 -0.109786354 -0.18748285 -0.0172563 -0.04037695 -0.07221257
-0.107212506 -0.031047836 -0.048371654 -0.03891935 -0.024905868 -0.050807785 0.0562273 -0.051729925
0.0773464 -0.014258204 -0.00067835476 -0.044364996 -0.008271373 0.071205005 -0.08035444 0.0054744524
-0.033675343 0.06622927 0.012782952 -0.055601053 -0.11388693 0.033368453 -0.08327383 -0.050028898
-0.06135755 -0.13887931 -0.06274827 -0.017336234 -0.040613092 -0.07172762 -0.11328589 0.006754058
-0.010929766 -0.02848003 0.028257936 -0.104533024 -0.0034737603 0.027612641 -0.015913505 -0.052703798
-0.065971814 -0.073414795 -0.026149165 0.0022706378 -0.0914926 0.027204005 -0.10873048 -0.0016422267

down2.go_down.1.conv2x.0.c.1.running_mean f4 [64]
00000000: 8ce5 153f b626 9fbf 3101 e0bf 5e89 a63e
00000010: b673 dc3e b507 ebbe 6626 adbf 7c03 303f
00000020: 28b3 9ebe 4059 edbf cd43 603f 4269 0840
00000030: 6f77 8c3e 3cd7 39bf 62bb 9f3f 9a21 93be
00000040: cbec 4b3e 51b7 01bf 44c2 5fbb be44 37bf
00000050: 1cbd 17bf 72a8 3b3f d070 da3d 8942 d13f
00000060: 403c 56bf c093 19bd c825 94bf 6481 d5bc
00000070: 0db8 083c 6082 e4be ca41 5bbf e0fa d1bf
00000080: 5063 adbf ac03 45bb 917b a33e bc12 553f
00000090: 334e 273e 62b1 95bf 2d41 093f 92d1 703f
000000a0: 64b0 083f 4245 1fc0 2301 8b3d a6b6 3b3d
000000b0: 7631 5fbf 8160 a03f f4a5 213f 605f b3bc
000000c0: 3f2a c8bf 2cb2 f53e 3c45 c5bf 2429 dbbf
000000d0: 1269 13c0 c7f9 7fbf e2e8 bebd b521 3c3f
000000e0: 52aa 5ebf c8fa 98bf 1ecd cebe 5dc6 a03d
000000f0: bf82 2f3f c2ca 9cbd 0e15 203f dce6 7dbf
0.58553386 -1.2433689 -1.7500364 0.32526678 0.4305703 -0.45904317 -1.3527343 0.68755317
-0.3099606 -1.8542862 0.87603456 2.1314244 0.2743487 -0.72594047 1.247906 -0.28736573
0.19914548 -0.50670344 -0.003414289 -0.7158927 -0.59272933 0.733039 0.106660485 1.634843
-0.83685684 -0.03749442 -1.157403 -0.026062675 0.008344662 -0.44630718 -0.8564726 -1.6404686
-1.3545933 -0.0030062003 0.3193021 0.8323171 0.16338424 -1.1694758 0.53615075 0.9406978
0.5339415 -2.4886022 0.06787326 0.045828484 -0.87184846 1.2529451 0.6314385 -0.021896064
-1.5637892 0.47987497 -1.5411754 -1.712193 -2.303288 -0.99990505 -0.093217626 0.7348893
-0.8697864 -1.1951532 -0.40390867 0.07850335 0.6855888 -0.076558605 0.62532127 -0.9918039

down2.go_down.1.conv2x.0.c.1.running_var f4 [64]
00000000: f064 d23e e22c 103f 9350 a33f f1ee bf3e
00000010: d4c4 1e3f a26f e83e e337 d53e f145 bb3e
00000020: 69ca 2b3f cb0a 5e3f 8569 c43f c22e b03f
00000030: 06dd 0c3f bd7b 2a3f ed99 a53e 8c14 143f
00000040: f023 573e 27e4 f23e 7944 be3e ac69 0a3f
00000050: e785 a03e d6c2 693f c0ee 1a3f 4b9b e43e
00000060: 64cf 953f c94d dd3e 95a7 2f3f b31e f83e
00000070: d97d 663f f955 863f 9444 e03e 2054 383f
00000080: 4681 173f a777 2b3f acff 0b3f 56e6 493f
00000090: b489 7f3f daf9 dd3f 7f4f dc3e bf67 923f
000000a0: b2c2 0c3f f6a8 1d3f 68e7 1d3f 277e 523f
000000b0: 7ee7 073f 4149 243f 18af d63e c427 663f
000000c0: e1d6 dd3e 1491 3e3f 750f cf3f 6b4a a63f
000000d0: a2b6 ff3f 4f4d 713f c917 a63e 7c5d e83e
000000e0: 9454 a33f 962b 813f a9d1 f53e 344a 313f
000000f0: ce6d be3e 52cd 183f 4624 aa3e 857f 293f
0.41092634 0.56318486 1.2758964 0.37486985 0.62019086 0.4539767 0.416442 0.365768
0.6710573 0.8673522 1.5344702 1.3764269 0.55024755 0.6659506 0.32344 0.5784385
0.21009803 0.4743969 0.37161615 0.5406749 0.3135216 0.9131292 0.60520554 0.4464973
1.1703916 0.43223408 0.68615085 0.48460922 0.9003578 1.0494987 0.4380232 0.72003365
0.5918163 0.6697945 0.54687 0.7886709 0.99819493 1.7341874 0.430294 1.1437911
0.5498458 0.6158594 0.6168122 0.82223743 0.53087604 0.64174277 0.4193046 0.8990443
0.43328002 0.7444012 1.6176592 1.299146 1.997761 0.9425859 0.32440022 0.45383823
1.2760186 1.0091426 0.4801152 0.6925385 0.3719315 0.59688294 0.332308 0.66210204
