data/model/2-test.pth (torch_old, 492009 bytes, 73 tensors)

inc.conv.conv2x.0.c.0.weight f4 [16, 1, 3, 3]
000000 ca c6 19 3e c2 e9 4c bf cb be af 3e 95 26 c4 be
       0.15017238 -0.80044186 0.3432525 -0.38310686
000010 de 46 ae be ba d2 83 3d 27 42 82 3e 5e 0a 07 3f
       -0.34038442 0.06436677 0.25441095 0.52750194
000020 23 4c 0f be cf 76 af be fb 0d 2f 3d dc 8b 40 3d
       -0.13993888 -0.3427033 0.042737942 0.04700838
000030 17 47 a0 be 25 c9 48 be 2d 64 c2 be ad fe b8 be
       -0.31304237 -0.1960798 -0.37967053 -0.36131802
000040 2c 05 d1 3e 5c ed f9 3e e4 98 06 bf 67 bb 25 be
       0.40824258 0.48813903 -0.5257704 -0.1618477
000050 e0 89 04 3e 3f 60 f1 be eb 90 d4 be 86 70 7f 3e
       0.1294322 -0.47143742 -0.41516814 0.24945268
000060 58 16 ab 3e 81 6f 18 3e 90 e9 c3 3e 92 73 91 3e
       0.33415484 0.14886285 0.38264132 0.28408486
000070 88 a5 f3 3d c5 b8 3e be d9 56 c2 bd 7c 75 41 bf
       0.11896807 -0.18625171 -0.09489221 -0.7556989
000080 d8 3b 00 3f f6 b2 13 3f 38 b3 27 be fa da f7 bd
       0.50091314 0.5769495 -0.1637696 -0.12102313
000090 b3 96 16 3e 60 16 44 bf 42 a1 a7 3e ae d2 25 bd
       0.14705925 -0.7659664 0.32740217 -0.040484123
0000a0 a2 63 d0 3e 3d fc fe 3e 10 94 48 be 20 28 a0 be
       0.40701014 0.49801818 -0.19587731 -0.31280613
0000b0 91 8a 99 3e e8 ad a1 be 0d fd ab 3e 19 ae 1a 3f
       0.2998853 -0.31577992 0.335915 0.604219
0000c0 56 40 38 be 30 90 b5 bd 98 70 b2 3e 08 c8 cc be
       -0.17993292 -0.08865392 0.34851527 -0.39996362
0000d0 1c 77 e0 3e a5 cc 31 be 10 43 2c be 3e 1d dc 3e
       0.43840873 -0.17363222 -0.16822457 0.4299106
0000e0 97 8b 27 3f 71 ec 20 bf 5d 13 c5 3e dc 25 d3 be
       0.6544737 -0.6286078 0.38491336 -0.41239822
0000f0 dc 69 76 3d a4 6a 63 be 78 a0 95 3e 48 d2 78 be
       0.06015955 -0.22208649 0.2922399 -0.24298966
000100 3e c8 36 bf 91 8c 08 3e b0 77 be 3e e5 7c ff 3d
       -0.71399295 0.13334872 0.3720069 0.124749936
000110 7e 3a 63 3e ca a2 b8 3e 28 4e bb 3e b0 2f dd 3d
       0.22190282 0.36061698 0.36583066 0.10800111
000120 e4 cb aa bd 25 b2 da be d3 e9 22 be a8 ce a7 bd
       -0.0833967 -0.42714038 -0.1590951 -0.081937134
000130 cb 61 08 3d 5e 6f 08 3e 72 9a 0d 3f 11 d7 85 3f
       0.033296388 0.13323733 0.5531379 1.0456258
000140 32 b1 87 be aa e5 21 3f 99 90 f5 3d d4 cf 01 be
       -0.26502377 0.63241065 0.119904704 -0.12676936
000150 6d 62 f5 3e 69 c3 05 3f 51 6b 93 be b3 c9 94 be
       0.47926655 0.522513 -0.28792813 -0.29060134
000160 a9 c0 7e be 90 88 c9 be 13 f6 3a 3e 98 ce da be
       -0.24878182 -0.39362 0.18257932 -0.42735744
000170 f9 44 25 bf 88 d4 18 3f ce 3c c3 be 66 6b d0 3e
       -0.6455837 0.59699297 -0.38132328 0.40706939
000180 e7 68 37 bd 59 6d 61 3e d9 42 8f be fd 6c 04 3f
       -0.044777777 0.22014369 -0.27980688 0.517288
000190 9c 83 fb 3e 53 38 5b 3d 24 02 63 be ea b7 dc be
       0.49123847 0.05352051 -0.22168785 -0.43109065
0001a0 bc 33 02 be a7 09 c5 be 0d 1c a4 3e bb d3 e3 be
       -0.12715048 -0.38483927 0.3205265 -0.44497475
0001b0 0a 02 ae 3e 3c 15 3e bf fc 11 06 3d fc f9 2a bd
       0.3398593 -0.7425115 0.032731995 -0.04174231
0001c0 6d b3 31 3f e8 b5 1b be 9d e3 ce bd 9e 0a f6 bd
       0.69414407 -0.1520611 -0.101020075 -0.12013744
0001d0 14 97 0f be dd 7c e9 3d 31 e0 04 3f 37 8d f3 3d
       -0.14022475 0.11400769 0.5190459 0.11892169
0001e0 95 10 73 3d 3e f8 f9 bb 89 e4 0c be 7a 33 24 bf
       0.059341986 -0.0076284697 -0.13759054 -0.64141047
0001f0 1d 58 8b bf 2c 9d 79 3e 08 fb 59 be a4 bc f1 3d
       -1.0886265 0.24376363 -0.21287167 0.118035585
000200 e3 1b c6 be 05 90 17 bf 89 e7 ac bf 37 d2 b2 3e
       -0.3869315 -0.5920413 -1.3508159 0.34926006
000210 ef b6 ab 3e 16 27 b8 39 10 53 87 bd a0 84 00 bf
       0.33538005 0.00035124336 -0.0660764 -0.5020237
000220 c4 4d b7 3e d9 1b d2 be 44 b1 94 3e 59 0d 42 3f
       0.35801518 -0.4103687 0.29041493 0.75801617
000230 5c de 50 bc a2 3d da be 3a 62 3a 3e 41 0c 96 be
       -0.012748327 -0.42625147 0.18201533 -0.29306224

inc.conv.conv2x.0.c.0.bias f4 [16]
000000 cf ab a2 be 6c 33 f6 bb 2d 1e 98 3e 58 69 fb bc
       -0.31771705 -0.007513454 0.29710522 -0.03068988
000010 7b b4 98 3b dd 90 36 be cf 1b 0d 3e 7c 3b dc 3d
       0.004660187 -0.17828698 0.1378014 0.10753533
000020 41 f1 8d 3d 28 35 c5 3e 8e b4 09 3e 2c 3f 53 be
       0.06930781 0.38517118 0.13447782 -0.20629567
000030 63 bb 0c be 8b d7 38 3e 31 d9 ad be 63 6f a0 be
       -0.13743357 0.18050973 -0.33954766 -0.3133498

inc.conv.conv2x.0.c.1.weight f4 [16]
000000 d1 e8 51 3f ec aa 01 3f e7 3f 6f 3f 76 09 4d 3f
       0.81995875 0.5065143 0.9345688 0.8009256
000010 c0 49 5e 3f 49 43 c9 3e 51 44 a0 3f 31 ac d2 3e
       0.86831284 0.39309147 1.2520849 0.41146997
000020 5a cc 89 3f 8a 8a 53 3f 5b fd aa 3f 8b 47 11 3f
       1.0765488 0.8263327 1.3358568 0.5674979
000030 0c 98 b8 3e 59 19 9e 3f 18 35 d5 3e a2 7d 8b 3f
       0.36053503 1.2351485 0.4164207 1.0897715

inc.conv.conv2x.0.c.1.bias f4 [16]
000000 56 63 63 40 45 23 9b 3d 7b de bd be b3 9f 49 40
       3.552938 0.075750865 -0.37083802 3.1503723
000010 5c 43 0f 40 c6 e8 5f 3c 45 6e 5c bf 89 e0 58 be
       2.2384863 0.013666337 -0.8610576 -0.21179403
000020 29 0f 88 bd 02 fe 93 3e df 9c 6e 3f 15 a8 a3 3e
       -0.066435166 0.2890473 0.93208116 0.31964174
000030 65 71 6f 3e 56 8a ae 3d 02 ac aa 3d 4f 24 01 c0
       0.233831 0.08522479 0.08333589 -2.017841

inc.conv.conv2x.0.c.1.running_mean f4 [16]
000000 df 0a 9e bf 32 e6 da bf 9c f8 21 bf 3c 89 cf 3e
       -1.2347068 -1.71015 -0.6326997 0.4053439
000010 cc 5a 83 3f 9a cf b5 3f 73 4d 9d 3f 8c 0b 0a 40
       1.0262084 1.420398 1.2289261 2.1569548
000020 0a 38 0b 40 49 d3 c3 3f 90 d6 67 bf 5e 32 59 bf
       2.1752954 1.5298854 -0.9056177 -0.8484248
000030 f5 fa 47 bf 88 05 08 c0 70 62 ad c0 f0 4c e6 be
       -0.78117305 -2.1253376 -5.4182663 -0.44980574

inc.conv.conv2x.0.c.1.running_var f4 [16]
000000 58 3d 11 3f 98 db 5b 3f a0 3c 77 3f 44 3d 65 3e
       0.5673423 0.8588195 0.9657688 0.22386652
000010 af 69 0f 3f b3 16 7f 3f b7 9e 2b 3f f4 bb 9a 3f
       0.56020635 0.9964401 0.67039055 1.2088609
000020 94 83 ce 3f 85 9e 9d 3f f0 72 24 3f ea 35 1f 3f
       1.6133904 1.2314001 0.6423788 0.6219164
000030 50 72 55 3e 30 62 f8 3f 22 91 8b 40 b6 05 a1 3e
       0.20844388 1.9404964 4.3614664 0.3144967

inc.conv.conv2x.1.c.0.weight f4 [16, 16, 3, 3]
000000 76 ae 09 3c ad 11 c3 3e 5a 8f 61 3e c6 29 59 be
       0.008403411 0.38099423 0.2202734 -0.21207342
000010 80 9d 6a 3d 4d 01 b9 3e ee cb 4d be c6 16 0a be
       0.05727911 0.36133805 -0.20097324 -0.1348525
000020 7c dd d6 3e 8e 11 ee bd 11 35 ba 3d 28 c7 16 be
       0.41965854 -0.11624442 0.09092153 -0.1472441
000030 24 38 95 be 78 9d f3 bc a1 71 fd bd 3a 90 96 be
       -0.29144394 -0.029738173 -0.123751886 -0.2940691
000040 57 94 82 3d 12 22 64 bd a7 da 50 3e 20 b2 13 3e
       0.0637595 -0.055696554 0.20395909 0.14423418
000050 7c 8a 9e bd f0 18 d5 bd f6 7c 99 be a1 dc 56 be
       -0.077412575 -0.10405147 -0.2997815 -0.20982601
000060 3e 0e 91 3e 0f 85 73 3e 7c 07 9b be 15 45 ed 3d
       0.28331178 0.23781227 -0.30279148 0.11585442
000070 8a c6 ea 3e e6 e0 c7 3e 50 ba 71 3e 4b 81 54 be
       0.45854598 0.3903877 0.23606229 -0.20752446
000080 19 09 ed 3e a9 54 b3 3e 5a 02 4d be 00 8a b9 be
       0.46296003 0.35025528 -0.20020428 -0.36238098
000090 d4 af d6 be e1 91 2b bf 44 71 72 be 0c 40 af be
       -0.4193102 -0.6701947 -0.2367602 -0.3422855
0000a0 52 81 24 bf ab 4a 97 be 69 03 9e be 5a d9 c1 be
       -0.6425983 -0.29549155 -0.30861977 -0.3786114
0000b0 31 2b 2d be f4 e7 c5 be 0a 49 77 be b9 5f b6 bd
       -0.16911007 -0.3865353 -0.24148956 -0.089049764
0000c0 6e 44 a3 be f3 fe c3 be 46 26 28 be 3b 70 84 be
       -0.31888145 -0.38280448 -0.1642085 -0.25866875
0000d0 5d e8 f2 be 95 ea dd bb 24 3c ec be a0 1c 36 bf
       -0.47442904 -0.006772349 -0.46139634 -0.7113743
0000e0 06 06 48 bc b8 0f 33 bd 06 4b 09 bf c6 75 22 be
       -0.012208467 -0.043716162 -0.536301 -0.1586524
0000f0 c0 c4 73 be 3f 5a 01 bf 0b d0 31 be ac f4 80 3e
       -0.23805523 -0.5052833 -0.17364518 0.2518667
000100 14 f0 c0 3d a3 db 81 be 89 e1 0f 3e ee 10 d2 3d
       0.09420791 -0.25362882 0.14050879 0.10257135
000110 03 0b 0d be 99 1f 9f 3d c4 97 42 bb 25 f0 21 3e
       -0.13773732 0.07769699 -0.002969251 0.15814264
000120 d1 ea da 3e 67 3e fc 3c 0b 4a ec be fe 02 fc 3e
       0.42757276 0.030791475 -0.4615024 0.49221033
000130 5f 1d 8b 3e 9f 36 87 bd f7 83 e8 3e 78 bb b7 3e
       0.27170846 -0.06602215 0.4541318 0.35885215
000140 a4 bc b3 3e f8 02 c0 3e e1 69 2a be 3d 49 01 bf
       0.3510486 0.37502265 -0.16641952 -0.5050238
000150 98 64 05 3f 5c e4 cf 3c ce 94 e8 be 3c ef be 3e
       0.5210662 0.025377445 -0.4542603 0.37291896
000160 02 e6 cb 3e d3 1c 1e be 8b 2e 83 3f 0c 87 2a 3f
       0.3982392 -0.15440683 1.0248579 0.66612315
000170 4f e5 b1 3e 82 fc 07 3f 08 5f f8 3e 22 3d 96 3e
       0.3474526 0.5311967 0.48510003 0.29343516
000180 60 3e d6 3e cd 07 d2 3e 58 46 fd 3e 14 f1 22 3d
       0.41844463 0.41021577 0.4946773 0.03978069
000190 2d cc bf bd f4 00 22 be eb c2 31 3e 0c c6 8f 3e
       -0.09365115 -0.15820676 0.17359512 0.28080785
0001a0 d6 ca 69 3e 4b 29 01 bf 0b fb 13 be ff c8 0c 3e
       0.22831282 -0.50453633 -0.14451234 0.13748549
0001b0 3a e2 a5 3e 6f db 85 bc 11 f7 49 3d 8e 42 ba 3d
       0.3239916 -0.016339986 0.049307887 0.090947255
0001c0 94 6d c9 3d ae 79 42 3e e5 d1 a9 bd c3 39 96 be
       0.098353535 0.1899173 -0.08291987 -0.29340944
0001d0 70 f5 0c bd 60 3e 7b be be 51 ed bd 69 a1 49 3d
       -0.034413755 -0.24535513 -0.11587857 0.0492262
0001e0 06 a6 f9 bc c3 8c 29 3c 1c bf 74 3d 33 71 09 bf
       -0.030474674 0.010348502 0.05975257 -0.53688353
0001f0 e2 84 95 be c7 43 04 be ea 72 a3 be 27 b3 d4 bd
       -0.29202944 -0.1291648 -0.3192361 -0.10385733
000200 be ba 11 3e 43 e5 c9 be ea de 39 be 89 25 a9 3d
       0.14231393 -0.39432725 -0.18151441 0.082591124
000210 77 b6 b3 be 92 f7 16 be 2b 16 4f 3b 40 c9 c0 3e
       -0.35100147 -0.14742878 0.0031598906 0.37653542
000220 f4 29 e7 3d 92 9b 36 bf 93 cc d1 3e 67 00 89 bd
       0.11287299 -0.7133113 0.4097639 -0.0668953
000230 1b 99 06 bf e4 08 90 3d 6b fe da 3e 72 3d d5 3e
       -0.5257737 0.07032946 0.4277223 0.41648442
000240 95 5f a5 be 9b e7 41 3f d2 78 00 be 79 f7 d2 be
       -0.32299486 0.75744027 -0.1254609 -0.41204432
000250 cb a2 4e bd e2 30 f4 be 22 ac ae 3e bd 20 e4 be
       -0.05044822 -0.47693545 0.34115702 -0.44556227
000260 1a b2 6c 3e b3 0c 7c 3e d6 49 2c 3f 19 2c 27 3d
       0.23114815 0.2461422 0.67300165 0.04081354
000270 fd 56 91 be 8d 95 af 3e c3 d0 2f 3e 14 43 69 be
       -0.2838668 0.34293786 0.1716948 -0.22779495
000280 20 27 a9 bd f0 19 f9 bd d7 8b c8 3d a7 2b b7 3d
       -0.082594156 -0.1216315 0.09792297 0.08943873
000290 3d f7 36 3f ff 34 fb 3d b3 52 e3 be 88 a3 cc bd
       0.71471006 0.122659676 -0.44399032 -0.099921286
0002a0 27 60 52 be ac 4a 94 be 1e 99 ef be 50 55 5a be
       -0.20544492 -0.2896322 -0.46796507 -0.21321607
0002b0 2f a3 57 be 0b c5 5b 3f b5 5a ec 3e 7f 39 a4 bf
       -0.21058343 0.8584754 0.46162954 -1.2830046
0002c0 80 39 28 bf 8e c5 79 bc 42 d2 7f 3e e7 51 9e 3d
       -0.6571274 -0.015244855 0.2498255 0.077304654
0002d0 c1 d4 36 3b 0c 30 57 bf 57 90 be be f5 dc 41 3c
       0.0027897807 -0.8405769 -0.37219498 0.011832465
0002e0 5d 7c 93 3c b6 07 52 bd 29 4b 69 bd eb 6a 2a bf
       0.018003637 -0.051276885 -0.056956444 -0.66569394
0002f0 ee 9d 51 3e 8b 84 6c be 4f 8b ce 3e b7 d8 0a be
       0.20470402 -0.23097436 0.4034066 -0.13559233
000300 0f 15 11 3e b2 71 a5 bd f4 59 e5 bc be 25 3e 3c
       0.1416819 -0.08078326 -0.027996995 0.011605678
000310 98 c7 25 3e d3 88 c5 3d 55 8b 3c 3e 07 7b e1 be
       0.1618942 0.09645238 0.18412526 -0.44039175
000320 8a 0f 2b 3e c2 87 d8 bc 8d 3a 40 3f e0 4f 50 bf
       0.16705146 -0.026431922 0.7508934 -0.8137188
000330 8e a3 a8 3e 59 bd f1 3e 7b d5 ac bd f8 a7 21 bd
       0.32937282 0.47214773 -0.08439156 -0.039466828
000340 d1 78 27 3e 02 e1 89 3e c5 4b 3b 3d 61 83 1d 3e
       0.16354682 0.2692948 0.045726556 0.15382148
000350 a6 79 b9 3e b4 04 18 3e 49 9f 92 be 43 d6 9f 3c
       0.36225623 0.14845544 -0.2863715 0.019511348
000360 89 98 d4 3b 25 34 9d 3e 41 7e 47 3e 23 23 26 3e
       0.00648791 0.30703846 0.19481756 0.16224341
000370 fa d6 99 3d f5 25 2c 3e 34 2e 51 3e 17 bb 07 be
       0.07511707 0.16811354 0.20427781 -0.13254963
000380 18 bc 2b 3e bb 3c e9 be f5 7a 55 be 5b 25 16 bf
       0.16770971 -0.45554146 -0.20847686 -0.5865075
000390 c5 17 5f be 66 bd ef 3e c7 08 32 bc 93 a4 0c be
       -0.21786411 0.46824187 -0.0108663505 -0.13734655
0003a0 4f 37 b4 bd 4e 73 0a 3e 0f 35 5e be 20 ce cb 3d
       -0.08799612 0.13520548 -0.21699928 0.099514246
0003b0 e2 e2 81 bd d2 30 81 3f d6 a6 16 3e 89 c3 a9 3f
       -0.063421026 1.0093024 0.1471208 1.3262798
0003c0 d5 17 c8 be 6f 27 7f be 45 03 99 ba 4c 8c a3 be
       -0.39080682 -0.24917386 -0.0011673948 -0.31942976
0003d0 a0 db 2c 3f 2e 8f 4e be 0d 00 30 bc ad 40 c6 be
       0.6752262 -0.20171806 -0.0107422 -0.3872122
0003e0 35 4f b6 be 00 19 12 be c7 d0 1e 3f f8 21 f4 3e
       -0.35607305 -0.14267349 0.6203732 0.47682166
0003f0 d3 d1 33 be 92 00 a4 be 94 b6 81 be bc 54 81 be
       -0.1756051 -0.32031685 -0.2533461 -0.2525996

inc.conv.conv2x.1.c.0.bias f4 [16]
000000 2f 41 b3 3d d0 00 a7 bd bd fe a0 bc 8f cf 24 be
       0.08752667 -0.08154452 -0.019652719 -0.16094802
000010 49 a9 4a bd ce 12 55 bd ce 14 e5 3c 1d 3c 0f be
       -0.04947785 -0.052019887 0.027964022 -0.13987775
000020 f1 ee 01 3d f1 72 e5 3d 7f 89 a0 3d bd 37 0f be
       0.031722013 0.11203564 0.07838725 -0.13986106
000030 df f3 0f 3c 67 6f cb bd fe 83 2d 3e e1 2d de 3d
       0.008786171 -0.09933358 0.16944882 0.108485945

inc.conv.conv2x.1.c.1.weight f4 [16]
000000 83 84 55 3f 76 38 a9 3f 9e eb 31 3f 39 7c 45 3f
       0.8340532 1.3220356 0.6950015 0.77142674
000010 e2 0b 54 3f 13 ce c4 3f ce 9a 48 3f 0d c1 37 3f
       0.8283063 1.5375389 0.78361213 0.7177895
000020 d0 7b 77 3f 5c 87 46 3f 13 c9 7b 3f 97 9f 25 3f
       0.966733 0.7755029 0.9835369 0.6469664
000030 da 82 17 3f 1c bc 6a 3f de 21 56 3f 28 a0 4a 3f
       0.5918404 0.9169328 0.8364543 0.7915063

inc.conv.conv2x.1.c.1.bias f4 [16]
000000 4c ee 98 3f 87 96 a3 be 6f 2a a0 3f 2c 54 1e 3f
       1.1947722 -0.3195078 1.251295 0.61847186
000010 45 37 a8 3e 9d 7e 96 40 d2 a0 52 3f a2 ca 1c 3e
       0.32854667 4.7029557 0.8227664 0.15311673
000020 67 2e 07 be 49 17 c8 3e 98 ae 10 be 49 a0 92 bb
       -0.13201295 0.39080265 -0.14129102 -0.004474674
000030 82 ca c2 3e de ce 98 3e 96 cf c6 3e 4d f4 c5 3f
       0.38045126 0.29845327 0.3883025 1.546518

inc.conv.conv2x.1.c.1.running_mean f4 [16]
000000 9a ae 69 40 c6 ee c1 c0 5c c3 bb bf c4 4c b6 3f
       3.6512818 -6.060397 -1.4668994 1.4242177
000010 36 ea a0 c0 ec aa ae 40 f2 84 60 41 9c 45 6a 41
       -5.02859 5.4583645 14.032457 14.641994
000020 c8 f8 0c c1 66 97 7b 40 38 cb 75 c0 32 c3 03 c1
       -8.810738 3.9311156 -3.8405285 -8.235155
000030 62 ba 9b c0 8c ed 80 bf 53 1b 7c c1 76 c4 05 c1
       -4.866502 -1.0072494 -15.756671 -8.360464

inc.conv.conv2x.1.c.1.running_var f4 [16]
000000 f3 0c 4b 42 26 8e ad 41 44 3c e7 41 e8 4d e8 41
       50.762646 21.694408 28.904427 29.03804
000010 26 ba 31 42 c9 44 b5 41 43 5c 21 42 a0 ea 05 42
       44.431786 22.658587 40.3401 33.479126
000020 c6 a5 42 42 e6 61 34 42 c2 8e 1e 41 b7 bd 0b 41
       48.66189 45.095604 9.909853 8.733817
000030 26 0e a9 41 a2 49 c0 41 21 9a ca 41 0a bc ec 41
       21.131908 24.035954 25.325258 29.591816

down1.go_down.1.conv2x.0.c.0.weight f4 [32, 16, 3, 3]
000000 29 17 0c 3f ab 7d 6d bd da 13 1c be de d9 dc 3e
       0.5472284 -0.057981174 -0.15241948 0.4313497
000010 87 ef df 3d b8 2e e3 3d f1 fc 0f 3f f6 ed 09 be
       0.10934358 0.11092895 0.5624533 -0.13469681
000020 ec 3f 0a bf 30 34 1b 3e 81 37 ff be 6f ad b9 3d
       -0.5400379 0.15156627 -0.49847034 0.09066283
000030 c6 96 bf 3e ea aa 93 3d ad a9 01 bf ae 49 99 3e
       0.37419719 0.07210334 -0.5064953 0.29939026
000040 d1 8d b0 be e6 79 64 be 69 33 d5 be 3e d1 99 be
       -0.34483197 -0.22312126 -0.41640785 -0.30042452
000050 e2 e3 43 be 2d 82 a6 bd 4a 19 a3 3e d4 94 e1 bd
       -0.19129899 -0.08130298 0.31855232 -0.11014715
000060 0f 3c d2 bf df 64 b9 be 4c 13 6b bd 67 4f 69 be
       -1.6424578 -0.3620977 -0.05739145 -0.22784196
000070 27 4b 58 bd 45 da 25 be 1a 1f 80 3d 30 ce 68 bd
       -0.052806046 -0.16196544 0.06255932 -0.05683726
000080 c6 c0 52 be a1 b0 85 3c fa 0a 8e be e1 98 06 3f
       -0.2058135 0.016319575 -0.2774275 0.52577025
000090 76 0d 69 be 76 d3 e3 bd 6c 1f 91 3d 3a 88 d2 bd
       -0.22759041 -0.11124317 0.07086071 -0.102798894
0000a0 bd ea 78 be 7f 56 d5 bd 76 b8 fc be 83 3b f0 be
       -0.24308296 -0.104168884 -0.49359483 -0.46920404
0000b0 7d 67 b2 be cb b4 5b 3d 50 1a 45 be 07 a2 7f be
       -0.3484458 0.053639214 -0.19248319 -0.24964152
0000c0 06 5c 98 3d 43 09 91 be 96 6b f8 3d e3 9b d7 3e
       0.07439427 -0.2832738 0.121298954 0.4211112
0000d0 e1 e1 d8 bd 49 6c ac 3c c4 45 2e bf f8 1d 9e bc
       -0.10589958 0.021047728 -0.68075204 -0.0193014
0000e0 67 79 72 3e 0c 3e 26 bf ce 55 3a be 08 04 e3 bc
       0.23679124 -0.64938426 -0.18196794 -0.027711883
0000f0 73 59 ff bc 61 f3 13 be c0 dd ea bd 1d d4 98 be
       -0.031170582 -0.1444831 -0.11468077 -0.2984933
000100 10 6a a3 be 46 23 6c be b7 95 d6 be f2 10 96 be
       -0.31916857 -0.23060331 -0.41911098 -0.29309803
000110 b7 73 c5 be 26 82 62 3f 47 bf 21 3e 46 a7 1c 3e
       -0.38564846 0.8847984 0.15795623 0.15298185
000120 23 1f 17 bf 3c b9 51 bf 42 a5 40 bf e3 2b 0f be
       -0.59031886 -0.8192327 -0.75252163 -0.13981585
000130 53 81 d1 bd 35 21 ee be 8d 08 a5 bd 0c 9b 82 be
       -0.10229745 -0.4650971 -0.080582716 -0.25508916
000140 9f ad 2d be c7 3f 9f bf 58 61 1a bf 4f b4 3e bf
       -0.16960762 -1.2441338 -0.60304785 -0.7449388
000150 37 66 f1 be 92 92 07 be 4a 14 29 bf 8f cf fd 3c
       -0.47148296 -0.13239506 -0.66046584 0.03098276
000160 ba f9 1b 3e f3 46 75 be cb f2 04 bd d0 d5 ae bd
       0.15231982 -0.23952846 -0.032458108 -0.08536875
000170 21 74 81 3d e2 ca 3e 3e eb 27 db be 9f 8c 13 bf
       0.06320978 0.18632081 -0.42803892 -0.57636446
000180 53 8b 01 3c f1 81 3f 3d bd 9f d8 3e 0d fc 7c 3e
       0.007906753 0.04675478 0.4230937 0.24705525
000190 63 bc 18 be 67 68 3f be 22 f0 1e 3f a6 9d cd 3e
       -0.14915614 -0.1869217 0.62085164 0.4015934
0001a0 60 b2 03 bd 23 d3 06 bf c8 00 a0 3d f8 3e 1f 3f
       -0.032152534 -0.5266592 0.07812649 0.6220546
0001b0 51 af ed bc b6 7d f3 3d b8 19 3d 3c 33 13 63 3e
       -0.029014261 0.11889212 0.011541776 0.22175293
0001c0 e7 05 91 bd 78 79 ee bd b5 c4 8c 3f c9 25 02 3f
       -0.07081204 -0.11644262 1.099753 0.50838906
0001d0 f0 9e 42 3f fd bc 2f 3e 12 65 e5 bd c8 f1 da be
       0.7602377 0.17161937 -0.11200918 -0.4276259
0001e0 fe da 6f bb 53 0f 9b be b8 2e a5 be 10 62 6c 3e
       -0.0036599035 -0.3028513 -0.32262206 0.23084283
0001f0 d1 33 8a 3e fb a9 91 3e 1d f6 15 3f a6 e5 63 3d
       0.26992658 0.28449997 0.58578664 0.05563893
000200 68 f6 5a 3d 98 cd 3b 3f 6b c3 60 bd 46 ac f8 3d
       0.053457648 0.73360586 -0.054873865 0.121422336
000210 60 8f 2d 3e 5b 5e c1 3c 28 43 d3 3d 4f 90 35 3f
       0.16949224 0.023604563 0.103155434 0.7092332
000220 be 33 0f bd fb 02 bd 3c 60 53 b1 3e 8b 63 ca be
       -0.034961455 0.02307271 0.34633923 -0.3952907
000230 67 ee 3f 3e ae 49 3f bf c6 5f 82 bf c6 14 35 bf
       0.18743287 -0.747218 -1.0185478 -0.7073482
000240 31 05 85 3f cd ab 8f 3f c4 84 8b 3d df 72 fd 3e
       1.0392209 1.1224304 0.068124324 0.49501702
000250 16 ca af 3f 8e bd 91 be c4 d6 bc 3e 6a 8f b4 3f
       1.3733547 -0.2846493 0.36882603 1.4106266
000260 84 7b 16 3e ed 2a 4a 3e fd 49 03 bf 1a 11 49 3d
       0.14695555 0.19742937 -0.5128477 0.049088575
000270 1a 61 0a 3f e1 85 44 be 51 89 9b 3d 02 83 03 3f
       0.54054415 -0.19191696 0.075945504 0.5137178
000280 e8 a8 91 3e 8f db ae be 8d 2c e9 be c2 e1 c4 be
       0.28449178 -0.34151885 -0.45541802 -0.3845349
000290 3f 5a 03 be e9 ce 2a 3e 7c 89 49 bf e8 a5 d5 3e
       -0.12827395 0.16680492 -0.7872541 0.4172814
0002a0 1b bc d5 be 71 8f 48 bf 03 c0 04 3e 48 bd 07 be
       -0.41745076 -0.78343874 0.12963872 -0.13255799
0002b0 6e 79 d1 bc 04 d3 17 3d 34 06 26 3d e2 fa e1 3d
       -0.025570597 0.037066475 0.04053326 0.1103418
0002c0 8e d1 69 3e bb 5a 43 be 66 73 bf 3b f4 a0 06 3e
       0.22833845 -0.1907758 0.005842614 0.13147336
0002d0 78 f2 de bd 89 1a 31 3e 27 76 f3 3d a3 14 6b be
       -0.10886091 0.17295279 0.1188777 -0.22957091
0002e0 89 38 18 3e 9d 7f 06 3e d8 57 f9 be 69 04 a8 bd
       0.14865316 0.13134618 -0.48699832 -0.08203966
0002f0 74 f0 9c 3e 37 46 22 3e 5c d9 3a 3e 2f 45 ac be
       0.306522 0.15847097 0.18246979 -0.33646533
000300 67 be 9f be 74 3d a0 3e 92 87 b0 be 2a 32 64 be
       -0.31199953 0.31296885 -0.34478432 -0.22284761
000310 b7 dd 74 3d cd 91 d2 be 75 31 d1 be b9 5a da 3d
       0.059781756 -0.41126862 -0.40858045 0.10661835
000320 4e ba 03 be 5a 94 47 bf 91 2c ce bc 0f dc d8 bc
       -0.12864038 -0.7796074 -0.025167735 -0.02647212
000330 7f 15 af be 18 d1 d1 3c ba c1 a9 3d e4 bf 39 3e
       -0.34196088 0.025612399 0.082889035 0.18139607
000340 fc 90 98 be db 6e a5 bd 30 83 82 3e bf a2 3d bd
       -0.29798114 -0.08077785 0.25490713 -0.046297785
000350 c7 5a 8d 3e a3 38 b3 3e 06 b4 07 3e 02 ae 9f be
       0.2760832 0.35004148 0.13252267 -0.31187445
000360 02 e9 54 3e c1 c4 85 be f4 a8 c0 bd 06 83 1e 3f
       0.2079201 -0.26126674 -0.09407225 0.61918676
000370 8b 73 ae bd 02 ed 79 3e f1 7f 0c 3f 93 e2 58 3e
       -0.08518132 0.24406818 0.54882723 0.21180181
000380 54 74 a6 3e 82 3f e9 bc 9b 25 cc 3e 4d 78 48 be
       0.32510626 -0.028472666 0.3987244 -0.19577141
000390 70 b1 8b be a4 06 5b be bb 8b a8 3e ef d1 28 be
       -0.27283812 -0.21389252 0.32919106 -0.16486333
0003a0 17 c9 50 be 99 04 92 3e 7f ef 0c bf 78 cf a7 be
       -0.2038921 0.28519133 -0.5505294 -0.32775474
0003b0 dd ef 95 be d6 00 f3 bc 45 58 38 bf ea 39 62 be
       -0.29284564 -0.029663485 -0.7200969 -0.22092405
0003c0 9c dc 2d 3e a3 4c 7b be 0a 23 8a bd 8e bf fc 3b
       0.16978687 -0.24540953 -0.067449644 0.007713265
0003d0 03 34 86 be 16 88 65 be 3a 6d 14 be 3f 41 04 bd
       -0.26211557 -0.22415194 -0.14494792 -0.032288786
0003e0 0d 6f 8d bc 13 69 88 bf 0f a2 03 bf d4 b8 48 3e
       -0.017264867 -1.0657066 -0.51419157 0.19601756
0003f0 78 0f 97 bc 87 46 39 3e f4 8f 8b be a9 91 ab 3d
       -0.018439993 0.1809331 -0.27258265 0.08377392

down1.go_down.1.conv2x.0.c.0.bias f4 [32]
000000 1e 50 a4 bc f6 73 93 bd 7e 8c a0 bd 98 42 b4 3c
       -0.020057734 -0.07199852 -0.07839297 0.02200441
000010 3c 33 a0 bd 74 3a 04 3d 61 ef 49 3c 03 fb 48 3d
       -0.07822272 0.032282308 0.012325139 0.04906751
000020 cf 2d 74 bd 82 45 91 bd d1 9b 0b 3c c4 77 5c bd
       -0.059614 -0.07093336 0.008521036 -0.053825155
000030 61 5b 1b 3c 98 89 84 bd e9 5c bb 3d 33 e5 87 3d
       0.009482236 -0.064715564 0.091485806 0.06635513
000040 80 4f d2 3c ea be 88 3c fe 03 82 bc a4 86 a6 3c
       0.025672674 0.016692597 -0.015871044 0.020327874
000050 d2 33 84 3d 86 ae b2 bd ee f1 58 3d e1 a5 0c bd
       0.064551964 -0.08724694 0.052965097 -0.034337882
000060 55 99 28 3d 6c 51 8f bd 6d b6 c0 bb 9d 04 66 3c
       0.041161854 -0.06997952 -0.005881122 0.014039186
000070 ec 7b 94 bc 96 a7 83 bc 44 ca 94 3c f2 26 5f bc
       -0.018125497 -0.016071122 0.018162854 -0.013620125

down1.go_down.1.conv2x.0.c.1.weight f4 [32]
000000 6c 4b 83 3f ef 7c a5 3f 05 f7 5b 3f 00 49 a2 3f
       1.0257392 1.2928752 0.85923797 1.2678528
000010 65 04 81 3f 0f a7 9e 3f 98 ef 85 3f b9 e9 89 3f
       1.0079466 1.2394732 1.0463743 1.0774451
000020 fc 45 4c 3f f1 68 89 3f 4d c5 6f 3f e0 bb 7a 3f
       0.7979429 1.073515 0.9366043 0.97942924
000030 e5 55 7a 3f bd c9 b6 3f 15 96 93 3f 90 e4 9b 3f
       0.97787315 1.4280316 1.1530176 1.2179127
000040 be 82 88 3f f6 bc 83 3f 5f ba 80 3f c4 67 8a 3f
       1.0664899 1.0292041 1.0056876 1.0812917
000050 fc f6 8e 3f 36 2c 7d 3f d2 3b 9c 3f 90 db 8d 3f
       1.1169124 0.98895586 1.2205756 1.108263
000060 15 80 94 3f d5 2e 4a 3f c1 11 89 3f a0 d7 94 3f
       1.1601588 0.7897771 1.0708543 1.1628304
000070 69 dd 90 3f 37 2d 94 3f 25 2b 5c 3f 38 6d 67 3f
       1.1317569 1.1576298 0.86003333 0.9040103

down1.go_down.1.conv2x.0.c.1.bias f4 [32]
000000 47 48 61 3f 61 d1 85 be e4 28 60 be 63 d1 5c bf
       0.8800091 -0.26136306 -0.21890599 -0.86257
000010 47 17 e9 bd 89 53 5b bf d7 aa 51 3f d8 54 f8 3e
       -0.11381393 -0.8567434 0.81901306 0.4850223
000020 cd aa 98 bd f2 cc 7f 3c e2 25 f0 bd 1f d4 71 3e
       -0.07454453 0.015612828 -0.117259756 0.23616074
000030 c7 61 ce be e7 2c 93 bf 53 c2 8c 3e 59 08 1c be
       -0.40308973 -1.1498078 0.27492008 -0.1523756
000040 a9 4d c8 be f7 5c 1f 3f 12 8f fd be 72 ca 60 bd
       -0.3912175 0.6225123 -0.49523216 -0.054880567
000050 14 2e 43 bf 0f 57 a7 be d6 d2 80 be 25 c0 04 3e
       -0.76242185 -0.32683608 -0.25160855 0.12963922
000060 26 6e 8d bd 7b a4 30 3c f0 e7 33 3f 15 47 a7 be
       -0.06905775 0.010781403 0.70275784 -0.3267142
000070 ec 28 0e be f5 52 c6 be 8f 38 53 3e d1 cc cf bd
       -0.13882798 -0.38735166 0.20627044 -0.101464875

down1.go_down.1.conv2x.0.c.1.running_mean f4 [32]
000000 64 fe 57 c1 f8 5a 95 c0 e4 ad d2 c1 36 09 9c 41
       -13.499607 -4.6673546 -26.334908 19.504498
000010 27 b2 33 c0 a5 0c b7 41 00 e6 f3 40 f5 44 2b 40
       -2.8077486 22.881174 7.621826 2.6760838
000020 dc d8 15 c2 51 da cc 40 15 ba 1e c1 30 f6 8c c1
       -37.461777 6.40165 -9.92043 -17.620209
000030 d3 7d 39 41 8c 4c 9d c1 c0 f6 05 40 fc 57 b3 c1
       11.593219 -19.662376 2.0931854 -22.417961
000040 a2 9d dd 41 c6 05 f8 40 6a e9 05 c2 d6 87 a0 c1
       27.70197 7.750705 -33.477943 -20.066326
000050 16 f9 58 c0 b0 54 c3 3f ae 59 40 41 76 36 76 c1
       -3.390203 1.526022 12.021894 -15.388296
000060 08 a8 31 42 e2 34 44 41 14 95 39 c1 04 27 89 41
       44.414093 12.262911 -11.598896 17.14405
000070 c2 e5 d0 c0 6e 89 81 40 f0 ce 15 c2 92 54 9f 40
       -6.5280466 4.048026 -37.452087 4.9790735

down1.go_down.1.conv2x.0.c.1.running_var f4 [32]
000000 a2 d7 cc 41 1a 22 23 42 6a 4e 71 42 58 dc 35 41
       25.60529 40.783302 60.326576 11.366295
000010 60 01 01 42 02 48 05 42 9c 50 11 42 4c 8b 15 42
       32.251343 33.32032 36.32872 37.386032
000020 d4 5e 01 42 24 10 f3 41 b6 ed 02 42 0a 35 05 42
       32.342606 30.382881 32.73214 33.301796
000030 db f9 ec 41 1d 19 9f 41 ab 9c e2 41 66 83 42 42
       29.622 19.887262 28.326498 48.62832
000040 fd 85 8f 42 28 88 0b 42 0f e6 86 42 ac 63 a0 41
       71.761696 34.882965 67.44933 20.048668
000050 a3 b3 e9 41 22 b3 c5 41 cf da 52 41 c4 33 49 42
       29.212713 24.712467 13.17842 50.300552
000060 67 27 8f 42 40 55 ca 41 8f e7 c0 41 ba 48 e3 41
       71.57696 25.291626 24.113066 28.410511
000070 ab 94 25 42 dc 46 06 42 9a f3 12 42 ba 08 c1 41
       41.395184 33.5692 36.737892 24.129261

down1.go_down.1.conv2x.1.c.0.weight f4 [32, 32, 3, 3]
000000 db e5 8d 3d 0e d6 67 3d 51 11 4a be fb e0 ae 3e
       0.06928607 0.056600623 -0.19733168 0.3415602
000010 b7 5e 12 be de 0f dc be 99 f6 21 3f da 6c b5 be
       -0.14293943 -0.42980856 0.63266903 -0.3543461
000020 cc 1e 8d be 6a 11 42 3e 66 19 99 be 70 c3 06 be
       -0.2756256 0.18951955 -0.2990219 -0.13160491
000030 0a f2 c1 3d 15 e5 3e 3e 04 bd 80 3d 12 a9 3b 3e
       0.094699934 0.18642075 0.06286052 0.18326214
000040 95 41 e4 3e 91 e1 c8 3d fc 6f 6c bd ec 0b 01 3e
       0.44581285 0.098086484 -0.057723984 0.12602204
000050 f8 34 56 3d a3 09 c3 bd d3 7b 35 3e b6 92 d4 be
       0.05229661 -0.095233224 0.17723016 -0.41518182
000060 4f fe 74 be 22 2a 5e be a5 3f e5 be 5b 53 57 bf
       -0.23925136 -0.2169576 -0.4477512 -0.84111565
000070 23 f7 f4 bd 1a 1b a0 3e b7 c3 4f bf 49 fc d2 be
       -0.119612 0.31270677 -0.8115801 -0.41208103
000080 3b 5b f8 bd aa f7 7d 3c 7a bc cd be 7a 32 29 3e
       -0.12126776 0.015500942 -0.4018286 0.16523162
000090 c1 c1 bc 3e 9c 8a 7e 3e ca bf 80 bf a2 c6 20 be
       0.36866572 0.24857563 -1.0058529 -0.15700772
0000a0 08 13 c5 be 20 cb a7 bf fa 56 db be 0b 12 40 bf
       -0.38491082 -1.3108864 -0.42839795 -0.7502753
0000b0 57 e7 4c bf 42 bc b2 3d ac 18 c3 be 2d 35 87 be
       -0.80040497 0.087273136 -0.3810476 -0.26407757
0000c0 50 91 8b be c5 26 96 3d 92 81 dc 3e 2d 3e b5 3e
       -0.27259302 0.073316135 0.43067604 0.35399
0000d0 a7 f1 c2 bd 4b 5b d0 be b8 b5 3a bd 8c a4 da 3e
       -0.09518748 -0.4069465 -0.045583457 0.42703664
0000e0 c5 0a 61 3f 9a f2 db 3e 70 c8 1c 3f 1b c2 1a 3f
       0.8790706 0.42958528 0.61243343 0.6045243
0000f0 d4 ee 67 3e 55 76 72 be 72 8a 82 3e 21 1b 90 3e
       0.226497 -0.23677953 0.2549625 0.28145698
000100 32 9a 1a 3e 97 9f 3a 3f dc 3b cd 3d 47 85 82 3e
       0.15097883 0.72899765 0.10021183 0.25492308
000110 30 cc 3e 3f 96 14 2b bd 69 d2 c4 3e d4 c5 8b 3f
       0.74530315 -0.04176768 0.3844178 1.0919747
000120 eb 90 07 3f ec de 1f 3e 52 36 cb be 6c ef c2 3e
       0.529555 0.15612382 -0.3968988 0.3807329
000130 54 97 1a be e4 d7 56 bf d6 bd 2a 3d 08 d9 aa be
       -0.1509679 -0.8392317 0.041684948 -0.33368707
000140 44 29 eb be 03 63 ed ba 12 18 65 3e 6f da 1a 3e
       -0.4592992 -0.0018111173 0.22372463 0.15122388
000150 73 50 b8 3d 3a 9b f5 3e 4c 96 e7 3d 20 ae a4 bd
       0.089997195 0.4796999 0.11307964 -0.08041024
000160 85 84 a1 3e 4b be 4b 3e 66 f2 3a 3e 8e 61 53 3e
       0.31546417 0.1989681 0.1825653 0.20642683
000170 76 8c 06 bf 10 5e 73 be e0 16 09 be 9d 5d 5a be
       -0.52558076 -0.23766351 -0.13387632 -0.21324773
000180 27 74 6d 3e 2f ad db bc 6e 9c 8c be 14 23 08 3e
       0.2318884 -0.026815979 -0.27463096 0.13294631
000190 29 e0 d6 bc 79 0a 37 be d2 df 43 bd b6 60 1a 3e
       -0.026229935 -0.17875089 -0.047820874 0.15075955
0001a0 d0 3c ac 3d 48 72 96 be 00 4f 2e bd 02 bd 9a be
       0.084100366 -0.29384065 -0.04255581 -0.30222327
0001b0 31 93 37 bf c0 ca 2e bf af 68 20 bf e2 bf 0a bf
       -0.7170897 -0.6827812 -0.62659734 -0.5419904
0001c0 8f a4 cf be d9 d0 26 bf e8 92 f2 be 81 1f bc bd
       -0.40555236 -0.65162426 -0.47377706 -0.091856964
0001d0 ba 2f a6 3d 4e bd de 3d 4d 80 39 3e 39 33 1a bf
       0.08114572 0.10875951 0.18115349 -0.6023441
0001e0 f7 13 44 be f6 0c dc bd 6f b3 84 bf 81 e6 07 bf
       -0.19148241 -0.107446596 -1.0367259 -0.53086096
0001f0 10 be e1 be 07 ae 0f bf f0 25 26 be 70 58 a2 bc
       -0.4409032 -0.5612492 -0.1622541 -0.01981756
000200 99 7f ea be 00 4c 41 bf 10 ba 25 3d 9c 12 35 bd
       -0.45800474 -0.7550659 0.040460646 -0.0442072
000210 8d 4b 94 be 74 c0 c2 bd 74 1b 40 be bc 9f 81 be
       -0.2896389 -0.09509364 -0.18760473 -0.2531718
000220 e6 d5 b7 3d c0 fa 40 bf de 36 19 bd 6b 52 7f 3e
       0.08976345 -0.75382614 -0.03740584 0.24933784
000230 3d 7b d3 be 9a ff b1 be 3e 41 6e 3d 45 d5 7b 3e
       -0.4130496 -0.3476532 0.05816769 0.24593075
000240 c9 f6 b2 be 4a bf 03 bf 7c 65 cc bd c1 d2 9a be
       -0.34953907 -0.5146376 -0.09980294 -0.30238917
000250 82 26 be be f0 46 2d 3e b1 3a b2 bb 0a 8c b8 be
       -0.37138754 0.16921592 -0.0054391255 -0.3604434
000260 cc 86 ab be 01 a8 8e be 8e dc 50 bd 6a 89 05 bf
       -0.3350128 -0.27862552 -0.050991587 -0.521628
000270 88 22 05 3f 33 ec 54 3e 08 5f 31 bf d1 a6 c0 3e
       0.52005816 0.20793228 -0.6928563 0.3762727
000280 95 27 19 3e 4e e9 75 3e f6 36 c4 be 5e 5a d4 be
       0.14956506 0.2401478 -0.38323182 -0.41475195
000290 c4 53 5a be d9 39 87 be 31 4e b0 be 87 df 64 be
       -0.21321017 -0.26411322 -0.34434655 -0.22350894
0002a0 0c 64 f7 be 29 24 0a bf 0e 95 09 bf 4e fe 02 be
       -0.48318517 -0.53961426 -0.53743064 -0.12792322
0002b0 ef 96 9d 3d b5 d8 45 be 72 64 82 bd 67 3d 5c bc
       0.07694804 -0.19320948 -0.06366815 -0.013442374
0002c0 72 8a 0a 3c 04 9d d9 be d3 35 3d bc eb f5 d1 3e
       0.0084558595 -0.42502606 -0.011548477 0.41007933
0002d0 32 8a f1 be e3 07 14 bd 4c bf 72 bf 96 b4 de bc
       -0.47175747 -0.036140334 -0.94823146 -0.02718572
0002e0 ed d5 8b be 4b 64 8a bf 8a b4 e1 be 95 c4 85 be
       -0.2731165 -1.0811857 -0.44083053 -0.26126543
0002f0 af e9 36 bf 93 f4 1f bd 27 df d4 bd 64 a9 4a be
       -0.7145032 -0.039051604 -0.103941254 -0.1979118
000300 12 56 6d 3e 9a 0e 48 3d 67 8c 99 bd 7f 84 26 be
       0.23177364 0.04884205 -0.07497483 -0.16261481
000310 6d a9 a8 3e 06 93 4b 3f a9 17 0c 3e ea bc f4 3c
       0.32941762 0.79521215 0.136809 0.029875237
000320 a5 af 25 be 53 19 13 bd 8e 9d a6 be 80 58 6b 3e
       -0.16180284 -0.035912823 -0.3254208 0.22982979
000330 ac f2 62 3f 34 0a 84 bd 00 90 91 3e 04 45 da 3d
       0.8865154 -0.064472586 0.28430176 0.10657695
000340 49 c6 a9 3d 14 da fb 3e 26 a6 de 3e f9 85 65 3e
       0.08289773 0.49189818 0.43486136 0.22414388
000350 63 44 89 3e 6e d2 19 3f 93 03 db 3d 3f 10 be 3e
       0.26809987 0.60086715 0.10694041 0.3712177
000360 c3 64 08 bf 41 b7 62 be 51 c8 ff bd 2f ce cd be
       -0.5327875 -0.22140218 -0.12489379 -0.40196368
000370 bd 57 83 be 23 d0 ce be fe 3a 56 3e f8 3b d5 3d
       -0.25652876 -0.4039317 0.20920941 0.10411829
000380 a0 0d 84 bd 31 f6 00 bc 99 b2 dd be cf cc d0 be
       -0.06447911 -0.007871197 -0.43300322 -0.40781257
000390 a0 93 6b 3e 91 ee d5 be b2 15 a9 be a0 69 0d be
       0.23005533 -0.41783574 -0.33024365 -0.13809824
0003a0 a6 6f 79 be b8 25 d9 bd 76 1d 3b 3f 5a 55 fc be
       -0.24358997 -0.106028974 0.7309183 -0.49283868
0003b0 00 d5 7b be 58 b7 1a 3e 92 61 e6 be c1 84 d0 be
       -0.24592972 0.15109003 -0.44996315 -0.40726283
0003c0 ff e7 7a be f3 3c 67 be f5 1a 9e be 5c 58 ea be
       -0.24502562 -0.22581844 -0.30879942 -0.45770538
0003d0 9c 68 32 be 1c 08 ea bc fc 9c c7 be de 33 10 bf
       -0.17422718 -0.02856832 -0.38986957 -0.56329143
0003e0 87 d2 1e be 0e 69 00 3f ef 1e 4e be f7 86 0e be
       -0.15509997 0.501603 -0.20128988 -0.13918673
0003f0 64 56 cc 3c df e3 92 bd 2c d0 68 3e 66 42 4e 3e
       0.024943538 -0.07172369 0.22735661 0.20142516

down1.go_down.1.conv2x.1.c.0.bias f4 [32]
000000 74 12 cb bc bb d9 eb 3b 7a 25 fe 3b d2 ae 8f bd
       -0.024789073 0.0071975864 0.0077559324 -0.07015766
000010 07 49 88 bd a1 7f 58 3d ed 5d 05 bd 80 22 b1 bc
       -0.06654554 0.05285609 -0.032560278 -0.021622896
000020 37 0e 2d 3d 86 e0 7c bb 7c ed 00 3d fb 34 6a 3d
       0.042249884 -0.0038585975 0.031476483 0.057179432
000030 46 a6 34 3d f6 91 44 bd 28 50 a0 bc cf 52 19 3d
       0.044103883 -0.04799076 -0.019569471 0.037432488
000040 1c c8 79 bd 62 5e 88 bd a2 a6 33 3d 00 21 17 bc
       -0.060981855 -0.06658627 0.043860085 -0.009224176
000050 7b 64 82 bd b4 86 08 b9 47 1c c5 3c 60 fc 08 bd
       -0.063668214 -0.00013020152 0.024061335 -0.03344381
000060 ca 6d 8f bd a6 61 8e 3b a5 66 ed bc 5d a0 19 3b
       -0.070033625 0.0043451367 -0.028979609 0.0023441531
000070 c4 d6 c6 3a 6c af 2e 3c 69 9e 3c 3d 95 29 53 3d
       0.0015170206 0.010661941 0.04604951 0.051553328

down1.go_down.1.conv2x.1.c.1.weight f4 [32]
000000 76 94 85 3f e6 b5 52 3f c2 d0 91 3f 4f 89 50 3f
       1.0435932 0.82308805 1.1391833 0.81459516
000010 37 8a 59 3f 73 7b 63 3f ac ac 8a 3f 70 50 86 3f
       0.84976524 0.88860244 1.0833945 1.0493298
000020 83 74 8d 3f d0 93 6c 3f 84 a0 60 3f af ed 67 3f
       1.1051182 0.92413044 0.8774493 0.9059705
000030 08 84 5b 3f c6 81 67 3f b4 73 53 3f c1 3c a0 3f
       0.8574834 0.90432394 0.82598424 1.2518541
000040 a7 4e 7f 3f 2f 44 7a 3f 4b af 54 3f 6e cb 7f 3f
       0.9972939 0.9776029 0.83079976 0.99919784
000050 d4 00 5b 3f c0 3a 69 3f 55 37 68 3f 70 a6 4f 3f
       0.8554814 0.9110527 0.9070943 0.8111334
000060 4d 65 3e 3f e7 46 50 3f 81 d2 8f 3f af 6a 8d 3f
       0.7437332 0.8135819 1.1236116 1.1048182
000070 23 30 4b 3f 0e b5 36 3f ff c3 51 3f c6 f4 9c 3f
       0.79370326 0.7137002 0.8193969 1.2262199

down1.go_down.1.conv2x.1.c.1.bias f4 [32]
000000 ef 18 e3 3e 3c 7d 2b 3f f3 6f 19 bf fe b0 59 3e
       0.4435496 0.6698797 -0.59936446 0.21258923
000010 86 3d 49 be c2 88 61 3e 12 45 c7 3d be fb 7e be
       -0.19652376 0.22024825 0.09729971 -0.2490072
000020 65 6a fc be e3 6d 07 bf 7e 24 42 be 79 a3 02 3f
       -0.49299923 -0.5290205 -0.18959233 0.5103069
000030 8a 04 a5 3e de 38 59 3d 13 2c d3 be 39 81 f1 be
       0.32230026 0.05303275 -0.41244563 -0.47168902
000040 d0 4f 2d 3f cb b3 02 3e d8 6d 94 3e c9 1a ee bd
       0.6769991 0.12763898 0.28990054 -0.116262026
000050 a7 fa cd be 31 23 b5 3e 35 c2 26 bf f5 ac 9d 3f
       -0.40230295 0.3537841 -0.65140086 1.2318407
000060 0a ba eb 3d 0f 79 16 3c 7c ce 56 bf eb fe 7b be
       0.115100935 0.009184136 -0.8390882 -0.24608962
000070 a8 a0 ac 3e bb 39 93 bd e3 eb 21 3f f4 f5 94 bf
       0.3371632 -0.071887456 0.6325056 -1.1637559

down1.go_down.1.conv2x.1.c.1.running_mean f4 [32]
000000 a2 fe 64 c0 ae 4d 9f c0 60 f1 f4 40 df 97 4c 40
       -3.5780416 -4.9782324 7.6544647 3.1967695
000010 54 dd 88 bf 67 41 ed c0 14 42 1f c1 8b e4 4a c0
       -1.0692544 -7.4142337 -9.953632 -3.1701992
000020 a3 bc 13 3f 8a 34 fa 40 0c 4a 84 41 a2 58 ed 3f
       0.5770971 7.8189135 16.536156 1.8542674
000030 30 95 a5 c0 82 5c 73 c0 04 7a 0f 40 9a 4d 40 bf
       -5.1744614 -3.8025212 2.2418222 -0.7511841
000040 44 44 36 c1 04 cc 14 c1 9e 60 6d bf de 5b 6e 40
       -11.391666 -9.2998085 -0.9272555 3.7243571
000050 c7 be 98 3f 52 b5 f0 c0 b9 67 ed 40 fa 3c 87 c1
       1.1933221 -7.522134 7.4189115 -16.904774
000060 c4 a9 02 c1 e1 1d 0a c0 56 fd d7 40 64 ac c6 c0
       -8.166447 -2.1580737 6.749675 -6.208544
000070 6b a4 36 c0 12 0a 65 c0 78 f3 1c c0 2c 5d ba 3f
       -2.8537853 -3.5787396 -2.4523602 1.4559684

down1.go_down.1.conv2x.1.c.1.running_var f4 [32]
000000 af e5 93 42 7c 52 52 42 c8 e5 8b 42 f9 f7 af 42
       73.9486 52.58055 69.94879 87.98432
000010 0a b5 06 42 d0 97 53 42 82 f8 9d 42 06 bd 8c 42
       33.676796 52.898254 78.98537 70.36919
000020 16 0d 7a 42 a0 01 2a 42 9a 91 4a 42 8a c4 89 42
       62.51278 42.501587 50.64219 68.883865
000030 ca 3b 9f 42 a2 60 79 42 90 20 dc 41 96 01 fe 41
       79.616776 62.344368 27.5159 31.750774
000040 f0 a7 3f 42 26 be 4a 42 08 1c 07 42 7e 5a f2 41
       47.914 50.68569 33.777374 30.294186
000050 1e 7b 3d 42 78 8d eb 42 8e b9 36 42 37 82 d1 42
       47.37023 117.776306 45.681206 104.754326
000060 12 e9 27 42 4a fb b0 42 02 b5 2d 42 54 5d 2a 42
       41.977608 88.4908 43.426765 42.59114
000070 ce 97 87 42 3e 89 0c 42 4b 89 04 42 2c 2f 77 41
       67.79649 35.134026 33.134075 15.449017

down2.go_down.1.conv2x.0.c.0.weight f4 [64, 32, 3, 3]
000000 22 f4 00 bd e5 3f a8 bd e6 b5 64 3e 0e 11 cd 3e
       -0.031482823 -0.08215312 0.22335014 0.40052074
000010 04 4a d6 3d 9c 6f 36 3e 4c f0 90 3e 09 a8 14 3e
       0.10463336 0.17816013 0.28308332 0.14517225
000020 7a 14 12 bd a4 4e 62 3e 36 f3 c6 be 52 cc 28 bf
       -0.03566406 0.22100312 -0.3885743 -0.6593677
000030 c4 6b be be f0 8f 43 be c6 ee 00 be ac 08 11 bf
       -0.37191594 -0.19097877 -0.12591085 -0.5665386
000040 db 04 5d bd 2c fe a5 bc f0 e7 5c 3e 01 24 d4 3e
       -0.05395971 -0.0202628 0.21572852 0.4143372
000050 9c 26 c4 3e e2 8b 92 3e 2d e9 55 3e d8 d5 94 3e
       0.38310707 0.28622347 0.20889731 0.290694
000060 49 7e 4b 3d 42 10 13 3e f1 d3 85 3e 66 3d 56 be
       0.04968098 0.1436167 0.2613826 -0.20921859
000070 7f 17 0e bd e9 96 6e 3e 3c 38 03 be c9 f5 e7 bc
       -0.034690376 0.23299755 -0.1281442 -0.028315442
000080 31 74 8d 3e 3f c6 9e 3e d0 bc 16 be a1 cc 85 3c
       0.2762771 0.31010625 -0.14720464 0.016332926
000090 b8 25 70 be 88 e4 3c be fb 2f 52 bd 3a 5f 71 be
       -0.23451889 -0.18446553 -0.05131529 -0.23571482
0000a0 cf 6c 6f 3d 7c e8 b9 3c ec de 43 be c6 db 0d be
       0.058453377 0.022693865 -0.19128007 -0.13853368
0000b0 a0 60 46 bd 28 f8 9c be 59 86 b8 be 52 e0 cb be
       -0.048431993 -0.30658078 -0.3604 -0.3981958
0000c0 00 db 11 be 65 6d 72 be 64 17 7d be c3 cb bc bd
       -0.14243698 -0.23674543 -0.24715954 -0.09218552
0000d0 4b 27 65 be a0 ab bd be a2 99 56 bd 3d 04 83 be
       -0.2237827 -0.37045002 -0.05239261 -0.2558917
0000e0 39 7f d0 bd 51 9e 7d be ac dd c2 be 6f 9c a8 bd
       -0.10180516 -0.24767424 -0.38059747 -0.08232962
0000f0 c3 64 09 be 00 dc 2d bc 76 43 06 3e c0 7c be 3e
       -0.13417344 -0.010611534 0.13111672 0.37204552
000100 e5 70 8c 3e a3 eb 89 3f 09 19 2c be 44 99 14 bf
       0.27429882 1.0775036 -0.16806425 -0.58046365
000110 92 d9 10 3f 09 88 86 bd 19 24 88 be 0f 30 91 3d
       0.56581986 -0.065689154 -0.2659004 0.070892446
000120 b2 e0 f2 bd 6b 6a 12 3e 13 88 55 be d5 db 94 3e
       -0.118592635 0.14298408 -0.2085269 0.2907397
000130 5a 3b a1 3e 5e 80 09 bf 11 11 be 3e ea a7 b4 3e
       0.31490594 -0.537115 0.37122396 0.35284358
000140 4a 0d de bc e7 93 cb be 4f 1c 59 be b8 82 91 3e
       -0.027105946 -0.39761278 -0.21202205 0.28420043
000150 bf 84 a1 be 9e 49 50 be c7 b8 33 3f fb 67 10 3e
       -0.3154659 -0.20340583 0.7020382 0.14102165
000160 9b cd a1 3e b2 8a 32 3f cd 43 2f be 4f f0 6f 3e
       0.31602177 0.6974288 -0.17115708 0.23431514
000170 78 ac 31 3f 0e b5 b4 3d 96 51 d7 3e f9 b5 58 3f
       0.6940379 0.08823596 0.42054433 0.8465267
000180 76 a4 c0 3d 07 9e 71 3e d4 08 f4 3e f0 2c 0b 3f
       0.094063684 0.23595439 0.47662985 0.54365444
000190 fb 59 12 3f 85 f7 be 3e 23 89 dd 3e 7e c6 ab 3e
       0.5716855 0.37298217 0.4326869 0.33549875
0001a0 b5 59 e5 3c f2 0d 83 3e ce bc c6 3b e4 f2 a9 3d
       0.027996877 0.25596577 0.0060649877 0.08298281
0001b0 fc ce 18 be 3e 5d 74 bd e5 9a b9 be 19 23 99 bd
       -0.14922708 -0.059659235 -0.36250988 -0.074773975
0001c0 39 5e 0b 3d aa 28 4b be 97 97 71 bc 7b 3e ec 3d
       0.034025405 -0.19839731 -0.0147456145 0.11535355
0001d0 90 fe a8 bd 2a f8 08 3f bd c9 15 3f b1 29 d7 3d
       -0.08251679 0.5350367 0.58510953 0.10505999
0001e0 d0 af 42 3e 83 74 d0 3e cf 8d ee 3d 03 f4 02 3f
       0.1901238 0.4071389 0.116481416 0.5115358
0001f0 a5 c3 ec 3e d2 cc f5 3d 25 df c6 3d a2 a2 ec 3e
       0.46243015 0.12001957 0.0971053 0.4621783
000200 7d a7 11 3e 98 b5 af 3e 3c 90 29 3f 9d 73 26 3f
       0.14224048 0.34318233 0.6623571 0.6502016
000210 9f 38 60 3e 97 ee 73 3e 73 0e ad 3e 46 a1 30 3f
       0.21896599 0.23821484 0.33800086 0.68996084
000220 3e 5b 20 be 6c a5 c4 bd df 89 8e 3e 49 87 f5 be
       -0.15659806 -0.09601864 0.27839562 -0.47954777
000230 14 f8 88 be 10 74 80 be 9e 6b 1b bf 49 de cb bd
       -0.2675177 -0.2508855 -0.60711086 -0.09954507
000240 4e 21 28 3d 45 dc c9 3e 39 47 66 3e 72 9a 1d 3f
       0.041047387 0.39425865 0.22488107 0.6156379
000250 5a 5c 5b 3f ef c4 04 3f 72 13 db 3e e4 4a 02 3f
       0.8568779 0.51862997 0.42788273 0.50895524
000260 0e cd c8 3e 73 5f 2b 3d da 74 82 3d 37 4a 12 bc
       0.39218944 0.041839074 0.06369944 -0.008928827
000270 43 ce d1 bd 90 c9 81 3e 6f cc 07 3e 24 4a 6d be
       -0.102444194 0.25349092 0.13261579 -0.23172814
000280 f0 72 a3 be 57 73 8b be d3 a7 c7 be 7a ac 43 bf
       -0.31923628 -0.27236435 -0.38995227 -0.76435053
000290 f3 db 1c bf af 4b 3f be 70 c2 06 be 39 f8 c9 3e
       -0.61273116 -0.18681215 -0.1316011 0.3944719
0002a0 66 7e fc be 64 6e c2 be 85 01 15 3f ed 7e ab 3e
       -0.49315184 -0.37974846 0.58205444 0.33495274
0002b0 2e 66 93 3f e7 cf 98 3f e2 90 c9 3e 07 3f 12 3f
       1.1515558 1.1938447 0.3936835 0.5712742
0002c0 63 74 28 3f 9c 66 40 3f 6f a5 9c 3e 95 e8 e6 3e
       0.6580259 0.7515657 0.30594966 0.4509932
0002d0 39 14 3e 3f bb 3b fc 3e e7 b7 79 bb 85 52 e5 3e
       0.7424961 0.4926432 -0.0038104 0.4478952
0002e0 55 b9 98 3e 95 d2 63 3e 25 4b 57 3e 13 d8 41 3d
       0.29828897 0.222483 0.21024759 0.047325205
0002f0 87 fd e6 3c 25 06 de bc 8c bb 1a be af d0 4b be
       0.028197063 -0.02710254 -0.15110606 -0.19903825
000300 fc 67 42 be 0e 4e c6 be 0b 24 2c be c3 55 87 be
       -0.1898498 -0.38731426 -0.16810624 -0.26432618
000310 99 b0 7b be b4 54 8d bd ad c0 52 3f 0e 83 1e 3f
       -0.24579085 -0.069009215 0.8232525 0.61918724
000320 de d1 93 3e 90 c2 15 3f 5f 51 07 3e ba e9 e6 3e
       0.28871053 0.58500004 0.13214634 0.45100194
000330 67 05 08 3f 61 de 66 3e 92 01 bb 3e ce be f0 3e
       0.53133243 0.22545768 0.36524636 0.47020572
000340 6e 6a 2a 3f e0 ce dd 3e 08 7d 13 3f 90 e0 3b 3f
       0.6656865 0.43321896 0.5761266 0.7338953
000350 73 ec 8c 3e bf 09 22 3f 43 82 ae 3e 66 53 f1 bd
       0.27524146 0.6329612 0.34083757 -0.11783485
000360 09 18 ad be 16 d2 7c be 44 2d c2 3d 8a 3b 01 bf
       -0.338074 -0.24689516 0.0948129 -0.50481474
000370 e4 63 f0 be a5 2c a6 3b fe f6 93 be d3 7b 7a be
       -0.4695121 0.00507124 -0.28899378 -0.24461298
000380 11 f8 c5 bd e6 eb 65 be ae 33 ee bd 6c 1f 8c bd
       -0.096664555 -0.2245327 -0.11630951 -0.06841931
000390 ba 5a ab be 39 d8 a1 be df 1c 65 be 9a 13 87 bd
       -0.33467656 -0.31610277 -0.22374295 -0.065955356
0003a0 d8 c0 8a 3b eb e2 1a be 32 d9 ff bd b9 99 a6 3e
       0.0042344145 -0.15125625 -0.124925986 0.32539156
0003b0 16 26 7f 3e c5 eb d9 3e 1f d3 99 3f 33 16 72 3f
       0.24916872 0.4256269 1.2017554 0.94565123
0003c0 6a 96 23 3e 3b c7 5d 3f 5a 8d 07 3f a6 6a cb bd
       0.15975347 0.86632127 0.5295006 -0.09932451
0003d0 07 26 f1 3d 5e 00 96 be 8e f1 73 3e 6f b9 5f 3e
       0.11774831 -0.29297155 0.23822615 0.21848081
0003e0 e4 71 c2 be 81 ad 64 3e 92 98 80 3e 28 32 8c bb
       -0.37977517 0.22331811 0.25116402 -0.00427844
0003f0 fa a2 48 3f 57 7d 28 3f eb ba dd 3c 54 a7 f1 3e
       0.7837368 0.65816253 0.027066668 0.47197974

down2.go_down.1.conv2x.0.c.0.bias f4 [64]
000000 b2 43 06 bd ed 15 da bc 75 32 68 3c 64 c8 f8 bc
       -0.032779403 -0.026621783 0.014172186 -0.030368991
000010 eb ef c1 3c 9e 42 e1 bc 92 47 78 3d b9 f4 9a 3c
       0.023673972 -0.027497586 0.06061513 0.018915521
000020 70 a4 48 bc ee 41 11 3d 88 f9 b4 3c f3 5d 93 3c
       -0.012246236 0.035463266 0.022091642 0.017989134
000030 eb 30 eb bc f2 3e 16 3d dc e5 27 bc 75 a0 29 bd
       -0.02870985 0.036681123 -0.010247674 -0.04141279
000040 40 39 27 bc 5f d6 5f bd 44 c9 ec bc f4 d7 64 3d
       -0.010206521 -0.0546478 -0.028904565 0.05587001
000050 c5 05 bb bb 8d fd ae bc 4c 31 fc bc ac 4c 2c 3d
       -0.005707475 -0.021361137 -0.030785225 0.042065307
000060 ea a2 d1 3c 0e 90 dd bb 96 4c 6b bc 0c 78 5d 3c
       0.025590379 -0.0067615574 -0.014361521 0.013517391
000070 19 bc 2a bc 68 46 c5 bc a4 7e 54 bc 32 1f 8a 3b
       -0.010420823 -0.024081424 -0.012969647 0.0042151446
000080 6f a2 22 3a b7 89 a8 bc a8 27 a1 3c 84 cc 06 bd
       0.0006204014 -0.02057348 0.01967223 -0.032909885
000090 32 df 66 3c 34 2d 0b 3d af 3b b8 3c 95 75 15 bd
       0.0140913 0.033978656 0.022489397 -0.036489088
0000a0 9d 76 6b 3d 6f 61 fc bc 3b a2 63 3d 58 f1 59 bd
       0.057486165 -0.030808179 0.055574637 -0.05320868
0000b0 6a bf 32 3d fd 75 36 3d d9 82 f6 3a bd 34 c3 3b
       0.043639578 0.044546116 0.0018807306 0.0059572146
0000c0 56 23 72 bc 24 a8 31 bd 54 fe 4d bc f3 f6 f0 bb
       -0.014778933 -0.043373242 -0.012572844 -0.0073536574
0000d0 a9 dd 2e 3c 5e 58 4e bd ba 99 5e 3d 67 99 2c bd
       0.010672965 -0.050377242 0.054345824 -0.042138483
0000e0 b2 6f 71 3b 7f 36 64 3d e0 d4 00 bd d9 af dd 3c
       0.0036840257 0.055716034 -0.031453013 0.02706139
0000f0 f7 0a 23 3d d5 51 9f 3c 13 49 37 bd d9 08 fb bb
       0.03980538 0.0194482 -0.044747423 -0.007660967

down2.go_down.1.conv2x.0.c.1.weight f4 [64]
000000 81 60 3a 3f 9e d1 9d 3f 08 15 8f 3f 03 0c 6d 3f
       0.72803503 1.2329595 1.1178293 0.92596453
000010 32 55 73 3f d7 fb 83 3f 04 f6 59 3f 98 7b 6f 3f
       0.9505187 1.031123 0.85141015 0.93547964
000020 71 61 5f 3f 74 13 80 3f 57 69 68 3f cd 20 83 3f
       0.8725806 1.0005937 0.90785736 1.0244385
000030 f4 19 61 3f 4b 31 91 3f a1 8e 84 3f 08 9e 8d 3f
       0.87930226 1.1343168 1.0356027 1.1063852
000040 91 12 91 3f 93 60 7c 3f 11 f1 7c 3f 94 f7 80 3f
       1.1333791 0.9858486 0.9880534 1.0075555
000050 b7 aa b6 3f 1e 78 5f 3f 33 e8 6d 3f b2 73 91 3f
       1.4270848 0.8729266 0.9293243 1.1363432
000060 a8 be 8b 3f 09 75 77 3f 9f 43 8b 3f 74 a8 63 3f
       1.0917559 0.96662956 1.0880011 0.88928914
000070 0c f5 75 3f 38 ae 4f 3f e0 ff ab 3f 9d e2 90 3f
       0.96077037 0.8112521 1.3437462 1.1319157
000080 17 11 67 3f c5 ae 9a 3f ad 39 80 3f 75 9f 71 3f
       0.9026045 1.2084585 1.0017601 0.9438394
000090 b5 80 72 3f a3 aa 98 3f 6c 4d 8e 3f 88 d9 90 3f
       0.9472764 1.1927074 1.1117377 1.1316385
0000a0 1f 01 92 3f c0 2f 6b 3f b8 e5 6e 3f 88 53 69 3f
       1.1406592 0.91869736 0.93319273 0.91143084
0000b0 85 0d 9b 3f c3 fb 8a 3f 65 22 85 3f 8b 62 75 3f
       1.2113501 1.0858082 1.0401121 0.9585349
0000c0 a7 ce 89 3f 85 47 81 3f 2b 68 8c 3f 7e 13 86 3f
       1.076619 1.0099951 1.096929 1.0474699
0000d0 eb ac 93 3f e0 7d a1 3f d5 bd 8f 3f 85 34 37 3f
       1.1537145 1.2616539 1.1229807 0.71564513
0000e0 26 83 b2 3f 4d e6 a6 3f c5 8f 63 3f a3 54 99 3f
       1.3946273 1.3039032 0.8889125 1.1978954
0000f0 cd e9 90 3f 5d 2f 90 3f 6c 6a 93 3f 84 59 8d 3f
       1.132135 1.1264454 1.1516852 1.1042943

down2.go_down.1.conv2x.0.c.1.bias f4 [64]
000000 fb 41 22 c0 5b 0f e1 be 3a d4 5b bf 8c 20 80 3e
       -2.5352771 -0.43957028 -0.8587071 0.2502483
000010 9c 33 c4 3d cc 07 74 bf 68 63 53 3d be 8b 19 3e
       0.09580156 -0.953244 0.051608473 0.14994714
000020 41 1c 88 bb b3 e5 e3 be 38 20 06 bd d1 90 42 3e
       -0.0041537588 -0.44511184 -0.03274557 0.19000556
000030 8a fd 1a 3e 6e 7b 65 bf 92 01 bd bd ad 74 75 bf
       0.1513578 -0.89641464 -0.09228815 -0.9588116
000040 5f fc b3 be 77 4d 3d be ee 72 ac be a2 2a 8d 3e
       -0.3515348 -0.18486582 -0.33681434 0.2757159
000050 76 4c 9c bf d9 68 9a bf 1f fd 92 3d 40 55 83 bf
       -1.2210834 -1.2063247 0.07177185 -1.0260391
000060 c7 cc 2b be 5a 0f 3f be 3b 63 14 be f3 7e 89 3e
       -0.16777335 -0.186582 -0.14490978 0.26854667
000070 9d b1 1b be 71 1b 12 3e cc 67 a3 bf ef 31 c0 3d
       -0.15204473 0.1426828 -1.2766051 0.09384524
000080 39 41 a1 3e 5e b1 59 be 88 4f d9 be f0 1a 06 be
       0.31495073 -0.21259066 -0.4244349 -0.13096213
000090 a5 b9 ba bc 43 b9 2b bf b5 dd fa 3c 75 c1 31 bf
       -0.0227936 -0.6707956 0.030623296 -0.69435817
0000a0 8b 09 aa bf cc a2 66 bd 7c c9 0e be e2 16 f7 be
       -1.3284162 -0.0563076 -0.13944048 -0.48259646
0000b0 db 08 9a be a1 a8 f0 3e a1 1b 5e bf cb 72 60 3e
       -0.3008488 0.47003654 -0.8676091 0.2191879
0000c0 f6 1a 27 bf 05 75 8a be 11 ce 9d bf d0 48 eb bd
       -0.65275514 -0.27042404 -1.2328511 -0.11488497
0000d0 0f ad 3a bf a1 ac 7b bc 0a 9b 41 bf 0e b8 58 bd
       -0.72920316 -0.015360982 -0.75627196 -0.052909903
0000e0 82 ac 66 bf be 79 55 bf 0a b0 d7 3d ec f4 bd 3e
       -0.90106976 -0.8338889 0.10531624 0.37100923
0000f0 5f c6 64 bf 76 a5 85 3e c1 97 03 bf 36 d3 71 bf
       -0.8936519 0.261028 -0.51403433 -0.9446291
