data/model/3-test.pth (torch_old, 492009 bytes, 73 tensors)

inc.conv.conv2x.0.c.0.weight f4 [16, 1, 3, 3]
0.09182061 -0.25959903 0.12883314 -0.27089086 0.124309115 0.32620516 -0.00092840474 0.123301
-0.0017361696 -0.03647733 0.05149894 -0.28454795 -0.09103368 -0.23550838 -0.27018586 0.15952216
0.09737026 -0.26711318 0.08516213 -0.2576391 0.18580969 0.004929357 -0.12909417 -0.09496273
-0.0503579 0.034304913 0.09689136 0.14278112 -0.113732055 -0.1048742 0.15762904 -0.062562875
0.1630104 0.30397454 0.2789327 -0.16772549 0.32825828 -0.29463845 0.018084817 -0.29893944
-0.03236509 -0.17455089 -0.14195369 -0.076665394 -0.1739548 0.30080485 -0.26047182 0.25644654
0.3355542 0.06179524 -0.07266665 0.07958063 -0.24356969 -0.08733274 0.08417856 -0.014465564
-0.024393808 0.09160479 -0.15706944 -0.18523197 -0.08237435 0.3178213 0.06564784 0.2200344
0.12514076 -0.21033958 0.20327452 -0.06988729 0.06678325 -0.24877945 -0.1635284 -0.124949306
-0.14333682 0.15481807 -0.23341967 -0.10663285 0.18703316 -0.19560163 -0.27901623 0.018742433
0.19955781 -0.23317453 -0.22962971 0.09304849 -0.023117654 0.04164928 -0.0739707 -0.07670307
0.27001742 0.21957488 -0.322324 -0.07165624 -0.18267304 -0.25365558 0.3728882 0.15403765
0.23399188 0.16757697 -0.28680414 0.14703609 -0.24231644 0.026626632 -0.19387239 0.1973501
-0.05914886 0.053926967 0.025010172 0.019656729 0.17587398 0.3776543 -0.16212465 -0.26855093
-0.23392496 -0.05361374 0.21511893 0.14016876 -0.24480426 0.33560658 -0.3304339 -0.30127352
0.03218905 0.29573584 -0.0120920455 -0.24966376 0.23251407 -0.25760615 0.10664145 0.14534406
0.21231478 0.040970016 0.097119324 0.32481232 -0.1658588 -0.25436676 0.26988348 -0.25324985
0.24645597 0.07870289 0.2794888 -0.119855106 0.09794905 -0.2452977 -0.05003907 -0.21880993
00000000: 720c bc3d 2aea 84be d6ec 033e 35b2 8abe
00000010: c795 fe3d 5d04 a73e 3060 73ba 3c85 fc3d
00000020: 2f90 e3ba 4169 15bd 8df0 523d 45b0 91be
00000030: de6f babd 1c29 71be cd55 8abe c759 233e
00000040: 0f6a c73d 0fc3 88be 7c69 ae3d 46e9 83be
00000050: e544 3e3e 7286 a13b 4331 04be d27b c2bd
00000060: 1644 4ebd 4f83 0c3d fa6e c63d 3735 123e
00000070: 5aec e8bd 49c8 d6bd 8269 213e f720 80bd
00000080: 33ec 263e 8da2 9b3e 44d0 8e3e 3bc0 2bbe
00000090: 7811 a83e dada 96be 9c26 943c 970e 99be
000000a0: 4291 04bd 78bd 32be 4f5c 11be bf02 9dbd
000000b0: 3521 32be 1803 9a3e 905c 85be f64c 833e
000000c0: c3cd ab3e 011d 7d3d 41d2 94bd 2bfb a23d
000000d0: 556a 79be 82db b2bd cf65 ac3d f900 6dbc
000000e0: 86d5 c7bc 4b9b bb3d d0d6 20be 73ad 3dbe
000000f0: e2b3 a8bd 79b9 a23e 6072 863d b350 613e
00000100: e624 003e 4263 57be 3227 503e 1121 8fbd
00000110: a8c5 883d 0ac0 7ebe fd73 27be 6ce5 ffbd
00000120: e3c6 12be a188 1e3e 9105 6fbe 5362 dabd
00000130: 9f85 3f3e cb4b 48be 37db 8ebe bb89 993c
00000140: e258 4c3e 4ec5 6ebe 0d24 6bbe 3590 be3d
00000150: 3c61 bdbc 6f98 2a3d f37d 97bd 8016 9dbd
00000160: b93f 8a3e 3dd8 603e a707 a5be 82c0 92bd
00000170: a40e 3bbe 25df 81be 34eb be3e 0cbc 1d3e
00000180: 919b 6f3e 4c99 2b3e fed7 92be a190 163e
00000190: cd21 78be 1820 da3c 7c86 46be 2516 4a3e
000001a0: 1346 72bd 86e2 5c3d 22e2 cc3c 2607 a13c
000001b0: 4f18 343e e85b c13e 0104 26be 827f 89be
000001c0: 068a 6fbe 159a 5bbd 2348 5c3e 6688 0f3e
000001d0: f8ad 7abe a0d4 ab3e a22e a9be 8640 9abe
000001e0: aad8 033d b06a 973e b71d 46bc dba7 7fbe
000001f0: 2b18 6e3e f4e4 83be d566 da3d 13d5 143e
00000200: 0c69 593e 2dd0 273d 7fe6 c63d cd4d a63e
00000210: e4d6 29be 5c3c 82be 2b2e 8a3e f7a9 81be
00000220: f45e 7c3e fb2e a13d 2819 8f3e 9876 f5bd
00000230: 8399 c83d 522f 7bbe c5f5 4cbd b60f 60be

inc.conv.conv2x.0.c.0.bias f4 [16]
-0.26034436 -0.31073835 -0.07301815 0.109668486 0.26233095 -0.113138996 -0.061773755 0.18650226
-0.18033545 0.16637005 0.09658197 0.07477512 -0.2936551 0.14835669 0.06079914 -0.09682476
00000000: db4b 85be 1919 9fbe 8a8a 95bd df99 e03d
00000010: 3e50 863e 6bb5 e7bd 7a06 7dbd 73fa 3e3e
00000020: dba9 38be e95c 2a3e c5cc c53d b323 993d
00000030: f659 96be d1ea 173e 8508 793d 0f4c c6bd

inc.conv.conv2x.0.c.1.weight f4 [16]
1.0107282 0.9833608 1.0561532 0.9955197 0.9914567 1.0205278 0.97025955 0.96138036
0.9665768 1.0177292 0.9998445 0.94851965 0.98935753 0.9885461 1.0027211 0.99033433
00000000: 8b5f 813f 89bd 7b3f 0730 873f 61da 7e3f
00000010: 1bd0 7d3f a8a0 823f ee62 783f 061d 763f
00000020: 9471 773f f344 823f cff5 7f3f 2fd2 723f
00000030: 8946 7d3f 5b11 7d3f 2a59 803f 8d86 7d3f

inc.conv.conv2x.0.c.1.bias f4 [16]
0.019258443 0.011450676 0.30272588 0.006252212 0.04582915 0.05464987 -0.0006122915 -0.0025542716
0.03578986 0.046511333 0.15712556 0.2509092 0.11123866 0.24818218 -0.01650958 0.10731935
00000000: e2c3 9d3c 9e9b 3b3c e3fe 9a3e 5bdf cc3b
00000010: 59b7 3b3d 8bd8 5f3d 3082 20ba 9165 27bb
00000020: 6398 123d ab82 3e3d 86e5 203e 2c77 803e
00000030: 18d1 e33d 7823 7e3e 193f 87bc 3fca db3d

inc.conv.conv2x.0.c.1.running_mean f4 [16]
0.5850034 -3.1480656 -0.4823098 2.0427248 -2.4810152 1.0815829 0.24626139 -0.46533933
-1.463011 0.12636217 -0.50555587 -0.009141221 -0.47114062 -0.6699838 2.5742688 -0.68966997
00000000: c8c2 153f e879 49c0 4ff1 f6be 01bc 0240
00000010: f4c8 1ec0 4f71 8a3f f22b 7c3e f540 eebe
00000020: f243 bbbf 1665 013e 1c6c 01bf 0fc5 15bc
00000030: 5839 f1be 0f84 2bbf d2c0 2440 368e 30bf

inc.conv.conv2x.0.c.1.running_var f4 [16]
0.20297055 0.8838166 0.05282803 0.48646322 0.78754854 0.32054418 0.062256396 0.23346478
0.20199278 0.24214056 0.23916091 0.02549004 0.15165333 0.21331815 0.7722839 0.14626184
00000000: 83d7 4f3e ce41 623f 3462 583d b511 f93e
00000010: c89c 493f 5e1e a43e 9000 7f3d 6411 6f3e
00000020: 32d7 4e3e b2f3 773e 99e6 743e 7dd0 d03c
00000030: 034b 1b3e 1370 5a3e 66b4 453f aac5 153e

inc.conv.conv2x.1.c.0.weight f4 [16, 16, 3, 3]
-0.077711865 -0.064369984 0.043105006 -0.009071148 0.007459838 -0.011874434 0.07750034 -0.030560441
0.009665584 0.04160863 -0.033183735 -0.0067660627 -0.0074462197 -0.052837923 -0.058014628 0.009664305
-0.05383611 0.032784726 0.043538887 -0.01624152 -0.038659025 0.06147739 0.09577314 -0.0353233
-0.07656287 -0.017234636 0.048563156 0.04390047 0.006267344 -0.07240543 0.04187484 0.058304716
-0.09391336 -0.0035946332 0.009218926 -0.050809108 0.056442678 0.055895098 -0.02912854 0.058618866
0.027533801 -0.027636556 -0.062289234 0.040647965 -0.11406757 0.0107842265 -0.045409698 -0.044708043
0.0276358 -0.018521624 -0.06531243 0.031335764 0.054933615 0.016504282 0.06486457 0.060230665
-0.039675895 0.077074446 0.016271785 -0.06869044 0.06095346 0.039714523 0.05732147 -0.050149113
-0.013490763 0.015561491 0.030519716 -0.025906984 -0.015055974 0.040008854 -0.040418874 0.045588445
0.044304203 0.07048562 0.0333261 0.024038807 -0.02195042 0.025102066 -0.06226499 0.09062619
0.0044443873 0.035535812 0.0049964646 0.089483656 0.0753945 0.14544454 0.10850687 -0.0049669077
0.0861203 0.08646721 0.060030624 -0.07000229 0.02187589 -0.033081982 0.07173722 0.09552114
0.07603021 -0.009401372 -0.0475931 0.008722056 -0.011689305 0.06384123 0.08708918 -0.043647025
-0.0059895683 -0.017485293 0.09793066 -0.12313391 -0.0060186945 0.013097247 0.02274109 0.05099971
0.02923612 -0.067518406 -0.025072087 0.035653602 -0.030024717 -0.03943412 -0.011687014 -0.05834853
0.055187788 0.1170801 -0.030193469 -0.021168267 0.048874184 -0.064640164 0.039286796 0.009166096
0.08459754 0.017415276 -0.0024142768 0.01629594 -0.021109546 -0.01786137 0.05057047 0.04794426
0.06198058 -0.059309937 0.008930228 0.054979544 0.028182328 -0.014467104 -0.060845375 0.03795262
-0.07401837 -0.018312655 0.027241834 -0.016659845 0.029192125 -0.08189593 -0.0014162598 -0.047531262
0.043711968 0.005187336 -0.08352345 0.037965994 -0.08361452 -0.025946781 -0.08425149 0.023553438
0.065282725 0.032856666 0.12155873 0.08641258 0.05264087 -0.06848241 0.0031462733 -0.01894445
0.08919512 0.12495852 -0.0066891443 0.028148085 -0.0015976061 -0.060680233 0.041905954 0.0077502364
-0.022984197 -0.046064228 0.054527428 -0.054500718 -0.057137232 -0.039292093 0.046291135 -0.06908163
0.004068614 -0.0056808656 0.0020440465 0.010451771 0.08222446 -0.053201657 0.06536238 -0.03845466
0.0012281729 0.066047065 0.03267007 -0.015466192 0.07149 -0.065085635 0.071561344 0.07868608
0.06981798 -0.029916745 0.0148580605 -0.040176366 0.043810647 0.024315583 -0.038491823 -0.023490446
-0.06403081 -0.055367015 0.051069386 0.09691708 0.07731085 -0.051094264 0.04460352 -0.05550586
0.058000203 -0.0065180357 0.01656955 -0.008965448 -0.035626914 0.064593606 -0.0028026106 -0.08040892
0.0427348 0.022862516 0.03752989 -0.02056472 -0.13567021 -0.0018716904 -0.014569686 0.12957485
-0.016261859 0.03597906 0.009310476 -0.073938765 0.022470566 0.074799426 -0.08105735 -0.017628402
0.04019691 0.015631732 0.032036155 0.03434967 -0.015350826 0.04300057 -0.02706363 0.053218134
-0.0015813268 -0.020973818 -0.012962971 0.057839967 0.00449688 -0.034590222 0.062801406 0.032192517
00000000: 6627 9fbd 69d4 83bd e08e 303d 279f 14bc
00000010: a871 f43b fc8c 42bc 80b8 9e3d e459 fabc
00000020: 665c 1e3c d06d 2a3d abeb 07bd d9b5 ddbb
00000030: 6bff f3bb 946c 58bd bfa0 6dbd 0857 1e3c
00000040: 4183 5cbd 4749 063d d555 323d f00c 85bc
00000050: ed58 1ebd b7cf 7b3d b524 c43d 2aaf 10bd
00000060: fecc 9cbd a72f 8dbc 29ea 463d fbd0 333d
00000070: 4b5e cd3b 4c49 94bd f484 2b3d edd0 6e3d
00000080: a655 c0bd f093 6bbb fa0a 173c 361d 50bd
00000090: 7030 673d 42f2 643d fa9e eebc 561a 703d
000000a0: 918e e13c 0f66 e2bc ff22 7fbd 7b7e 263d
000000b0: 429c e9bd 53b0 303c 85ff 39bd c81f 37bd
000000c0: 7964 e23c a9ba 97bc 86c2 85bd ee59 003d
000000d0: 1202 613d fd33 873c b7d7 843d 6eb4 763d
000000e0: 3183 22bd 35d9 9d3d 684c 853c 93ad 8cbd
000000f0: 56aa 793d b2ab 223d ebc9 6a3d 2869 4dbd
00000100: 5c08 5dbc a0f5 7e3c 7c04 fa3c e23a d4bc
00000110: 55ad 76bc 53e0 233d 438e 25bd f3ba 3a3d
00000120: 5378 353d c45a 903d f380 083d 08ed c43c
00000130: 5ed1 b3bc d9a2 cd3c 9309 7fbd 399a b93d
00000140: 39a2 913b 008e 113d 62b9 a33b 3543 b73d
00000150: 6e68 9a3d 6aef 143e da38 de3d 71c1 a2bb
00000160: d75f b03d b815 b13d ace2 753d 5c5d 8fbd
00000170: 1135 b33c f980 07bd f7ea 923d 96a0 c33d
00000180: bab5 9b3d 3608 1abc fcf0 42bd f4e6 0e3c
00000190: 8084 3fbc 31bf 823d d05b b23d 39c7 32bd
000001a0: 2444 c4bb 513d 8fbc df8f c83d a22d fcbd
000001b0: 7838 c5bb d695 563c 864b ba3c 12e5 503d
000001c0: 9680 ef3c 1747 8abd fa63 cdbc 8309 123d
000001d0: 65f6 f5bc ac85 21bd e47a 3fbc defe 6ebd
000001e0: 970c 623d b1c7 ef3d 4b58 f7bc 1369 adbc
000001f0: 4c30 483d 1062 84bd 31eb 203d 652d 163c
00000200: 7a41 ad3d 7baa 8e3c d838 1ebb 107f 853c
00000210: eded acbc 0252 92bc fb22 4f3d 3361 443d
00000220: 59df 7d3d faee 72bd 1750 123c 3b32 613d
00000230: a0de e63c 6f07 6dbc 0039 79bd 3574 1b3d
00000240: f196 97bd 6c04 96bc 442a df3c 3a7a 88bc
00000250: 5324 ef3c 0eb9 a7bd cba1 b9ba 24b0 42bd
00000260: 520b 333d 87fa a93b 580e abbd 3b82 1b3d
00000270: 173e abbd 588e d4bc 0c8c acbd 24f3 c03c
00000280: f3b2 853d b694 063d c9f3 f83d 14f9 b03d
00000290: f49d 573d 8140 8cbd b531 4e3b 6431 9bbc
000002a0: eeab b63d 41ea ff3d 9c30 dbbb d096 e63c
000002b0: c466 d1ba d68b 78bd 94a5 2b3d b2f5 fd3b
000002c0: 5b49 bcbc d8ad 3cbd 2758 5f3d 253c 5fbd
000002d0: bb08 6abd bff0 20bd c69b 3d3d ab7a 8dbd
000002e0: 0252 853b 8e26 babb 69f5 053b e83d 2b3c
000002f0: 4c65 a83d fbe9 59bd b6dc 853d a282 1dbd
00000300: a5fa a03a af43 873d 0dd1 053d e965 7dbc
00000310: 5969 923d 9e4b 85bd c18e 923d 2b26 a13d
00000320: bbfc 8e3d f613 f5bc 396f 733c f98f 24bd
00000330: cb72 333d 7931 c73c 9aa9 1dbd 096f c0bc
00000340: 9622 83bd 86c8 62bd 222e 513d 767c c63d
00000350: 2755 9e3d 3848 51bd 2eb2 363d 1d5a 63bd
00000360: 9f91 6d3d 3f95 d5bb ddbc 873c d0e3 12bc
00000370: 87ed 11bd a749 843d 01ac 37bb 6fad a4bd
00000380: b00a 2f3d 2c4a bb3c f1b8 193d 5877 a8bc
00000390: 22ed 0abe 8253 f5ba b1b5 6ebc 45af 043e
000003a0: 9737 85bc c75e 133d f78a 183c 356d 97bd
000003b0: 3114 b83c 7130 993d 6501 a6bd 7069 90bc
000003c0: 84a5 243d 1e0e 803c 5838 033d 3db2 0c3d
000003d0: 0882 7bbc 5e21 303d 8cb4 ddbc 42fb 593d
000003e0: 8644 cfba 49d1 abbc a462 54bc 9ae9 6c3d
000003f0: 905a 933b 7aae 0dbd 069e 803d 4ddc 033d

inc.conv.conv2x.1.c.0.bias f4 [16]
-0.055075858 -0.022544626 -0.068106204 0.021684341 0.019789744 -0.049590833 0.038407993 -0.088019826
-0.04346215 -0.051979918 0.0075453613 -0.075718254 -0.008151558 -0.036407024 0.05538151 0.028932853
00000000: 3997 61bd 82af b8bc 447b 8bbd 5ca3 b13c
00000010: 1a1e a23c c21f 4bbd b351 1d3d bd43 b4bd
00000020: 5e05 32bd e5e8 54bd 143f f73b 2c12 9bbd
00000030: 1d8e 05bc 881f 15bd b9d7 623d 9704 ed3c

inc.conv.conv2x.1.c.1.weight f4 [16]
1.0595263 1.018317 1.0800977 0.9947577 1.0152249 1.0101465 1.0055202 1.0007234
1.0063646 0.9913729 1.0127742 0.9600237 1.0106534 0.9769735 0.99008715 1.005941
00000000: 8f9e 873f 3658 823f a440 8a3f 71a8 7e3f
00000010: e4f2 813f 7b4c 813f e3b4 803f b417 803f
00000020: 8ed0 803f 9dca 7d3f 96a2 813f 1dc4 753f
00000030: 175d 813f ef1a 7a3f 5a76 7d3f adc2 803f

inc.conv.conv2x.1.c.1.bias f4 [16]
0.14767288 0.18363847 0.06912686 0.09117854 0.044084214 0.12591568 0.04752671 0.098379605
0.052191693 0.093528494 0.12609382 0.043356515 0.16433303 0.0006424382 0.12102762 0.18024658
00000000: 8f37 173e b90b 3c3e 6292 8d3d d0bb ba3d
00000010: a691 343d 0af0 003e 5eab 423d 3f7b c93d
00000020: f5c6 553d de8b bf3d bd1e 013e 9a96 313d
00000030: eb46 283e 4c69 283a 54dd f73d 8f92 383e

inc.conv.conv2x.1.c.1.running_mean f4 [16]
0.5057628 0.25725418 -0.07024968 0.59940755 -0.20347562 -0.23164424 0.34838098 -0.0912969
0.12147007 0.24099386 0.18458289 -0.3228424 0.25755948 0.2790681 0.009573394 -0.2910148
00000000: ac79 013f d2b6 833e 10df 8fbd c672 193f
00000010: ea5b 50be 2634 6dbe fe5e b23e def9 babd
00000020: 4dc5 f83d 18c7 763e 4c03 3d3e 994b a5be
00000030: d6de 833e 04e2 8e3e bad9 1c3c e4ff 94be

inc.conv.conv2x.1.c.1.running_var f4 [16]
0.38591057 0.15400997 0.4658332 0.55443823 0.46791077 0.30669522 0.21884224 0.5403861
0.40014362 0.21926826 0.23479497 0.44975144 0.17087969 0.18441917 0.38670504 0.60099196
00000000: 1296 c53e cab4 1d3e b081 ee3e aaef 0d3f
00000010: 0092 ef3e 2807 9d3e 2e18 603e be56 0a3f
00000020: a0df cc3e dc87 603e 186e 703e d245 e63e
00000030: 16fb 2e3e 61d8 3c3e 34fe c53e 9cda 193f

down1.go_down.1.conv2x.0.c.0.weight f4 [32, 16, 3, 3]
0.04229134 -0.02811222 -0.044456173 0.04125301 -0.0051411567 -0.040278696 0.009676598 -0.0024775092
0.08542798 0.049008243 -0.07291437 -0.1760466 -0.051118843 -0.08742997 0.06841964 -0.04230227
-0.014089343 -0.06364882 -0.090046026 -0.036578033 -0.13069266 -0.010774263 -0.028232684 0.08160437
-0.043154724 0.027287923 -0.010932425 0.050273433 -0.010270108 -0.021925049 0.050158404 0.067458905
0.07157419 -0.04378737 -0.02603133 0.041351255 0.06251564 -0.09983705 -0.06662732 -0.10172365
0.048810218 0.018208014 -0.0942276 0.044643145 0.06855527 0.0811953 -0.03953743 0.0073745335
0.00333156 -0.02680945 0.037748802 -0.051225748 0.012324161 -0.06727183 -0.10803009 -0.08857165
-0.012945441 -0.117585 -0.10051238 0.013897336 0.025560668 0.014747202 0.003075756 0.0066986517
0.018240744 0.043659598 0.019957384 0.06944582 -0.057489417 -0.11911081 -0.05583613 0.1165659
-0.10652274 -0.006176738 -0.09087773 0.07450735 -0.03948154 -0.05803354 0.03933816 0.039836787
-0.05195469 -0.09229109 -0.0018895005 0.014517929 -0.0144408485 -0.010814708 -0.041674115 0.023642689
-0.06474794 0.07402822 -0.009469809 0.05520469 -0.09908273 -0.10061093 0.01751244 -0.016651224
0.018404875 0.07578157 0.078888476 -0.060122583 0.042327315 -0.052402407 0.02030696 -0.03516647
0.021779055 -0.11448347 -0.11342618 0.008318077 -0.025592685 -0.064913385 -0.0334215 -0.1352762
-0.11699915 -0.085286245 -0.051100966 -0.060192917 -0.03878074 0.044894032 0.03259112 0.02752291
-0.09315273 0.056691233 0.019149553 -0.025291275 -0.07518333 -0.07390707 0.0046625617 -0.07263586
0.0400401 0.049299594 0.044322263 0.03703343 -0.012418347 0.0014352585 -0.02550564 -0.075383276
-0.10478311 0.0051204413 -0.03574318 0.035209794 0.07689783 0.0058143213 0.00255129 -0.06568548
-0.013262427 -0.04575335 0.033826523 0.014337036 -0.044382047 -0.030418819 -0.08924896 -0.0801793
0.012941833 0.006293695 0.024760991 -0.050701827 0.02324867 0.06408337 -0.03022194 -0.076614074
0.020201728 -0.026158154 0.022598943 0.013631863 -0.012428329 0.090461075 0.030553548 0.015529759
0.02344061 0.0045822463 -0.0044058245 0.05356006 0.114205666 0.044571087 -0.10635608 -0.085134834
0.08444083 0.0053273938 0.0727418 0.09371144 -0.040838204 0.06118184 0.07124545 -0.07583132
-0.0049874047 0.022042781 -0.04494804 0.028898956 -0.07723986 -0.040772844 -0.021154732 -0.04833957
-0.021076715 0.011789631 -0.11350749 -0.12521811 -0.010284916 -0.10260383 -0.0024089147 0.07202859
0.044432957 0.021928469 -0.06286625 -0.059708837 -0.07565145 0.056426276 -0.048494108 0.057290997
-0.045105368 0.011883387 -0.08728109 -0.12644012 -0.105325595 0.06460142 -0.06784368 0.033169772
-5.305332e-06 0.02919815 -0.077087104 0.05244917 0.062346723 -0.05120711 -0.04031606 -0.02145082
-0.055975616 0.065559156 0.050749704 -0.024908593 -0.004202869 0.06828461 0.050056867 -0.008004222
-0.033978995 -0.018335551 0.0059906514 -0.005112835 0.027923737 0.0333917 0.056128345 -0.03526257
-0.13731836 0.07761642 -0.06598074 -0.04647985 -0.07073151 0.053158633 -0.09981409 0.03918251
-0.1164429 -0.025915481 -0.091906995 -0.060444217 0.04134893 0.030674996 -0.052711513 0.05269483
00000000: af39 2d3d 994b e6bc ad17 36bd ebf8 283d
00000010: 2677 a8bb 46fb 24bd 988a 1e3c b55d 22bb
00000020: ddf4 ae3d debc 483d 2154 95bd 8f45 34be
00000030: fe61 51bd 7c0e b3bd 991f 8c3d 2545 2dbd
00000040: fdd6 66bc 505a 82bd 0d6a b8bd d9d2 15bd
00000050: 4cd4 05be 8986 30bc 3b48 e7bc 3120 a73d
00000060: 02c3 30bd ec8a df3c ea1d 33bc 84eb 4d3d
00000070: f443 28bc 299c b3bc e672 4d3d e527 8a3d
00000080: 7d95 923d 635a 33bd a83f d5bc ef5f 293d
00000090: 3308 803d 5e77 ccbd e873 88bd 7d54 d0bd
000000a0: 39ed 473d f928 953c 66fa c0bd bbdb 363d
000000b0: b566 8c3d b949 a63d 00f2 21bd 12a6 f13b
000000c0: 4d56 5a3b 7e9f dbbc 7d9e 1a3d 17d2 51bd
000000d0: 47eb 493c d0c5 89bd e13e ddbd 0e65 b5bd
000000e0: 1d19 54bc 68d0 f0bd 6fd9 cdbd a7b1 633c
000000f0: 9b64 d13c 409e 713c 9f92 493b 5d80 db3b
00000100: 9d6d 953c 68d4 323d ab7d a33c 9c39 8e3d
00000110: 067a 6bbd 5ef0 f3bd 6db4 64bd 1aba ee3d
00000120: 9828 dabd 3c66 cabb 1a1e babd 4f97 983d
00000130: 65b7 21bd 94b4 6dbd 0d21 213d e62b 233d
00000140: 71ce 54bd 1c03 bdbd 1ea9 f7ba 9cdc 6d3c
00000150: 4f99 6cbc 2c30 31bc 7ab2 2abd 50ae c13c
00000160: 919a 84bd 1b9c 973d 4227 1bbc 501e 623d
00000170: e3eb cabd 1a0d cebd 4076 8f3c 2668 88bc
00000180: d2c5 963c 5e33 9b3d 4890 a13d 1943 76bd
00000190: 685f 2d3d e8a3 56bd c85a a63c b70a 10bd
000001a0: fd69 b23c 4f76 eabd fc4b e8bd 8b48 083c
000001b0: c0a7 d1bc 4ff1 84bd fce4 08bd d885 0abe
000001c0: 409d efbd 8eaa aebd 3f4f 51bd d98c 76bd
000001d0: 8ed8 1ebd cee2 373d 447e 053d ba77 e13c
000001e0: dcc6 bebd 1135 683d 86df 9c3c a62f cfbc
000001f0: b8f9 99bd 975c 97bd 67c8 983b 1cc2 94bd
00000200: 1701 243d 5fee 493d 438b 353d 5eb0 173d
00000210: 5376 4bbc 491f bc3a 34f1 d0bc 8c62 9abd
00000220: 8798 d6bd 60c9 a73b 7167 12bd 2538 103d
00000230: 9c7c 9d3d 1086 be3b 8b33 273b 1c86 86bd
00000240: a74a 59bc dd67 3bbd ae8d 0a3d e3e5 6a3c
00000250: f3c9 35bd e330 f9bc 29c8 b6bd 0b35 a4bd
00000260: fb09 543c 573b ce3b 90d7 ca3c b8ac 4fbd
00000270: ff73 be3c 243e 833d 0094 f7bc d7e7 9cbd
00000280: 187e a53c a049 d6bc 6b21 b93c 2d58 5f3c
00000290: 31a0 4bbc a843 b93d 6f4b fa3c 8870 7e3c
000002a0: 8606 c03c ab26 963b bc5e 90bb cb61 5b3d
000002b0: a9e4 e93d 2c90 363d 37d1 d9bd 2c5b aebd
000002c0: 50ef ac3d 6b91 ae3b a7f9 943d c9eb bf3d
000002d0: f645 27bd cf99 7a3d 22e9 913d 734d 9bbd
000002e0: 626d a3bb 1093 b43c 701b 38bd 81bd ec3c
000002f0: ef2f 9ebd 6d01 27bd b04c adbc b7ff 45bd
00000300: 13a9 acbc 4c29 413c 9d76 e8bd 2d39 00be
00000310: 1082 28bc f521 d2bd e2de 1dbb ba83 933d
00000320: 55ff 353d 55a3 b33c 05c0 80bd 4191 74bd
00000330: 26ef 9abd 3d1f 673d c2a1 46bd f7a9 6a3d
00000340: 68c0 38bd 8ab2 423c 6ec0 b2bd 8579 01be
00000350: f2b4 d7bd c04d 843d a1f1 8abd 07dd 073d
00000360: 7404 b2b6 f530 ef3c d8df 9dbd f1d4 563d
00000370: 475f 7f3d 8cbe 51bd 7422 25bd a1b9 afbc
00000380: b046 65bd e143 863d ecde 4f3d 1b0d ccbc
00000390: 38b8 89bb cdd8 8b3d 6e08 4d3d 2424 03bc
000003a0: 8f2d 0bbd 7034 96bc 3a4d c43b 9289 a7bb
000003b0: 52c0 e43c bcc5 083d d6e6 653d 7c6f 10bd
000003c0: 2f9d 0cbe 5cf5 9e3d e920 87bd a861 3ebd
000003d0: afdb 90bd debc 593d 546b ccbd d77d 203d
000003e0: 9d79 eebd b44c d4bc bc39 bcbd 5b94 77bd
000003f0: 7f5d 293d 214a fb3c 07e8 57bd 89d6 573d

down1.go_down.1.conv2x.0.c.0.bias f4 [32]
-0.0015727623 -0.06613065 -0.007600441 0.08118656 -0.060869686 -0.073774494 0.02220876 0.026547974
0.042598996 -0.066799626 0.08260162 -0.010776955 -0.012806137 0.071166866 0.04272918 -0.015453476
0.036435857 0.05839393 -0.0052135824 -0.027291322 -0.051996082 -0.010455133 -0.042239536 -0.055861466
0.035085 -0.019437287 0.0053985245 0.047747057 0.010936659 0.082309864 -0.030554041 0.018309288
00000000: 2525 ceba 826f 87bd 1f0d f9bb 2445 a63d
00000010: 7e52 79bd 1517 97bd 25ef b53c 237b d93c
00000020: 497c 2e3d 3ece 88bd 0a2b a93d d391 30bc
00000030: d5d0 51bc efbf 913d cb04 2f3d 9430 7dbc
00000040: c43d 153d 792e 6f3d b3d6 aabb 0d92 dfbc
00000050: d8f9 54bd 024c 2bbc 5d03 2dbd fece 64bd
00000060: 4ab5 0f3d f23a 9fbc 1be6 b03b 6b92 433d
00000070: ac2f 333c 1392 a83d 784c fabc 5cfd 953c

down1.go_down.1.conv2x.0.c.1.weight f4 [32]
1.0020357 1.021514 0.9991492 0.9884907 0.9647126 0.92638195 1.000086 1.0283087
0.98941934 1.0147198 1.0032371 1.0060818 0.98809683 1.0255383 1.0037663 0.9901972
0.997007 1.0112276 0.9834212 1.0112083 0.96847856 1.0485305 0.9908288 0.99666226
0.9933157 0.992919 0.9808065 1.0092198 0.98624337 1.043269 1.0352398 0.9980049
00000000: b542 803f f9c0 823f 3ec8 7f3f ba0d 7d3f
00000010: 68f7 763f 5e27 6d3f d102 803f 9f9f 833f
00000020: 964a 7d3f 57e2 813f 136a 803f 4ac7 803f
00000030: eaf3 7c3f d744 833f 6a7b 803f 907d 7d3f
00000040: da3b 7f3f e86f 813f 7ec1 7b3f 466f 813f
00000050: 36ee 773f 3f36 863f f5a6 7d3f 4225 7f3f
00000060: f049 7e3f f12f 7e3f 2316 7b3f 1d2e 813f
00000070: 727a 7c3f d789 853f bd82 843f 407d 7f3f

down1.go_down.1.conv2x.0.c.1.bias f4 [32]
0.12296401 -0.03588043 -0.022628747 -0.0039892057 -0.10405707 -0.05058866 -0.0358993 0.032524545
-0.031257693 -0.1007165 -0.0051609906 -0.02581968 0.0050188308 0.01199375 0.0355918 -0.056441773
0.048532642 0.02478185 -0.035509128 0.0020544895 -0.055607013 0.17686081 -0.061096545 0.01740784
-0.040071737 -0.056524325 -0.009966906 0.032886237 -0.011953869 0.05720576 0.0056885155 -0.012757004
00000000: 8ed4 fb3d 5cf7 12bd ec5f b9bc e2b7 82bb
00000010: e01b d5bd 0e36 4fbd 250b 13bd 7538 053d
00000020: 1108 00bd 7444 cebd 871d a9bb cb83 d3bc
00000030: 0175 a43b 6f81 443c b5c8 113d 7d2f 67bd
00000040: 2aca 463d 4e03 cb3c 0572 11bd 9da4 063b
00000050: 2ec4 63bd 001b 353e 5f40 7abd e39a 8e3c
00000060: 4322 24bd 0d86 67bd 3c4c 23bc b8b3 063d
00000070: 29da 43bc 9650 6a3d ba66 ba3b c102 51bc

down1.go_down.1.conv2x.0.c.1.running_mean f4 [32]
-1.9019943 -1.198009 -0.45282757 0.4064474 -0.44244242 1.4148364 0.36377552 0.13981992
-0.47194308 2.9322672 -1.7799996 -1.9683261 -0.5363674 -1.3340976 -0.47320813 0.90269357
-1.0253936 -1.3829954 1.10713 0.31196123 -0.5175905 -3.6076484 0.4498297 1.0699402
0.63334835 0.30248493 -0.004405519 0.7175983 0.52070916 -1.3615154 -0.7236934 0.072967455
00000000: 8d74 f3bf 5c58 99bf 04d9 e7be e019 d03e
00000010: d087 e2be 5c19 b53f c940 ba3e f42c 0f3e
00000020: 86a2 f1be 44aa 3b40 07d7 e3bf 1cf2 fbbf
00000030: 604f 09bf b6c3 aabf 5648 f2be ed16 673f
00000040: 1940 83bf fe05 b1bf 70b6 8d3f 62b9 9f3e
00000050: d080 04bf b6e3 66c0 1450 e63e cdf3 883f
00000060: 1e23 223f 4edf 9a3e 2c5c 90bb 86b4 373f
00000070: 324d 053f 2346 aebf f843 39bf f66f 953d

down1.go_down.1.conv2x.0.c.1.running_var f4 [32]
1.1549625 0.6275383 0.40621704 0.43948045 0.38163415 0.69997716 0.3617137 0.29252458
0.39222458 1.1000259 0.8734683 0.42576537 0.48575813 0.5876231 0.6753448 0.39633858
0.74936956 0.757877 0.34543836 0.46078688 0.49434972 1.9039481 0.33299088 0.4549275
0.35668957 0.39763677 0.60913354 0.6401684 0.43703303 0.9822206 0.5554545 0.26454592
00000000: d0d5 933f 5aa6 203f aefb cf3e 9503 e13e
00000010: 8d65 c33e b431 333f 8a32 b93e c8c5 953e
00000020: a9d1 c83e a6cd 8c3f 9e9b 5f3f ebfd d93e
00000030: 4ab5 f83e 786e 163f 66e3 2c3f e4ec ca3e
00000040: afd6 3f3f 3a04 423f 4cdd b03e 42ec eb3e
00000050: 681b fd3e 92b4 f33f c87d aa3e 42ec e83e
00000060: 04a0 b63e 0c97 cb3e 2df0 1b3f 14e2 233f
00000070: cbc2 df3e cf72 7b3f 4432 0e3f 9072 873e

down1.go_down.1.conv2x.1.c.0.weight f4 [32, 32, 3, 3]
-0.00596308 0.049489353 0.009334998 0.09624522 0.045150124 -0.012113814 0.042019986 -0.031038562
-0.030027721 -0.053822313 -0.00858777 -0.018597128 0.061670925 -0.07933638 0.02253395 -0.0022483978
-0.04541441 -0.028269608 0.03147727 -0.036238864 0.022734307 0.057370406 0.069673665 -0.026594562
-0.018062769 -0.0428429 -0.008237033 0.017091129 0.042845584 -0.07701718 0.004243466 -0.026086906
-0.0147082945 0.030222746 -0.009371314 -0.07044695 0.06023391 0.051744565 0.06922827 0.042241916
-0.032916542 -0.012124455 -0.014533333 0.006915579 0.03418883 -0.029195225 0.03396863 -0.0022170616
0.04837858 0.048904866 0.054827847 -0.021491867 0.06329489 0.0118506765 0.016401542 0.052764095
0.0113585545 -0.05158144 -0.061464448 -0.033781763 0.003928959 0.020363014 -0.05353351 -0.034913547
-0.030803233 0.040276926 0.020894563 -0.020858418 -0.027477292 0.00021131702 -0.012164941 -0.021143975
-0.079073116 0.055646293 0.05651859 -0.04845904 0.057815976 -0.008886929 -0.07845022 -0.035431873
0.0033517145 -0.03368567 0.010119735 -0.010035115 0.052162953 -0.032132864 -0.011244058 0.04578195
0.017012978 -0.03852673 -0.0677607 0.03221353 0.02182939 0.04365748 0.029949911 -0.10610504
0.013597916 0.008607696 0.032961432 0.04081577 -0.03603087 -0.026769942 0.01953633 0.028052485
0.004315084 0.03687376 -0.005810678 -0.05021683 -0.036495857 0.065903164 0.03907346 -0.004607293
0.020092718 0.046705592 0.016343944 0.06353652 0.020926299 -0.035239514 0.008216958 -0.014197423
0.026476726 0.06827012 0.0068423576 0.034796037 0.0199463 -0.054323565 -0.049426403 -0.026272852
-0.04686051 -0.09338308 -0.023426175 -0.051067032 0.045911632 -0.04382852 0.02398982 0.044907793
-0.0076473914 0.04029497 0.015054594 -0.02870479 0.025323894 -0.015382742 -0.017379407 0.014422004
0.0337251 -0.01975868 -0.044298146 -0.04971173 0.01447505 0.01408065 0.025926335 -0.028091008
-0.022064744 0.0614217 0.003953646 0.02016342 -0.07108128 -0.07340005 -0.013251927 -0.03879584
-0.0062432694 -0.048381872 0.00088023057 0.044880126 0.014723684 -0.0062945015 -0.060860872 -0.0140804
0.0066890856 0.05871038 0.052276876 -0.009697153 -0.007550824 0.0037022596 0.0470231 -0.039589856
-0.060634635 -0.04003594 0.0020327629 0.0129469745 0.012886716 -0.055532493 -0.0390122 0.0007888035
-0.013622451 0.034074716 -0.0475358 -0.004449795 0.06421348 -0.011304328 -0.029869288 0.0059779836
0.015342952 0.016681537 -0.02272736 -0.050514918 0.027538868 -0.12535937 -0.03791505 0.020433713
0.036411967 0.046975188 0.03527329 0.010172988 0.042049702 -0.05423863 0.041606676 0.025099728
-0.04837633 0.01755857 0.04662841 -0.054367993 -0.00570274 -0.006108827 0.0042624394 -0.0013698775
0.002587895 -0.0031677221 -0.017112337 0.005828563 -0.045777768 0.008957028 -6.0898452e-05 0.013186254
-0.019371197 0.03509256 -0.009262327 0.052115884 -0.0065862704 0.023558406 0.056519262 -0.0009935858
-0.021636255 0.030875422 -0.0432344 -0.009949691 0.04669349 0.0008323799 -0.01811604 0.0428773
-0.02590959 0.007558724 0.060125146 -0.0263466 -0.048374437 0.037843052 0.043835614 -0.05854872
0.05420178 -0.022381205 0.0058274586 0.02576286 0.08208384 0.06560226 0.02620704 0.03890871
00000000: f165 c3bb 59b5 4a3d d2f1 183c 371c c53d
00000010: 56ef 383d 0579 46bc 261d 2c3d 9544 febc
00000020: b2fc f5bc c974 5cbd b8b3 0cbc 0159 98bc
00000030: a79a 7c3d 1d7b a2bd 1e99 b83c db59 13bb
00000040: 7604 3abd aa95 e7bc 4fee 003d 346f 14bd
00000050: 4c3d ba3c 3bfd 6a3d 11b1 8e3d d7dc d9bc
00000060: 5ff8 93bc 097c 2fbd 9ff4 06bc b202 8c3c
00000070: da7e 2f3d 2fbb 9dbd c60c 8b3b 35b4 d5bc
00000080: 0ffb 70bc b195 f73c 248a 19bc 7e46 90bd
00000090: d5b7 763d 1cf2 533d 8dc7 8d3d dc05 2d3d
000000a0: 7fd3 06bd a6a5 46bc 371d 6ebc 159c e23b
000000b0: 9609 0c3d d32a efbc b122 0b3d 1f4c 11bb
000000c0: 9e28 463d 7850 483d 2a93 603d b60f b0bc
000000d0: c0a0 813d 5729 423c 875c 863c 2a1f 583d
000000e0: 3b19 3a3c 0f47 53bd 25c2 7bbd bf5e 0abd
000000f0: 7fbe 803b 56d0 a63c f445 5bbd 8201 0fbd
00000100: 1057 fcbc 6bf9 243d 132b ab3c 46df aabc
00000110: 0f18 e1bc fb94 5d39 764f 47bc 2136 adbc
00000120: 16f1 a1bd 5eed 633d 0980 673d fc7c 46bd
00000130: 72d0 6c3d 7b9a 11bc 82aa a0bd 0321 11bd
00000140: 70a8 5b3b fcf9 09bd 3fcd 253c 536a 24bc
00000150: d2a8 553d c09d 03bd ff38 38bc db85 3b3d
00000160: cd5e 8b3c 34ce 1dbd 1fc6 8abd 56f2 033d
00000170: 8dd3 b23c 30d2 323d 8459 f53c 994d d9bd
00000180: cbc9 5e3c 4b07 0d3c 9102 073d 702e 273d
00000190: 1b95 13bd a34c dbbc a70a a03c 53ce e53c
000001a0: 8c65 8d3b f108 173d 8067 bebb 2ab0 4dbd
000001b0: ae7c 15bd 3df8 863d 7e0b 203d c6f8 96bb
000001c0: 7c99 a43c 5d4e 3f3d bce3 853c 6f1f 823d
000001d0: a16d ab3c 4f57 10bd 6ba0 063c 4f9c 68bc
000001e0: b8e5 d83c 34d1 8b3d db35 e03b 4a86 0e3d
000001f0: 6c66 a33c 6382 5ebd 5773 4abd 2a3a d7bc
00000200: cef0 3fbd a13f bfbd 40e8 bfbc aa2b 51bd
00000210: d60d 3c3d 8985 33bd 4d86 c43c 3cf1 373d
00000220: f896 fabb 570c 253d 8ba7 763c 4f26 ebbc
00000230: 0e74 cf3c e507 7cbc 425f 8ebc 454a 6c3c
00000240: 5523 0a3d f5dc a1bc f971 35bd 879e 4bbd
00000250: c328 6d3c 87b2 663c 7763 d43c 1d1f e6bc
00000260: 1fc1 b4bc 5295 7b3d 968d 813b c22d a53c
00000270: 1093 91bd c452 96bd 9c1e 59bc 63e8 1ebd
00000280: 5794 ccbb 122c 46bd 46bf 663a 39d4 373d
00000290: 9b3b 713c 1b42 cebb 4049 79bd 7ab1 66bc
000002a0: 1e30 db3b 4c7a 703d 4720 563d cfe0 1ebc
000002b0: e76c f7bb 9ca1 723b 4b9b 403d f928 22bd
000002c0: 065c 78bd bafc 23bd 1a38 053b 8c1f 543c
000002d0: ce22 533c 0a76 63bd 42cb 1fbd b5c7 4e3a
000002e0: b330 5fbc ee91 0b3d e6b4 42bd 96cf 91bb
000002f0: 5b82 833d ca35 39bc 70b0 f4bc f6e2 c33b
00000300: 0161 7b3c b8a7 883c ba2e babc bbe8 4ebd
00000310: 3199 e13c 355e 00be d04c 1bbd 9a64 a73c
00000320: b724 153d 0e69 403d ba7a 103d 9bac 263c
00000330: 4f3c 2c3d 5329 5ebd c36b 2a3d f29d cd3c
00000340: 4226 46bd fdd6 8f3c 6ffd 3e3d f9b0 5ebd
00000350: 0dde babb 8e2c c8bb efab 8b3b 768d b3ba
00000360: ac99 293b 8f99 4fbb 2c2f 8cbc 88fd be3b
00000370: 7881 3bbd 80c0 123c 376d 7fb8 280b 583c
00000380: 58b0 9ebc 37bd 0f3d 04c1 17bc 7777 553d
00000390: a4d1 d7bb 8ffd c03c be80 673d 353b 82ba
000003a0: 843e b1bc 74ee fc3c 8e16 31bd 0704 23bc
000003b0: ac41 3f3d 1234 5a3a 1768 94bc 1ca0 2f3d
000003c0: 5940 d4bc 2caf f73b c945 763d d3d4 d7bc
000003d0: 4624 46bd 5101 1b3d f98c 333d c8d0 6fbd
000003e0: b002 5e3d ca58 b7bc 44f4 be3b a20c d33c
000003f0: 931b a83d 7a5a 863d 25b0 d63c bd5e 1f3d

down1.go_down.1.conv2x.1.c.0.bias f4 [32]
0.036296632 0.010389836 -0.052834433 -0.010785457 -0.050197147 0.017982503 0.045893215 0.023300705
0.054103434 -0.01953635 0.046928436 -0.02218901 -0.038281783 0.008954396 -0.040660463 0.018687723
-0.02677935 -0.043944687 -0.041505616 -0.028870951 0.038880747 0.010808804 0.03864202 0.051590953
-0.045101266 0.039668046 -0.034174625 -0.05316383 -0.0020032378 0.028352221 0.029371304 0.037655335
00000000: c7ab 143d 213a 2a3c eb68 58bd 7cb5 30bc
00000010: 869b 4dbd 0b50 933c 86fa 3b3d 1fe1 be3c
00000020: 909b 5d3d b20a a0bc 0838 403d bac5 b5bc
00000030: 5ccd 1cbd 75b5 123c 968b 26bd ff16 993c
00000040: 5e60 dbbc 58ff 33bd cb01 2abd c682 ecbc
00000050: 6b41 1f3d 6917 313c 1847 1e3d 0951 533d
00000060: 1bbc 38bd f67a 223d b1fa 0bbd 51c2 59bd
00000070: c148 03bb eb42 e83c 179c f03c 7b3c 1a3d

down1.go_down.1.conv2x.1.c.1.weight f4 [32]
0.9987907 0.9836332 0.9418797 0.9740246 0.9803884 0.9899893 1.0274009 1.0197597
1.0011353 1.0146781 0.9932748 0.9920134 0.9965123 1.0472643 0.9933924 0.98904735
0.98252505 0.9791026 1.009919 1.0001429 0.9885971 0.9956338 1.0209075 0.9903881
0.9973311 1.0388008 1.0092161 0.9898181 0.9812519 0.9973611 0.986898 1.0280997
00000000: bfb0 7f3f 63cf 7b3f 071f 713f ad59 793f
00000010: bcfa 7a3f f06f 7d3f df81 833f 7c87 823f
00000020: 3425 803f f9e0 813f 4247 7e3f 97f4 7d3f
00000030: 6e1b 7f3f c20c 863f f74e 7e3f 3532 7d3f
00000040: c386 7b3f 78a6 7a3f 0745 813f af04 803f
00000050: b314 7d3f dbe1 7e3f 19ad 823f 138a 7d3f
00000060: 1751 7f3f 6df7 843f fe2d 813f b864 7d3f
00000070: 5333 7b3f 0f53 7f3f 59a5 7c3f c598 833f

down1.go_down.1.conv2x.1.c.1.bias f4 [32]
-0.109195866 -0.044891357 0.012889399 0.004565542 -0.04607772 -0.06785456 0.04812599 -0.017865341
-0.008032306 -0.053893864 -0.009218491 -0.030239595 -0.0124654025 -0.089396395 0.013256309 -0.037693657
-0.060422186 0.018940507 0.007009429 -0.06998794 -0.06252425 -0.008328855 0.018409545 -0.03830069
-0.07477471 0.052028902 0.026206791 -0.04713819 -0.013506568 -0.01408864 -0.08638315 0.04257022
00000000: 15a2 dfbd 00e0 37bd 0f2e 533c 8b9a 953b
00000010: febb 3cbd 55f7 8abd c21f 453d 565a 92bc
00000020: ef99 03bc d0bf 5cbd 2709 17bc 07b9 f7bc
00000030: b03b 4cbc 7515 b7bd fd30 593c aa64 1abd
00000040: 417d 77bd 1f29 9b3c 5aaf e53b d655 8fbd
00000050: b70c 80bd c075 08bc 9dcf 963c 2fe1 1cbd
00000060: 7c23 99bd 421c 553d a0af d63c fa13 41bd
00000070: a74a 5dbc 0ad4 66bc a6e9 b0bd 1c5e 2e3d

down1.go_down.1.conv2x.1.c.1.running_mean f4 [32]
0.20632073 -0.3423153 -0.22819921 -0.3175588 0.20308623 0.38614294 -1.0175397 -1.278331
-0.6037564 -0.080465004 -0.04792566 0.48615903 0.044349324 0.083492994 -0.81883377 -0.048435442
0.20180885 -0.7284179 0.09096813 0.4987833 -0.23539507 -0.8297392 -0.39291593 0.18363367
0.22193456 -0.28910148 -0.37949467 -0.078657284 -0.061085638 -0.46498275 0.41329008 -1.0687826
00000000: be45 533e f343 afbe 0ead 69be 1197 a2be
00000010: d6f5 4f3e 87b4 c53e be3e 82bf 5aa0 a3bf
00000020: c88f 1abf d6ca a4bd b24d 44bd d6e9 f83e
00000030: a3a7 353d 60fe aa3d 179f 51bf 3e64 46bd
00000040: fba6 4e3e 9879 3abf 804d ba3d 8660 ff3e
00000050: 680b 71be ca69 54bf 472c c9be 770a 3c3e
00000060: d042 633e 1c05 94be 204d c2be 1217 a1bd
00000070: ef34 7abd 3812 eebe c29a d33e decd 88bf

down1.go_down.1.conv2x.1.c.1.running_var f4 [32]
0.22542801 0.4196183 0.4808051 0.45593446 0.51838315 0.3848579 0.4116273 1.3177011
0.5362524 0.2986603 0.7694509 0.33877337 0.2872687 0.2992559 0.66152316 0.27702087
0.3459046 0.7772207 0.3957411 0.23664902 0.39036256 0.6318699 0.44720584 0.28854007
0.2082455 0.44410366 0.35632446 0.29290432 0.34522855 0.39372364 0.33764714 0.7226768
00000000: 9ad6 663e 36d8 d63e 162c f63e 3e70 e93e
00000010: c2b4 043f 180c c53e d0c0 d23e 6eaa a83f
00000020: d647 093f 01ea 983e bcfa 443f b473 ad3e
00000030: e214 933e 1238 993e 9559 293f aed5 8d3e
00000040: 681a b13e f0f7 463f 949e ca3e 1f54 723e
00000050: 9add c73e 3ac2 213f 2af8 e43e 86bb 933e
00000060: 4f3e 553e 8e61 e33e 2970 b63e 8ef7 953e
00000070: ccc1 b03e 2596 c93e 16e0 ac3e 5901 393f

down2.go_down.1.conv2x.0.c.0.weight f4 [64, 32, 3, 3]
-0.04839886 0.04129803 -0.03161924 0.0097077135 0.0088708075 0.044591494 0.032091357 0.03508906
-0.06922055 0.08566632 0.026376931 -0.0030569094 0.025900295 0.034478337 0.04713874 -0.01957001
0.034791153 0.0742612 -0.02862769 -0.025040664 0.017875157 -0.039161596 -0.057386532 -0.011858184
0.005320812 0.030757723 0.09813838 -0.021186836 0.00963157 -0.052959677 0.063071154 -0.024009861
0.033681292 0.022481848 -0.0029792795 0.024097778 0.03665073 -0.05463466 0.08366112 0.004250414
-0.030428976 0.017025664 0.03888489 -0.038926475 0.03111621 -0.054257568 -0.0661476 -0.0120553505
-0.008665635 -0.032515027 0.050842136 0.012562536 0.052343458 -0.037998594 -0.05516275 -0.020048382
-0.028671948 0.04089074 -0.035003357 0.033904694 -0.07333111 -0.026605684 -0.015814904 0.06331984
0.07524177 0.04889055 0.024654396 0.06411787 -0.044283263 -0.013878992 -0.066957764 -0.012404975
-0.042124584 0.0074431566 -0.03440819 -0.016217474 0.009977605 -0.006090041 0.1470167 -0.035116754
0.050865658 0.0468496 0.034360178 0.026377765 -0.03019308 -0.0006294541 -0.054160327 -0.045592573
0.032319658 0.015922071 0.028918184 0.050575305 -0.01794533 0.012763994 -0.040864013 0.037389793
0.07646339 -0.024281114 0.05131211 0.001301015 -0.035135783 -0.034870423 -0.0022675402 -0.059682332
-0.026181903 0.028811157 -0.009017311 -0.01318843 0.010263966 0.016699202 -0.059063204 0.08281043
-0.012364997 -0.030093515 0.01985027 0.072578475 -0.0003178878 0.11339253 0.02028941 -0.030459331
0.018362323 -0.059621025 0.095370196 0.033292994 -0.054226402 -0.03788121 0.04778516 0.030946525
-0.0026270233 0.029220866 -0.012279835 -0.01305231 0.068788305 -0.0016821189 0.0798309 -0.023302373
-0.004950089 0.019127445 0.031574953 -0.0025098866 0.007432753 0.0060677184 0.016654124 -0.053234946
-0.012450666 0.019681597 0.09916052 0.024412028 -0.03326073 -0.005066873 -0.14520602 0.021482747
-0.07811223 0.034912914 0.08825516 0.032870762 0.0015463574 -0.004331094 0.08010264 0.07845922
0.024204168 0.014360341 0.011305619 -0.034523096 -0.016529568 -0.025855897 -0.048993018 -0.024893392
0.051418796 0.0010508529 -0.08024735 -0.006370483 0.030400045 -0.01868879 0.054286383 0.02344048
0.020343984 -0.050668262 -0.005899838 -0.027186368 0.086794846 -0.041805744 0.05346337 0.040481146
0.03363254 0.040245086 -0.019263953 -0.10160668 -0.068154655 0.05808068 -0.019041305 0.06955445
-0.018558377 0.053258747 -0.0488053 -0.034406167 -0.051350936 -0.03621946 -0.09719803 0.03156006
-0.0019031196 0.0020990593 0.011508024 0.034158584 0.10154199 -0.004843252 -0.02201371 0.055624314
0.0046336954 0.011946586 0.060313385 0.009366051 -0.041257303 -0.050723642 -0.014226634 0.05637934
-0.002946124 0.009875413 -0.09149742 0.03374131 -0.014397476 0.03869011 0.006770728 0.039956238
-0.026248544 0.08790556 0.008938791 0.009331214 0.015674515 -0.0082245115 -0.067557156 -0.06801334
-0.023451496 -0.068305895 0.060567852 -0.023638269 -0.009588893 0.0024181088 0.01637373 -0.0904247
0.008921186 -0.029310396 -0.04276584 -0.04419681 -0.048388388 0.07406064 0.08161725 0.02290977
0.0035577384 -0.002256152 -0.04322956 0.010100949 0.0018836427 -0.07289602 0.049093187 -0.034995157
00000000: e23d 46bd 2028 293d 2d83 01bd 1a0d 1f3c
00000010: dd56 113c 92a5 363d 3a72 033d 8cb9 0f3d
00000020: 81c3 8dbd d371 af3d 6f14 d83c 6e56 48bb
00000030: db2c d43c 2839 0d3d 8d14 413d 4951 a0bc
00000040: 2b81 0e3d 4216 983d 9e84 eabc 1422 cdbc
00000050: ec6e 923c e967 20bd 240e 6bbd d448 42bc
00000060: 355a ae3b 9ff7 fb3c c6fc c83d 0490 adbc
00000070: bccd 1d3c 3fec 58bd 732b 813d 54b0 c4bc
00000080: 65f5 093d da2b b83c 0440 43bb b468 c53c
00000090: 131f 163d 98c8 5fbd 8556 ab3d 0f47 8b3b
000000a0: 3046 f9bc 6879 8b3c c345 1f3d 5e71 1fbd
000000b0: 6ce7 fe3c 2f3d 5ebd 6578 87bd ce83 45bc
000000c0: 4ffa 0dbc 7a2e 05bd d83f 503d 18d3 4d3c
000000d0: 1866 563d 6aa4 1bbd 56f2 61bd 813c a4bc
000000e0: 6fe1 eabc 0c7d 273d ae5f 0fbd a6df 0a3d
000000f0: 9f2e 96bd 2af4 d9bc 428e 81bc d5ad 813d
00000100: 5b18 9a3d 7541 483d 04f8 c93c 3b50 833d
00000110: 5e62 35bd b664 63bc 2721 89bd 3c3e 4bbc
00000120: d48a 2cbd b9e5 f33b 9aef 0cbd 82da 84bc
00000130: 1c79 233c f78e c7bb 8c8b 163e 96d6 0fbd
00000140: 8258 503d 5ee5 3f3d 42bd 0c3d 2f16 d83c
00000150: 7a57 f7bc f301 25ba 38d7 5dbd 47bf 3abd
00000160: 9e61 043d 016f 823c d4e5 ec3c 0d28 4f3d
00000170: 1602 93bc 1220 513c 0661 27bd 0a26 193d
00000180: d698 9c3d 30e9 c6bc a62c 523d d286 aa3a
00000190: 8aea 0fbd 4ad4 0ebd 039b 14bb 7675 74bd
000001a0: 6e7b d6bc 6005 ec3c 58bd 13bc 4914 58bc
000001b0: 322a 283c c4cc 883c 42ec 71bd 8498 a93d
000001c0: 8e96 4abc ad86 f6bc 099d a23c 06a4 943d
000001d0: 2eaa a6b9 583a e83d fa35 a63c d985 f9bc
000001e0: 956c 963c 2d35 74bd 7351 c33d 3c5e 083d
000001f0: 811c 5ebd 5429 1bbd 5fba 433d 9183 fd3c
00000200: 232a 2cbb 9960 ef3c 5c31 49bc 5bd9 55bc
00000210: e2e0 8c3d 8b7a dcba 627e a33d 9ee4 bebc
00000220: 5b34 a2bb 29b1 9c3c bd54 013d e97c 24bb
00000230: 748e f33b b6d3 c63b 3b6e 883c e30c 5abd
00000240: e1fd 4bbc 4d3b a13c ac14 cb3d bcfb c73c
00000250: 673c 08bd 0308 a6bb e3b0 14be 96fc af3c
00000260: 4ef9 9fbd d800 0f3d 1fbf b43d 7ea3 063d
00000270: 25af ca3a daeb 8dbb da0c a43d 3aaf a03d
00000280: d247 c63c a347 6b3c 343b 393c 1768 0dbd
00000290: 0469 87bc bfcf d3bc e7ac 48bd 3aed cbbc
000002a0: 849c 523d c6bc 893a b958 a4bd 7cbf d0bb
000002b0: 8409 f93c 3c19 99bc 665b 5e3d 4006 c03c
000002c0: 6da8 a63c 8689 4fbd 6e53 c1bb f2b5 debc
000002d0: 7fc1 b13d 803c 2bbd 68fc 5a3d 8fcf 253d
000002e0: 46c2 093d 08d8 243d 70cf 9dbc 2a17 d0bd
000002f0: ab94 8bbd 02e6 6d3d 83fc 9bbc 9072 8e3d
00000300: bd07 98bc d825 5a3d 11e8 47bd 7bed 0cbd
00000310: 5c55 52bd db5a 14bd c30f c7bd 1f45 013d
00000320: 1972 f9ba 5f90 093b 278c 3c3c dfe9 0b3d
00000330: 3ff5 cf3d 24b4 9ebb 1956 b4bc 52d6 633d
00000340: 41d6 973b 9dbb 433c 2b0b 773d 1174 193c
00000350: 6bfd 28bd 98c3 4fbd d416 69bc 06ee 663d
00000360: c213 41bb 7ccc 213c 0063 bbbd 5434 0a3d
00000370: 64e3 6bbc 8579 1e3d fcdc dd3b 27a9 233d
00000380: 3007 d7bc d507 b43d 0274 123c f3e1 183c
00000390: d767 803c 1ac0 06bc 685b 8abd 944a 8bbd
000003a0: 5a1d c0bc f6e3 8bbd ff15 783d 0ba5 c1bc
000003b0: bb1a 1dbc 2279 1e3b 3322 863c 9630 b9bd
000003c0: 2b2a 123c 5b1c f0bc 3c2b 2fbd b707 35bd
000003d0: e732 46bd 1bad 973d f226 a73d 45ad bb3c
000003e0: f228 693b f3db 13bb 7b11 31bd 737e 253c
000003f0: 90e4 f63a 824a 95bd f015 493d 1557 0fbd

down2.go_down.1.conv2x.0.c.0.bias f4 [64]
-0.034166403 0.004967386 -0.057964757 0.016442053 -0.0035580595 -0.0026010452 0.025016952 0.050036892
-0.048024986 -0.017503588 0.045313872 0.01753156 0.040899348 0.0018255938 -0.055681404 -0.004025928
-0.011575832 -0.044584826 0.052185167 0.010885617 0.053867184 -0.04536793 0.033732533 0.0051522045
0.057467278 -0.035065535 -0.009755411 0.008662094 -0.037599396 -0.032484982 0.030493505 0.0534539
0.016187385 0.054315064 -0.05197806 0.044513263 -0.017176272 -0.02019769 0.047195792 -0.05433252
-0.023404097 0.053530257 0.034920357 0.00047666868 0.024184307 0.029137576 0.039368507 0.024265023
0.048012715 0.018190935 0.004363882 0.030026922 -0.020005321 0.025757276 0.01750032 0.036293644
-0.05632348 0.05668539 -0.0021375136 0.03958209 0.004475658 -0.0038805315 -0.04484984 -0.021870848
00000000: 12f2 0bbd 74c5 a23b 746c 6dbd 7cb1 863c
00000010: 552e 69bb 4c76 2abb 5af0 cc3c 7cf3 4c3d
00000020: d9b5 44bd af63 8fbc 0a9b 393d 599e 8f3c
00000030: 1386 273d c348 ef3a 2f12 64bd efeb 83bb
00000040: 8fa8 3dbc 949e 36bd 1dc0 553d 9659 323c
00000050: d6a3 5c3d b9d3 39bd 202b 0a3d d3d3 a83b
00000060: cf62 6b3d e1a0 0fbd 29d5 1fbc 75eb 0d3c
00000070: d301 1abd f90e 05bd 84cd f93c 7af2 5a3d
00000080: 689b 843c 7979 5e3d f2e6 54bd 8a53 363d
00000090: 41b5 8cbc a075 a5bc 6050 413d c78b 5ebd
000000a0: f3b9 bfbc 8b42 5b3d a608 0f3d 63e9 f939
000000b0: 2b1e c63c edb1 ee3c df40 213d 71c7 c63c
000000c0: fba8 443d 2805 953c e5fe 8e3b 05fb f53c
000000d0: 33e2 a3bc ec00 d33c d55c 8f3c a5a8 143d
000000e0: 73b3 66bd f12e 683d 8715 0cbb d420 223d
000000f0: 8aa8 923b 8450 7ebb 77b4 37bd 7e2a b3bc

down2.go_down.1.conv2x.0.c.1.weight f4 [64]
1.0159786 1.0044605 1.0125602 0.9244075 1.0130951 1.0096364 0.9903218 0.99481165
0.9588796 0.9723911 0.9775805 0.9395565 0.96137935 0.9958096 0.96882915 0.98655957
0.9858409 1.144009 0.9820467 1.0098836 0.99371785 0.97313595 1.0536094 1.0539885
1.0004979 0.9905288 1.0373836 1.038211 1.0338994 1.0675477 1.0230626 1.0213797
0.9860453 1.0514417 1.0780494 0.9895809 1.0277841 1.0259057 1.0155543 0.9774499
1.0691317 1.0735267 0.9795517 0.9946522 0.97453725 0.98928124 0.98545086 1.0433339
1.0223736 0.97176206 1.0204625 0.9476636 0.99972844 1.03531 1.0064619 1.0001646
0.9513884 0.9729626 0.98859733 1.0166796 0.9897817 1.0148859 0.9753808 1.0046908
00000000: 960b 823f 2992 803f 939b 813f f8a5 6c3f
00000010: 1aad 813f c43b 813f bb85 7d3f faab 7e3f
00000020: 2279 753f a0ee 783f b742 7a3f c686 703f
00000030: f51c 763f 61ed 7e3f 3005 783f 2b8f 7c3f
00000040: 1260 7c3f e36e 923f 6a67 7b3f de43 813f
00000050: 4b64 7e3f 701f 793f acdc 863f 18e9 863f
00000060: 5110 803f 4c93 7d3f fcc8 843f 19e4 843f
00000070: d156 843f 67a5 883f b7f3 823f 92bc 823f
00000080: 776d 7c3f a495 863f 86fd 893f 2d55 7d3f
00000090: 6e8e 833f e150 833f affd 813f 283a 7a3f
000000a0: 4fd9 883f 5369 893f e6c3 7a3f 87a1 7e3f
000000b0: 467b 793f 8941 7d3f 8246 7c3f f78b 853f
000000c0: 23dd 823f 66c5 783f 849e 823f 159a 723f
000000d0: 34ee 7f3f 0a85 843f bed3 803f 6505 803f
000000e0: 318e 733f 1414 793f b714 7d3f 8f22 823f
000000f0: 5562 7d3f c8e7 813f 8eb2 793f b599 803f

down2.go_down.1.conv2x.0.c.1.bias f4 [64]
0.013897364 0.015633117 0.037474968 -0.08560389 -0.0064922455 -0.026938226 -0.042144075 -0.10378942
-0.055784814 -0.06891408 -0.03421783 -0.10932089 -0.1882098 -0.017564114 -0.03875796 -0.07458153
-0.110840544 -0.03324183 -0.049723122 -0.041086555 -0.021481317 -0.05138895 0.059895057 -0.0522428
0.07805615 -0.014465025 -0.0019836745 -0.045994528 -0.009950114 0.072708696 -0.08056446 0.0051777884
-0.034452554 0.06462525 0.010517248 -0.056220427 -0.11482285 0.033388216 -0.08712139 -0.05247254
-0.062115967 -0.14211458 -0.06364397 -0.015793888 -0.04148776 -0.070702285 -0.1091802 0.007410386
-0.00694119 -0.028996734 0.02963888 -0.105973095 -0.002773141 0.030049121 -0.016904533 -0.05018621
-0.06697843 -0.07448113 -0.02723841 0.001844311 -0.095690034 0.025922626 -0.111357175 -0.0031370409
00000000: c5b1 633c 0611 803c 5a7f 193d 1851 afbd
00000010: e7bc d4bb 8ead dcbc 449f 2cbd 8c8f d4bd
00000020: 9e7e 64bd d322 8dbd ff27 0cbd a1e3 dfbd
00000030: 12ba 40be 9ee2 8fbc abc0 1ebd 34be 98bd
00000040: 5e00 e3bd 9628 08bd 79aa 4bbd 604a 28bd
00000050: 96f9 afbc 387d 52bd 8554 753d 8cfc 55bd
00000060: e7db 9f3d b6fe 6cbc 8900 02bb c264 3cbd
00000070: ce05 23bc 4ce8 943d fbfe a4bd 70aa a93b
00000080: 1f1e 0dbd 3e5a 843d 8950 2c3c 6447 66bd
00000090: 3e28 ebbd 15c2 083d b36c b2bd 72ed 56bd
000000a0: 506d 7ebd 7c86 11be c557 82bd 2f62 81bc
000000b0: 12ef 29bd 5ccc 90bd de99 dfbd d3d2 f23b
000000c0: ec72 e3bb 8f8a edbc 3dcd f23c 6c08 d9bd
000000d0: 96bd 35bb 9329 f63c 607b 8abc 0e90 4dbd
000000e0: fd2b 89bd 9089 98bd 1623 dfbc cfbc f13a
000000f0: 23f9 c3bd b05b d43c 3b0f e4bd d096 4dbb

down2.go_down.1.conv2x.0.c.1.running_mean f4 [64]
0.6280253 -1.1501923 -1.7973247 0.50327104 0.34072563 -0.38410813 -1.4124777 0.6930385
-0.45457044 -1.9096534 0.755499 2.1547956 0.26744488 -0.74135053 1.3781061 -0.12514116
0.38367817 -0.54364705 0.020153163 -0.5629407 -0.46788436 0.7977906 0.02071981 1.75076
-0.90071934 -0.076618016 -1.2526908 -0.0809493 -0.1170409 -0.36187798 -0.8870193 -1.6979682
-1.2842991 -0.04649602 0.28334418 0.8395678 0.046906296 -1.0854911 0.6563536 0.85135686
0.42648315 -2.430425 0.13701144 0.0949276 -0.87586236 1.3247471 0.5842426 -0.019974977
-1.5158312 0.5234112 -1.4937849 -1.7371182 -2.2115798 -0.9679144 0.06109656 0.87880886
-0.90711355 -1.349979 -0.47722661 0.017645584 0.78700393 -0.18221188 0.7350883 -1.0580759
00000000: 44c6 203f 8039 93bf bc0e e6bf 5fd6 003f
00000010: 9773 ae3e d2a9 c4be 12cc b4bf f96a 313f
00000020: 75bd e8be 866f f4bf 6268 413f 2ce8 0940
00000030: 89ee 883e 26c9 3dbf c865 b03f 0125 00be
00000040: 7771 c43e 742c 0bbf 3f18 a53c e21c 10bf
00000050: 8a8e efbe 013c 4c3f 97bc a93c e718 e03f
00000060: 8b95 66bf e8e9 9cbd 2c58 a0bf bfc8 a5bd
00000070: 24b3 efbd 1248 b9be b213 63bf 0657 d9bf
00000080: ea63 a4bf 9c72 3ebd 7d12 913e eaed 563f
00000090: d120 403d 5ff1 8abf ca06 283f 86f2 593f
000000a0: 005c da3e 158c 1bc0 ba4c 0c3e 6769 c23d
000000b0: 8438 60bf 5091 a93f ec90 153f 90a2 a3bc
000000c0: c206 c2bf 47fe 053f 5834 bfbf e459 debf
000000d0: 868a 0dc0 3dc9 77bf 6340 7a3d 9ef9 603f
000000e0: 9838 68bf 1dcc acbf 0c57 f4be 798d 903c
000000f0: 1779 493f c095 3abe bf2e 3c3f 086f 87bf

down2.go_down.1.conv2x.0.c.1.running_var f4 [64]
0.44604704 0.59933686 1.1423842 0.34796643 0.587566 0.4496431 0.42891756 0.27527487
0.68660516 0.88842005 1.675182 1.2422917 0.48901924 0.6576907 0.36332217 0.6026009
0.1845029 0.49394608 0.3880489 0.53969973 0.2918083 1.0535402 0.6519961 0.5417788
1.0112035 0.48168057 0.7822757 0.49793822 0.9295042 0.9814903 0.43266997 0.8437007
0.6259649 0.6794634 0.6066607 0.7148554 1.0671452 1.5712844 0.42828187 0.8520279
0.57154393 0.5932342 0.6158442 0.9068351 0.5243646 0.612604 0.3695748 0.90879345
0.3968984 0.72753173 1.3745677 1.1336097 1.704515 0.8075722 0.33334896 0.5179839
1.412085 1.1109053 0.47763702 0.66741914 0.3651237 0.6111477 0.30946273 0.77967167
00000000: 4760 e43e 246e 193f a539 923f a828 b23e
00000010: ba6a 163f 9f37 e63e 159b db3e d4f0 8c3e
00000020: 5bc5 2f3f 7f6f 633f 5d6c d63f 6a03 9f3f
00000030: bb60 fa3e 6b5e 283f 5d05 ba3e 0d44 1a3f
00000040: 54ee 3c3e 80e6 fc3e 58ae c63e c329 0a3f
00000050: e667 953e 68da 863f 37e9 263f 04b2 0a3f
00000060: 1e6f 813f d69e f63e 3843 483f c2f1 fe3e
00000070: fdf3 6d3f f342 7b3f eb86 dd3e c5fc 573f
00000080: 3c3f 203f 50f1 2d3f 1e4e 1b3f c300 373f
00000090: 3798 883f d91f c93f c347 db3e 801e 5a3f
000000a0: b450 123f 32de 173f f7a7 1d3f 5826 683f
000000b0: c23c 063f 9ed3 1c3f e838 bd3e b0a6 683f
000000c0: 4436 cb3e 853f 3a3f d6f1 af3f 1f1a 913f
000000d0: 8c2d da3f 0dbd 4e3f b7ac aa3e 989a 043f
000000e0: 34bf b43f 2532 8e3f d78c f43e fbdb 2a3f
000000f0: 7ef1 ba3e 2d74 1c3f e671 9e3e 9098 473f
