data/model/3-test.pth (torch_old, 492009 bytes, 73 tensors)

inc.conv.conv2x.0.c.0.weight f4 [16, 1, 3, 3]
000000 d4 1b 70 3d b9 c5 96 bd 73 3e 6e be f3 1f a3 3e
       0.05862029 -0.07361931 -0.2326601 0.31860313
000010 64 19 10 3e d0 f0 ac 3e 35 37 b7 bd a2 e1 13 3e
       0.14072186 0.33777475 -0.08946077 0.14441541
000020 ee fc a9 be f5 7d 81 be f4 c2 6d be 51 89 b6 3d
       -0.33200783 -0.2529141 -0.232189 0.0891291
000030 d0 78 33 3e 3a 50 87 3e 1d 3a 9c 3e 81 16 4b 3e
       0.17526555 0.26428396 0.30513087 0.19832803
000040 70 b0 23 bd 12 e0 e9 3e 98 e9 39 3e b8 b1 41 be
       -0.039963186 0.45678765 0.18155515 -0.1891545
000050 31 d3 7d be f9 ce 90 3d 77 74 a2 be 89 04 55 bd
       -0.24787594 0.07070727 -0.3172948 -0.05200628
000060 54 54 99 3c ff 80 95 be a4 43 e6 3d 73 47 ab 3e
       0.018716969 -0.2919998 0.1124337 0.3345295
000070 70 75 62 3e 00 ce 9b be 29 0b 5e bd ef 89 b1 3e
       0.22115111 -0.30430603 -0.054209862 0.34675547
000080 3c a3 66 bd b6 e3 a6 3b 5a a1 72 3e 7c d6 08 3e
       -0.056308016 0.005093063 0.23694363 0.1336307
000090 4a 0b 4b be 42 54 aa 3b ec 51 61 3e 7c cc ac be
       -0.19828525 0.0051980326 0.22003907 -0.3374976
0000a0 90 84 51 be 69 0f 9a bc 7e 8c 99 bd 75 5e 43 3e
       -0.20460725 -0.018806176 -0.074975 0.19079001
0000b0 03 94 fa bd b1 45 68 3e 8d db 03 3f bd ba 37 3e
       -0.12235262 0.22682835 0.5150688 0.17942329
0000c0 dd b9 ea bd fa 64 91 3d bf 04 ff 3c d2 f3 23 3e
       -0.11461232 0.07099338 0.031130193 0.16010979
0000d0 a3 02 72 be e5 db 43 bd 2b 89 16 3e f6 92 3f 3d
       -0.23633818 -0.04781713 0.14700763 0.046771012
0000e0 eb c1 c3 bd 91 ff 4a 3e 0e cb fa 3e 3b 96 9d 3d
       -0.09558471 0.19824053 0.48983043 0.0769467
0000f0 7b 8e 27 be 89 e9 a0 3e a3 5b a4 3e cb ff 65 be
       -0.16362946 0.31428173 0.32101163 -0.22460859
000100 9d 44 69 be 03 7a d0 3d a9 f1 ab ba 4f 88 60 be
       -0.2278008 0.10179522 -0.0013118285 -0.21926998
000110 40 4c 41 3e 01 d7 a6 bd 04 a8 88 3d 3d 80 6b 3e
       0.18876743 -0.081464775 0.066726714 0.22998138
000120 dd d6 c2 3e 63 7b 83 3d c7 06 3e 3e af fe a1 be
       0.38054553 0.064200185 0.18557273 -0.3163962
000130 bc 76 50 be 2a 1e 9c 3c 1e 8b 91 be b4 30 8f be
       -0.20357794 0.019057352 -0.2842645 -0.27966845
000140 13 82 58 3e 18 56 45 3e cb 19 e1 3c 8a 67 7c bd
       0.2114337 0.19271123 0.02747812 -0.06162218
000150 30 97 21 3e c1 99 be be c3 0a ab 3d b9 58 54 bd
       0.1578033 -0.3722668 0.08351662 -0.051842425
000160 49 dc d6 bc 52 48 2f bd d5 31 8a bd 92 c5 ae 3e
       -0.026228087 -0.04279358 -0.06747786 0.3413511
000170 cb 74 da 3b d0 5c 6c bd 60 16 14 3d 75 96 de bd
       0.006666755 -0.0577057 0.03615415 -0.10868541
000180 72 1d 34 3e e2 37 ac 3e 1f c6 91 be bb 54 4e 3d
       0.17589357 0.33636385 -0.28471467 0.050373774
000190 5c 96 4a be 65 d2 40 3e 11 5f 0f 3e 33 7e eb 3d
       -0.1978392 0.18830259 0.14001109 0.1149868
0001a0 8a f3 de bb 25 86 03 be 9d 1f b3 be 33 91 59 3d
       -0.0068039345 -0.12844141 -0.34985057 0.05311699
0001b0 ed 35 a3 3d cb af 95 3d ad 2a 4e 3d 8a 78 7b be
       0.0796927 0.073089205 0.050333668 -0.24557701
0001c0 fa 64 ba 3b 34 08 b3 be 0a a9 10 be 0c 50 b1 3e
       0.005688307 -0.34967196 -0.14126983 0.34631383
0001d0 fe 2a 88 3e 90 75 50 bd c3 ff b4 bd 4b 7d c6 bd
       0.265953 -0.050893366 -0.08837845 -0.096918665
0001e0 01 35 b9 bd 3c 87 c4 be ce 38 f4 3d 41 33 8d bc
       -0.09043313 -0.38384426 0.11924897 -0.017236354
0001f0 35 73 aa be c8 e7 c3 bd ab 50 6f 3e 35 6f 92 be
       -0.3329102 -0.09565693 0.23370616 -0.2860047
000200 39 5a 76 be 1e 7a c0 3b ac 5a 90 3e b9 41 3d be
       -0.24057855 0.0058739325 0.28194177 -0.18482102
000210 46 a2 ad be c3 5b 95 3e 85 83 a5 bd 2e f5 70 be
       -0.33912867 0.2917157 -0.08081726 -0.23531029
000220 0d 9b 6b bd 9e 3b a9 bd db 47 35 3e de b6 87 be
       -0.057520915 -0.08263324 0.17703192 -0.26506704
000230 8f 00 b4 3e e0 a0 9a bc 50 66 1d 3e 3c 91 0a be
       0.35156676 -0.01887554 0.1537106 -0.13531965

inc.conv.conv2x.0.c.0.bias f4 [16]
000000 27 7e ad 3d 73 85 b5 3c 82 93 3f be 8a 3e 59 be
       0.08471327 0.02215836 -0.18708614 -0.21215263
000010 d3 32 33 be 36 05 ef 3d 4b 7d 9f 3e 01 15 33 3e
       -0.17499857 0.11670916 0.31150278 0.17488481
000020 8f 50 2e 3d 86 79 94 be ee ae bd 3d 5a c6 01 be
       0.042557295 -0.28998965 0.09261881 -0.12673321
000030 70 af de bc a8 0a 07 be c2 ae 27 3e 0d ee 84 be
       -0.027183264 -0.13187659 0.16375259 -0.25962868

inc.conv.conv2x.0.c.1.weight f4 [16]
000000 d3 a9 43 3f e1 e9 5b 3f 1b 5b 46 3f 33 55 86 3d
       0.76431006 0.85903746 0.77482766 0.06559219
000010 db 08 e8 3e 99 35 8a 3e ee 53 4e 3f 06 22 35 3f
       0.45319256 0.26994017 0.80596817 0.7075504
000020 36 9c 0a 3f 2d f6 6b 3f fb 4b fc 3e c2 38 63 3e
       0.5414461 0.9217251 0.49276718 0.2218962
000030 27 50 67 3f 40 c6 e8 3d 12 0e 9d 3e 7d 1d 75 3e
       0.9035668 0.11365938 0.30674797 0.2393703

inc.conv.conv2x.0.c.1.bias f4 [16]
000000 cc f0 27 3d 50 14 30 bd 79 d8 8d bc 88 cb 29 bd
       0.041001126 -0.04298812 -0.017315136 -0.04145387
000010 5c 62 a3 3c c0 6c 35 bd 3e 77 00 bd dd 85 6c bd
       0.019944362 -0.044293165 -0.03136372 -0.05774485
000020 ae 3e 82 3d f1 1f 99 bc 47 a4 02 bd 53 cc 12 be
       0.063596115 -0.018691989 -0.03189495 -0.14335756
000030 45 e3 ca 3c b5 f1 a9 bc 15 1c f4 3b 58 aa 07 bd
       0.024766574 -0.020745138 0.0074496367 -0.033121437

inc.conv.conv2x.0.c.1.running_mean f4 [16]
000000 ac c6 ee 3d cb 31 0a 3e d4 9f 8a be f8 95 e3 bd
       0.116589874 0.13495557 -0.27075064 -0.11112589
000010 1a f8 73 be 26 8e 55 3e d8 78 ef 3e 20 0c 1f 3e
       -0.23825112 0.20855007 0.46771884 0.15531969
000020 e4 bf 86 3c c6 0f 9a be f5 1e 0c 3e f4 16 12 be
       0.016448922 -0.3009016 0.13683684 -0.14266568
000030 79 a0 8d bc 23 a8 81 be bf 8f 01 3e 69 aa 8b be
       -0.017288433 -0.2532359 0.12652491 -0.2727845

inc.conv.conv2x.0.c.1.running_var f4 [16]
000000 ef 91 26 3b a2 55 ed 3c fa b3 82 3c f2 f2 bd 3c
       0.0025416573 0.028971497 0.01595496 0.023187134
000010 1d 9e 17 3c bc 01 9d 3c 4e d7 60 3d e4 5b bd 3a
       0.009254006 0.019165866 0.05489283 0.0014446941
000020 79 75 19 3b c0 97 ca 39 5c a7 95 3b 1a 0a 38 3a
       0.0023415966 0.00038641505 0.00456707 0.0007020548
000030 c2 96 9f 39 13 69 07 3d 82 30 4b 3b 25 9f f6 39
       0.00030439167 0.03305919 0.0031004255 0.00047039348

inc.conv.conv2x.1.c.0.weight f4 [16, 16, 3, 3]
000000 fa d0 db 3d 5d 5e 85 bd 32 9e 60 bd 12 8e f2 3d
       0.107332185 -0.06512139 -0.054838367 0.11843504
000010 fe 0c 11 3c a1 54 9f 3c 47 75 81 3c 14 3b d6 bc
       0.008853195 0.019449534 0.015802993 -0.026151218
000020 23 5d 39 3b 96 a6 be bc af 34 3b bd 68 19 40 3d
       0.0028284274 -0.023272794 -0.04570454 0.04689923
000030 da af 9c 3c fb 7e 79 3d 98 db 30 3d c6 cf 6c bd
       0.019126821 0.060912114 0.04317817 -0.057815336
000040 8d b7 c0 bc 93 1d 03 3d 39 b7 c0 bc 57 ef c1 bd
       -0.023525024 0.032010626 -0.023524867 -0.094694786
000050 c8 f8 a2 bd 62 57 2a 3c 5c ef 61 bd 80 4a 11 bd
       -0.079576075 0.01039681 -0.05515991 -0.03547144
000060 ac 1d a9 bd 90 1a ab bd 7f a4 f1 bd 4b f2 ba bd
       -0.082576126 -0.08354676 -0.11798953 -0.09128245
000070 bb e1 0c 3d 8e 12 16 3c d1 51 86 bd c4 3d 5a 3d
       0.03439496 0.009159697 -0.06558574 0.05328156
000080 a5 53 8a 3c 25 5d 95 3d 92 21 08 3d 9a 00 13 3c
       0.016885588 0.072931565 0.03323514 0.008972311
000090 43 5e af bd 8e ab dd bd 60 b1 dc bd 17 ef b4 bd
       -0.08562901 -0.10823737 -0.10776019 -0.08834665
0000a0 86 7a af 3c 33 3f 92 bd f0 43 98 ba 46 63 0c 3c
       0.021420728 -0.071409605 -0.0011616927 0.0085685905
0000b0 01 b9 2c bc 7e cf ba bd 13 3c 89 3c b2 fe 39 bd
       -0.010542155 -0.09121607 0.016752278 -0.045408912
0000c0 51 a3 97 bc f5 55 5d bb 66 c2 a9 bd e1 0c ce 3d
       -0.018510493 -0.0033773158 -0.08289032 0.1006105
0000d0 46 24 82 3b ca 6c ae bd 00 31 92 3d 21 5c c4 3c
       0.0039716093 -0.085168436 0.07138252 0.023969712
0000e0 dd fd 3d 3d 5d 34 9c 3d ee 4e 50 3c 8e dd 67 bc
       0.04638468 0.07627175 0.012714131 -0.014151944
0000f0 f7 e1 61 3d db 55 af bd 90 6b 3d 3d bf 6f a8 bb
       0.055147137 -0.085612975 0.046245158 -0.0051402743
000100 f1 ba c7 bd 11 13 8c bd bd 71 94 bd 93 21 04 3b
       -0.09752453 -0.06839574 -0.07248256 0.0020161613
000110 7d 7b 98 bb b3 7f 33 be e7 ee d4 3c c9 13 84 bd
       -0.004653393 -0.17529182 0.025992824 -0.06449086
000120 11 48 06 bd 72 ee ca bd 33 e2 c4 bd 82 ef 2f be
       -0.03278357 -0.09908761 -0.096134566 -0.17181209
000130 34 17 5d bd 5f 04 b1 ba 4a 7e e0 bd 0b 83 e3 bd
       -0.053977206 -0.0013505331 -0.10961588 -0.11108979
000140 99 9a ce bd 25 ce 46 bd 7b d4 85 3d 60 fb 1b bd
       -0.10088081 -0.04853644 0.06534668 -0.038081527
000150 e2 9e c6 bc 06 61 d3 3d 6b 8b 8b 3d 2a 29 04 be
       -0.024245683 0.1032124 0.06813701 -0.12906328
000160 96 3e af 3d 13 c9 4c 3d 6d 4b 86 3d 01 da 8a 3d
       0.08556859 0.049996447 0.06557355 0.06779862
000170 ca c3 1a bd 83 b0 02 3d 2c d0 59 bd c3 2b 7f 3b
       -0.037784375 0.031906616 -0.053177044 0.0038935996
000180 16 89 a7 3d 12 6b 2f 3d 98 6e dc bc 22 df 13 bd
       0.08180444 0.04282672 -0.026908204 -0.036101468
000190 44 59 9f bd f9 51 b2 bd 09 f9 87 bd c7 46 1e 3d
       -0.07780698 -0.08707041 -0.066392966 0.038641717
0001a0 a2 d4 34 bd 32 2c b6 3d 58 7e 8d 3d 90 0c bf bd
       -0.044148095 0.08895148 0.06908864 -0.09328568
0001b0 a0 7d 69 3d 6a 0b ca bd 24 88 0c bd f7 fd d2 bd
       0.05700457 -0.09865458 -0.03430952 -0.10302346
0001c0 0b 39 3a 3c e8 0f 7e 3c 93 8f 14 3d e3 21 84 3c
       0.011366139 0.015506722 0.036269736 0.01612944
0001d0 48 fc 66 3d 09 0a a0 bd 04 c6 ed 3c ec 13 d2 bd
       0.056392938 -0.07814414 0.029025085 -0.10257706
0001e0 98 55 cc bd 3a dc 8b bd 24 96 d2 bd ad c8 15 3b
       -0.09977263 -0.06829114 -0.10282543 0.0022855208
0001f0 a4 03 af bd 0d 1e a8 bd da fe 77 bc 6f 10 30 bc
       -0.08545616 -0.08208857 -0.015136445 -0.010746106
000200 d3 43 9c 3c db 5b 80 bd 68 b7 21 be 4f cb 07 3d
       0.01907531 -0.0626752 -0.1579262 0.033152875
000210 1b 2b e2 bd 41 fa fc bd 1c b6 8a 3c ae cb 4b 3d
       -0.11043378 -0.1235242 0.01693254 0.04975479
000220 da 20 05 3d 86 01 7a bc 66 7c c5 bd 8f b4 11 3d
       0.032502033 -0.015259152 -0.09642868 0.035572585
000230 c2 f2 8a bd 96 97 63 3d fc b1 64 bd 21 ac f6 3c
       -0.06784584 0.055564485 -0.0558338 0.030111374
000240 79 da 5d bd 59 2d 45 39 67 be 7f 3d 1c c6 9b 3c
       -0.05416343 0.00018804277 0.06243744 0.019015364
000250 51 f9 c1 3d 6d 41 6d bd 1b 6a f4 bc b1 54 a1 3b
       0.094713815 -0.057923723 -0.029835751 0.004923426
000260 73 19 00 3d e3 ed b3 3d fc 4b a7 bd 9f f1 86 bd
       0.03127427 0.08785608 -0.0816879 -0.06589054
000270 de 32 65 bb 33 ab 80 bd bc 48 9a bd e7 1d ac bd
       -0.0034972946 -0.06282654 -0.07533404 -0.08404141
000280 60 c5 93 3b 76 f3 38 3d b0 87 e6 bd c5 d6 59 bd
       0.004509613 0.045154057 -0.11256349 -0.053183336
000290 66 eb 84 bd 51 ce 69 bd a0 84 b7 bd 17 e7 69 bd
       -0.06490211 -0.057081524 -0.08960843 -0.05710515
0002a0 81 45 b9 bd 07 a3 29 3d fe 70 9f ba a7 c0 a3 bd
       -0.0904646 0.04141524 -0.0012164412 -0.0799573
0002b0 03 7a 84 bc 87 0b ae 3b 24 ab 63 bd ee b3 89 3d
       -0.016171461 0.0053114328 -0.055583134 0.06723772
0002c0 33 97 ad 3c 49 99 8b 3d 91 b1 0a 3c 32 19 69 bd
       0.021190261 0.06816346 0.008465187 -0.056908794
0002d0 20 29 be bc 6e 1e aa 3c 1e b8 8e bd b8 18 c2 bd
       -0.02321297 0.020766463 -0.06968711 -0.09477371
0002e0 fd 63 2b 3d 29 35 90 bd fa 3f db bc 54 21 fc bc
       0.041843403 -0.070413895 -0.026763905 -0.03077761
0002f0 a5 3a cd bd 9b af fa bc ab 78 95 bd e8 98 66 3d
       -0.10020951 -0.030601313 -0.07298406 0.056298167
000300 02 74 59 bc ac 7b ba 3c 1f ed 11 3d bc d2 33 3d
       -0.013272287 0.02276405 0.035626527 0.043902144
000310 b7 83 4e 3d fd f5 55 bc 57 3a 6d bd 32 63 f6 3b
       0.05041858 -0.013059136 -0.057916965 0.007519149
000320 81 67 9e bc e1 2c 14 bd 12 7f 05 3d cb dd 9f bc
       -0.019336464 -0.036175612 0.032591887 -0.019514939
000330 54 ac 81 3d db 86 cc 3c fe 24 12 bd 2a fd 99 bd
       0.06331697 0.024966648 -0.03567981 -0.0751899
000340 a7 c1 03 3d ed 49 5e bd 00 6a a9 3b 6a 42 10 bd
       0.032167103 -0.05426972 0.005170107 -0.035219587
000350 27 58 a1 3d b3 44 cf bd 90 6d 81 3c c0 31 d9 3d
       0.07878142 -0.10120525 0.015799314 0.10605192
000360 c5 8d 95 bd 2c 41 3f ba 5f e6 32 3d cc 96 03 be
       -0.07302431 -0.0007295783 0.04367673 -0.12850493
000370 dc d6 1a 3d 2d 6e 7b bd 7f 94 cb bd a2 c5 11 be
       0.037802562 -0.06138437 -0.09940433 -0.14235547
000380 d6 d3 48 bd 8c 18 73 bd 2a 1a 0e 3d fb e0 14 3d
       -0.049030147 -0.05934958 0.03469292 0.03634737
000390 23 25 52 ba 6b f4 94 bd 2a 89 c3 3c 16 a1 43 bd
       -0.0008016398 -0.072731815 0.023869116 -0.047761045
0003a0 17 bd ba bc e1 f4 ea 3c 2e 92 57 3d 57 d3 df 3c
       -0.022795243 0.02868122 0.052629642 0.027322454
0003b0 77 2e 84 3a 44 98 11 3d c3 a4 77 bd d2 65 29 3c
       0.0010084648 0.035545602 -0.060459863 0.010339217
0003c0 94 8c 0c 3c 89 c9 77 3d db 22 94 bd 52 07 eb bd
       0.008578438 0.060494933 -0.07233211 -0.114760056
0003d0 e1 b4 67 3d aa 7b f1 bd 67 10 2c bd e7 08 c3 bc
       0.056568984 -0.11791165 -0.04200783 -0.023807956
0003e0 5b f4 86 bd cd e6 41 be ed fc a6 bd cd 34 04 be
       -0.06589576 -0.189357 -0.081537105 -0.12910767
0003f0 45 55 5d 3d 89 77 47 3d cd e0 a7 3c 88 b0 83 3d
       0.054036397 0.048697982 0.020492936 0.06430155

inc.conv.conv2x.1.c.0.bias f4 [16]
000000 30 fa e2 bc f7 4b 33 3d ab cc f3 3b 01 ea 92 bc
       -0.02770719 0.043773618 0.00744017 -0.017933847
000010 c5 0c 08 3d 8c dd 11 3d 53 e5 5e bc 17 89 ce 3b
       0.033215303 0.035611674 -0.01360448 0.0063029635
000020 38 69 68 bd 84 97 fa bc 5c 29 4e 3d 12 72 a8 bd
       -0.05674097 -0.030589826 0.050332412 -0.08224882
000030 1b cb 86 3d aa 11 d9 bc 75 cd 8b 3d 8e 65 fa bc
       0.06581708 -0.02649768 0.06826297 -0.030566003

inc.conv.conv2x.1.c.1.weight f4 [16]
000000 67 34 25 3f 00 19 15 3f 00 4c 47 3f 69 cc 33 3e
       0.64533085 0.5824127 0.7785034 0.17558445
000010 dc 4a 05 3f ba dc c5 39 0d 6f 03 3f ad 0d 04 3f
       0.5206735 0.00037739222 0.51341325 0.5158337
000020 f3 12 5b 3f aa e0 5d 3f f9 22 2b 3f 78 f3 5c 3f
       0.8557579 0.86670935 0.6685024 0.86309004
000030 9a c7 cd 3e 8f 78 36 3f c4 15 22 3e 72 a4 8a 3e
       0.40191346 0.7127771 0.15828615 0.27078587

inc.conv.conv2x.1.c.1.bias f4 [16]
000000 ac a3 65 3d ee 29 06 3c 6e ba d2 3c 4a 05 7b 3c
       0.056064293 0.008188708 0.025723662 0.015321085
000010 1b 98 a3 3d eb 9d 10 bc 77 63 b2 bb 21 5d 98 3e
       0.07987996 -0.008826713 -0.005443986 0.29758552
000020 7b 5b 97 3d e7 c0 24 bd f4 0d 10 3c c1 3a 66 3c
       0.073904954 -0.04022303 0.008792389 0.014052094
000030 3e ec ec bc 87 6c 22 bd d5 6b b0 bb f6 95 56 3d
       -0.028921243 -0.03965428 -0.0053839483 0.052389108

inc.conv.conv2x.1.c.1.running_mean f4 [16]
000000 12 e1 db be ec 44 a2 be d6 5e 3e be d9 42 bd 3c
       -0.42945153 -0.31693208 -0.18590865 0.023103165
000010 7c b5 8d be 4d 21 b0 be 26 b0 9f 3e cd d8 a0 3d
       -0.27677524 -0.34400406 0.31189078 0.078538515
000020 2e e2 fb be b0 6e 7d 3e 2c 5a 60 bf ec 9e 8b bd
       -0.49196 0.24749255 -0.8763759 -0.06817421
000030 15 3f b0 bd 90 6a 7c 3e 0f c6 de bd 4a 1e 00 bf
       -0.08605782 0.24650025 -0.108776204 -0.5004622

inc.conv.conv2x.1.c.1.running_var f4 [16]
000000 36 cc be 3e 54 11 d9 3d 4c 36 fc 3c 02 a6 00 3f
       0.37265176 0.10599008 0.03078761 0.5025331
000010 1f 38 28 3d 6a 60 ab 3e c4 3d 2b 3d e7 76 8b 3c
       0.041069146 0.33471996 0.04180695 0.01702447
000020 d7 3f 13 3f 71 15 e3 3e fa 2e dd 3f 81 3a ab 3e
       0.57519287 0.44352296 1.7279961 0.33443072
000030 84 fb 0a 40 2d 5c 37 3d d9 50 dd 3e c8 9f 7b 3e
       2.1716013 0.04476564 0.43225744 0.2457267

down1.go_down.1.conv2x.0.c.0.weight f4 [32, 16, 3, 3]
000000 99 ae 1e 3c 1a 9a 5e 3d 20 68 37 3c 86 6d 70 bd
       0.009685182 0.05434618 0.011194259 -0.0586982
000010 fe 31 2d 3d df 37 b2 bd 28 dd 42 bd ec 7f 8f 3c
       0.042284004 -0.08702063 -0.047574192 0.017517053
000020 d6 7d f4 3d a9 39 b4 3b 24 b7 00 bd 71 eb 81 bc
       0.11938064 0.0055000377 -0.031424657 -0.015859338
000030 99 1f ab 3d 17 3f 4d 3d 11 1f 88 bd 8b 35 bb bc
       0.08355636 0.050108995 -0.066465504 -0.02285268
000040 9d ca e5 bb 88 19 3c bd 39 c1 cd bd 52 31 ba bc
       -0.007012679 -0.045922786 -0.1004662 -0.022728596
000050 2f a9 4f 3c 23 88 84 3d 7e c2 9d 3d f4 5f 83 3d
       0.012674614 0.064712785 0.07703112 0.06414786
000060 ff 18 15 3e 0c de 8d bd e0 f2 86 3c 54 03 80 3d
       0.14560317 -0.06927118 0.016473234 0.06250635
000070 f2 5c 26 3e 95 03 f1 3d 1d 4b ea 3c d0 bb ce bb
       0.16246393 0.11768261 0.02860027 -0.00630901
000080 6b 29 c7 3c 9a 02 a3 bb 47 29 24 be e2 b3 d3 bc
       0.024311742 -0.0049746754 -0.16031371 -0.02584261
000090 39 34 1e be a0 3e 34 bd c6 1c 51 3d 78 55 05 bd
       -0.15449609 -0.044005036 0.05105283 -0.032552212
0000a0 ac ae 2c be 57 ef 97 bb 10 34 f0 3d 2f 1e 15 bd
       -0.16863507 -0.004636686 0.1172868 -0.03640574
0000b0 ad 9a bf 3c ad e9 8d 3d 45 b0 87 3d ef 01 02 3e
       0.023389185 0.06929336 0.066254176 0.1269605
0000c0 08 5d a5 bd 52 a1 18 3d f2 14 7f 3c c8 75 b0 bc
       -0.08074385 0.037263222 0.015568959 -0.021540537
0000d0 e2 30 dc bb b2 d2 b9 bc 54 18 a1 bd cb 4b 19 bd
       -0.0067196945 -0.022683475 -0.07865968 -0.037425797
0000e0 cd b6 82 3d 5b 2d 19 3d c5 84 82 3c ff af 94 3d
       0.06382523 0.03739677 0.01593245 0.07260131
0000f0 6e c2 73 3c b1 6c 6f bd d4 fe 16 bd 63 a7 7a bd
       0.014877899 -0.058453266 -0.036864117 -0.06119479
000100 dd 13 00 be 44 b1 8b be cb 31 9a 3c 82 54 9d bd
       -0.12507577 -0.2728368 0.018822571 -0.07682134
000110 2a 2c 6d bd d2 82 2b 3d bb e5 02 bd 9c 2c 00 bd
       -0.057903446 0.041872807 -0.03195737 -0.031292543
000120 c0 b9 08 3e f5 47 09 3e 35 e2 a0 3d da bb e9 bc
       0.13352108 0.13406356 0.078556456 -0.028531957
000130 a4 32 1d bd a2 c5 eb 3d b3 34 48 bd ed 18 0b be
       -0.038378373 0.11512305 -0.048878383 -0.13583727
000140 8c f7 99 3d a9 8f b7 bc ac de 13 bd 2a f3 06 bd
       0.07517919 -0.02240737 -0.03610103 -0.032946743
000150 e8 15 c2 3d bc 2c 76 3d 4a f1 9e bd 21 2e 0f 3d
       0.094768345 0.060101256 -0.07760866 0.0349561
000160 23 2b 24 3d b7 b7 7a 3d b5 e4 1a 3d 90 f4 81 bd
       0.0400802 0.06121036 0.03781577 -0.06345475
000170 9e 17 7a 3d 9d 10 e0 bd bd 58 c4 bc 8d be 8b b8
       0.06105768 -0.10940669 -0.023968095 -6.663529e-05
000180 ba 78 e5 3d 83 c7 b2 3c e4 13 47 bd 18 4f 99 3b
       0.112046674 0.02182365 -0.048602954 0.004678618
000190 44 29 6b 3c 5c 42 5c bc d7 40 91 bd 96 cf 45 bd
       0.0143531 -0.013443556 -0.07092445 -0.048293673
0001a0 65 66 15 3d 2d 66 b2 3d 85 44 8d 3d 85 b1 9d bd
       0.036474604 0.08710895 0.06897835 -0.07699875
0001b0 ff d6 7a bd 31 08 18 3d f5 69 37 bc 2d 99 4b 3d
       -0.061240193 0.037117187 -0.011194696 0.049706627
0001c0 cc 68 3a bd 66 8b 36 3a d9 49 db 3b 5a 22 0e 3e
       -0.0455101 0.0006963521 0.006692153 0.13880292
0001d0 ea f2 f6 3d 4b eb 53 3d 5a 8e a2 bd 1f 6e 02 be
       0.12058051 0.051738065 -0.07937308 -0.1273732
0001e0 19 52 d1 3d 86 b9 ce bc a6 e6 b8 bd 2f 86 8e bb
       0.10220737 -0.025234949 -0.09028368 -0.004349492
0001f0 08 d9 2a 3d 11 00 bd bc 5e f4 59 3d b0 8c eb bb
       0.041710883 -0.02307132 0.053211562 -0.007188402
000200 17 43 64 3d d2 3f 00 3c a4 18 8c bd cf 36 84 3d
       0.055728044 0.007827716 -0.06840637 0.064557664
000210 cc 4f 3e 3c 4c 44 86 bd c2 c6 16 bd a5 6f 1c bd
       0.011615705 -0.06555995 -0.036810644 -0.03819241
000220 77 17 1f be 05 8e 0f be 44 7b b8 3b e6 45 c1 bd
       -0.15536295 -0.1401902 0.005629929 -0.0943716
000230 67 d6 9a bd 53 e7 9e 3d 09 c9 6c 3d e8 95 b0 3d
       -0.07560425 0.07758965 0.05780891 0.08622342
000240 c7 00 b8 3d 98 8c 0c 3c 6a a3 0e bd 64 ad 79 bd
       0.08984523 0.008578442 -0.034823813 -0.060956374
000250 75 14 84 3d 14 a9 dc 3c a3 0a 91 bd 28 57 4c 3d
       0.06449214 0.026936091 -0.07082107 0.049887806
000260 ef 05 b0 3c 74 c8 73 bd 83 d6 57 3d f6 c2 6c 3d
       0.021487204 -0.05951734 0.05269481 0.057803117
000270 f8 b6 8c bd 8c 00 29 bd 90 94 39 bc ec fa 7c bd
       -0.06870836 -0.041260287 -0.011326924 -0.061762735
000280 4f 75 0c bd 92 1f fa bc e7 55 91 bb ae 27 64 3d
       -0.03429156 -0.030532632 -0.004435289 0.055701904
000290 a6 f3 78 3c d3 18 83 bc 57 8b f0 3c a5 9a 97 bb
       0.015194809 -0.016003048 0.029363317 -0.0046265894
0002a0 66 87 34 3d 7c 19 a1 bd 28 e3 41 3d 73 ec e1 bd
       0.04407444 -0.07866189 0.047335774 -0.11031427
0002b0 bf ac 63 bb 52 b2 12 be b2 97 16 be 6b 29 2c be
       -0.0034740416 -0.14325836 -0.14706305 -0.16812675
0002c0 54 9f 78 bd 8e d4 d5 bd 79 14 6f bd 97 b8 dc bd
       -0.060698822 -0.10440932 -0.058369134 -0.10777395
0002d0 d9 85 b0 3d 49 b0 e7 3c c8 a6 2b bc 9c ef 81 3d
       0.086192794 0.028282302 -0.0104767755 0.0634453
0002e0 d6 66 5b bc 75 e2 87 bd 3f 5c 96 bc a6 fd 94 bd
       -0.013391217 -0.0663499 -0.018354533 -0.07274942
0002f0 12 bb b0 bc 8b 78 59 bd 04 47 06 3d 4b b2 86 bd
       -0.021573577 -0.053093474 0.03278257 -0.065769754
000300 27 d0 83 bc b7 64 a6 bd da 14 39 bb d1 40 66 3d
       -0.016090466 -0.081246786 -0.0028241188 0.056214157
000310 78 e8 84 bd 40 d2 57 bd e6 45 07 bb b1 b8 d2 bd
       -0.064896524 -0.052690744 -0.0020641028 -0.10289133
000320 74 85 cf bc f3 fa 33 be 08 f1 8c bd 86 19 a8 3d
       -0.02533219 -0.17576198 -0.068819106 0.08207993
000330 c1 79 92 bd 80 43 7b 3d 6f 5f 2f 3d 55 d7 19 bd
       -0.07152129 0.06134367 0.042815622 -0.037558872
000340 e0 34 32 bd cf 36 17 be b2 eb 27 bd 73 23 97 bc
       -0.043507457 -0.14767002 -0.04099626 -0.01844952
000350 ab e4 f9 bd 78 0c 06 be 31 4c 20 3d 20 a2 95 bd
       -0.12201818 -0.13090694 0.03913516 -0.073063135
000360 0f 56 43 bc f0 79 a4 3c 1d 27 ca bb e2 74 8e bd
       -0.011922373 0.020077676 -0.0061692134 -0.069558874
000370 51 a2 51 3d e0 f8 65 bd c6 01 0f 3d 93 80 02 3d
       0.051180188 -0.05614555 0.0349138 0.0318609
000380 ae ae a2 3d f8 15 2a bd a6 1a 17 bd 69 75 3c bd
       0.07943474 -0.041524857 -0.03689065 -0.04601041
000390 7c 75 a9 bd 7c d1 77 3c 5d e4 e5 bc 68 79 6c bc
       -0.082743615 0.015125629 -0.028062994 -0.014433242
0003a0 a1 8f a5 bd 53 70 c5 bd f8 05 cc bc fe 1e 7b bd
       -0.08084036 -0.09640565 -0.02490519 -0.061308853
0003b0 16 9a 49 bd 7a 6d 75 3d 2b bc e3 3d d1 43 cc 3b
       -0.049219213 0.059918858 0.111198746 0.0062336703
0003c0 1c 45 42 bb f2 0d c7 3d aa d4 b7 3c 69 94 38 3c
       -0.0029643243 0.09719457 0.022440273 0.0112658525
0003d0 38 cb e0 bd d1 33 09 be 07 70 ea bc 5e 85 b9 bd
       -0.10976261 -0.13398673 -0.028617872 -0.09058641
0003e0 d9 fe 1b be 0b 7f 9d bd b4 b9 e4 bc f2 ef f8 bd
       -0.15233935 -0.07690247 -0.027920581 -0.12155141
0003f0 d3 14 c0 bd 0d 1d 62 bd 2a 44 4d bd 7e 07 5b bd
       -0.09378972 -0.055203486 -0.050113834 -0.053473942

down1.go_down.1.conv2x.0.c.0.bias f4 [32]
000000 ec 25 64 ba 3c 04 8d bd 5c a5 f7 bc 23 f3 5f bd
       -0.00087031606 -0.06885573 -0.030230217 -0.054675233
000010 4b eb 5e bc 69 fd cc 3a 61 30 1d bd 99 31 bb bc
       -0.013605903 0.0015639487 -0.038376216 -0.022850798
000020 70 89 ef bb ea c5 70 3d a2 ed 80 bd d6 9a 67 bc
       -0.007310085 0.058782496 -0.06295325 -0.014136037
000030 86 48 59 bd d9 2c 50 bd 49 ca ba bc d7 27 5a 3d
       -0.05304768 -0.05082402 -0.022801535 0.05326065
000040 2c 47 a8 bd 0f 15 46 3d 92 31 33 bd e4 0f 8b bd
       -0.082167 0.048359927 -0.043748446 -0.0679014
000050 14 8d a7 bd c6 f9 90 3d a3 81 a0 3b a9 4a 5c 3d
       -0.081812054 0.070788905 0.0048982664 0.05378214
000060 07 27 2c 3d b2 65 03 3d 4a ff 75 bd f0 71 9b bc
       0.042029407 0.032079406 -0.060057916 -0.018975228
000070 f1 a1 51 bc 40 32 94 3d d3 9c 64 3c 98 2b b4 bc
       -0.0127949575 0.07236147 0.013953405 -0.021993443

down1.go_down.1.conv2x.0.c.1.weight f4 [32]
000000 1f f3 6c 3f 12 1a 82 3f 9e 39 32 3f b4 6e 49 3e
       0.92558473 1.0164206 0.69619167 0.19671136
000010 0e 84 75 3f 8c ca 34 3d 3b ae c8 3e 1d 85 9d 3e
       0.95904624 0.044138476 0.39195427 0.3076562
000020 fe 75 15 3f c9 4b 92 3e 9d 07 79 3e e1 65 18 3d
       0.58383167 0.28573444 0.2431931 0.037206534
000030 73 42 40 3f ac 2c 23 3f 81 c2 6d 3f 34 43 09 3e
       0.75101393 0.6374004 0.92874914 0.13404542
000040 e2 ce 7b 3e 94 d2 50 3e d8 0b 76 3f 05 a6 69 3f
       0.24590638 0.20392829 0.9611182 0.9126895
000050 ed 82 30 3f 19 08 d5 3e 17 0e f1 3e 87 1f 6c 3f
       0.68949777 0.4160774 0.47081062 0.92235607
000060 7e a1 24 3f a2 60 a5 3e 97 ff bc 3e fa 18 72 3f
       0.6430892 0.32300287 0.3691375 0.9456936
000070 c9 cd 11 3e 5b 8f fe 3e 28 cc 89 3e 58 2d b1 3d
       0.14238657 0.49718747 0.2691357 0.08651227

down1.go_down.1.conv2x.0.c.1.bias f4 [32]
000000 6e 73 46 3c 11 0d 5e 3d da d0 8b bc 9c f0 f6 36
       0.0121124815 0.05421168 -0.017067362 7.359382e-06
000010 04 82 5f bc 15 82 0f bc ad 60 a4 bc a8 3d 40 3c
       -0.013641838 -0.008759041 -0.02006563 0.01173345
000020 74 d0 ef 3b 9b f3 ab ba f8 1c 87 3c d6 a0 19 3d
       0.0073185507 -0.0013118865 0.016493306 0.0375069
000030 52 4c 07 3e 14 40 8a 3d 3e 80 f6 3b c6 27 d3 3b
       0.13212708 0.06750503 0.007522612 0.0064439503
000040 3d 4a 80 bc 5a 1f e1 bb 14 d9 28 bd 7c 58 b3 bd
       -0.0156604 -0.0068701925 -0.041222647 -0.087571114
000050 3c 7c 27 bc 2a aa c2 bb 7d b2 00 bc 47 fb f5 bb
       -0.010222491 -0.0059406953 -0.007855055 -0.0075067612
000060 86 66 a4 bb be 21 9c 3c 04 8e 9c bc ea f1 56 3d
       -0.0050171046 0.019059058 -0.019110687 0.0524768
000070 13 b3 9a bc 3f b7 94 3b ec c7 be bc 5f af 8c bc
       -0.018884217 0.004538446 -0.02328869 -0.017173467

down1.go_down.1.conv2x.0.c.1.running_mean f4 [32]
000000 40 78 eb bd 08 56 4c bf 18 5e 89 ba 73 af 07 bd
       -0.11497545 -0.79818773 -0.0010480313 -0.033126306
000010 ac 4a 19 bd d4 71 d0 be 38 67 04 be bc 1e 96 3d
       -0.03742473 -0.40711844 -0.1293 0.07330081
000020 f1 b5 9c be b4 87 2b 3e a8 ae c1 bf ee 9c df be
       -0.3060756 0.16750985 -1.5131426 -0.43674415
000030 29 db fb be 53 c8 e3 be 50 8d 25 3e d9 40 02 3f
       -0.49190643 -0.44488773 0.16167188 0.508802
000040 ff 98 83 3d 85 ca 83 be 4a ea 33 3d d4 5e 01 3f
       0.06425666 -0.25740448 0.043924607 0.5053532
000050 ed ab 1e be 67 ff 91 bd ae e0 4c be 00 95 e0 3e
       -0.15495272 -0.07128792 -0.20007583 0.43863678
000060 e2 d8 84 3d a2 81 0c 3e 38 c1 83 be e6 19 b4 bd
       0.064866796 0.13721326 -0.25733352 -0.08794002
000070 26 a1 7e 3e fe ae bc 3d 9a aa 76 3e 3d 6d d3 3e
       0.24866161 0.092130646 0.24088517 0.4129428

down1.go_down.1.conv2x.0.c.1.running_var f4 [32]
000000 13 f5 3d 3e 88 17 34 3f 34 d1 8a 3d 36 09 ba 3d
       0.1855052 0.70348406 0.067781836 0.09083788
000010 3f 99 0c 3e 6f 42 21 3f d1 dc f5 3d 9a 3b 94 3d
       0.13730334 0.62991995 0.12005008 0.072379306
000020 68 ba 57 3e de f2 01 3d 53 bc 14 3f 03 99 b6 3e
       0.21067202 0.031725757 0.5809986 0.35663614
000030 1e 7c 94 3d 80 71 49 3e 9a 76 5c 3d a0 93 4d 3e
       0.07250236 0.19672203 0.053824045 0.20075846
000040 8e 75 ae 3d d8 6f 72 3e 53 81 90 3e be 57 15 3e
       0.085185155 0.23675478 0.28223667 0.14584252
000050 c3 60 ac 3d 10 38 1c 3e 4a 01 bb 3d 67 86 c8 3d
       0.08416893 0.15255761 0.09131105 0.0979126
000060 39 8d 00 3e 7c 26 f4 3d 9d c7 cc 3e 02 63 da 3d
       0.12553872 0.11921403 0.39996043 0.106634155
000070 05 a5 ed 3c c8 0a 5d 3d 9a de 09 3e 80 e1 0d 3e
       0.029009352 0.05396536 0.13463822 0.13855553

down1.go_down.1.conv2x.1.c.0.weight f4 [32, 32, 3, 3]
000000 85 00 e2 3b ba 16 61 3d b4 aa 9b bc 30 62 46 3c
       0.0068970346 0.054953314 -0.019002296 0.012108371
000010 b2 1e 43 3d 0e 6f 35 bd 63 14 4a bc 37 78 b0 bc
       0.047636695 -0.044295363 -0.012333962 -0.021541698
000020 d9 fd f1 bc 60 9b 22 3b 8a 22 a9 3b 23 02 95 3d
       -0.02953999 0.002481185 0.005161588 0.07275798
000030 5d 69 a8 bc 45 c2 1a 3d ff c0 94 3c 52 3d 2b 3d
       -0.020558054 0.037782926 0.018158434 0.041806526
000040 a1 f6 8d 3c 43 ef d5 3c 93 8a 81 3c 36 12 7b 3d
       0.017329516 0.026115065 0.015813148 0.061296664
000050 54 06 c8 3d 6e e6 68 3d cb 4c c1 bc 37 96 ab 3d
       0.09766832 0.05686038 -0.023596188 0.083782606
000060 92 7a 13 3d 26 05 37 3c 3a 28 ad 3d cf 41 18 bd
       0.036005564 0.011170661 0.08454938 -0.037172135
000070 4e b5 84 3d 08 c5 6a bd fc 5a 6b 3d bc e5 99 3d
       0.064798936 -0.05731681 0.057459816 0.075145215
000080 a4 c1 e8 bb 4d f3 13 bd 48 a5 92 3d 79 34 74 3c
       -0.007103162 -0.0361207 0.07160431 0.014905089
000090 98 41 ee bc 08 8b d8 3c fa 65 bc 3b f5 bc 48 3c
       -0.029084012 0.026433483 0.0057494612 0.012252082
0000a0 74 48 48 3d cb 30 ae bc d8 f5 74 bd 5a ce 18 3d
       0.04889722 -0.0212635 -0.059804767 0.037306167
0000b0 8b 76 ae 3c 12 80 0f bd 4f 96 da 3b ba e2 a0 3c
       0.02129676 -0.035034247 0.00667075 0.019639362
0000c0 d7 62 40 bb 69 1c a7 3d ca 83 af 3c c1 c2 12 bd
       -0.0029355788 0.08159716 0.021425147 -0.035830263
0000d0 72 49 04 3b a8 0f 9a bc b0 3c 42 bd d9 92 68 bd
       0.0020185378 -0.018806294 -0.047421157 -0.05678067
0000e0 ad 8c 6d 3d ea 20 55 3d 71 c8 f1 3a b7 55 32 bc
       0.057995487 0.052033342 0.0018446577 -0.010884694
0000f0 d8 93 db bb 9b ab 38 3d 4d 73 bf 3b 6b d2 25 3d
       -0.006700974 0.04508553 0.0058426023 0.040483873
000100 e7 dc 10 bd 22 f0 0d 3d 47 68 38 3d bd 4b 63 3a
       -0.03536692 0.034652837 0.04502132 0.00086706487
000110 01 64 90 3c 88 c4 68 3d af 62 37 bd 7b a1 eb bc
       0.01762581 0.05682805 -0.044771846 -0.028763523
000120 6c 8f 45 bd 42 ca ff 3b 90 67 50 3d 34 d5 91 bd
       -0.04823248 0.0078060934 0.050880015 -0.071207434
000130 ac 61 b6 3c 05 19 62 bd 49 62 b1 bc 83 ca 57 bd
       0.02226337 -0.05519964 -0.021653311 -0.052683365
000140 2b e9 3f bc e4 f6 ab bb 51 5b da bc 5d e9 6c 3d
       -0.011713306 -0.0052479375 -0.026654871 0.05783974
000150 24 c5 2e bd 46 73 2f 3d bf fb 86 3b 1c 01 1d 3c
       -0.042668477 0.042834543 0.004119366 0.009582784
000160 35 09 45 3c 26 93 33 bd 11 95 17 3d de 28 72 3d
       0.012026121 -0.043841504 0.037007395 0.059121005
000170 62 ec 3f 3d 26 88 80 3d 00 7a a4 3d 5d 3f 59 3d
       0.04685629 0.06275968 0.08031082 0.053038944
000180 95 e5 b1 3d 6f 8a 97 3d 00 28 bc 3d e1 e4 51 3d
       0.086863674 0.07399451 0.09187317 0.051243667
000190 42 8a 96 3d 31 0f 53 ba b7 48 86 3c 1d 72 9a 3b
       0.07350589 -0.0008051275 0.016392095 0.0047133104
0001a0 80 db 84 3c a4 26 3f 3c 7a 65 02 bd a0 6a 59 3d
       0.016217947 0.0116669275 -0.031835057 0.0530802
0001b0 98 ce 5f 3d 4d 12 63 3c 1d cf 68 3d 64 5a 0c bd
       0.054640383 0.013859344 0.056838144 -0.03426589
0001c0 49 df 58 bc d5 6a 85 3c 97 9a 3a bd 34 68 8f bd
       -0.013236829 0.016286293 -0.045557585 -0.07002297
0001d0 39 a4 7b 3b ae bd 8d 3c a9 cc 3c 3d ac 67 f2 3c
       0.0038397445 0.01730236 0.046093617 0.02959045
0001e0 0a 15 3e 3d 6c 85 4d bc 47 ec c0 3c dd f6 85 3d
       0.046406783 -0.012544017 0.023550166 0.06541226
0001f0 9f 1c 90 3d a1 6b 34 3d 30 64 30 3c da 4f a4 3c
       0.07036709 0.044047955 0.010766074 0.020057607
000200 57 bd 2c 3d 40 63 75 3d 34 63 03 bc ba e5 3a bd
       0.042172756 0.059909105 -0.008019257 -0.04562924
000210 96 90 3f bc 4a a3 5f bc 06 3e e9 3c 6f 4e a7 3c
       -0.011692187 -0.013649771 0.028471958 0.020423142
000220 86 b6 c3 3c 31 53 c9 bb 6f 0c 0e bd dc 4a 16 3d
       0.023890745 -0.0061439504 -0.034679826 0.036692485
000230 6b 9e 26 3a 4a de f1 bc d9 9e 88 bc 1c a9 09 bd
       0.00063560036 -0.029524941 -0.016677307 -0.03360854
000240 8f f4 82 3d 0f 98 d1 bc 99 2b 9e bd 05 d8 68 3d
       0.06394302 -0.025585203 -0.07723159 0.056846637
000250 09 15 84 3d 39 62 90 bc 27 27 ba 3b 84 b7 08 3d
       0.06449325 -0.017624961 0.005680937 0.03337814
000260 09 2e 10 3d 24 18 20 3d 62 c4 89 3d 8b ed 6b bc
       0.035200153 0.039085522 0.0672691 -0.014399896
000270 48 c2 1d bd 7c 71 68 3d cb 14 83 bc 55 5a fe bc
       -0.03851536 0.056748852 -0.016001126 -0.031048933
000280 35 9a 75 bc c7 8f d8 ba 91 7c cd 3c 8d 2e ca 3c
       -0.014990379 -0.0016522341 0.025083812 0.0246804
000290 91 1d 26 bc 04 bd c9 bc 8d b7 d5 3c 94 fd 9a bc
       -0.010138885 -0.024626262 0.0260885 -0.018919744
0002a0 1f 9a 82 3d 6d 71 09 39 e6 8e 78 bd 15 18 5e bd
       0.063770525 0.00013107593 -0.060683154 -0.054222185
0002b0 6e 32 4c 3d 18 da 5c bd d9 79 c7 3c 05 ac 38 3d
       0.04985278 -0.053918928 0.024350094 0.045085926
0002c0 71 7d 82 bd 7f 04 88 3c 14 86 34 3d b5 4c ed 3c
       -0.06371582 0.016603706 0.04407318 0.02896724
0002d0 ed 07 f1 bc 57 05 c1 3c 2a 3f e3 3a 6a 16 07 3d
       -0.029422725 0.023562117 0.001733755 0.03298036
0002e0 fa e1 36 3c 8e 8d 23 3c fa 86 20 bd 22 ae f3 bc
       0.011162275 0.00998248 -0.039191224 -0.029746119
0002f0 c9 be fa 3c 6e f6 a2 bc d8 a2 37 bd d2 e0 39 bd
       0.030608552 -0.019892897 -0.044833034 -0.04538042
000300 60 29 11 3d 5f 09 7b bd 8a 7c d4 bc 2f f9 f4 3c
       0.03543985 -0.061288234 -0.025938291 0.029903976
000310 0d d4 11 bc 5e a5 fd 3c 1c 25 7c bd 3f 97 e8 3c
       -0.0089006545 0.030962642 -0.061558828 0.028392432
000320 8a 90 1e 3c 1c 6f a0 bd 94 01 59 3c aa 32 20 3d
       0.0096780155 -0.078336924 0.013245005 0.039110817
000330 61 db 1d bd 35 5a 91 bd 9b b7 b7 bc e5 98 0a bb
       -0.038539294 -0.07097284 -0.022426417 -0.002114826
000340 93 30 83 3c 15 8c ba 3c 2a 14 d8 bb 26 0a 82 3d
       0.016014373 0.022771874 -0.0065942006 0.06349592
000350 f3 0e a2 3c 04 3a 2c bd 93 ac 9a bc fb f9 02 bd
       0.019782519 -0.042047516 -0.018881118 -0.03197668
000360 be 9a e2 3c 65 98 01 3b ed ef 38 ba ca ed 00 bd
       0.027661677 0.0019774672 -0.00070547947 -0.031476773
000370 ef 0f 72 bd b8 8d 43 3d b6 d1 50 3d f8 0e 46 3d
       -0.059097227 0.047742575 0.050981246 0.04835412
000380 a3 2f 1e bd 2f cb c5 3c bc ef 02 3c c2 cc d1 bc
       -0.03861965 0.024144737 0.007991727 -0.025610331
000390 aa 88 cf bc 2d 8f cc 3c 30 f5 ba 3c 32 72 23 3d
       -0.025333721 0.024970615 0.022821993 0.039903827
0003a0 10 59 82 bd fc 84 3e bc 80 15 3c bd 37 0a 83 3d
       -0.063646436 -0.011628386 -0.04591894 0.06398433
0003b0 53 8d 3d bd c9 8d ae 3c cb d3 85 bb 7d 34 09 bd
       -0.046277355 0.021307843 -0.0040840856 -0.033497322
0003c0 9f 57 bd 3c e4 3d de 3c 2b ed c1 bc a6 05 27 3c
       0.02311307 0.027129121 -0.02367266 0.010194218
0003d0 25 9e 00 3d 45 8a 14 3d 96 f4 d4 3b 8b cd 83 bd
       0.03140082 0.036264677 0.0064988835 -0.064356886
0003e0 07 42 6a 3d 0b 29 1e 3d 63 07 fd bc 03 b2 47 3d
       0.057191875 0.03861336 -0.030887311 0.04875375
0003f0 c0 08 55 3d 68 cc 2a bc ca 63 4f bd 8d 46 31 3d
       0.052010298 -0.010424711 -0.050632276 0.043280173

down1.go_down.1.conv2x.1.c.0.bias f4 [32]
000000 8a 07 36 3a 74 4b d8 bc 59 22 97 3c 70 d6 ef 3c
       0.00069438724 -0.026403166 0.018448995 0.029277056
000010 bc e7 65 3d 74 43 2b 39 7a 96 7c 3c b4 09 18 bc
       0.056129202 0.00016332959 0.015416736 -0.009279657
000020 77 53 6b bc 21 a7 b8 3c b5 b1 48 bd 8b 86 a4 3c
       -0.014363161 0.02254063 -0.0489976 0.020083686
000030 b0 96 ab bc fd 05 ad bc 38 b7 c0 bb 5a e5 29 bd
       -0.020945877 -0.02112102 -0.0058812164 -0.041478492
000040 1d a0 07 bc 40 5c 08 3b 34 b1 70 3d 86 2c 16 bd
       -0.00827792 0.0020806938 0.058762744 -0.036663555
000050 6a fe 1b 3d 0f cc 7a 3b 73 d3 4e 3d 7c 97 2b 3d
       0.038084425 0.00382686 0.050494622 0.041892514
000060 de c3 5f bd 46 7b 92 bc 1e 36 19 3d 7d 1a 25 bd
       -0.054630153 -0.017881047 0.037405126 -0.040308464
000070 91 8b 61 3d b0 14 34 bd 3b 06 4b bb f7 d5 e9 3b
       0.05506474 -0.04396504 -0.0030979055 0.0071361023

down1.go_down.1.conv2x.1.c.1.weight f4 [32]
000000 bb 45 8c 3e d1 c1 c2 3e c6 65 fb 3e 1b 8f 80 3f
       0.2739695 0.38038495 0.49101084 1.0043672
000010 3d e2 05 3f 50 4e e0 3d 4e fd 16 3f 9a 3d 28 3e
       0.5229834 0.10952437 0.5898026 0.16429749
000020 36 04 37 3f 4e d0 1c 3e b5 e9 bc 3d ae f2 d1 3e
       0.714908 0.15313837 0.092242636 0.41005462
000030 4d 6a 3c 3f dd 0b 16 3f 84 3e 6b 3f 85 47 d4 3e
       0.735997 0.5861185 0.91892266 0.41460815
000040 63 0c fc 3e 49 0b 0c 3f bf e4 1f 3f 74 19 79 bb
       0.492282 0.5470472 0.62458414 -0.0038009556
000050 37 f7 23 3f b6 b1 15 3f b3 17 d9 3d e1 50 d9 3e
       0.64049095 0.5847429 0.106002234 0.42444518
000060 10 90 26 3f 49 3d 46 3f fa 87 ad 3e c0 11 cc 3d
       0.6506357 0.77437264 0.33892804 0.09964323
000070 bc d1 79 3f 0c bf 36 3f 94 ec 75 3f 93 29 44 3f
       0.97585654 0.71385264 0.96064115 0.7662594

down1.go_down.1.conv2x.1.c.1.bias f4 [32]
000000 2e 69 56 3b 44 97 07 3c 3f 12 81 3b 5c 99 e7 3c
       0.00327165 0.008275811 0.0039389427 0.02827137
000010 66 07 ef bc af 26 bf 3b 9b 61 aa 3c f4 2e a4 3b
       -0.029178333 0.005833469 0.020798495 0.00501048
000020 55 cd 85 3b 2d e7 56 bd 55 d8 0e 3d 93 8f 92 bc
       0.0040833154 -0.05246656 0.03487428 -0.017890727
000030 22 4d e8 bc 55 98 55 bd 7c c6 9e bb d0 53 94 bd
       -0.028357092 -0.05214723 -0.0048454385 -0.072425485
000040 3e 5a e7 ba a2 e2 1b 3b 0b eb e4 bc 45 7d d7 bc
       -0.0017650796 0.0023786207 -0.027944108 -0.02630485
000050 78 6c 83 3c e4 bd 24 bb 37 89 5c bb f7 32 bb bc
       0.016042933 -0.0025137598 -0.0033651122 -0.02285145
000060 6c ab 8e bc d7 9b 46 bd 4f f2 74 bd 24 dd 34 bd
       -0.017415725 -0.048488464 -0.059801396 -0.04415621
000070 ed e1 ed 3b a5 2b 0c bd a4 14 6d 3d fc 9c 43 bb
       0.0072595985 -0.03422131 0.057881013 -0.0029848209

down1.go_down.1.conv2x.1.c.1.running_mean f4 [32]
000000 98 cf e3 3e 0d b3 e9 bd 7c 81 bc bd 62 97 22 bf
       0.4449432 -0.11411104 -0.09204385 -0.6351224
000010 90 cf df 3e dc 8d 52 bf 31 d4 83 be f4 d3 1c bf
       0.43713045 -0.8224771 -0.25747827 -0.61260915
000020 5a 1d e1 3c a2 77 db 3e d4 db 55 be d0 05 22 3f
       0.027479816 0.4286471 -0.20884639 0.6329012
000030 b8 be a9 3e d7 89 b2 be 11 52 98 bd e1 35 13 be
       0.3315332 -0.34870788 -0.07437528 -0.14376022
000040 75 f1 7f 3e 3a 90 9b bd c0 9d 23 3e 02 09 1c 3f
       0.24994452 -0.075958684 0.15978146 0.60951245
000050 0c 0b 60 bf aa bd c4 be 8e 8e 8e 3d a5 bd c5 3e
       -0.87516856 -0.38425952 0.06960784 0.3862125
000060 cc 71 e8 3e 75 f8 10 3f eb c4 90 3e 46 44 21 3b
       0.4539932 0.56629115 0.28275236 0.0024607345
000070 51 24 c4 3d 74 e1 90 3a 96 c4 99 bd de cc e6 bd
       0.09577239 0.0011053518 -0.07508199 -0.11269544

down1.go_down.1.conv2x.1.c.1.running_var f4 [32]
000000 f4 57 4f 3d 94 86 1b 3d d3 60 9d 3d 64 eb 58 3e
       0.050620988 0.03797014 0.076844834 0.21183544
000010 5c 38 f0 3d a1 7b 75 3e 12 39 b8 3d e8 2d bd 3d
       0.117295 0.23972942 0.0899526 0.092372715
000020 e2 b5 ed 3d 8a cb 6c 3e a1 a4 a3 3d c7 9e 0d 3f
       0.11606957 0.23124519 0.07990385 0.553204
000030 1b 8a 07 3e 24 45 bf 3d 33 7f 83 3d ec 9d ae 3e
       0.13236277 0.093393594 0.06420746 0.3410486
000040 a6 b0 a1 3e 9e 92 34 3e a8 91 b2 3d 16 d4 2f 3f
       0.31580085 0.17634055 0.08719188 0.6868299
000050 90 c1 86 3e f0 96 82 3d 00 04 2e 3e 94 bf f8 3d
       0.2631955 0.06376445 0.16993713 0.12145916
000060 cd d3 3a 3e 46 a3 b7 3e 1c 1f b1 3d e2 2a 0a 3e
       0.18244858 0.35866755 0.08648512 0.13492921
000070 8a 85 a0 3d 67 53 3d 3e 84 e5 eb 3d 56 1f 93 3d
       0.078379706 0.18488847 0.11518386 0.07183711

down2.go_down.1.conv2x.0.c.0.weight f4 [64, 32, 3, 3]
000000 1b f1 28 bd af 54 83 bd fe 1a e8 3c f1 38 e6 bb
       -0.04124556 -0.064126365 0.028333183 -0.007025831
000010 63 03 81 ba 87 49 00 bd 5a 05 71 bc ee 20 55 bd
       -0.0009842928 -0.03132012 -0.014710749 -0.052033357
000020 0b 07 9e bc 06 8b 31 bd 76 fb 02 bd 07 7f e2 bc
       -0.019290468 -0.043345474 -0.031978093 -0.027648462
000030 87 48 59 3d 22 2f 51 bd cc fb 17 bd 45 54 27 bc
       0.053047683 -0.05107034 -0.037105367 -0.0102129625
000040 60 61 2d 3d 26 21 52 3c 77 0a 27 3a 0e 67 65 3d
       0.042329192 0.012825286 0.0006372104 0.056006484
000050 b2 0c 52 3d 71 6e 52 3d d2 ec 99 3c d4 a4 a2 3c
       0.05128164 0.051374856 0.018789683 0.019853987
000060 fe 2a d8 3b a9 f8 40 3d 1b eb ae bc d6 40 92 bd
       0.006596922 0.04711214 -0.021352341 -0.07141273
000070 d8 89 65 bc aa 2b fa ba b4 a4 96 3b b6 44 9c bb
       -0.014009915 -0.0019086499 0.004597271 -0.004768933
000080 91 f8 40 bd 87 52 36 bc ca db 35 3d 5e 0f 6e 3d
       -0.04711205 -0.0111280745 0.04439906 0.058120124
000090 5c ff d8 bb 6c a5 96 3c f5 f4 9a bd 8b 23 04 bb
       -0.006622238 0.018389426 -0.07566253 -0.0020162787
0000a0 5c 9b c7 bc 1a e0 63 bd c0 4a b9 3b 87 a8 1f bc
       -0.024366073 -0.05563364 0.005654663 -0.00974477
0000b0 38 9c 12 3d c7 20 6b bd 50 3a 53 bd 5d bd 0b bd
       0.035793513 -0.057404306 -0.051569283 -0.034116138
0000c0 60 0c 82 bc 9f cb 22 bd 21 92 ad bc 26 e0 19 bc
       -0.015875041 -0.03974497 -0.021187844 -0.00939182
0000d0 11 b5 88 bd 0b a9 30 bc 26 d7 32 bd 56 31 86 bb
       -0.06675161 -0.0107824905 -0.043662213 -0.004095237
0000e0 79 3d a4 bc fd 44 50 3d 0c ef 57 bd 9a 7a 7b bc
       -0.020048844 0.050847042 -0.052718207 -0.015349055
0000f0 a6 cb ed ba 3c 1d 89 bd 9b 2c 1f 3d 63 35 4c 3d
       -0.0018142357 -0.06695029 0.0388609 0.0498556
000100 7f 65 4e bd bd 8b 1b 3d 07 cf 30 3d 21 43 8b bc
       -0.050389763 0.03797506 0.043166187 -0.016999783
000110 34 db 9d 3c 8f 98 cf bc e8 e0 a3 3c ca 8c 02 3d
       0.019269563 -0.0253413 0.020004705 0.03187255
000120 9a c5 6f bc d4 b3 bf bc df 8c 05 bb 85 e2 84 3c
       -0.014634514 -0.023401178 -0.0020378155 0.016221294
000130 a8 21 ea bb 77 3d 34 3d 84 b1 06 bb 8a 94 c3 ba
       -0.0071451254 0.04400393 -0.0020552585 -0.0014921587
000140 18 a7 3d 3d 11 ac 09 bc c0 b7 62 3d 1e 17 34 3d
       0.04630193 -0.00840284 0.05535102 0.04396736
000150 35 31 60 3d 80 e6 ae bb a2 85 ee bc 52 73 02 3d
       0.054734427 -0.0053375363 -0.029116455 0.03184826
000160 e6 fd a4 3c f7 db 81 bd a7 b1 c6 bc bb 09 09 3c
       0.0201406 -0.06340783 -0.024254633 0.008364136
000170 e8 c9 c5 3b 65 68 99 bc e4 b1 4e bd 7c b3 a2 bd
       0.006036032 -0.018726537 -0.05046262 -0.0794439
000180 95 0f 54 bd 18 03 58 bc 3f 7b 6c bd fb 11 e2 3c
       -0.051772673 -0.013184331 -0.057734724 0.027596464
000190 16 4e ba 3c 43 ca 93 3c a6 f8 a8 bc 3f b9 67 bc
       0.022742312 0.018040782 -0.020626377 -0.014143287
0001a0 b7 23 05 bc 69 04 3d bd 89 6c 9e bc b0 ea 31 3d
       -0.008126191 -0.046146784 -0.019338863 0.043436706
0001b0 d9 75 3d 3d 0a 90 e6 3c fc 69 c8 3c 9b 1c 12 bd
       0.046254966 0.028144855 0.0244646 -0.03567181
0001c0 a2 f2 b7 3c c3 57 69 3d 9c d9 e5 bb fd 6a 8c 3c
       0.022454564 0.05696846 -0.0070144664 0.01714086
0001d0 4b a4 45 3d 14 d8 c3 ba 3b eb 3c 3c 72 1f 8c bc
       0.048252385 -0.0014941716 0.011530693 -0.017104838
0001e0 80 54 f7 3c 5a 43 da bb 0f 16 65 3d 68 ef 25 bd
       0.03019166 -0.006660861 0.05592924 -0.04051152
0001f0 60 34 74 bc 41 87 a1 bc 5c 76 a6 bc 40 8e a0 bc
       -0.014905065 -0.019717814 -0.02032011 -0.01959908
000200 8b 4f 10 bd 02 c5 88 3c bd d2 a2 3c 10 96 70 3c
       -0.035232108 0.016695503 0.019875878 0.014684215
000210 71 28 bc bb a8 ba 7b bd e5 13 2b 3d a7 b0 81 3c
       -0.0057421257 -0.061457306 0.04176702 0.015831305
000220 aa 5b 1d 3c d4 00 75 b9 cd b9 20 3c b1 6e 76 3c
       0.009604374 -0.00023365329 0.009809923 0.015041039
000230 ea 4e bd bc fc 82 31 3c 79 fb ae bc 62 37 ab bd
       -0.023108918 0.010834452 -0.021360146 -0.08360173
000240 40 de 79 3d c5 43 d0 bc f3 30 57 3d 96 3f dc 3c
       0.06100297 -0.02542294 0.052536916 0.026885789
000250 b6 8c 65 3d 59 83 e8 bc bc 91 7c bb 01 9c 3c 3d
       0.056042396 -0.028382944 -0.0038539013 0.046047214
000260 61 cb 7d bd 30 ec 29 bd ef a3 5b 3c f8 ac 3c 3d
       -0.061961535 -0.04148501 0.013405784 0.046063393
000270 91 be c9 ba 8f 6e 6e bd 74 f6 7e bc bb be 10 bc
       -0.0015391876 -0.058210906 -0.015561689 -0.008834536
000280 eb 9e cd 3c 83 2c 04 bd 21 be 43 3b 65 68 86 bd
       0.025100192 -0.032269012 0.0029867964 -0.065628804
000290 1d 83 dd bc 3c e4 81 bd 4a a9 01 bd c4 b3 ce bb
       -0.027040059 -0.063423604 -0.031655587 -0.006308051
0002a0 9a df bc bc bb ac 89 3c fd 85 5d bd 9a 32 36 bd
       -0.02305584 0.016805997 -0.05408286 -0.04448185
0002b0 97 b9 fa bc 90 10 88 bc 01 d6 44 3c eb e8 42 bc
       -0.030606074 -0.01660946 0.012013913 -0.011896352
0002c0 2b 4d a2 3c 80 8e ff bc 7a fc 06 3c 09 0d 48 bd
       0.019812187 -0.031195879 0.008238906 -0.048840556
0002d0 84 c2 d6 3c 06 88 06 3d 04 96 a2 3c 17 32 f7 3c
       0.0262158 0.032844566 0.019846924 0.030175252
0002e0 e4 f0 12 bd c5 b6 08 bd 39 25 09 3d 82 a2 20 3c
       -0.035874262 -0.033377428 0.033482764 0.00980437
0002f0 3f de c3 bc 6e 64 f4 bc c6 6e 19 bd 20 16 3a 3d
       -0.023909686 -0.029833045 -0.037459157 0.045431256
000300 ff 2c e4 bc 19 fa 71 bd b2 c9 3c 3c 2a 3d 3e 3d
       -0.027853487 -0.059076402 0.011522697 0.04644505
000310 74 fd 43 bd 8b 13 a9 3a bd 38 55 3d cc 81 33 3d
       -0.047849134 0.0012899501 0.052056063 0.043824956
000320 2c e6 c5 bb a1 d8 6e 3c 96 33 28 bd f6 04 0d 3c
       -0.0060394015 0.014578016 -0.04106482 0.00860714
000330 8d ce 3b bd 90 53 f1 bc 47 33 89 bc d1 4f 15 3d
       -0.04585128 -0.029458791 -0.016748084 0.036453072
000340 63 14 5c 3d 83 68 ab bc a1 ca 51 bd 72 3d 11 3c
       0.05373038 -0.020923859 -0.051218633 0.008864747
000350 e8 e2 12 3d 99 6a 94 3c 80 d8 39 3c f2 38 72 3d
       0.035860926 0.018117236 0.0113431215 0.05913634
000360 6f 66 8e 3d f6 d4 44 3d 4c ec df 3c cd 14 8b 3c
       0.069531314 0.048054658 0.027334355 0.016977692
000370 d5 d7 38 bd 7b 0f 8f bd d4 7c 8f bd ba b4 d7 bc
       -0.04512771 -0.069853745 -0.07006231 -0.026331294
000380 02 3d bc 3c 3e 79 9c bc ad 61 d1 3c a8 47 4b 3b
       0.02297831 -0.019100782 0.02555927 0.0031018052
000390 41 70 58 bd 1e b7 49 bd b0 8f 08 3d c3 eb 0e 3a
       -0.05284143 -0.0492469 0.033340156 0.00054520014
0003a0 ae 6d 86 bc 75 db 03 bc 75 7f 9b bc 9b 7a 6f 3d
       -0.016409721 -0.008047928 -0.018981675 0.058466535
0003b0 de 00 03 3d c2 f6 01 3c ea 42 94 3c b4 d1 5d bd
       0.03198325 0.007932367 0.018098313 -0.054155067
0003c0 73 e5 4d bd 5b 2b 4d 3c dc ae 27 3c 89 89 81 bc
       -0.050267648 0.012522544 0.010234561 -0.015812652
0003d0 d4 43 77 3d 57 6b 64 3c f8 1c 1e bd 5e a6 2d 3d
       0.06036742 0.013941607 -0.038601846 0.04239499
0003e0 ad 39 59 bc 66 98 0d 3d ee 38 1c 3d 77 b7 6d bd
       -0.01325838 0.034569167 0.03814023 -0.058036294
0003f0 7a fc 25 3c 3a 5d 42 3d 87 cd dd 3c d0 de 04 bc
       0.010130996 0.04745219 0.027075542 -0.008109763

down2.go_down.1.conv2x.0.c.0.bias f4 [64]
000000 a9 61 2d bd 2d a0 64 bb fd 7d 35 bd 93 33 a5 3c
       -0.042329464 -0.0034885511 -0.044309605 0.020166194
000010 aa e5 f4 bc cd 02 9f ba d6 da 5e 3c f7 f8 df 3c
       -0.029894669 -0.0012131572 0.013601979 0.027340395
000020 ed d8 00 ba ff 7a 02 bd 29 71 fd bc 39 65 da 3b
       -0.0004915137 -0.03185558 -0.030937748 0.0066648987
000030 3b d4 1a 3c 4f 30 9b 3c 2b a9 a1 3c 79 83 57 ba
       0.009450014 0.018943934 0.019733986 -0.000822119
000040 9f 75 9f bc 0a 1c dd 3c 72 c2 3e 3d 66 24 ff 3c
       -0.019465266 0.02699091 0.046572156 0.031145286
000050 ae c8 05 3d a7 4a 56 3c 12 97 18 bd fd 45 ca bb
       0.032662086 0.013079322 -0.037253447 -0.006172894
000060 ee 39 db bb 96 19 e1 3c 07 9b 46 3d f9 25 f3 39
       -0.0066902554 0.02747802 0.04848769 0.00046376864
000070 67 75 42 3c 82 3e f8 3c f6 8a 42 bd 4d 03 d4 bc
       0.011868811 0.030303244 -0.047495805 -0.02588048
000080 34 eb cf bb 4e eb 4b 3d 94 2a 49 3c ab b4 3d 3d
       -0.006345177 0.04978495 0.012278218 0.046314877
000090 b9 88 c6 3b 6a ad d7 3c 41 c1 4a bd 53 b8 19 bb
       0.006058779 0.026327807 -0.049500708 -0.0023455813
0000a0 85 4e 18 bd 2c 8a 87 ba 09 ab 08 bd 80 d9 c0 bb
       -0.037184257 -0.0010340861 -0.033366237 -0.005885303
0000b0 cf b3 16 bd 8a 5c 33 3a b2 77 d9 bc 55 2b 1e 3d
       -0.036792573 0.00068420975 -0.026546333 0.038615543
0000c0 89 72 36 bc 73 61 3b 3d 9d 2a 44 3c 0e 50 b4 3c
       -0.011135706 0.04574723 0.01197305 0.02201083
0000d0 32 6b 35 3c 60 9f ea bb 05 ff c0 3b 5b d0 06 bd
       0.011072921 -0.0071601123 0.0058897757 -0.032913547
0000e0 9d d6 f9 ba dd 7f 00 bc 87 7e 24 3d 43 71 e0 bc
       -0.0019061152 -0.007842985 0.04015973 -0.027397757
0000f0 a6 36 da bb 2a 74 80 3c 2a 6e 44 bd a6 60 50 bd
       -0.0066593466 0.015680391 -0.047956623 -0.05087342

down2.go_down.1.conv2x.0.c.1.weight f4 [64]
000000 8d da 4e 3f a0 56 c4 3e 11 c4 2c 3f db e8 10 3f
       0.8080223 0.3834734 0.67486674 0.5660531
000010 28 54 5b 3f f5 28 17 3f 2c ac ad 3e 15 9e ce 3e
       0.8567529 0.5904687 0.3392042 0.40354982
000020 49 df 3d 3e 54 04 8d 3e c3 c2 9f 3d ee bd 06 3f
       0.18542208 0.27542365 0.0780082 0.5263356
000030 33 3c 6e 3f e5 f8 49 3d a9 58 08 3f 87 e9 88 3e
       0.93060607 0.04930963 0.53260285 0.26740667
000040 4e 99 20 3f 36 ca d7 3d 34 d1 6d 3f b9 da 2d 3f
       0.62733924 0.105366156 0.92897344 0.6791187
000050 fb 4f b4 3e 7a 25 0a 3e c0 95 9c 3d e5 c8 7f 3e
       0.3521727 0.13490859 0.0764575 0.24978979
000060 61 23 17 3f d8 65 96 3e 62 5a f3 3e b3 97 ff 3e
       0.5903836 0.29374576 0.47529894 0.49920425
000070 d7 87 f3 3e 23 c6 62 3f fd cb fb 3e 91 ff e6 3e
       0.47564575 0.8858358 0.49179068 0.45116857
000080 de a7 6d 3f 01 2d 68 3f 91 45 29 3f ad de 30 3f
       0.9283427 0.9069367 0.66121775 0.69089776
000090 ad e4 d8 3d 62 0f 9f 3d d1 18 fb 3e 0e e7 3e 3f
       0.105904914 0.07766606 0.4904237 0.7457131
0000a0 d7 d5 6a 3f 98 69 00 3f e6 b2 5b 3f 68 30 bb 3e
       0.91732544 0.50161123 0.8581985 0.3656037
0000b0 cd 65 3d 3e dc e2 11 3f 11 b2 2f 3f ef 76 fc 3e
       0.18495865 0.56986785 0.6863108 0.4930949
0000c0 1b a6 18 3f ab e9 98 3e a6 3b 09 3f 40 a5 58 3f
       0.59628457 0.29865775 0.5360664 0.8462715
0000d0 88 98 54 3f 35 70 21 3f c0 d0 31 3e 8f f7 63 3f
       0.83045244 0.6306184 0.17364788 0.8904962
0000e0 de f4 53 3f 98 5a 22 3f 3a 4a 14 3f 51 d2 45 3c
       0.8279551 0.63419485 0.5792576 0.012074069
0000f0 d4 27 0b 3e 40 20 49 bc 3b 84 07 3f bb da a2 3e
       0.13589412 -0.012275755 0.5293614 0.31807503
