data/model/3-test.pth (torch_old, 492009 bytes, 73 tensors)

inc.conv.conv2x.0.c.0.weight f4 [16, 1, 3, 3]
0.14905511 -0.799855 0.34232706 -0.38140652 -0.3398251 0.063121006 0.25750756 0.52936155
-0.13923638 -0.34156057 0.046778593 0.048489552 -0.3163077 -0.19668072 -0.38113707 -0.36648118
0.4054695 0.48593912 -0.5259821 -0.16307542 0.12862335 -0.4704179 -0.4154853 0.24813293
0.33533388 0.14949036 0.3832934 0.28899026 0.11999105 -0.18638444 -0.089956895 -0.7524841
0.50384516 0.5815089 -0.15736471 -0.112243034 0.14836901 -0.7636925 0.32820472 -0.03948337
0.40849105 0.50067025 -0.19606829 -0.3119674 0.30184928 -0.31460798 0.3367431 0.60656774
-0.17892757 -0.089169554 0.34855804 -0.39893973 0.43912202 -0.17364489 -0.16419165 0.42934185
0.6616778 -0.6224529 0.38873473 -0.40887436 0.064193994 -0.21772796 0.304735 -0.23670307
-0.7086177 0.13373268 0.37917945 0.12924363 0.22404987 0.3710776 0.36927077 0.11610206
-0.07536748 -0.4205552 -0.15312992 -0.07528168 0.041615166 0.14393924 0.5581436 1.0555633
-0.25145525 0.6396862 0.1227976 -0.12026332 0.48694497 0.52604645 -0.2838101 -0.28400975
-0.24375679 -0.38754082 0.17879741 -0.43175375 -0.6498524 0.59464824 -0.38399908 0.4017972
-0.045218263 0.2189092 -0.28082013 0.5147989 0.4899714 0.053220272 -0.22388875 -0.4324671
-0.12889683 -0.38662633 0.3177621 -0.44828662 0.33575445 -0.7499679 0.029303515 -0.042986803
0.6930271 -0.1546069 -0.092654765 -0.11529272 -0.13846081 0.11527129 0.5208941 0.12282908
0.05784893 -0.007819343 -0.13448246 -0.6416732 -1.0869008 0.24249116 -0.217346 0.12292059
-0.38408992 -0.6004195 -1.3400455 0.34752756 0.33788565 0.0038867213 -0.06886755 -0.5121095
0.3466192 -0.41984564 0.28531465 0.7492324 -0.01872391 -0.43083945 0.17531884 -0.29754972
00000000: e7a1 183e 4cc3 4cbf 7e45 af3e b747 c3be
00000010: 8efd adbe 9645 813d 08d8 833e 3d84 073f
00000020: fb93 0ebe 07e1 aebe e99a 3f3d fb9c 463d
00000030: 15f3 a1be ac66 49be 6624 c3be 6ca3 bbbe
00000040: b399 cf3e 03cd f83e c3a6 06bf 3efd 26be
00000050: d7b5 033e 9dda f0be 7dba d4be 8f16 7e3e
00000060: e2b0 ab3e 0014 193e 083f c43e 88f6 933e
00000070: debd f53d 90db 3ebe 523b b8bd cca2 40bf
00000080: fffb 003f c4dd 143f 3724 21be addf e5bd
00000090: 0cee 173e 5a81 43bf 730a a83e 50b9 21bd
000000a0: bd25 d13e ed2b 003f 20c6 48be 31ba 9fbe
000000b0: fd8b 9a3e 4c14 a1be 9769 ac3e 0648 1b3f
000000c0: ca38 37be 879e b6bd 3376 b23e d441 ccbe
000000d0: 9ad4 e03e f7cf 31be db21 28be b2d2 db3e
000000e0: b763 293f 1359 1fbf 3d08 c73e fb57 d1be
000000f0: 2478 833d 14f4 5ebe 3a06 9c3e 4a62 72be
00000100: f867 35bf 38f1 083e cf23 c23e 7158 043e
00000110: 546d 653e e2fd bd3e 0f11 bd3e ebc6 ed3d
00000120: 445a 9abd 0353 d7be 17ce 1cbe 482d 9abd
00000130: aa74 2a3d cf64 133e 80e2 0e3f b31c 873f
00000140: bebe 80be 7ac2 233f 4f7d fb3d 9e4c f6bd
00000150: da50 f93e fbaa 063f 8f4f 91be ba69 91be
00000160: 619b 79be c06b c6be ab16 373e d40e ddbe
00000170: ba5c 26bf de3a 183f 879b c4be 5db8 cd3e
00000180: c936 39bd bc29 603e a8c7 8fbe dcc9 033f
00000190: 88dd fa3e 80fd 593d 1843 65be 546c ddbe
000001a0: 88fd 03be e3f3 c5be b7b1 a23e d385 e5be
000001b0: 02e8 ab3e e5fd 3fbf ed0d f03c ee12 30bd
000001c0: 396a 313f 4551 1ebe c8c1 bdbd 971e ecbd
000001d0: acc8 0dbe 5b13 ec3d 5159 053f d08d fb3d
000001e0: 00f3 6c3d b41c 00bc c5b5 09be b244 24bf
000001f0: 911f 8bbf 9a4f 783e f38f 5ebe cabd fb3d
00000200: 6fa7 c4be 18b5 19bf 9c86 abbf 22ef b13e
00000210: 59ff ac3e 5db8 7e3b 6e0a 8dbd 9c19 03bf
00000220: 1278 b13e 02f6 d6be c314 923e b2cd 3f3f
00000230: e362 99bc fd96 dcbe c886 333e 7058 98be

inc.conv.conv2x.0.c.0.bias f4 [16]
-0.32952958 -0.010090978 0.30245402 -0.03627681 0.0005723655 -0.17945576 0.13913694 0.108548746
0.06627529 0.38173556 0.13354988 -0.20405723 -0.14024125 0.17854482 -0.33941886 -0.31286818
00000000: 1ab8 a8be a154 25bc 41db 9a3e fe96 14bd
00000010: cc0a 163a 40c3 37be ea79 0e3e ce4e de3d
00000020: 57bb 873d d872 c33e 4dc1 083e 61f4 50be
00000030: 679b 0fbe 74d4 363e 4fc8 adbe 4230 a0be

inc.conv.conv2x.0.c.1.weight f4 [16]
0.82516205 0.5038238 0.92729557 0.7987778 0.86991376 0.3964078 1.2597952 0.41832832
1.0934658 0.8296863 1.3366977 0.5622192 0.3521768 1.2243229 0.41169828 1.0828377
00000000: d23d 533f 99fa 003f 3e63 6d3f b47c 4c3f
00000010: abb2 5e3f f7f5 ca3e f840 a13f 212f d63e
00000020: b0f6 8b3f 5266 543f e918 ab3f 99ed 0f3f
00000030: 8450 b43e 9db6 9c3f 1eca d23e 6d9a 8a3f

inc.conv.conv2x.0.c.1.bias f4 [16]
3.554459 0.078528486 -0.36673766 3.1344912 2.2404683 0.010853666 -0.86165035 -0.21070492
-0.06591458 0.29502252 0.94275856 0.32122186 0.25435615 0.08690005 0.08309794 -2.023821
00000000: 427c 6340 8bd3 a03d 0ac5 bbbe 819b 4840
00000010: d563 0f40 93d3 313c 1e95 5cbf 08c3 57be
00000020: 39fe 86bd 310d 973e a058 713f 3177 a43e
00000030: f83a 823e a7f8 b13d 412f aa3d 4986 01c0

inc.conv.conv2x.0.c.1.running_mean f4 [16]
-0.69019324 -0.70071715 -0.07044357 0.17932747 0.42115057 0.46581808 0.6252055 0.98037183
0.9915199 0.8958392 -0.31016135 -0.47903323 -0.40285546 -0.7330388 -2.3603153 -0.44218045
00000000: 81b0 30bf 3362 33bf b844 90bd 9fa1 373e
00000010: 0ca1 d73e b57f ee3e 780d 203f a6f9 7a3f
00000020: 40d4 7d3f b855 653f 78cd 9ebe d843 f5be
00000030: 1243 cebe 6ea8 3bbf 680f 17c0 7a65 e2be

inc.conv.conv2x.0.c.1.running_var f4 [16]
0.2414707 0.38251764 0.3957862 0.10151234 0.24286205 0.43338925 0.30949435 0.5674454
0.7565515 0.5319226 0.28955427 0.26166648 0.09596189 0.8285353 2.0069554 0.13083087
00000000: 1844 773e 5ad9 c33e 7da4 ca3e b4e5 cf3d
00000010: d4b0 783e 32e5 dd3e 0b76 9e3e 1a44 113f
00000020: 5cad 413f 142c 083f 7540 943e 26f9 853e
00000030: ab87 c43d e41a 543f f571 0040 87f8 053e

inc.conv.conv2x.1.c.0.weight f4 [16, 16, 3, 3]
0.013474263 0.38611436 0.22559817 -0.20888615 0.060831018 0.3633346 -0.2057009 -0.14099878
0.3981295 -0.11422175 0.093337715 -0.14658064 -0.29017305 -0.029375287 -0.123802125 -0.29447654
0.06288589 -0.057433747 0.21503901 0.15744291 -0.064273186 -0.094391316 -0.28858694 -0.20230941
0.28968802 0.2440578 -0.29736272 0.12232512 0.46138307 0.3982238 0.24190831 -0.19904728
0.46386707 0.34988216 -0.1981079 -0.3557358 -0.41564542 -0.66995394 -0.24233328 -0.3397006
-0.63968796 -0.29809338 -0.3027687 -0.37837103 -0.17420302 -0.3905751 -0.22710228 -0.07834947
-0.31366614 -0.3820064 -0.1732241 -0.25116956 -0.45767063 -0.019475074 -0.46220312 -0.6993642
-0.007464722 -0.04866711 -0.5358109 -0.15898784 -0.22603953 -0.5015564 -0.1774225 0.2602821
0.10413073 -0.24248406 0.15026772 0.11278329 -0.12760928 0.08698351 0.00681167 0.16334909
0.43212953 0.036827806 -0.4437994 0.4999931 0.2797097 -0.057179093 0.45966232 0.36566424
0.3580941 0.37062413 -0.17167757 -0.50328463 0.5185062 0.022011364 -0.44107497 0.37434727
0.39942607 -0.14486954 1.0257661 0.66207886 0.34649348 0.536665 0.48844522 0.29541096
0.41435707 0.4086069 0.49673104 0.033016797 -0.09688491 -0.14895639 0.16909729 0.2749835
0.22769265 -0.50913906 -0.1460832 0.13808045 0.31868097 -0.024628311 0.04129513 0.084687024
0.09245281 0.18796943 -0.086470686 -0.30344453 -0.043150913 -0.24412009 -0.11439451 0.050519396
-0.030386684 0.010555836 0.060618963 -0.5352381 -0.29132813 -0.12824725 -0.3175366 -0.10234098
0.14380546 -0.3935115 -0.18067873 0.08287296 -0.35204488 -0.14841802 0.002764196 0.3735592
0.099826895 -0.71997756 0.40871996 -0.084639005 -0.5355968 0.07590582 0.42167762 0.4076897
-0.31675908 0.76563126 -0.1242916 -0.39766195 -0.037054706 -0.46909222 0.3600778 -0.43195662
0.25237194 0.25586677 0.6834799 0.050088808 -0.2732191 0.35300165 0.18107149 -0.21740666
-0.07167517 -0.11058774 0.11138331 0.09789439 0.71177566 0.1418017 -0.43339002 -0.09818926
-0.193766 -0.28190032 -0.461283 -0.21765593 -0.21457076 0.84991574 0.4594739 -1.289629
-0.6590638 -0.026774406 0.24386053 0.07657963 -0.0076017883 -0.8502697 -0.3768964 0.0010890606
0.007760414 -0.06403646 -0.060663234 -0.67875546 0.19432911 -0.22799793 0.4172459 -0.1321292
0.13752216 -0.0819709 -0.02192449 0.005713486 0.15466246 0.08821396 0.2008729 -0.4268932
0.18342257 -0.031399444 0.76190853 -0.80933267 0.32636186 0.46503037 -0.091760464 -0.046698887
0.15419193 0.2590281 0.0436148 0.15132584 0.35594153 0.15006886 -0.2869137 0.01920872
-0.0038960853 0.2989794 0.18378027 0.16070731 0.07093997 0.15997578 0.20534074 -0.1307196
0.17048706 -0.4634898 -0.21465248 -0.5873607 -0.22986245 0.45673135 -0.021011246 -0.14707994
-0.10091487 0.12517235 -0.20917547 0.10674705 -0.05819769 1.022465 0.15354681 1.3310416
-0.37736133 -0.23618646 0.0116035305 -0.3082709 0.68954724 -0.19267677 -0.0043708934 -0.37866053
-0.34472498 -0.14583312 0.6181103 0.47975558 -0.16253959 -0.30970284 -0.24054588 -0.23995744
00000000: 28c3 5c3c c8b0 c53e 3503 673e 40e6 55be
00000010: f229 793d fe06 ba3e 42a3 52be fc61 10be
00000020: a1d7 cb3e 18ed e9bd d827 bf3d 3c19 16be
00000030: 9091 94be 71a4 f0bc f88b fdbd a1c5 96be
00000040: 51ca 803d a63f 6bbd 3033 5c3e b738 213e
00000050: a9a1 83bd 3c50 c1bd abc1 93be 332a 4fbe
00000060: fd51 943e 4aea 793e ed3f 98be 9885 fa3d
00000070: 673a ec3e fde3 cb3e d0b6 773e 0dd3 4bbe
00000080: fc7f ed3e c123 b33e ccdc 4abe 0123 b6be
00000090: 7acf d4be 1a82 2bbf 3726 78be 3ded adbe
000000a0: 97c2 23bf b29f 98be 8004 9bbe d9b9 c1be
000000b0: 4762 32be 76f9 c7be 808d 68be b075 a0bd
000000c0: d998 a0be 5896 c3be a961 31be 4c99 80be
000000d0: ce53 eabe 318a 9fbc e3a5 ecbe 8809 33bf
000000e0: a09a f4bb 2a57 47bd e72a 09bf b5cd 22be
000000f0: e876 67be 0066 00bf 3eae 35be b243 853e
00000100: 7e42 d53d be4d 78be c8df 193e edfa e63d
00000110: 02ac 02be 6924 b23d 6e34 df3b fc44 273e
00000120: 1540 dd3e c1d8 163d ad39 e3be 18ff ff3e
00000130: 1c36 8f3e a034 6abd dc58 eb3e 5838 bb3e
00000140: 1c58 b73e 72c2 bd3e 3fcc 2fbe 43d7 00bf
00000150: d3bc 043f 2d51 b43c 94d4 e1be 72aa bf3e
00000160: 9381 cc3e ae58 14be 4e4c 833f 007e 293f
00000170: 9867 b13e e162 093f 7e15 fa3e 1b40 973e
00000180: 9c26 d43e ec34 d13e 8853 fe3e 9f3c 073d
00000190: 986b c6bd 0688 18be d727 2d3e a3ca 8c3e
000001a0: 4328 693e f056 02bf d696 15be f664 0d3e
000001b0: 272a a33e 50c1 c9bc 1525 293d 6470 ad3d
000001c0: e657 bd3d 0f7b 403e 8b17 b1bd 155d 9bbe
000001d0: 03bf 30bd 9efa 79be ab47 eabd 6ded 4e3d
000001e0: 7fed f8bc 63f2 2c3c 974b 783d 5d05 09bf
000001f0: f628 95be 3f53 03be 2894 a2be 2698 d1bd
00000200: bd41 133e 577a c9be d803 39be 4cb9 a93d
00000210: 3a3f b4be e5fa 17be 8327 353b 2743 bf3e
00000220: 0b72 cc3d 7350 38bf be43 d13e 3757 adbd
00000230: df1c 09bf 8374 9b3d 21e6 d73e b4bc d03e
00000240: 3f2e a2be 6900 443f 988c febd 599a cbbe
00000250: adc6 17bd db2c f0be 1e5c b83e 6b29 ddbe
00000260: e536 813e f800 833e 8af8 2e3f ec29 4d3d
00000270: 60e3 8bbe a2bc b43e ce6a 393e da9f 5ebe
00000280: 6eca 92bd d37b e2bd ef1c e43d db7c c83d
00000290: ee36 363f 7734 113e 4ce5 ddbe 7317 c9bd
000002a0: 986a 46be 3d55 90be 492d ecbe 32e1 5ebe
000002b0: 70b8 5bbe 1494 593f 2a40 eb3e 9012 a5bf
000002c0: 68b8 28bf 0056 dbbc 93b6 793e c8d5 9c3d
000002d0: 6c18 f9bb 46ab 59bf 91f8 c0be cfbe 8e3a
000002e0: 124b fe3b 8c25 83bd 037a 78bd ebc2 2dbf
000002f0: 36fe 463e 4a78 69be 41a1 d53e e14c 07be
00000300: 9cd2 0c3e 5ce0 a7bd fd9a b3bc 3238 bb3b
00000310: d65f 1e3e 85a9 b43d a0b1 4d3e bf91 dabe
00000320: 20d3 3b3e b49c 00bd 700c 433f 6d30 4fbf
00000330: e718 a73e 7618 ee3e e9ec bbbd 5547 3fbd
00000340: 7de4 1d3e 559f 843e 6fa5 323d 29f5 1a3e
00000350: f83d b63e a7ab 193e 5ae6 92be 9b5b 9d3c
00000360: 7755 7fbb d413 993e e530 3c3e 7590 243e
00000370: fa48 913d b1d0 233e d844 523e 5cdb 05be
00000380: 2994 2e3e 894e edbe dccd 5bbe 455d 16bf
00000390: 1061 6bbe b1d8 e93e c71f acbc 209c 16be
000003a0: 75ac cebd 2e2d 003e 1832 56be 339e da3d
000003b0: b360 6ebd 22e0 823f 603b 1d3e 925f aa3f
000003c0: 8135 c1be ddda 71be bc1c 3e3c afd5 9dbe
000003d0: 2b86 303f 0f4d 45be b639 8fbb cbdf c1be
000003e0: cb7f b0be 4755 15be 7a3c 1e3f 86a2 f53e
000003f0: c770 26be 5f91 9ebe a951 76be 67b7 75be

inc.conv.conv2x.1.c.0.bias f4 [16]
0.08788636 -0.08121224 -0.020092823 -0.16037889 -0.04905129 -0.047057055 0.028229088 -0.13974279
0.031118508 0.11074366 0.080072686 -0.13913915 0.009687655 -0.09662305 0.16918568 0.10527975
00000000: c4fd b33d 9a52 a6bd b499 a4bc 5d3a 24be
00000010: 01ea 48bd e6be 40bd b040 e73c bc18 0fbe
00000020: 3eec fe3c 92cd e23d 26fd a33d 7e7a 0ebe
00000030: f8b8 1e3c 4ee2 c5bd 033f 2d3e e99c d73d

inc.conv.conv2x.1.c.1.weight f4 [16]
0.83866215 1.3357881 0.6935334 0.75294584 0.82676 1.5212665 0.7697212 0.72702354
0.96746457 0.7815312 0.97320384 0.65258574 0.5931325 0.91282284 0.83690786 0.79426664
00000000: 90b2 563f 1bfb aa3f 688b 313f 0fc1 403f
00000010: 8ba6 533f dcb8 c23f 730c 453f 371e 3a3f
00000020: c2ab 773f 6e12 483f e323 793f dc0f 273f
00000030: 88d7 173f c2ae 693f 983f 563f 0f55 4b3f

inc.conv.conv2x.1.c.1.bias f4 [16]
1.1855744 -0.29544297 1.2488358 0.6060765 0.33895496 4.6889887 0.8084736 0.14768814
-0.1330486 0.39219663 -0.140397 -0.009774321 0.37339696 0.29311094 0.38914424 1.5402213
00000000: e7c0 973f 4d44 97be dad9 9f3f d427 1b3f
00000010: 818b ad3e 320c 9640 20f8 4e3f 8f3b 173e
00000020: e43d 08be ffcd c83e 3bc4 0fbe 7924 20bc
00000030: e32d bf3e a312 963e ea3d c73e f925 c53f

inc.conv.conv2x.1.c.1.running_mean f4 [16]
3.9446645 -5.9500113 -1.7650111 1.2601023 -4.8460445 5.584303 14.135736 14.538227
-8.910952 3.9145536 -4.4635286 -7.625354 -4.160843 -1.2111566 -16.719555 -7.897621
00000000: 6275 7c40 7e66 bec0 e2eb e1bf 084b a13f
00000010: cc12 9bc0 9cb2 b240 fa2b 6241 949c 6841
00000020: 4293 0ec1 0c88 7a40 3ad5 8ec0 e602 f4c0
00000030: a025 85c0 2e07 9bbf a6c1 85c1 50b9 fcc0

inc.conv.conv2x.1.c.1.running_var f4 [16]
38.281784 18.943493 26.475887 27.893164 53.932495 19.629429 42.102623 39.86074
61.911682 38.01133 10.0063 11.340311 16.690996 21.688387 22.187563 32.434944
00000000: 8c20 1942 468c 9741 9ece d341 3325 df41
00000010: e0ba 5742 1209 9d41 1669 2842 6671 1f42
00000020: 90a5 7742 9a0b 1842 ce19 2041 ea71 3541
00000030: 2987 8541 d181 ad41 2180 b141 62bd 0142

down1.go_down.1.conv2x.0.c.0.weight f4 [32, 16, 3, 3]
0.5472567 -0.057029076 -0.14904788 0.42730087 0.11247576 0.11695134 0.55964696 -0.12138857
-0.525318 0.16059029 -0.48551705 0.097188786 0.37591085 0.077713124 -0.5042416 0.31656477
-0.32720706 -0.20844765 -0.43271622 -0.32019845 -0.20559858 -0.09802514 0.2983163 -0.12401347
-1.6368555 -0.3622054 -0.05632134 -0.2262544 -0.06123928 -0.16510001 0.050862785 -0.06769262
-0.20301443 0.0054730684 -0.27644488 0.5367181 -0.2332566 -0.1200399 0.066042915 -0.11175205
-0.2531286 -0.10866263 -0.49385455 -0.47009754 -0.34309787 0.07044305 -0.18635182 -0.24098776
0.07226847 -0.2822595 0.13595891 0.42249286 -0.09730096 0.0407263 -0.67751765 -0.018907355
0.23467073 -0.6534833 -0.1894456 -0.031964336 -0.03998748 -0.1530002 -0.111856796 -0.28977865
-0.3177785 -0.24058233 -0.41247115 -0.29305986 -0.38729203 0.8872831 0.1594833 0.15920673
-0.59771997 -0.82859886 -0.7656477 -0.13806622 -0.10765414 -0.47525907 -0.07299089 -0.25336793
-0.16876775 -1.2470226 -0.6147751 -0.75643456 -0.47413814 -0.15042305 -0.66916454 0.027491156
0.13846388 -0.24020118 -0.023250049 -0.081666954 0.06012545 0.18199135 -0.44005427 -0.5829022
0.0078086625 0.038018562 0.42302153 0.24292539 -0.15676573 -0.19043553 0.6164181 0.39354235
-0.03313114 -0.52852374 0.07620314 0.6242007 -0.024272228 0.12013552 0.0101111345 0.22494033
-0.07092991 -0.11628266 1.0945791 0.50407106 0.75967294 0.16992404 -0.11889396 -0.4344719
-0.0069386214 -0.3101931 -0.3274785 0.23190166 0.26610145 0.2837867 0.5720702 0.048614927
0.047291968 0.7312742 -0.052805115 0.11651043 0.17907758 0.03330798 0.10483953 0.6865181
-0.043905295 0.028616976 0.32508144 -0.39513025 0.1932015 -0.7462095 -1.0100616 -0.6947227
1.043382 1.1231105 0.07168563 0.4961279 1.3725932 -0.27976242 0.36535263 1.4065892
0.14958845 0.18017972 -0.52588856 0.03844062 0.51573837 -0.20629683 0.06820402 0.48853594
0.26227868 -0.35439438 -0.45221815 -0.37950552 -0.12612677 0.16969435 -0.7830951 0.41748995
-0.4115616 -0.7787231 0.1288409 -0.13213712 -0.029289918 0.03390176 0.04025953 0.10367293
0.22380576 -0.1945792 -0.0027802817 0.1253764 -0.10720172 0.17291361 0.11868451 -0.22844926
0.14791752 0.13104227 -0.48619902 -0.08291667 0.30615547 0.14569825 0.15852523 -0.34665936
-0.32390904 0.2860395 -0.35580462 -0.23491158 0.04388569 -0.42067865 -0.4061664 0.10963893
-0.12724409 -0.77768016 -0.023568232 -0.027102435 -0.34179097 0.024269534 0.080042325 0.17742449
-0.3021219 -0.08729881 0.24966659 -0.052022036 0.26900014 0.34306133 0.12474222 -0.3198664
0.20271294 -0.26728067 -0.10177351 0.61491567 -0.090096265 0.23787464 0.54520494 0.20711355
0.32003993 -0.034802478 0.39299473 -0.20272559 -0.2790496 -0.2209037 0.32221523 -0.1711215
-0.21209556 0.2778854 -0.55574703 -0.3349192 -0.30006382 -0.035606943 -0.72728646 -0.22775626
0.16343278 -0.25492734 -0.07751393 0.0006733933 -0.26779875 -0.23050682 -0.1522571 -0.03775119
-0.023139225 -1.073269 -0.5207223 0.18897298 -0.019314736 0.1795594 -0.27497172 0.08291007
00000000: 0419 0c3f 5297 69bd 02a0 18be 2ec7 da3e
00000010: b159 e63d 2f84 ef3d 0645 0f3f 929a f8bd
00000020: 3e7b 06bf c871 243e b195 f8be ea0a c73d
00000030: 6377 c03e 0f28 9f3d fa15 01bf c714 a23e
00000040: af87 a7be 4d73 55be fb8c ddbe 0df1 a3be
00000050: 6f88 52be 68c1 c8bd eabc 983e c6fa fdbd
00000060: 7b84 d1bf fc72 b9be 35b1 66bd 3caf 67be
00000070: 0ad6 7abd fa0f 29be 7f55 503d 6ea2 8abd
00000080: 04e3 4fbe 6d57 b33b 2f8a 8dbe 5b66 093f
00000090: d1da 6ebe 7bd7 f5bd 8241 873d 42de e4bd
000000a0: 129a 81be 838a debd 81da fcbe a0b0 f0be
000000b0: 86aa afbe 7244 903d 03d3 3ebe 7fc5 76be
000000c0: 7e01 943d 5184 90be d038 0b3e fc50 d83e
000000d0: ba45 c7bd 9fd0 263d cc71 2dbf 99e3 9abc
000000e0: 864d 703e ae4a 27bf 07fe 41be 09ed 02bd
000000f0: e9c9 23bd 16ac 1cbe 2d15 e5bd de5d 94be
00000100: ddb3 a2be 375b 76be 6b2f d3be f10b 96be
00000110: 244b c6be fc24 633f 974f 233e 1707 233e
00000120: 2d04 19bf 0e1f 54bf 7d01 44bf 3b61 0dbe
00000130: c679 dcbd 2855 f3be 3f7c 95bd 71b9 81be
00000140: 74d1 2cbe 709e 9fbf e761 1dbf b2a5 41bf
00000150: 3cc2 f2be 8008 1abe 5e4e 2bbf 2235 e13c
00000160: 7ac9 0d3e 4cf7 75be e376 bebc 0141 a7bd
00000170: 1b46 763d f15b 3a3e cb4e e1be 1439 15bf
00000180: cfdf ff3b 5ab9 1b3d 4796 d83e 6fc1 783e
00000190: 3287 20be 8801 43be 94cd 1d3f 627e c93e
000001a0: 85b4 07bd 554d 07bf 6410 9c3d 9ecb 1f3f
000001b0: 8dd6 c6bc 9d09 f63d 2ca9 253c c256 663e
000001c0: b343 91bd 9a25 eebd 2b1b 8c3f cd0a 013f
000001d0: ed79 423f 9100 2e3e ad7e f3bd 1a73 debe
000001e0: 605d e3bb a1d1 9ebe 43ab a7be a177 6d3e
000001f0: 733e 883e 7e4c 913e 3173 123f 7220 473d
00000200: 39b5 413d c934 3b3f 2d4a 58bd 059d ee3d
00000210: 1d60 373e f36d 083d 1cb6 d63d a6bf 2f3f
00000220: 0ad6 33bd 266e ea3c 1371 a63e 834e cabe
00000230: 9dd6 453e 9607 3fbf b349 81bf 59d9 31bf
00000240: 8b8d 853f 16c2 8f3f eacf 923d 7a04 fe3e
00000250: 22b1 af3f 053d 8fbe 800f bb3e 1d0b b43f
00000260: b72d 193e 0881 383e a2a0 06bf e973 1d3d
00000270: 6e07 043f 7a3f 53be 8dae 8b3d 6221 fa3e
00000280: 6449 863e 2e73 b5be 2389 e7be 8c4e c2be
00000290: 6027 01be 5bc4 2d3e ec78 48bf 3ec1 d53e
000002a0: 34b8 d2be 665a 47bf deee 033e f44e 07be
000002b0: 69f1 efbc 92dc 0a3d 2de7 243d 7952 d43d
000002c0: 562d 653e c53f 47be 6335 36bb ac62 003e
000002d0: 938c dbbd 4410 313e dd10 f33d 9aee 69be
000002e0: b177 173e f22f 063e 14ef f8be 37d0 a9bd
000002f0: 69c0 9c3e ec31 153e 7054 223e 567d b1be
00000300: 68d7 a5be c573 923e 062c b6be a98c 70be
00000310: 7bc1 333d 3163 d7be 0bf5 cfbe 608a e03d
00000320: 464c 02be 0c16 47bf 2a12 c1bc ed05 debc
00000330: 3aff aebe e7d0 c63c 3bed a33d c4ae 353e
00000340: b9af 9abe b8c9 b2bd 99a8 7f3e 0f15 55bd
00000350: 63ba 893e bca5 af3e d978 ff3d 87c5 a3be
00000360: fb93 4f3e 03d9 88be a16e d0bd 1d6b 1d3f
00000370: 6484 b8bd 6995 733e 8d92 0b3f 9315 543e
00000380: 46dc a33e 0b8d 0ebd 9b36 c93e 4c97 4fbe
00000390: 97df 8ebe 9434 62be 65f9 a43e 793a 2fbe
000003a0: 942f 59be ff46 8e3e 7045 0ebf 887a abbe
000003b0: f7a1 99be 96d8 11bd 722f 3abf f038 69be
000003c0: ec5a 273e d685 82be a0bf 9ebd a986 303a
000003d0: eb1c 89be fb09 6cbe 49e9 1bbe fea0 1abd
000003e0: 798e bdbc e160 89bf 0f4e 05bf 2282 413e
000003f0: f039 9ebc 6bde 373e 18c9 8cbe c1cc a93d

down1.go_down.1.conv2x.0.c.0.bias f4 [32]
-0.019996755 -0.07148724 -0.07821868 0.021991484 -0.078347094 0.032776963 0.013572815 0.048783947
-0.05991328 -0.07068419 0.008665408 -0.053890757 0.009592277 -0.064558156 0.091979705 0.0661473
0.026455441 0.017052962 -0.014228833 0.020698823 0.06424469 -0.08732962 0.05269322 -0.034154173
0.04198271 -0.06993415 -0.0059176018 0.013905697 -0.01741934 -0.016071461 0.018765885 -0.013993468
00000000: 3cd0 a3bc e767 92bd 1e31 a0bd 7c27 b43c
00000010: 7174 a0bd 2341 063d 8360 5e3c add1 473d
00000020: a167 75bd dfc2 90bd 5bf9 0d3c 8ebc 5cbd
00000030: ed28 1d3c 1137 84bd db5f bc3d 3c78 873d
00000040: 15b9 d83c a7b2 8b3c 0d20 69bc 9490 a93c
00000050: b892 833d dfd9 b2bd d9d4 573d 3fe5 0bbd
00000060: 10f6 2b3d a339 8fbd 71e8 c1bb b8d4 633c
00000070: 01b3 8ebc 4ca8 83bc eaba 993c dc44 65bc

down1.go_down.1.conv2x.0.c.1.weight f4 [32]
1.0328177 1.2939125 0.86854506 1.2666632 1.0032482 1.2429317 1.0423646 1.0759115
0.8100594 1.0664991 0.94409716 0.98267615 0.97690374 1.4346343 1.1408921 1.2129833
1.0764064 1.0382105 0.9968081 1.0824155 1.1089541 1.0006293 1.2215124 1.1099734
1.1637958 0.7788403 1.0675586 1.1608744 1.1410291 1.152506 0.85621625 0.8906727
00000000: 5f33 843f ed9e a53f f858 5e3f 0522 a23f
00000010: 706a 803f 6318 9f3f 346c 853f 78b7 893f
00000020: 0e60 4f3f 0b83 883f 5ab0 713f aa90 7b3f
00000030: 5d16 7a3f 19a2 b73f c108 923f 0943 9b3f
00000040: afc7 893f 15e4 843f d12e 7f3f 978c 8a3f
00000050: 35f2 8d3f 9f14 803f 855a 9c3f 9c13 8e3f
00000060: 43f7 943f 1462 473f c3a5 883f 8897 943f
00000070: 3e0d 923f 5185 933f fd30 5b3f 2003 643f

down1.go_down.1.conv2x.0.c.1.bias f4 [32]
0.871162 -0.25096136 -0.2059499 -0.8761132 -0.12205011 -0.84180033 0.8450391 0.48622766
-0.060354188 0.014693662 -0.10986806 0.23985201 -0.41718793 -1.1437527 0.28066766 -0.14964868
-0.38357145 0.65827876 -0.49370715 -0.04620691 -0.77803683 -0.3169643 -0.25201967 0.13266008
-0.06366622 -0.0009579944 0.7094498 -0.3298941 -0.12676783 -0.39420563 0.21420422 -0.1123995
00000000: 7904 5f3f 027e 80be 88e4 52be f448 60bf
00000010: 68f5 f9bd 3a80 57bf 7c54 583f d5f2 f83e
00000020: f435 77bd afbd 703c 8102 e1bd c49b 753e
00000030: a899 d5be 7d66 92bf acb3 8f3e 813d 19be
00000040: 7a63 c4be f584 283f 2fc7 fcbe 7543 3dbd
00000050: 6c2d 47bf 2549 a2be b908 81be 0bd8 073e
00000060: 6f63 82bd ea21 7bba 819e 353f e1e7 a8be
00000070: 6dcf 01be 52d5 c9be 5a58 5b3e b631 e6bd

down1.go_down.1.conv2x.0.c.1.running_mean f4 [32]
-11.160282 -4.479146 -22.511208 17.120298 -3.8472562 18.965414 7.617232 1.7050476
-31.094961 6.0034585 -8.205975 -13.546359 9.901778 -15.530706 0.40690857 -20.151228
21.142576 8.724586 -25.500801 -17.48933 -3.4597402 -0.3596406 10.699708 -13.321323
36.661713 10.307648 -11.170559 12.375965 -4.712319 3.3780844 -31.303455 4.770044
00000000: 8490 32c1 2a55 8fc0 f416 b4c1 5ff6 8841
00000010: 7239 76c0 2bb9 9741 5dc0 f340 003f da3f
00000020: 7bc2 f8c1 551c c040 ac4b 03c1 e3bd 58c1
00000030: af6d 1e41 c67d 78c1 5256 d03e b735 a1c1
00000040: ff23 a941 e797 0b41 a401 ccc1 26ea 8bc1
00000050: 626c 5dc0 d022 b8be 0132 2b41 2424 55c1
00000060: 98a5 1242 20ec 2441 9cba 32c1 f403 4641
00000070: 51cb 96c0 8932 5840 7a6d fac1 33a4 9840

down1.go_down.1.conv2x.0.c.1.running_var f4 [32]
47.86709 32.444336 111.52472 38.442467 42.12032 77.78948 36.85163 35.430622
39.343113 35.497856 23.936457 102.417435 52.768917 26.976177 20.07645 82.56391
70.61116 34.879753 237.65057 39.99881 35.82106 20.357647 12.318441 33.362823
87.32399 33.80429 39.92028 126.72258 28.242233 23.68729 82.412834 22.257565
00000000: e677 3f42 00c7 0142 a80c df42 16c5 1942
00000010: 357b 2842 3794 9b42 1268 1342 f5b8 0d42
00000020: 595f 1d42 cefd 0d42 dd7d bf41 bad5 cc42
00000030: 5f13 5342 36cf d741 929c a041 b920 a542
00000040: ea38 8d42 de84 0b42 8ca6 6d43 c8fe 1f42
00000050: c448 0f42 76dc a241 5618 4541 8873 0542
00000060: e2a5 ae42 9837 0742 5eae 1f42 f671 fd42
00000070: 18f0 e141 927f bd41 5fd3 a442 7e0f b241

down1.go_down.1.conv2x.1.c.0.weight f4 [32, 32, 3, 3]
0.046793044 0.03650929 -0.20549099 0.32597244 -0.15394635 -0.43708545 0.61525357 -0.3672522
-0.2858979 0.19662513 -0.28870264 -0.100542285 0.10095485 0.19310881 0.07774245 0.18420683
0.44287512 0.0967638 -0.038279943 0.14294164 0.06610167 -0.060308855 0.20582987 -0.3935219
-0.22437848 -0.2038938 -0.4347971 -0.80779177 -0.10945283 0.32118604 -0.7948476 -0.40776056
-0.10757324 0.014204979 -0.39952004 0.16770379 0.37030467 0.24520579 -1.0075943 -0.15541852
-0.3810736 -1.3036034 -0.42391813 -0.7376792 -0.78990036 0.11236222 -0.3428459 -0.23305988
-0.2576638 0.09046702 0.44119194 0.37365264 -0.08374377 -0.4012367 -0.043276753 0.4310022
0.8845912 0.42987898 0.62023807 0.6144198 0.22330326 -0.23711182 0.2577173 0.28671858
0.16186878 0.74098766 0.10256856 0.26229063 0.7570216 -0.0450598 0.38307706 1.0959638
0.5275308 0.15436625 -0.40110636 0.3775803 -0.15110387 -0.84052694 0.03720897 -0.3333422
-0.46016508 0.019076101 0.24192564 0.16966721 0.09762339 0.48801085 0.12456752 -0.07726916
0.3159693 0.19857952 0.17947431 0.20312667 -0.52686006 -0.23988275 -0.13577017 -0.20768455
0.22545025 -0.030576129 -0.27839574 0.096850306 -0.052664734 -0.19650786 -0.060008503 0.14258568
0.07952467 -0.32546932 -0.07251043 -0.33312875 -0.71234286 -0.6724849 -0.62404144 -0.5374825
-0.40130076 -0.6550883 -0.47345397 -0.097019665 0.07652935 0.11752865 0.19244495 -0.589271
-0.18407369 -0.09495686 -1.0272801 -0.5400733 -0.4339704 -0.54810864 -0.14193855 0.0011009898
-0.44390613 -0.74714315 0.051854193 -0.031127388 -0.2885883 -0.09613709 -0.18642974 -0.23654811
0.09452654 -0.74448115 -0.02641118 0.25548115 -0.40620896 -0.33046758 0.06645067 0.25320956
-0.333096 -0.49916416 -0.080678955 -0.28876793 -0.359092 0.18408976 0.012860373 -0.34811115
-0.32564008 -0.27708846 -0.047416504 -0.5181258 0.53243726 0.21823432 -0.6870599 0.387518
0.16374017 0.25196692 -0.3895125 -0.41974 -0.21825808 -0.2687653 -0.34820077 -0.22757927
-0.49179932 -0.54772526 -0.5453593 -0.11610662 0.06789488 -0.20912534 -0.0532834 -0.010170883
0.011251827 -0.40566683 -0.003810074 0.40492138 -0.45517126 -0.027981292 -0.9394729 -0.017553147
-0.2609173 -1.0604604 -0.4349972 -0.24642074 -0.7036615 -0.040865686 -0.101011395 -0.19711044
0.23077825 0.056272745 -0.08220262 -0.16438664 0.3293351 0.7886233 0.17025155 0.073047616
-0.1250303 -0.017878331 -0.28402245 0.28809497 0.91178864 -0.028815635 0.31104887 0.10837436
0.08371492 0.49191463 0.43782032 0.22752441 0.26996994 0.6031933 0.111265734 0.3762046
-0.5125766 -0.20027073 -0.10340582 -0.38226777 -0.23903297 -0.38764593 0.23873843 0.12679735
-0.0474363 0.0026469063 -0.41420808 -0.39310068 0.24537729 -0.39356825 -0.3204051 -0.111246526
-0.21892086 -0.09139135 0.7207501 -0.4981957 -0.25832933 0.1424584 -0.44823843 -0.39932978
-0.24954274 -0.24727547 -0.32723516 -0.4463044 -0.16618888 -0.014266077 -0.38093212 -0.5564306
-0.14674959 0.50742745 -0.1896704 -0.13377392 0.028116789 -0.06419437 0.23417686 0.21029356
00000000: 10aa 3f3d c48a 153d 3b6c 52be dce5 a63e
00000010: 1da4 1dbe aac9 dfbe 4281 1d3f 7b08 bcbe
00000020: 3661 92be 1958 493e d5d0 93be 1de9 cdbd
00000030: 6bc1 ce3d 51be 453e 6f37 9f3d b7a0 3c3e
00000040: 87c0 e23e 192c c63d 6ecb 1cbd 4b5f 123e
00000050: 5060 873d 6b06 77bd 11c5 523e b47b c9be
00000060: 79c3 65be 89c9 50be ba9d debe 71cb 4ebf
00000070: ce28 e0bd 7f72 a43e 227b 4bbf fec5 d0be
00000080: 5c4f dcbd 00bc 683c e48d ccbe 8bba 2b3e
00000090: 9398 bd3e 3a17 7b3e daf8 80bf 0826 1fbe
000000a0: 141c c3be 7adc a6bf cc0b d9be 8bd8 3cbf
000000b0: e936 4abf 2a1e e63d 7f89 afbe 40a7 6ebe
000000c0: 82ec 83be c646 b93d e9e3 e13e 664f bf3e
000000d0: db81 abbd e66e cdbe f742 31bd 52ac dc3e
000000e0: 9274 623f 1919 dc3e ecc7 1e3f 9e4a 1d3f
000000f0: 9ca9 643e 71cd 72be 86f3 833e c7cc 923e
00000100: eec0 253e 5eb1 3d3f 770f d23d f54a 863e
00000110: 2bcc 413f a090 38bd ad22 c43e 8b48 8c3f
00000120: 420c 073f 3012 1e3e d05d cdbe 3552 c13e
00000130: f9ba 1abe c62c 57bf 6f68 183d d4ab aabe
00000140: c29a ebbe 7c45 9c3c 5bbb 773e 3ebd 2d3e
00000150: c6ee c73d 8fdc f93e 421d ff3d 4b3f 9ebd
00000160: bac6 a13e 6e58 4b3e 1dc8 373e 7000 503e
00000170: 4de0 06bf d3a3 75be 5607 0bbe 42ab 54be
00000180: 6edc 663e ca7a fabc e389 8ebe 7459 c63d
00000190: fab6 57bd 5b39 49be 7acb 75bd fb01 123e
000001a0: d5dd a23d eaa3 a6be 5980 94bd da8f aabe
000001b0: 1a5c 36bf f827 2cbf 2ec1 1fbf 7498 09bf
000001c0: 4b77 cdbe deb3 27bf 8f68 f2be 3fb2 c6bd
000001d0: 6bbb 9c3d dcb2 f03d 4a10 453e 77da 16bf
000001e0: d07d 3cbe be78 c2bd ea7d 83bf 3e42 0abf
000001f0: 5e31 debe d950 0cbf 5758 11be 164f 903a
00000200: aa47 e3be c644 3fbf 1065 543d ddfe febc
00000210: d8c1 93be 86e3 c4bd 70e7 3ebe ab39 72be
00000220: 2197 c13d 5196 3ebf 425c d8bc 6dce 823e
00000230: 9ffa cfbe 0c33 a9be 4a17 883d afa4 813e
00000240: 8f8b aabe 7292 ffbe 023b a5bd 64d9 93be
00000250: e8da b7be 0782 3c3e 50b4 523c a03b b2be
00000260: 4cba a6be 8ade 8dbe cf37 42bd e4a3 04bf
00000270: cf4d 083f d178 5f3e 28e3 2fbf c268 c63e
00000280: 81ab 273e cf01 813e 2f6e c7be 29e8 d6be
00000290: 0c7f 5fbe 9b9b 89be 5f47 b2be 8a0a 69be
000002a0: 1fcd fbbe b937 0cbf ab9c 0bbf 4fc9 edbd
000002b0: 790c 8b3d f424 56be b23f 5abd c6a3 26bc
000002c0: 9559 383c 90b3 cfbe 6fb2 79bb db51 cf3e
000002d0: 350c e9be 0639 e5bc 4c81 70bf 9ecb 8fbc
000002e0: f496 85be 2bbd 87bf f4b7 debe b855 7cbe
000002f0: 2923 34bf c762 27bd 10df cebd 52d7 49be
00000300: 2251 6c3e 407e 663d d959 a8bd f954 28be
00000310: 9c9e a83e 37e3 493f 6c56 2e3e fd99 953d
00000320: f107 00be 9475 92bc 646b 91be 2f81 933e
00000330: fb6a 693f c40e ecbc cc41 9f3e 60f3 dd3d
00000340: ba72 ab3d 3cdc fb3e fc29 e03e 29fc 683e
00000350: 8039 8a3e e06a 1a3f 4adf e33d e49d c03e
00000360: 3838 03bf c513 4dbe 6ec6 d3bd 9ab8 c3be
00000370: 0fc5 74be 8779 c6be d977 743e 2ad7 013e
00000380: 914c 42bd b877 2d3b 1513 d4be 7e44 c9be
00000390: 2f44 7b3e c781 c9be 230c a4be 38d5 e3bd
000003a0: ca2c 60be 632b bbbd 1483 383f 8213 ffbe
000003b0: be43 84be 9de0 113e 827f e5be f474 ccbe
000003c0: 2288 7fbe c835 7dbe 5e8b a7be 0382 e4be
000003d0: 6b2d 2abe 44bc 69bc 8909 c3be 3c72 0ebf
000003e0: 8645 16be c4e6 013f f538 42be 08fc 08be
000003f0: 2e55 e63c 5678 83bd 0fcc 6f3e 3257 573e

down1.go_down.1.conv2x.1.c.0.bias f4 [32]
-0.024973227 0.007261513 0.008165048 -0.07040117 -0.0667574 0.052812874 -0.032861736 -0.021660067
0.04232084 -0.004231799 0.03152566 0.057088234 0.04399197 -0.048057202 -0.019608915 0.03716482
-0.060937192 -0.066732116 0.043921966 -0.009644468 -0.06366579 -3.333514e-05 0.024137925 -0.033363946
-0.07009845 0.0045807273 -0.029271789 0.0024128086 0.0015984519 0.010133397 0.04571029 0.050988294
00000000: a794 ccbc fcf1 ed3b b2c6 053c 7d2e 90bd
00000010: 1bb8 88bd 5052 583d 079a 06bd 7470 b1bc
00000020: 9e58 2d3d e7aa 8abb 0d21 013d 5ad5 693d
00000030: ed30 343d a1d7 44bd e0a2 a0bc 233a 183d
00000040: 4799 79bd d9aa 88bd 85e7 333d d503 1ebc
00000050: 3663 82bd 56d1 0bb8 e6bc c53c a2a8 08bd
00000060: c78f 8fbd ed19 963b 64cb efbc 3620 1e3b
00000070: 2583 d13a 8c06 263c b73a 3b3d 1ad9 503d

down1.go_down.1.conv2x.1.c.1.weight f4 [32]
1.06449 0.8281248 1.1483915 0.8250471 0.86665034 0.884091 1.0747067 1.033652
1.0928022 0.93491465 0.8693433 0.88436216 0.8543032 0.89436513 0.8356978 1.2410034
0.9851057 0.97449464 0.8220284 0.9640323 0.85623556 0.9138573 0.90306896 0.82781714
0.7433944 0.81550884 1.1228677 1.1072716 0.78421116 0.71671957 0.8288011 1.221118
00000000: 3541 883f fdff 533f 7efe 923f 4936 533f
00000010: ccdc 5d3f ca53 623f fd8f 893f b54e 843f
00000020: f1e0 8b3f 9156 6f3f 488d 5e3f 8f65 623f
00000030: 9db3 5a3f 1df5 643f 4bf0 553f 33d9 9e3f
00000040: e32f 7c3f 7b78 793f 7470 523f d2ca 763f
00000050: 4132 5b3f 8df2 693f 872f 673f d3eb 533f
00000060: 184f 3e3f 30c5 503f 21ba 8f3f 13bb 8d3f
00000070: 10c2 483f ef7a 373f 4f2c 543f 984d 9c3f

down1.go_down.1.conv2x.1.c.1.bias f4 [32]
0.4656973 0.6679956 -0.58296925 0.2354438 -0.17752075 0.19956453 0.10107591 -0.25974846
-0.51721305 -0.5017777 -0.1993433 0.50711125 0.31410578 0.042435654 -0.4142214 -0.46874192
0.65875965 0.14042018 0.3089081 -0.13437527 -0.41077945 0.32246536 -0.6647674 1.2537711
0.11083892 0.0055889688 -0.83690065 -0.23173687 0.3387322 -0.045336284 0.63440204 -1.1635225
00000000: e06f ee3e c201 2b3f 793d 15bf 2e18 713e
00000010: 00c8 35be a55a 4c3e e300 cf3d c0fd 84be
00000020: 1368 04bf 8174 00bf a620 4cbe 0bd2 013f
00000030: 79d2 a03e 02d1 2d3d d414 d4be f1fe efbe
00000040: 79a4 283f 4fca 0f3e 3429 9e3e ac99 09be
00000050: af51 d2be 2e1a a53e 322e 2abf 927b a03f
00000060: 84ff e23d ab23 b73b 1f3f 56bf 6e4c 6dbe
00000070: 4f6e ad3e 8ab2 39bd 2c68 223f 4eee 94bf

down1.go_down.1.conv2x.1.c.1.running_mean f4 [32]
-2.1385937 -2.8546648 7.005554 3.2281947 -0.9072532 -6.393441 -9.718411 -3.6907663
0.114852235 7.479417 15.521752 1.3417315 -3.2445366 -4.590639 2.621281 -0.9291861
-10.075601 -7.8189583 -1.1310093 3.0214028 1.2994019 -8.19883 7.2222233 -14.627004
-8.929388 -2.5209422 7.1805773 -4.973607 -2.807065 -3.775786 -2.5998569 0.6980669
00000000: b8de 08c0 d4b2 36c0 802d e040 be9a 4e40
00000010: bf41 68bf 1297 ccc0 9d7e 1bc1 8435 6cc0
00000020: a637 eb3d 6257 ef40 1959 7841 dcbd ab3f
00000030: 7da6 4fc0 84e6 92c0 11c3 2740 24df 6dbf
00000040: a935 21c1 e834 fac0 eac4 90bf aa5e 4140
00000050: cd52 a63f 682e 03c1 741c e740 3508 6ac1
00000060: c6de 0ec1 1e57 21c0 4ac7 e540 ca27 9fc0
00000070: f4a6 33c0 7aa6 71c0 0e64 26c0 83b4 323f

down1.go_down.1.conv2x.1.c.1.running_var f4 [32]
116.65132 41.09566 52.796413 138.4621 36.496086 27.198124 131.81543 57.537193
134.38939 48.141068 73.15411 163.7402 61.037346 101.991806 46.29979 40.70855
95.07937 41.289684 59.606075 49.855278 79.75484 117.259186 44.3581 312.8572
30.256668 72.38045 58.637108 51.025677 95.95639 45.748543 43.168243 28.406683
00000000: 7a4d e942 f561 2442 872f 5342 4c76 0a43
00000010: fefb 1142 c295 d941 c0d0 0343 1626 6642
00000020: af63 0643 7490 4042 e84e 9242 7ebd 2343
00000030: 3e26 7442 cefb cb42 fc32 3942 8ed5 2242
00000040: a328 be42 a328 2542 9f6c 6e42 ce6b 4742
00000050: 7a82 9f42 b484 ea42 b26e 3142 b96d 9c43
00000060: a80d f241 cac2 9042 668c 6a42 4b1a 4c42
00000070: ace9 bf42 82fe 3642 48ac 2c42 e340 e341

down2.go_down.1.conv2x.0.c.0.weight f4 [64, 32, 3, 3]
-0.041921347 -0.09478684 0.20895992 0.38618034 0.102435164 0.16971448 0.2736745 0.14503086
-0.041183032 0.19911033 -0.40716556 -0.67925054 -0.3871364 -0.20441198 -0.14687252 -0.5742689
-0.06251039 -0.033572007 0.20111965 0.3926346 0.36496747 0.2735449 0.194373 0.26798847
0.04226363 0.13452847 0.24190898 -0.2140189 -0.03755843 0.23136474 -0.13731733 -0.032519676
0.27560374 0.30291805 -0.14817166 0.018890563 -0.23048638 -0.18013959 -0.050362747 -0.23583414
0.05572496 0.019447088 -0.19424532 -0.13952653 -0.047381885 -0.30561623 -0.35567412 -0.38973874
-0.14299446 -0.23062444 -0.2374066 -0.08835845 -0.21798897 -0.36264104 -0.04346084 -0.25802752
-0.12321207 -0.24401672 -0.40325218 -0.11571472 -0.14007503 -0.03340132 0.10525811 0.33929014
0.23119907 1.0466835 -0.1912643 -0.62501013 0.52312434 -0.08102353 -0.30160666 0.024690544
-0.1268132 0.14508821 -0.20795062 0.28959706 0.3187935 -0.5436839 0.3705497 0.35158983
-0.04083114 -0.4084707 -0.21718244 0.28740436 -0.33271787 -0.20564243 0.7064737 0.13195878
0.3204716 0.7091661 -0.19216785 0.2158778 0.67277163 0.059612073 0.40321976 0.8254966
0.06272332 0.21949968 0.46186304 0.5307833 0.5617773 0.36690354 0.43771282 0.3397673
0.026665267 0.26481164 0.014724821 0.08477216 -0.15079798 -0.05521637 -0.34528574 -0.0706383
0.047098525 -0.17877606 -0.0031996719 0.12791605 -0.068704285 0.5247801 0.5777138 0.09869775
0.17536806 0.3928101 0.099979624 0.49201235 0.44000235 0.095112115 0.10991316 0.47341403
0.14781095 0.34565905 0.6680531 0.6514536 0.21715018 0.24409045 0.3422818 0.6910696
-0.16195792 -0.11247031 0.28350577 -0.48527926 -0.2848083 -0.2393149 -0.6073415 -0.11436296
0.07501004 0.4313391 0.2509606 0.6408221 0.8754394 0.54393226 0.4554881 0.53140336
0.43064216 0.065365344 0.08033807 -0.00069152896 -0.08509711 0.26572192 0.13600771 -0.22598083
-0.31073546 -0.26290062 -0.41152814 -0.7890437 -0.6394297 -0.22602727 -0.16172712 0.38083655
-0.52352726 -0.39868543 0.57519346 0.32818305 1.1469293 1.1809067 0.37860295 0.55860186
0.636769 0.7350845 0.29142225 0.42994797 0.7498534 0.4985193 -0.000445576 0.4519106
0.3019409 0.22651616 0.21687241 0.053164423 0.03307812 -0.020628376 -0.14440498 -0.19600153
-0.18569857 -0.3880599 -0.16739844 -0.2594868 -0.24561359 -0.0645255 0.8264061 0.62861896
0.29142958 0.594191 0.14010325 0.44324937 0.5415969 0.22915913 0.35763684 0.4886108
0.68797725 0.45318675 0.61402076 0.7755722 0.29286867 0.6744707 0.38324827 -0.09341799
-0.32784685 -0.23842096 0.10576556 -0.49286276 -0.45844683 0.016221141 -0.27574924 -0.23296936
-0.0845156 -0.23577347 -0.122908376 -0.06293083 -0.34679282 -0.32408974 -0.21959227 -0.0745042
-0.00160214 -0.15205455 -0.12030293 0.32735565 0.24677724 0.42657825 1.2000061 0.94392854
0.15857932 0.8692386 0.53143233 -0.09389614 0.121116474 -0.29120517 0.24960385 0.22442245
-0.380121 0.23993312 0.26190728 -0.0026574444 0.7881016 0.6649238 0.028932389 0.46981898
00000000: b8b5 2bbd 9a1f c2bd 97f9 553e 6eb9 c53e
00000010: 87c9 d13d a2c9 2d3e 101f 8c3e f882 143e
00000020: 8aaf 28bd 94e3 4b3e 0178 d0be 5de3 2dbf
00000030: be36 c6be 6051 51be c065 16be 4903 13bf
00000040: 7305 80bd cd82 09bd 4ff2 4d3e 6707 c93e
00000050: 04dd ba3e 140e 8c3e b709 473e c935 893e
00000060: a11c 2d3d d5c1 093e fdb6 773e c527 5bbe
00000070: ded6 19bd e1ea 6c3e ea9c 0cbe 5a33 05bd
00000080: ef1b 8d3e 1318 9b3e 50ba 17be 62c0 9a3c
00000090: 9f04 6cbe 8376 38be 2b49 4ebd 817e 71be
000000a0: db3f 643d 804f 9f3c 3fe8 46be 0be0 0ebe
000000b0: 8213 42bd bb79 9cbe eb1a b6be d68b c7be
000000c0: 246d 12be d028 6cbe b71a 73be 46f5 b4bd
000000d0: 8038 5fbe 16ac b9be fe03 32bd 2f1c 84be
000000e0: 9c56 fcbd 85df 79be 1277 cebe d7fb ecbd
000000f0: d46f 0fbe d3cf 08bd 9091 d73d 70b7 ad3e
00000100: 73bf 6c3e baf9 853f cada 43be aa00 20bf
00000110: 7aeb 053f aaef a5bd 306c 9abe d343 ca3c
00000120: 52db 01be 0192 143e 02f1 54be 1146 943e
00000130: e738 a33e de2e 0bbf b1b8 bd3e 9503 b43e
00000140: 8e3e 27bd 1223 d1be 1365 5ebe aa26 933e
00000150: ff59 aabe ee93 52be 76db 343f 3420 073e
00000160: db14 a43e e98b 353f a6c7 44be 120f 5d3e
00000170: c33a 2c3f ca2b 743d d272 ce3e bf53 533f
00000180: 1675 803d 86c4 603e 5079 ec3e 6ae1 073f
00000190: a3d0 0f3f c8da bb3e e51b e03e fbf5 ad3e
000001a0: 1e71 da3c 6495 873e 6040 713c 079d ad3d
000001b0: c96a 1abe 8f2a 62bd 4bc9 b0be d0aa 90bd
000001c0: 62ea 403d 1211 37be 96b1 51bb 6dfc 023e
000001d0: d5b4 8cbd fd57 063f 0de5 133f 0c22 ca3d
000001e0: af93 333e 681e c93e 1ec2 cc3d 0be9 fb3e
000001f0: fd47 e13e 24ca c23d 271a e13d 5363 f23e
00000200: c15b 173e 39fa b03e 8705 2b3f aac5 263f
00000210: 9e5c 5e3e d9f2 793e 8f3f af3e f0e9 303f
00000220: 4cd8 25be d556 e6bd ab27 913e 8676 f8be
00000230: 65d2 91be f70e 75be bc7a 1bbf 2137 eabd
00000240: dd9e 993d 7ad8 dc3e e87d 803e eb0c 243f
00000250: cc1c 603f 253f 0b3f bc35 e93e 0d0a 083f
00000260: 217d dc3e 44de 853d 4988 a43d b947 35ba
00000270: 6547 aebd b40c 883e 9b45 0b3e 8567 67be
00000280: b818 9fbe e99a 86be d1b3 d2be c5fe 49bf
00000290: aab1 23bf b173 67be cb9b 25be 02fd c23e
000002a0: e205 06bf 7f20 ccbe e13f 133f 9c07 a83e
000002b0: 94ce 923f f327 973f 3fd8 c13e 8800 0f3f
000002c0: 4b03 233f 7f2e 3c3f 4c35 953e 2422 dc3e
000002d0: 64f6 3f3f ec3d ff3e 339c e9b9 d360 e73e
000002e0: ff97 9a3e daf3 673e cd13 5e3e f0c2 593d
000002f0: ec7c 073d d7fc a8bc e6de 13be a0b4 48be
00000300: c427 3ebe caaf c6be 7f6a 2bbe 74db 84be
00000310: 2182 7bbe f225 84bd 5a8f 533f 2ced 203f
00000320: 4236 953e e71c 183f 3a77 0f3e 95f1 e23e
00000330: 18a6 0a3f b1a8 6a3e 2d1c b73e 322b fa3e
00000340: 471f 303f 1808 e83e 7730 1d3f e68b 463f
00000350: e2f2 953e 1daa 2c3f 1e39 c43e ee51 bfbd
00000360: 8bdb a7be a024 74be 9d9b d83d 8258 fcbe
00000370: 8bb9 eabe 33e2 843c 012f 8dbe 858f 6ebe
00000380: 8416 adbd 9a6e 71be 63b7 fbbd e1e1 80bd
00000390: d48e b1be 17ef a5be ccdc 60be a895 98bd
000003a0: e6fe d1ba 30b4 1bbe 6261 f6bd 299b a73e
000003b0: 2cb3 7c3e 7768 da3e cd99 993f 4da5 713f
000003c0: 9e62 223e 6c86 5e3f f30b 083f 9f4c c0bd
000003d0: ea0b f83d d818 95be 2798 7f3e 00cf 653e
000003e0: 389f c2be 07b1 753e b618 863e 8528 2ebb
000003f0: 07c1 493f 7238 2a3f 9e03 ed3c 1d8c f03e

down2.go_down.1.conv2x.0.c.0.bias f4 [64]
-0.032845207 -0.02666092 0.0141613735 -0.030313076 0.023638032 -0.027514521 0.06060992 0.018834954
-0.012229723 0.0354406 0.022085475 0.018037066 -0.028706783 0.03669354 -0.010239961 -0.04137429
-0.010229654 -0.054610737 -0.028751573 0.05589479 -0.005742281 -0.021356609 -0.030793363 0.04209364
0.02560187 -0.006741085 -0.014393023 0.013511756 -0.010397491 -0.02407981 -0.013114325 0.004088567
0.0006262996 -0.020592814 0.019682271 -0.032910045 0.014033371 0.03401018 0.022435818 -0.036495406
0.05751373 -0.03086903 0.055546064 -0.053234737 0.04368665 0.04453538 0.001908354 0.0059668887
-0.014779064 -0.04331274 -0.012581396 -0.007353227 0.010684941 -0.050350554 0.054360747 -0.042124335
0.0036783474 0.055745345 -0.031489354 0.026993347 0.039823744 0.019429581 -0.04468968 -0.0076530157
00000000: b288 06bd 0068 dabc 1b05 683c 2153 f8bc
00000010: 8ca4 c13c 2266 e1bc 1c42 783d c34b 9a3c
00000020: 2d5f 48bc 2a2a 113d 99ec b43c 78c2 933c
00000030: 7d2a ebbc f74b 163d 82c5 27bc 1678 29bd
00000040: 479a 27bc 82af 5fbd 6b88 ebbc eff1 643d
00000050: bf29 bcbb 0ef4 aebc 5d42 fcbc 616a 2c3d
00000060: 03bb d13c 52e4 dcbb b7d0 6bbc 6a60 5d3c
00000070: 3d5a 2abc 0643 c5bc 77dd 56bc 63f9 853b
00000080: 412e 243a 43b2 a8bc b73c a13c afcc 06bd
00000090: 39ec 653c 424e 0b3d 52cb b73c 357c 15bd
000000a0: 8493 6b3d 0ce1 fcbc 4584 633d ab0c 5abd
000000b0: c6f0 323d bb6a 363d bc21 fa3a e485 c33b
000000c0: e323 72bc b368 31bd 3322 4ebc 57f3 f0bb
000000d0: e40f 2f3c 623c 4ebd 60a9 5e3d 918a 2cbd
000000e0: 6e10 713b 3b55 643d fbfa 00bd 2721 dd3c
000000f0: 391e 233d c92a 9f3c 870c 37bd 26c6 fabb

down2.go_down.1.conv2x.0.c.1.weight f4 [64]
0.7324939 1.2659943 1.1127332 0.9366068 0.9373565 1.0440756 0.85222363 0.94977397
0.86970156 1.0016255 0.8898807 1.0306879 0.88448757 1.1309817 1.0304483 1.1183858
1.1478752 1.0053861 0.97933275 1.0083055 1.4178452 0.879307 0.9246046 1.1158221
1.0877899 0.95988065 1.0819073 0.895423 0.93908906 0.8101562 1.3317431 1.1606394
0.9378832 1.2392201 0.9900957 0.9202467 0.93861127 1.1789582 1.0968196 1.1263245
1.1461259 0.91666687 0.93855035 0.90648896 1.2080343 1.0956774 1.0433378 0.9665045
1.0706877 1.007138 1.0840225 1.0342497 1.150572 1.2639388 1.1286823 0.723008
1.3918891 1.3012104 0.88261473 1.2290105 1.1384283 1.1123068 1.142846 1.1039486
00000000: b884 3b3f 1a0c a23f 0b6e 8e3f 77c5 6f3f
00000010: 98f6 6f3f 45a4 853f 542b 5a3f 6324 733f
00000020: c3a4 5e3f 4435 803f 39cf 633f 95ed 833f
00000030: c76d 623f 02c4 903f bbe5 833f 4427 8f3f
00000040: 93ed 923f 7eb0 803f 8db5 7a3f 2810 813f
00000050: f47b b53f 431a 613f e3b2 6c3f 42d3 8e3f
00000060: b33c 8b3f bdba 753f f07b 8a3f 713a 653f
00000070: 2468 703f 6666 4f3f 8f76 aa3f d58f 943f
00000080: 1d19 703f c49e 9e3f e976 7d3f 4a95 6b3f
00000090: d448 703f 1ae8 963f 9664 8c3f 672b 903f
000000a0: 41b4 923f aeaa 6a3f d644 703f a90f 683f
000000b0: dea0 9a3f 283f 8c3f 188c 853f d76c 773f
000000c0: 4b0c 893f e6e9 803f 40c1 8a3f 4b62 843f
000000d0: f145 933f bfc8 a13f a978 903f 0d17 393f
000000e0: 6c29 b23f 108e a63f 0af3 613f 3750 9d3f
000000f0: 05b8 913f 1260 8e3f c748 923f 304e 8d3f

down2.go_down.1.conv2x.0.c.1.bias f4 [64]
-2.536308 -0.40087184 -0.8593949 0.25068238 0.094574444 -0.92895 0.066676036 0.1699945
-0.012792335 -0.4458993 -0.051193967 0.20072478 0.15072769 -0.9039629 -0.10842053 -0.9603068
-0.34394148 -0.17987806 -0.3465408 0.29130036 -1.2273406 -1.2061061 0.05411873 -1.0400946
-0.17362635 -0.1797494 -0.13936564 0.27030993 -0.18018423 0.12885416 -1.286294 0.10297516
0.29937333 -0.16951224 -0.428702 -0.12965815 -0.04256431 -0.6982484 0.045718286 -0.7006759
-1.3362137 -0.051284216 -0.1402425 -0.48539576 -0.2996293 0.46774614 -0.87022054 0.20951016
-0.64873046 -0.25698796 -1.2256128 -0.11018641 -0.72612923 -0.02104394 -0.74558115 -0.052953944
-0.90157366 -0.84876347 0.09686271 0.3879566 -0.88150144 0.2505587 -0.5259318 -0.9497045
00000000: df52 22c0 133f cdbe 4e01 5cbf 7159 803e
00000010: 3fb0 c13d abcf 6dbf 728d 883d 0a13 2e3e
00000020: f196 51bc ea4c e4be c4b0 51bd cc8a 4d3e
00000030: 5c58 1a3e 1d6a 67bf 950b debd abd6 75bf
00000040: 1919 b0be f431 38be cc6d b1be 5225 953e
00000050: 7f19 9dbf af61 9abf 9aab 5d3d d221 85bf
00000060: 1bcb 31be 3a10 38be deb5 0ebe 1066 8a3e
00000070: 3782 38be 58f2 033e 48a5 a4bf a4e4 d23d
00000080: 7647 993e 9e94 2dbe d47e dbbe 1bc5 04be
00000090: ea57 2ebd 68c0 32bf 1943 3b3d 7f5f 33bf
000000a0: 0d09 abbf 660f 52bd bb9b 0fbe cb85 f8be
000000b0: 0369 99be 6c7c ef3e c6c6 5ebf d589 563e
000000c0: 3313 26bf ed93 83be e1e0 9cbf 6aa9 e1bd
000000d0: 9be3 39bf 5764 acbc 68de 3ebf 3ce6 58bd
000000e0: 88cd 66bf 9048 59bf f55f c63d 3fa2 c63e
000000f0: 14aa 61bf 3b49 803e 77a3 06bf d61f 73bf

down2.go_down.1.conv2x.0.c.1.running_mean f4 [64]
13.818112 -7.0031137 -9.1818285 -10.496885 5.8398037 3.2476573 2.5996952 -6.3112793
2.0335834 -5.503807 -1.5634602 8.759407 5.6250143 -11.109375 2.2544856 2.4995162
-4.5022306 -4.604926 -7.7703114 -5.2603025 -3.2237864 16.717155 7.124837 -7.791298
-0.03281057 -2.2606564 -1.9266623 8.251833 -15.302388 12.771019 0.48508325 -9.18855
-0.469406 -7.1164 -3.3974113 -12.50243 -5.866109 -13.315446 1.2596235 4.4037914
1.7870402 -3.1321304 -9.407877 -3.4915786 -2.2038662 -14.766678 4.4009366 3.9061031
-9.04656 -12.344994 -7.590018 -6.2270837 -4.9416366 -1.690117 -5.3457766 6.87457
-8.65922 0.58744025 0.9461616 -9.261625 -11.445257 -5.8555255 4.6156144 3.8717318
00000000: fd16 5d41 8219 e0c0 c5e8 12c1 3ef3 27c1
00000010: acdf ba40 9ed9 4f40 6861 2640 00f6 c9c0
00000020: 3b26 0240 301f b0c0 771f c8bf 8826 0c41
00000030: 1e00 b440 00c0 31c1 7e49 1040 13f8 1f40
00000040: 4612 90c0 8e5b 93c0 64a6 f8c0 6654 a8c0
00000050: 8452 4ec0 bcbc 8541 aafe e340 5052 f9c0
00000060: 6064 06bd 98ae 10c0 df9c f6bf 8207 0441
00000070: 95d6 74c1 1856 4c41 d55c f83e 4d04 13c1
00000080: fc55 f0be 8cb9 e3c0 306f 59c0 f409 48c1
00000090: 2ab7 bbc0 110c 55c1 583b a13f dceb 8c40
000000a0: bcbd e43f d374 48c0 aa86 16c1 0676 5fc0
000000b0: 250c 0dc0 5044 6cc1 79d4 8c40 98fd 7940
000000c0: b6be 10c1 1885 45c1 6de1 f2c0 4544 c7c0
000000d0: e321 9ec0 c155 d8bf 9a10 abc0 7afc db40
000000e0: 2a8c 0ac1 7c62 163f a637 723f 9e2f 14c1
000000f0: c61f 37c1 7760 bbc0 1db3 9340 74ca 7740

down2.go_down.1.conv2x.0.c.1.running_var f4 [64]
46.235855 128.05042 33.95512 69.691536 24.086714 36.424694 31.131895 26.603455
31.318943 60.746548 46.78682 48.817455 31.2583 37.64016 49.356297 181.73842
41.040627 34.720646 42.539227 37.796825 37.073647 149.32112 28.47953 35.817085
51.083664 28.453804 104.1413 35.316494 60.90912 49.980667 52.333965 232.67044
31.473095 127.47857 28.638733 30.696209 65.01352 56.545864 137.77124 53.129723
25.104616 39.833683 98.69488 24.239498 32.521152 157.53938 54.220306 69.39258
31.308002 45.743896 27.132896 37.745396 93.64976 51.61696 31.661404 20.635073
56.59852 33.995872 27.931093 65.26553 31.892548 54.5749 33.020885 26.148134
00000000: 84f1 3842 e80c 0043 0bd2 0742 1162 8b42
00000010: 97b1 c041 e3b2 1142 1f0e f941 e0d3 d441
00000020: 328d fa41 77fc 7242 b425 3b42 1345 4342
00000030: 0011 fa41 868f 1642 d96c 4542 09bd 3543
00000040: 9a29 2442 f1e1 0a42 2b28 2a42 f32f 1742
00000050: 6a4b 1442 3552 1543 14d6 e341 b244 0f42
00000060: ac55 4c42 64a1 e341 5848 d042 1744 0d42
00000070: f0a2 7342 34ec 4742 fb55 5142 a2ab 6843
00000080: e6c8 fb41 07f5 fe42 201c e541 d691 f541
00000090: ec06 8242 f72e 6242 70c5 0943 d684 5442
000000a0: 41d6 c841 b155 1f42 c763 c542 7eea c141
000000b0: a915 0242 158a 1d43 98e1 5842 00c9 8a42
000000c0: ca76 fa41 c0f9 3642 2c10 d941 49fb 1642
000000d0: ad4c bb42 c477 4e42 8e4a fd41 a114 a541
000000e0: e264 6242 c6fb 0742 e172 df41 f487 8242
000000f0: f023 ff41 b34c 5a42 6315 0442 612f d141
