data/model/3.onnx (onnx, 483073 bytes, 73 tensors)

down1.go_down.1.conv2x.0.c.0.bias f4 [32]
0	0xbace2525	-0.0015727623
1	0xbd876f82	-0.06613065
2	0xbbf90d1f	-0.007600441
3	0x3da64524	0.08118656
4	0xbd79527e	-0.060869686
5	0xbd971715	-0.073774494
6	0x3cb5ef25	0.02220876
7	0x3cd97b23	0.026547974
8	0x3d2e7c49	0.042598996
9	0xbd88ce3e	-0.066799626
10	0x3da92b0a	0.08260162
11	0xbc3091d3	-0.010776955
12	0xbc51d0d5	-0.012806137
13	0x3d91bfef	0.071166866
14	0x3d2f04cb	0.04272918
15	0xbc7d3094	-0.015453476
16	0x3d153dc4	0.036435857
17	0x3d6f2e79	0.05839393
18	0xbbaad6b3	-0.0052135824
19	0xbcdf920d	-0.027291322
20	0xbd54f9d8	-0.051996082
21	0xbc2b4c02	-0.010455133
22	0xbd2d035d	-0.042239536
23	0xbd64cefe	-0.055861466
24	0x3d0fb54a	0.035085
25	0xbc9f3af2	-0.019437287
26	0x3bb0e61b	0.0053985245
27	0x3d43926b	0.047747057
28	0x3c332fac	0.010936659
29	0x3da89213	0.082309864
30	0xbcfa4c78	-0.030554041
31	0x3c95fd5c	0.018309288

down1.go_down.1.conv2x.0.c.0.weight f4 [32, 16, 3, 3]
0	0x3d2d39af	0.04229134
1	0xbce64b99	-0.02811222
2	0xbd3617ad	-0.044456173
3	0x3d28f8eb	0.04125301
4	0xbba87726	-0.0051411567
5	0xbd24fb46	-0.040278696
6	0x3c1e8a98	0.009676598
7	0xbb225db5	-0.0024775092
8	0x3daef4dd	0.08542798
9	0x3d48bcde	0.049008243
10	0xbd955421	-0.07291437
11	0xbe34458f	-0.1760466
12	0xbd5161fe	-0.051118843
13	0xbdb30e7c	-0.08742997
14	0x3d8c1f99	0.06841964
15	0xbd2d4525	-0.04230227
16	0xbc66d6fd	-0.014089343
17	0xbd825a50	-0.06364882
18	0xbdb86a0d	-0.090046026
19	0xbd15d2d9	-0.036578033
20	0xbe05d44c	-0.13069266
21	0xbc308689	-0.010774263
22	0xbce7483b	-0.028232684
23	0x3da72031	0.08160437
24	0xbd30c302	-0.043154724
25	0x3cdf8aec	0.027287923
26	0xbc331dea	-0.010932425
27	0x3d4deb84	0.050273433
28	0xbc2843f4	-0.010270108
29	0xbcb39c29	-0.021925049
30	0x3d4d72e6	0.050158404
31	0x3d8a27e5	0.067458905
32	0x3d92957d	0.07157419
33	0xbd335a63	-0.04378737
34	0xbcd53fa8	-0.02603133
35	0x3d295fef	0.041351255
36	0x3d800833	0.06251564
37	0xbdcc775e	-0.09983705
38	0xbd8873e8	-0.06662732
39	0xbdd0547d	-0.10172365
40	0x3d47ed39	0.048810218
41	0x3c9528f9	0.018208014
42	0xbdc0fa66	-0.0942276
43	0x3d36dbbb	0.044643145
44	0x3d8c66b5	0.06855527
45	0x3da649b9	0.0811953
46	0xbd21f200	-0.03953743
47	0x3bf1a612	0.0073745335
48	0x3b5a564d	0.00333156
49	0xbcdb9f7e	-0.02680945
50	0x3d1a9e7d	0.037748802
51	0xbd51d217	-0.051225748
52	0x3c49eb47	0.012324161
53	0xbd89c5d0	-0.06727183
54	0xbddd3ee1	-0.10803009
55	0xbdb5650e	-0.08857165
56	0xbc54191d	-0.012945441
57	0xbdf0d068	-0.117585
58	0xbdcdd96f	-0.10051238
59	0x3c63b1a7	0.013897336
60	0x3cd1649b	0.025560668
61	0x3c719e40	0.014747202
62	0x3b49929f	0.003075756
63	0x3bdb805d	0.0066986517
64	0x3c956d9d	0.018240744
65	0x3d32d468	0.043659598
66	0x3ca37dab	0.019957384
67	0x3d8e399c	0.06944582
68	0xbd6b7a06	-0.057489417
69	0xbdf3f05e	-0.11911081
70	0xbd64b46d	-0.05583613
71	0x3deeba1a	0.1165659
72	0xbdda2898	-0.10652274
73	0xbbca663c	-0.006176738
74	0xbdba1e1a	-0.09087773
75	0x3d98974f	0.07450735
76	0xbd21b765	-0.03948154
77	0xbd6db494	-0.05803354
78	0x3d21210d	0.03933816
79	0x3d232be6	0.039836787
80	0xbd54ce71	-0.05195469
81	0xbdbd031c	-0.09229109
82	0xbaf7a91e	-0.0018895005
83	0x3c6ddc9c	0.014517929
84	0xbc6c994f	-0.0144408485
85	0xbc31302c	-0.010814708
86	0xbd2ab27a	-0.041674115
87	0x3cc1ae50	0.023642689
88	0xbd849a91	-0.06474794
89	0x3d979c1b	0.07402822
90	0xbc1b2742	-0.009469809
91	0x3d621e50	0.05520469
92	0xbdcaebe3	-0.09908273
93	0xbdce0d1a	-0.10061093
94	0x3c8f7640	0.01751244
95	0xbc886826	-0.016651224
96	0x3c96c5d2	0.018404875
97	0x3d9b335e	0.07578157
98	0x3da19048	0.078888476
99	0xbd764319	-0.060122583
100	0x3d2d5f68	0.042327315
101	0xbd56a3e8	-0.052402407
102	0x3ca65ac8	0.02030696
103	0xbd100ab7	-0.03516647
104	0x3cb269fd	0.021779055
105	0xbdea764f	-0.11448347
106	0xbde84bfc	-0.11342618
107	0x3c08488b	0.008318077
108	0xbcd1a7c0	-0.025592685
109	0xbd84f14f	-0.064913385
110	0xbd08e4fc	-0.0334215
111	0xbe0a85d8	-0.1352762
112	0xbdef9d40	-0.11699915
113	0xbdaeaa8e	-0.085286245
114	0xbd514f3f	-0.051100966
115	0xbd768cd9	-0.060192917
116	0xbd1ed88e	-0.03878074
117	0x3d37e2ce	0.044894032
118	0x3d057e44	0.03259112
119	0x3ce177ba	0.02752291
120	0xbdbec6dc	-0.09315273
121	0x3d683511	0.056691233
122	0x3c9cdf86	0.019149553
123	0xbccf2fa6	-0.025291275
124	0xbd99f9b8	-0.07518333
125	0xbd975c97	-0.07390707
126	0x3b98c867	0.0046625617
127	0xbd94c21c	-0.07263586
128	0x3d240117	0.0400401
129	0x3d49ee5f	0.049299594
130	0x3d358b43	0.044322263
131	0x3d17b05e	0.03703343
132	0xbc4b7653	-0.012418347
133	0x3abc1f49	0.0014352585
134	0xbcd0f134	-0.02550564
135	0xbd9a628c	-0.075383276
136	0xbdd69887	-0.10478311
137	0x3ba7c960	0.0051204413
138	0xbd126771	-0.03574318
139	0x3d103825	0.035209794
140	0x3d9d7c9c	0.07689783
141	0x3bbe8610	0.0058143213
142	0x3b27338b	0.00255129
143	0xbd86861c	-0.06568548
144	0xbc594aa7	-0.013262427
145	0xbd3b67dd	-0.04575335
146	0x3d0a8dae	0.033826523
147	0x3c6ae5e3	0.014337036
148	0xbd35c9f3	-0.044382047
149	0xbcf930e3	-0.030418819
150	0xbdb6c829	-0.08924896
151	0xbda4350b	-0.0801793
152	0x3c5409fb	0.012941833
153	0x3bce3b57	0.006293695
154	0x3ccad790	0.024760991
155	0xbd4facb8	-0.050701827
156	0x3cbe73ff	0.02324867
157	0x3d833e24	0.06408337
158	0xbcf79400	-0.03022194
159	0xbd9ce7d7	-0.076614074
160	0x3ca57e18	0.020201728
161	0xbcd649a0	-0.026158154
162	0x3cb9216b	0.022598943
163	0x3c5f582d	0.013631863
164	0xbc4ba031	-0.012428329
165	0x3db943a8	0.090461075
166	0x3cfa4b6f	0.030553548
167	0x3c7e7088	0.015529759
168	0x3cc00686	0.02344061
169	0x3b9626ab	0.0045822463
170	0xbb905ebc	-0.0044058245
171	0x3d5b61cb	0.05356006
172	0x3de9e4a9	0.114205666
173	0x3d36902c	0.044571087
174	0xbdd9d137	-0.10635608
175	0xbdae5b2c	-0.085134834
176	0x3dacef50	0.08444083
177	0x3bae916b	0.0053273938
178	0x3d94f9a7	0.0727418
179	0x3dbfebc9	0.09371144
180	0xbd2745f6	-0.040838204
181	0x3d7a99cf	0.06118184
182	0x3d91e922	0.07124545
183	0xbd9b4d73	-0.07583132
184	0xbba36d62	-0.0049874047
185	0x3cb49310	0.022042781
186	0xbd381b70	-0.04494804
187	0x3cecbd81	0.028898956
188	0xbd9e2fef	-0.07723986
189	0xbd27016d	-0.040772844
190	0xbcad4cb0	-0.021154732
191	0xbd45ffb7	-0.04833957
192	0xbcaca913	-0.021076715
193	0x3c41294c	0.011789631
194	0xbde8769d	-0.11350749
195	0xbe00392d	-0.12521811
196	0xbc288210	-0.010284916
197	0xbdd221f5	-0.10260383
198	0xbb1ddee2	-0.0024089147
199	0x3d9383ba	0.07202859
200	0x3d35ff55	0.044432957
201	0x3cb3a355	0.021928469
202	0xbd80c005	-0.06286625
203	0xbd749141	-0.059708837
204	0xbd9aef26	-0.07565145
205	0x3d671f3d	0.056426276
206	0xbd46a1c2	-0.048494108
207	0x3d6aa9f7	0.057290997
208	0xbd38c068	-0.045105368
209	0x3c42b28a	0.011883387
210	0xbdb2c06e	-0.08728109
211	0xbe017985	-0.12644012
212	0xbdd7b4f2	-0.105325595
213	0x3d844dc0	0.06460142
214	0xbd8af1a1	-0.06784368
215	0x3d07dd07	0.033169772
216	0xb6b20474	-5.305332e-06
217	0x3cef30f5	0.02919815
218	0xbd9ddfd8	-0.077087104
219	0x3d56d4f1	0.05244917
220	0x3d7f5f47	0.062346723
221	0xbd51be8c	-0.05120711
222	0xbd252274	-0.04031606
223	0xbcafb9a1	-0.02145082
224	0xbd6546b0	-0.055975616
225	0x3d8643e1	0.065559156
226	0x3d4fdeec	0.050749704
227	0xbccc0d1b	-0.024908593
228	0xbb89b838	-0.004202869
229	0x3d8bd8cd	0.06828461
230	0x3d4d086e	0.050056867
231	0xbc032424	-0.008004222
232	0xbd0b2d8f	-0.033978995
233	0xbc963470	-0.018335551
234	0x3bc44d3a	0.0059906514
235	0xbba78992	-0.005112835
236	0x3ce4c052	0.027923737
237	0x3d08c5bc	0.0333917
238	0x3d65e6d6	0.056128345
239	0xbd106f7c	-0.03526257
240	0xbe0c9d2f	-0.13731836
241	0x3d9ef55c	0.07761642
242	0xbd8720e9	-0.06598074
243	0xbd3e61a8	-0.04647985
244	0xbd90dbaf	-0.07073151
245	0x3d59bcde	0.053158633
246	0xbdcc6b54	-0.09981409
247	0x3d207dd7	0.03918251
248	0xbdee799d	-0.1164429
249	0xbcd44cb4	-0.025915481
250	0xbdbc39bc	-0.091906995
251	0xbd77945b	-0.060444217
252	0x3d295d7f	0.04134893
253	0x3cfb4a21	0.030674996
254	0xbd57e807	-0.052711513
255	0x3d57d689	0.05269483

down1.go_down.1.conv2x.0.c.1.bias f4 [32]
0	0x3dfbd48e	0.12296401
1	0xbd12f75c	-0.03588043
2	0xbcb95fec	-0.022628747
3	0xbb82b7e2	-0.0039892057
4	0xbdd51be0	-0.10405707
5	0xbd4f360e	-0.05058866
6	0xbd130b25	-0.0358993
7	0x3d053875	0.032524545
8	0xbd000811	-0.031257693
9	0xbdce4474	-0.1007165
10	0xbba91d87	-0.0051609906
11	0xbcd383cb	-0.02581968
12	0x3ba47501	0.0050188308
13	0x3c44816f	0.01199375
14	0x3d11c8b5	0.0355918
15	0xbd672f7d	-0.056441773
16	0x3d46ca2a	0.048532642
17	0x3ccb034e	0.02478185
18	0xbd117205	-0.035509128
19	0x3b06a49d	0.0020544895
20	0xbd63c42e	-0.055607013
21	0x3e351b00	0.17686081
22	0xbd7a405f	-0.061096545
23	0x3c8e9ae3	0.01740784
24	0xbd242243	-0.040071737
25	0xbd67860d	-0.056524325
26	0xbc234c3c	-0.009966906
27	0x3d06b3b8	0.032886237
28	0xbc43da29	-0.011953869
29	0x3d6a5096	0.05720576
30	0x3bba66ba	0.0056885155
31	0xbc5102c1	-0.012757004

down1.go_down.1.conv2x.0.c.1.running_mean f4 [32]
0	0xbff3748d	-1.9019943
1	0xbf99585c	-1.198009
2	0xbee7d904	-0.45282757
3	0x3ed019e0	0.4064474
4	0xbee287d0	-0.44244242
5	0x3fb5195c	1.4148364
6	0x3eba40c9	0.36377552
7	0x3e0f2cf4	0.13981992
8	0xbef1a286	-0.47194308
9	0x403baa44	2.9322672
10	0xbfe3d707	-1.7799996
11	0xbffbf21c	-1.9683261
12	0xbf094f60	-0.5363674
13	0xbfaac3b6	-1.3340976
14	0xbef24856	-0.47320813
15	0x3f6716ed	0.90269357
16	0xbf834019	-1.0253936
17	0xbfb105fe	-1.3829954
18	0x3f8db670	1.10713
19	0x3e9fb962	0.31196123
20	0xbf0480d0	-0.5175905
21	0xc066e3b6	-3.6076484
22	0x3ee65014	0.4498297
23	0x3f88f3cd	1.0699402
24	0x3f22231e	0.63334835
25	0x3e9adf4e	0.30248493
26	0xbb905c2c	-0.004405519
27	0x3f37b486	0.7175983
28	0x3f054d32	0.52070916
29	0xbfae4623	-1.3615154
30	0xbf3943f8	-0.7236934
31	0x3d956ff6	0.072967455

down1.go_down.1.conv2x.0.c.1.running_var f4 [32]
0	0x3f93d5d0	1.1549625
1	0x3f20a65a	0.6275383
2	0x3ecffbae	0.40621704
3	0x3ee10395	0.43948045
4	0x3ec3658d	0.38163415
5	0x3f3331b4	0.69997716
6	0x3eb9328a	0.3617137
7	0x3e95c5c8	0.29252458
8	0x3ec8d1a9	0.39222458
9	0x3f8ccda6	1.1000259
10	0x3f5f9b9e	0.8734683
11	0x3ed9fdeb	0.42576537
12	0x3ef8b54a	0.48575813
13	0x3f166e78	0.5876231
14	0x3f2ce366	0.6753448
15	0x3ecaece4	0.39633858
16	0x3f3fd6af	0.74936956
17	0x3f42043a	0.757877
18	0x3eb0dd4c	0.34543836
19	0x3eebec42	0.46078688
20	0x3efd1b68	0.49434972
21	0x3ff3b492	1.9039481
22	0x3eaa7dc8	0.33299088
23	0x3ee8ec42	0.4549275
24	0x3eb6a004	0.35668957
25	0x3ecb970c	0.39763677
26	0x3f1bf02d	0.60913354
27	0x3f23e214	0.6401684
28	0x3edfc2cb	0.43703303
29	0x3f7b72cf	0.9822206
30	0x3f0e3244	0.5554545
31	0x3e877290	0.26454592

down1.go_down.1.conv2x.0.c.1.weight f4 [32]
0	0x3f8042b5	1.0020357
1	0x3f82c0f9	1.021514
2	0x3f7fc83e	0.9991492
3	0x3f7d0dba	0.9884907
4	0x3f76f768	0.9647126
5	0x3f6d275e	0.92638195
6	0x3f8002d1	1.000086
7	0x3f839f9f	1.0283087
8	0x3f7d4a96	0.98941934
9	0x3f81e257	1.0147198
10	0x3f806a13	1.0032371
11	0x3f80c74a	1.0060818
12	0x3f7cf3ea	0.98809683
13	0x3f8344d7	1.0255383
14	0x3f807b6a	1.0037663
15	0x3f7d7d90	0.9901972
16	0x3f7f3bda	0.997007
17	0x3f816fe8	1.0112276
18	0x3f7bc17e	0.9834212
19	0x3f816f46	1.0112083
20	0x3f77ee36	0.96847856
21	0x3f86363f	1.0485305
22	0x3f7da6f5	0.9908288
23	0x3f7f2542	0.99666226
24	0x3f7e49f0	0.9933157
25	0x3f7e2ff1	0.992919
26	0x3f7b1623	0.9808065
27	0x3f812e1d	1.0092198
28	0x3f7c7a72	0.98624337
29	0x3f8589d7	1.043269
30	0x3f8482bd	1.0352398
31	0x3f7f7d40	0.9980049

down1.go_down.1.conv2x.1.c.0.bias f4 [32]
0	0x3d14abc7	0.036296632
1	0x3c2a3a21	0.010389836
2	0xbd5868eb	-0.052834433
3	0xbc30b57c	-0.010785457
4	0xbd4d9b86	-0.050197147
5	0x3c93500b	0.017982503
6	0x3d3bfa86	0.045893215
7	0x3cbee11f	0.023300705
8	0x3d5d9b90	0.054103434
9	0xbca00ab2	-0.01953635
10	0x3d403808	0.046928436
11	0xbcb5c5ba	-0.02218901
12	0xbd1ccd5c	-0.038281783
13	0x3c12b575	0.008954396
14	0xbd268b96	-0.040660463
15	0x3c9916ff	0.018687723
16	0xbcdb605e	-0.02677935
17	0xbd33ff58	-0.043944687
18	0xbd2a01cb	-0.041505616
19	0xbcec82c6	-0.028870951
20	0x3d1f416b	0.038880747
21	0x3c311769	0.010808804
22	0x3d1e4718	0.03864202
23	0x3d535109	0.051590953
24	0xbd38bc1b	-0.045101266
25	0x3d227af6	0.039668046
26	0xbd0bfab1	-0.034174625
27	0xbd59c251	-0.05316383
28	0xbb0348c1	-0.0020032378
29	0x3ce842eb	0.028352221
30	0x3cf09c17	0.029371304
31	0x3d1a3c7b	0.037655335

down1.go_down.1.conv2x.1.c.0.weight f4 [32, 32, 3, 3]
0	0xbbc365f1	-0.00596308
1	0x3d4ab559	0.049489353
2	0x3c18f1d2	0.009334998
3	0x3dc51c37	0.09624522
4	0x3d38ef56	0.045150124
5	0xbc467905	-0.012113814
6	0x3d2c1d26	0.042019986
7	0xbcfe4495	-0.031038562
8	0xbcf5fcb2	-0.030027721
9	0xbd5c74c9	-0.053822313
10	0xbc0cb3b8	-0.00858777
11	0xbc985901	-0.018597128
12	0x3d7c9aa7	0.061670925
13	0xbda27b1d	-0.07933638
14	0x3cb8991e	0.02253395
15	0xbb1359db	-0.0022483978
16	0xbd3a0476	-0.04541441
17	0xbce795aa	-0.028269608
18	0x3d00ee4f	0.03147727
19	0xbd146f34	-0.036238864
20	0x3cba3d4c	0.022734307
21	0x3d6afd3b	0.057370406
22	0x3d8eb111	0.069673665
23	0xbcd9dcd7	-0.026594562
24	0xbc93f85f	-0.018062769
25	0xbd2f7c09	-0.0428429
26	0xbc06f49f	-0.008237033
27	0x3c8c02b2	0.017091129
28	0x3d2f7eda	0.042845584
29	0xbd9dbb2f	-0.07701718
30	0x3b8b0cc6	0.004243466
31	0xbcd5b435	-0.026086906
32	0xbc70fb0f	-0.0147082945
33	0x3cf795b1	0.030222746
34	0xbc198a24	-0.009371314
35	0xbd90467e	-0.07044695
36	0x3d76b7d5	0.06023391
37	0x3d53f21c	0.051744565
38	0x3d8dc78d	0.06922827
39	0x3d2d05dc	0.042241916
40	0xbd06d37f	-0.032916542
41	0xbc46a5a6	-0.012124455
42	0xbc6e1d37	-0.014533333
43	0x3be29c15	0.006915579
44	0x3d0c0996	0.03418883
45	0xbcef2ad3	-0.029195225
46	0x3d0b22b1	0.03396863
47	0xbb114c1f	-0.0022170616
48	0x3d46289e	0.04837858
49	0x3d485078	0.048904866
50	0x3d60932a	0.054827847
51	0xbcb00fb6	-0.021491867
52	0x3d81a0c0	0.06329489
53	0x3c422957	0.0118506765
54	0x3c865c87	0.016401542
55	0x3d581f2a	0.052764095
56	0x3c3a193b	0.0113585545
57	0xbd53470f	-0.05158144
58	0xbd7bc225	-0.061464448
59	0xbd0a5ebf	-0.033781763
60	0x3b80be7f	0.003928959
61	0x3ca6d056	0.020363014
62	0xbd5b45f4	-0.05353351
63	0xbd0f0182	-0.034913547
64	0xbcfc5710	-0.030803233
65	0x3d24f96b	0.040276926
66	0x3cab2b13	0.020894563
67	0xbcaadf46	-0.020858418
68	0xbce1180f	-0.027477292
69	0x395d94fb	0.00021131702
70	0xbc474f76	-0.012164941
71	0xbcad3621	-0.021143975
72	0xbda1f116	-0.079073116
73	0x3d63ed5e	0.055646293
74	0x3d678009	0.05651859
75	0xbd467cfc	-0.04845904
76	0x3d6cd072	0.057815976
77	0xbc119a7b	-0.008886929
78	0xbda0aa82	-0.07845022
79	0xbd112103	-0.035431873
80	0x3b5ba870	0.0033517145
81	0xbd09f9fc	-0.03368567
82	0x3c25cd3f	0.010119735
83	0xbc246a53	-0.010035115
84	0x3d55a8d2	0.052162953
85	0xbd039dc0	-0.032132864
86	0xbc3838ff	-0.011244058
87	0x3d3b85db	0.04578195
88	0x3c8b5ecd	0.017012978
89	0xbd1dce34	-0.03852673
90	0xbd8ac61f	-0.0677607
91	0x3d03f256	0.03221353
92	0x3cb2d38d	0.02182939
93	0x3d32d230	0.04365748
94	0x3cf55984	0.029949911
95	0xbdd94d99	-0.10610504
96	0x3c5ec9cb	0.013597916
97	0x3c0d074b	0.008607696
98	0x3d070291	0.032961432
99	0x3d272e70	0.04081577
100	0xbd13951b	-0.03603087
101	0xbcdb4ca3	-0.026769942
102	0x3ca00aa7	0.01953633
103	0x3ce5ce53	0.028052485
104	0x3b8d658c	0.004315084
105	0x3d1708f1	0.03687376
106	0xbbbe6780	-0.005810678
107	0xbd4db02a	-0.05021683
108	0xbd157cae	-0.036495857
109	0x3d86f83d	0.065903164
110	0x3d200b7e	0.03907346
111	0xbb96f8c6	-0.004607293
112	0x3ca4997c	0.020092718
113	0x3d3f4e5d	0.046705592
114	0x3c85e3bc	0.016343944
115	0x3d821f6f	0.06353652
116	0x3cab6da1	0.020926299
117	0xbd10574f	-0.035239514
118	0x3c06a06b	0.008216958
119	0xbc689c4f	-0.014197423
120	0x3cd8e5b8	0.026476726
121	0x3d8bd134	0.06827012
122	0x3be035db	0.0068423576
123	0x3d0e864a	0.034796037
124	0x3ca3666c	0.0199463
125	0xbd5e8263	-0.054323565
126	0xbd4a7357	-0.049426403
127	0xbcd73a2a	-0.026272852
128	0xbd3ff0ce	-0.04686051
129	0xbdbf3fa1	-0.09338308
130	0xbcbfe840	-0.023426175
131	0xbd512baa	-0.051067032
132	0x3d3c0dd6	0.045911632
133	0xbd338589	-0.04382852
134	0x3cc4864d	0.02398982
135	0x3d37f13c	0.044907793
136	0xbbfa96f8	-0.0076473914
137	0x3d250c57	0.04029497
138	0x3c76a78b	0.015054594
139	0xbceb264f	-0.02870479
140	0x3ccf740e	0.025323894
141	0xbc7c07e5	-0.015382742
142	0xbc8e5f42	-0.017379407
143	0x3c6c4a45	0.014422004
144	0x3d0a2355	0.0337251
145	0xbca1dcf5	-0.01975868
146	0xbd3571f9	-0.044298146
147	0xbd4b9e87	-0.04971173
148	0x3c6d28c3	0.01447505
149	0x3c66b287	0.01408065
150	0x3cd46377	0.025926335
151	0xbce61f1d	-0.028091008
152	0xbcb4c11f	-0.022064744
153	0x3d7b9552	0.0614217
154	0x3b818d96	0.003953646
155	0x3ca52dc2	0.02016342
156	0xbd919310	-0.07108128
157	0xbd9652c4	-0.07340005
158	0xbc591e9c	-0.013251927
159	0xbd1ee863	-0.03879584
160	0xbbcc9457	-0.0062432694
161	0xbd462c12	-0.048381872
162	0x3a66bf46	0.00088023057
163	0x3d37d439	0.044880126
164	0x3c713b9b	0.014723684
165	0xbbce421b	-0.0062945015
166	0xbd794940	-0.060860872
167	0xbc66b17a	-0.0140804
168	0x3bdb301e	0.0066890856
169	0x3d707a4c	0.05871038
170	0x3d562047	0.052276876
171	0xbc1ee0cf	-0.009697153
172	0xbbf76ce7	-0.007550824
173	0x3b72a19c	0.0037022596
174	0x3d409b4b	0.0470231
175	0xbd2228f9	-0.039589856
176	0xbd785c06	-0.060634635
177	0xbd23fcba	-0.04003594
178	0x3b05381a	0.0020327629
179	0x3c541f8c	0.0129469745
180	0x3c5322ce	0.012886716
181	0xbd63760a	-0.055532493
182	0xbd1fcb42	-0.0390122
183	0x3a4ec7b5	0.0007888035
184	0xbc5f30b3	-0.013622451
185	0x3d0b91ee	0.034074716
186	0xbd42b4e6	-0.0475358
187	0xbb91cf96	-0.004449795
188	0x3d83825b	0.06421348
189	0xbc3935ca	-0.011304328
190	0xbcf4b070	-0.029869288
191	0x3bc3e2f6	0.0059779836
192	0x3c7b6101	0.015342952
193	0x3c88a7b8	0.016681537
194	0xbcba2eba	-0.02272736
195	0xbd4ee8bb	-0.050514918
196	0x3ce19931	0.027538868
197	0xbe005e35	-0.12535937
198	0xbd1b4cd0	-0.03791505
199	0x3ca7649a	0.020433713
200	0x3d1524b7	0.036411967
201	0x3d40690e	0.046975188
202	0x3d107aba	0.03527329
203	0x3c26ac9b	0.010172988
204	0x3d2c3c4f	0.042049702
205	0xbd5e2953	-0.05423863
206	0x3d2a6bc3	0.041606676
207	0x3ccd9df2	0.025099728
208	0xbd462642	-0.04837633
209	0x3c8fd6fd	0.01755857
210	0x3d3efd6f	0.04662841
211	0xbd5eb0f9	-0.054367993
212	0xbbbade0d	-0.00570274
213	0xbbc82c8e	-0.006108827
214	0x3b8babef	0.0042624394
215	0xbab38d76	-0.0013698775
216	0x3b2999ac	0.002587895
217	0xbb4f998f	-0.0031677221
218	0xbc8c2f2c	-0.017112337
219	0x3bbefd88	0.005828563
220	0xbd3b8178	-0.045777768
221	0x3c12c080	0.008957028
222	0xb87f6d37	-6.0898452e-05
223	0x3c580b28	0.013186254
224	0xbc9eb058	-0.019371197
225	0x3d0fbd37	0.03509256
226	0xbc17c104	-0.009262327
227	0x3d557777	0.052115884
228	0xbbd7d1a4	-0.0065862704
229	0x3cc0fd8f	0.023558406
230	0x3d6780be	0.056519262
231	0xba823b35	-0.0009935858
232	0xbcb13e84	-0.021636255
233	0x3cfcee74	0.030875422
234	0xbd31168e	-0.0432344
235	0xbc230407	-0.009949691
236	0x3d3f41ac	0.04669349
237	0x3a5a3412	0.0008323799
238	0xbc946817	-0.01811604
239	0x3d2fa01c	0.0428773
240	0xbcd44059	-0.02590959
241	0x3bf7af2c	0.007558724
242	0x3d7645c9	0.060125146
243	0xbcd7d4d3	-0.0263466
244	0xbd462446	-0.048374437
245	0x3d1b0151	0.037843052
246	0x3d338cf9	0.043835614
247	0xbd6fd0c8	-0.05854872
248	0x3d5e02b0	0.05420178
249	0xbcb758ca	-0.022381205
250	0x3bbef444	0.0058274586
251	0x3cd30ca2	0.02576286
252	0x3da81b93	0.08208384
253	0x3d865a7a	0.06560226
254	0x3cd6b025	0.02620704
255	0x3d1f5ebd	0.03890871

down1.go_down.1.conv2x.1.c.1.bias f4 [32]
0	0xbddfa215	-0.109195866
1	0xbd37e000	-0.044891357
2	0x3c532e0f	0.012889399
3	0x3b959a8b	0.004565542
4	0xbd3cbbfe	-0.04607772
5	0xbd8af755	-0.06785456
6	0x3d451fc2	0.04812599
7	0xbc925a56	-0.017865341
8	0xbc0399ef	-0.008032306
9	0xbd5cbfd0	-0.053893864
10	0xbc170927	-0.009218491
11	0xbcf7b907	-0.030239595
12	0xbc4c3bb0	-0.0124654025
13	0xbdb71575	-0.089396395
14	0x3c5930fd	0.013256309
15	0xbd1a64aa	-0.037693657
16	0xbd777d41	-0.060422186
17	0x3c9b291f	0.018940507
18	0x3be5af5a	0.007009429
19	0xbd8f55d6	-0.06998794
20	0xbd800cb7	-0.06252425
21	0xbc0875c0	-0.008328855
22	0x3c96cf9d	0.018409545
23	0xbd1ce12f	-0.03830069
24	0xbd99237c	-0.07477471
25	0x3d551c42	0.052028902
26	0x3cd6afa0	0.026206791
27	0xbd4113fa	-0.04713819
28	0xbc5d4aa7	-0.013506568
29	0xbc66d40a	-0.01408864
30	0xbdb0e9a6	-0.08638315
31	0x3d2e5e1c	0.04257022

down1.go_down.1.conv2x.1.c.1.running_mean f4 [32]
0	0x3e5345be	0.20632073
1	0xbeaf43f3	-0.3423153
2	0xbe69ad0e	-0.22819921
3	0xbea29711	-0.3175588
4	0x3e4ff5d6	0.20308623
5	0x3ec5b487	0.38614294
6	0xbf823ebe	-1.0175397
7	0xbfa3a05a	-1.278331
8	0xbf1a8fc8	-0.6037564
9	0xbda4cad6	-0.080465004
10	0xbd444db2	-0.04792566
11	0x3ef8e9d6	0.48615903
12	0x3d35a7a3	0.044349324
13	0x3daafe60	0.083492994
14	0xbf519f17	-0.81883377
15	0xbd46643e	-0.048435442
16	0x3e4ea6fb	0.20180885
17	0xbf3a7998	-0.7284179
18	0x3dba4d80	0.09096813
19	0x3eff6086	0.4987833
20	0xbe710b68	-0.23539507
21	0xbf5469ca	-0.8297392
22	0xbec92c47	-0.39291593
23	0x3e3c0a77	0.18363367
24	0x3e6342d0	0.22193456
25	0xbe94051c	-0.28910148
26	0xbec24d20	-0.37949467
27	0xbda11712	-0.078657284
28	0xbd7a34ef	-0.061085638
29	0xbeee1238	-0.46498275
30	0x3ed39ac2	0.41329008
31	0xbf88cdde	-1.0687826

down1.go_down.1.conv2x.1.c.1.running_var f4 [32]
0	0x3e66d69a	0.22542801
1	0x3ed6d836	0.4196183
2	0x3ef62c16	0.4808051
3	0x3ee9703e	0.45593446
4	0x3f04b4c2	0.51838315
5	0x3ec50c18	0.3848579
6	0x3ed2c0d0	0.4116273
7	0x3fa8aa6e	1.3177011
8	0x3f0947d6	0.5362524
9	0x3e98ea01	0.2986603
10	0x3f44fabc	0.7694509
11	0x3ead73b4	0.33877337
12	0x3e9314e2	0.2872687
13	0x3e993812	0.2992559
14	0x3f295995	0.66152316
15	0x3e8dd5ae	0.27702087
16	0x3eb11a68	0.3459046
17	0x3f46f7f0	0.7772207
18	0x3eca9e94	0.3957411
19	0x3e72541f	0.23664902
20	0x3ec7dd9a	0.39036256
21	0x3f21c23a	0.6318699
22	0x3ee4f82a	0.44720584
23	0x3e93bb86	0.28854007
24	0x3e553e4f	0.2082455
25	0x3ee3618e	0.44410366
26	0x3eb67029	0.35632446
27	0x3e95f78e	0.29290432
28	0x3eb0c1cc	0.34522855
29	0x3ec99625	0.39372364
30	0x3eace016	0.33764714
31	0x3f390159	0.7226768

down1.go_down.1.conv2x.1.c.1.weight f4 [32]
0	0x3f7fb0bf	0.9987907
1	0x3f7bcf63	0.9836332
2	0x3f711f07	0.9418797
3	0x3f7959ad	0.9740246
4	0x3f7afabc	0.9803884
5	0x3f7d6ff0	0.9899893
6	0x3f8381df	1.0274009
7	0x3f82877c	1.0197597
8	0x3f802534	1.0011353
9	0x3f81e0f9	1.0146781
10	0x3f7e4742	0.9932748
11	0x3f7df497	0.9920134
12	0x3f7f1b6e	0.9965123
13	0x3f860cc2	1.0472643
14	0x3f7e4ef7	0.9933924
15	0x3f7d3235	0.98904735
16	0x3f7b86c3	0.98252505
17	0x3f7aa678	0.9791026
18	0x3f814507	1.009919
19	0x3f8004af	1.0001429
20	0x3f7d14b3	0.9885971
21	0x3f7ee1db	0.9956338
22	0x3f82ad19	1.0209075
23	0x3f7d8a13	0.9903881
24	0x3f7f5117	0.9973311
25	0x3f84f76d	1.0388008
26	0x3f812dfe	1.0092161
27	0x3f7d64b8	0.9898181
28	0x3f7b3353	0.9812519
29	0x3f7f530f	0.9973611
30	0x3f7ca559	0.986898
31	0x3f8398c5	1.0280997

down2.go_down.1.conv2x.0.c.0.bias f4 [64]
0	0xbd0bf212	-0.034166403
1	0x3ba2c574	0.004967386
2	0xbd6d6c74	-0.057964757
3	0x3c86b17c	0.016442053
4	0xbb692e55	-0.0035580595
5	0xbb2a764c	-0.0026010452
6	0x3cccf05a	0.025016952
7	0x3d4cf37c	0.050036892
8	0xbd44b5d9	-0.048024986
9	0xbc8f63af	-0.017503588
10	0x3d399b0a	0.045313872
11	0x3c8f9e59	0.01753156
12	0x3d278613	0.040899348
13	0x3aef48c3	0.0018255938
14	0xbd64122f	-0.055681404
15	0xbb83ebef	-0.004025928
16	0xbc3da88f	-0.011575832
17	0xbd369e94	-0.044584826
18	0x3d55c01d	0.052185167
19	0x3c325996	0.010885617
20	0x3d5ca3d6	0.053867184
21	0xbd39d3b9	-0.04536793
22	0x3d0a2b20	0.033732533
23	0x3ba8d3d3	0.0051522045
24	0x3d6b62cf	0.057467278
25	0xbd0fa0e1	-0.035065535
26	0xbc1fd529	-0.009755411
27	0x3c0deb75	0.008662094
28	0xbd1a01d3	-0.037599396
29	0xbd050ef9	-0.032484982
30	0x3cf9cd84	0.030493505
31	0x3d5af27a	0.0534539
32	0x3c849b68	0.016187385
33	0x3d5e7979	0.054315064
34	0xbd54e6f2	-0.05197806
35	0x3d36538a	0.044513263
36	0xbc8cb541	-0.017176272
37	0xbca575a0	-0.02019769
38	0x3d415060	0.047195792
39	0xbd5e8bc7	-0.05433252
40	0xbcbfb9f3	-0.023404097
41	0x3d5b428b	0.053530257
42	0x3d0f08a6	0.034920357
43	0x39f9e963	0.00047666868
44	0x3cc61e2b	0.024184307
45	0x3ceeb1ed	0.029137576
46	0x3d2140df	0.039368507
47	0x3cc6c771	0.024265023
48	0x3d44a8fb	0.048012715
49	0x3c950528	0.018190935
50	0x3b8efee5	0.004363882
51	0x3cf5fb05	0.030026922
52	0xbca3e233	-0.020005321
53	0x3cd300ec	0.025757276
54	0x3c8f5cd5	0.01750032
55	0x3d14a8a5	0.036293644
56	0xbd66b373	-0.05632348
57	0x3d682ef1	0.05668539
58	0xbb0c1587	-0.0021375136
59	0x3d2220d4	0.03958209
60	0x3b92a88a	0.004475658
61	0xbb7e5084	-0.0038805315
62	0xbd37b477	-0.04484984
63	0xbcb32a7e	-0.021870848

down2.go_down.1.conv2x.0.c.0.weight f4 [64, 32, 3, 3]
0	0xbd463de2	-0.04839886
1	0x3d292820	0.04129803
2	0xbd01832d	-0.03161924
3	0x3c1f0d1a	0.0097077135
4	0x3c1156dd	0.0088708075
5	0x3d36a592	0.044591494
6	0x3d03723a	0.032091357
7	0x3d0fb98c	0.03508906
8	0xbd8dc381	-0.06922055
9	0x3daf71d3	0.08566632
10	0x3cd8146f	0.026376931
11	0xbb48566e	-0.0030569094
12	0x3cd42cdb	0.025900295
13	0x3d0d3928	0.034478337
14	0x3d41148d	0.04713874
15	0xbca05149	-0.01957001
16	0x3d0e812b	0.034791153
17	0x3d981642	0.0742612
18	0xbcea849e	-0.02862769
19	0xbccd2214	-0.025040664
20	0x3c926eec	0.017875157
21	0xbd2067e9	-0.039161596
22	0xbd6b0e24	-0.057386532
23	0xbc4248d4	-0.011858184
24	0x3bae5a35	0.005320812
25	0x3cfbf79f	0.030757723
26	0x3dc8fcc6	0.09813838
27	0xbcad9004	-0.021186836
28	0x3c1dcdbc	0.00963157
29	0xbd58ec3f	-0.052959677
30	0x3d812b73	0.063071154
31	0xbcc4b054	-0.024009861
32	0x3d09f565	0.033681292
33	0x3cb82bda	0.022481848
34	0xbb434004	-0.0029792795
35	0x3cc568b4	0.024097778
36	0x3d161f13	0.03665073
37	0xbd5fc898	-0.05463466
38	0x3dab5685	0.08366112
39	0x3b8b470f	0.004250414
40	0xbcf94630	-0.030428976
41	0x3c8b7968	0.017025664
42	0x3d1f45c3	0.03888489
43	0xbd1f715e	-0.038926475
44	0x3cfee76c	0.03111621
45	0xbd5e3d2f	-0.054257568
46	0xbd877865	-0.0661476
47	0xbc4583ce	-0.0120553505
48	0xbc0dfa4f	-0.008665635
49	0xbd052e7a	-0.032515027
50	0x3d503fd8	0.050842136
51	0x3c4dd318	0.012562536
52	0x3d566618	0.052343458
53	0xbd1ba46a	-0.037998594
54	0xbd61f256	-0.05516275
55	0xbca43c81	-0.020048382
56	0xbceae16f	-0.028671948
57	0x3d277d0c	0.04089074
58	0xbd0f5fae	-0.035003357
59	0x3d0adfa6	0.033904694
60	0xbd962e9f	-0.07333111
61	0xbcd9f42a	-0.026605684
62	0xbc818e42	-0.015814904
63	0x3d81add5	0.06331984
64	0x3d9a185b	0.07524177
65	0x3d484175	0.04889055
66	0x3cc9f804	0.024654396
67	0x3d83503b	0.06411787
68	0xbd35625e	-0.044283263
69	0xbc6364b6	-0.013878992
70	0xbd892127	-0.066957764
71	0xbc4b3e3c	-0.012404975
72	0xbd2c8ad4	-0.042124584
73	0x3bf3e5b9	0.0074431566
74	0xbd0cef9a	-0.03440819
75	0xbc84da82	-0.016217474
76	0x3c23791c	0.009977605
77	0xbbc78ef7	-0.006090041
78	0x3e168b8c	0.1470167
79	0xbd0fd696	-0.035116754
80	0x3d505882	0.050865658
81	0x3d3fe55e	0.0468496
82	0x3d0cbd42	0.034360178
83	0x3cd8162f	0.026377765
84	0xbcf7577a	-0.03019308
85	0xba2501f3	-0.0006294541
86	0xbd5dd738	-0.054160327
87	0xbd3abf47	-0.045592573
88	0x3d04619e	0.032319658
89	0x3c826f01	0.015922071
90	0x3cece5d4	0.028918184
91	0x3d4f280d	0.050575305
92	0xbc930216	-0.01794533
93	0x3c512012	0.012763994
94	0xbd276106	-0.040864013
95	0x3d19260a	0.037389793
96	0x3d9c98d6	0.07646339
97	0xbcc6e930	-0.024281114
98	0x3d522ca6	0.05131211
99	0x3aaa86d2	0.001301015
100	0xbd0fea8a	-0.035135783
101	0xbd0ed44a	-0.034870423
102	0xbb149b03	-0.0022675402
103	0xbd747576	-0.059682332
104	0xbcd67b6e	-0.026181903
105	0x3cec0560	0.028811157
106	0xbc13bd58	-0.009017311
107	0xbc581449	-0.01318843
108	0x3c282a32	0.010263966
109	0x3c88ccc4	0.016699202
110	0xbd71ec42	-0.059063204
111	0x3da99884	0.08281043
112	0xbc4a968e	-0.012364997
113	0xbcf686ad	-0.030093515
114	0x3ca29d09	0.01985027
115	0x3d94a406	0.072578475
116	0xb9a6aa2e	-0.0003178878
117	0x3de83a58	0.11339253
118	0x3ca635fa	0.02028941
119	0xbcf985d9	-0.030459331
120	0x3c966c95	0.018362323
121	0xbd74352d	-0.059621025
122	0x3dc35173	0.095370196
123	0x3d085e3c	0.033292994
124	0xbd5e1c81	-0.054226402
125	0xbd1b2954	-0.03788121
126	0x3d43ba5f	0.04778516
127	0x3cfd8391	0.030946525
128	0xbb2c2a23	-0.0026270233
129	0x3cef6099	0.029220866
130	0xbc49315c	-0.012279835
131	0xbc55d95b	-0.01305231
132	0x3d8ce0e2	0.068788305
133	0xbadc7a8b	-0.0016821189
134	0x3da37e62	0.0798309
135	0xbcbee49e	-0.023302373
136	0xbba2345b	-0.004950089
137	0x3c9cb129	0.019127445
138	0x3d0154bd	0.031574953
139	0xbb247ce9	-0.0025098866
140	0x3bf38e74	0.007432753
141	0x3bc6d3b6	0.0060677184
142	0x3c886e3b	0.016654124
143	0xbd5a0ce3	-0.053234946
144	0xbc4bfde1	-0.012450666
145	0x3ca13b4d	0.019681597
146	0x3dcb14ac	0.09916052
147	0x3cc7fbbc	0.024412028
148	0xbd083c67	-0.03326073
149	0xbba60803	-0.005066873
150	0xbe14b0e3	-0.14520602
151	0x3caffc96	0.021482747
152	0xbd9ff94e	-0.07811223
153	0x3d0f00d8	0.034912914
154	0x3db4bf1f	0.08825516
155	0x3d06a37e	0.032870762
156	0x3acaaf25	0.0015463574
157	0xbb8debda	-0.004331094
158	0x3da40cda	0.08010264
159	0x3da0af3a	0.07845922
160	0x3cc647d2	0.024204168
161	0x3c6b47a3	0.014360341
162	0x3c393b34	0.011305619
163	0xbd0d6817	-0.034523096
164	0xbc876904	-0.016529568
165	0xbcd3cfbf	-0.025855897
166	0xbd48ace7	-0.048993018
167	0xbccbed3a	-0.024893392
168	0x3d529c84	0.051418796
169	0x3a89bcc6	0.0010508529
170	0xbda458b9	-0.08024735
171	0xbbd0bf7c	-0.006370483
172	0x3cf90984	0.030400045
173	0xbc99193c	-0.01868879
174	0x3d5e5b66	0.054286383
175	0x3cc00640	0.02344048
176	0x3ca6a86d	0.020343984
177	0xbd4f8986	-0.050668262
178	0xbbc1536e	-0.005899838
179	0xbcdeb5f2	-0.027186368
180	0x3db1c17f	0.086794846
181	0xbd2b3c80	-0.041805744
182	0x3d5afc68	0.05346337
183	0x3d25cf8f	0.040481146
184	0x3d09c246	0.03363254
185	0x3d24d808	0.040245086
186	0xbc9dcf70	-0.019263953
187	0xbdd0172a	-0.10160668
188	0xbd8b94ab	-0.068154655
189	0x3d6de602	0.05808068
190	0xbc9bfc83	-0.019041305
191	0x3d8e7290	0.06955445
192	0xbc9807bd	-0.018558377
193	0x3d5a25d8	0.053258747
194	0xbd47e811	-0.0488053
195	0xbd0ced7b	-0.034406167
196	0xbd52555c	-0.051350936
197	0xbd145adb	-0.03621946
198	0xbdc70fc3	-0.09719803
199	0x3d01451f	0.03156006
200	0xbaf97219	-0.0019031196
201	0x3b09905f	0.0020990593
202	0x3c3c8c27	0.011508024
203	0x3d0be9df	0.034158584
204	0x3dcff53f	0.10154199
205	0xbb9eb424	-0.004843252
206	0xbcb45619	-0.02201371
207	0x3d63d652	0.055624314
208	0x3b97d641	0.0046336954
209	0x3c43bb9d	0.011946586
210	0x3d770b2b	0.060313385
211	0x3c197411	0.009366051
212	0xbd28fd6b	-0.041257303
213	0xbd4fc398	-0.050723642
214	0xbc6916d4	-0.014226634
215	0x3d66ee06	0.05637934
216	0xbb4113c2	-0.002946124
217	0x3c21cc7c	0.009875413
218	0xbdbb6300	-0.09149742
219	0x3d0a3454	0.03374131
220	0xbc6be364	-0.014397476
221	0x3d1e7985	0.03869011
222	0x3bdddcfc	0.006770728
223	0x3d23a927	0.039956238
224	0xbcd70730	-0.026248544
225	0x3db407d5	0.08790556
226	0x3c127402	0.008938791
227	0x3c18e1f3	0.009331214
228	0x3c8067d7	0.015674515
229	0xbc06c01a	-0.0082245115
230	0xbd8a5b68	-0.067557156
231	0xbd8b4a94	-0.06801334
232	0xbcc01d5a	-0.023451496
233	0xbd8be3f6	-0.068305895
234	0x3d7815ff	0.060567852
235	0xbcc1a50b	-0.023638269
236	0xbc1d1abb	-0.009588893
237	0x3b1e7922	0.0024181088
238	0x3c862233	0.01637373
239	0xbdb93096	-0.0904247
240	0x3c122a2b	0.008921186
241	0xbcf01c5b	-0.029310396
242	0xbd2f2b3c	-0.04276584
243	0xbd3507b7	-0.04419681
244	0xbd4632e7	-0.048388388
245	0x3d97ad1b	0.07406064
246	0x3da726f2	0.08161725
247	0x3cbbad45	0.02290977
248	0x3b6928f2	0.0035577384
249	0xbb13dbf3	-0.002256152
250	0xbd31117b	-0.04322956
251	0x3c257e73	0.010100949
252	0x3af6e490	0.0018836427
253	0xbd954a82	-0.07289602
254	0x3d4915f0	0.049093187
255	0xbd0f5715	-0.034995157

down2.go_down.1.conv2x.0.c.1.bias f4 [64]
0	0x3c63b1c5	0.013897364
1	0x3c801106	0.015633117
2	0x3d197f5a	0.037474968
3	0xbdaf5118	-0.08560389
4	0xbbd4bce7	-0.0064922455
5	0xbcdcad8e	-0.026938226
6	0xbd2c9f44	-0.042144075
7	0xbdd48f8c	-0.10378942
8	0xbd647e9e	-0.055784814
9	0xbd8d22d3	-0.06891408
10	0xbd0c27ff	-0.03421783
11	0xbddfe3a1	-0.10932089
12	0xbe40ba12	-0.1882098
13	0xbc8fe29e	-0.017564114
14	0xbd1ec0ab	-0.03875796
15	0xbd98be34	-0.07458153
16	0xbde3005e	-0.110840544
17	0xbd082896	-0.03324183
18	0xbd4baa79	-0.049723122
19	0xbd284a60	-0.041086555
20	0xbcaff996	-0.021481317
21	0xbd527d38	-0.05138895
22	0x3d755485	0.059895057
23	0xbd55fc8c	-0.0522428
24	0x3d9fdbe7	0.07805615
25	0xbc6cfeb6	-0.014465025
26	0xbb020089	-0.0019836745
27	0xbd3c64c2	-0.045994528
28	0xbc2305ce	-0.009950114
29	0x3d94e84c	0.072708696
30	0xbda4fefb	-0.08056446
31	0x3ba9aa70	0.0051777884
32	0xbd0d1e1f	-0.034452554
33	0x3d845a3e	0.06462525
34	0x3c2c5089	0.010517248
35	0xbd664764	-0.056220427
36	0xbdeb283e	-0.11482285
37	0x3d08c215	0.033388216
38	0xbdb26cb3	-0.08712139
39	0xbd56ed72	-0.05247254
40	0xbd7e6d50	-0.062115967
41	0xbe11867c	-0.14211458
42	0xbd8257c5	-0.06364397
43	0xbc81622f	-0.015793888
44	0xbd29ef12	-0.04148776
45	0xbd90cc5c	-0.070702285
46	0xbddf99de	-0.1091802
47	0x3bf2d2d3	0.007410386
48	0xbbe372ec	-0.00694119
49	0xbced8a8f	-0.028996734
50	0x3cf2cd3d	0.02963888
51	0xbdd9086c	-0.105973095
52	0xbb35bd96	-0.002773141
53	0x3cf62993	0.030049121
54	0xbc8a7b60	-0.016904533
55	0xbd4d900e	-0.05018621
56	0xbd892bfd	-0.06697843
57	0xbd988990	-0.07448113
58	0xbcdf2316	-0.02723841
59	0x3af1bccf	0.001844311
60	0xbdc3f923	-0.095690034
61	0x3cd45bb0	0.025922626
62	0xbde40f3b	-0.111357175
63	0xbb4d96d0	-0.0031370409

down2.go_down.1.conv2x.0.c.1.running_mean f4 [64]
0	0x3f20c644	0.6280253
1	0xbf933980	-1.1501923
2	0xbfe60ebc	-1.7973247
3	0x3f00d65f	0.50327104
4	0x3eae7397	0.34072563
5	0xbec4a9d2	-0.38410813
6	0xbfb4cc12	-1.4124777
7	0x3f316af9	0.6930385
8	0xbee8bd75	-0.45457044
9	0xbff46f86	-1.9096534
10	0x3f416862	0.755499
11	0x4009e82c	2.1547956
12	0x3e88ee89	0.26744488
13	0xbf3dc926	-0.74135053
14	0x3fb065c8	1.3781061
15	0xbe002501	-0.12514116
16	0x3ec47177	0.38367817
17	0xbf0b2c74	-0.54364705
18	0x3ca5183f	0.020153163
19	0xbf101ce2	-0.5629407
20	0xbeef8e8a	-0.46788436
21	0x3f4c3c01	0.7977906
22	0x3ca9bc97	0.02071981
23	0x3fe018e7	1.75076
24	0xbf66958b	-0.90071934
25	0xbd9ce9e8	-0.076618016
26	0xbfa0582c	-1.2526908
27	0xbda5c8bf	-0.0809493
28	0xbdefb324	-0.1170409
29	0xbeb94812	-0.36187798
30	0xbf6313b2	-0.8870193
31	0xbfd95706	-1.6979682
32	0xbfa463ea	-1.2842991
33	0xbd3e729c	-0.04649602
34	0x3e91127d	0.28334418
35	0x3f56edea	0.8395678
36	0x3d4020d1	0.046906296
37	0xbf8af15f	-1.0854911
38	0x3f2806ca	0.6563536
39	0x3f59f286	0.85135686
40	0x3eda5c00	0.42648315
41	0xc01b8c15	-2.430425
42	0x3e0c4cba	0.13701144
43	0x3dc26967	0.0949276
44	0xbf603884	-0.87586236
45	0x3fa99150	1.3247471
46	0x3f1590ec	0.5842426
47	0xbca3a290	-0.019974977
48	0xbfc206c2	-1.5158312
49	0x3f05fe47	0.5234112
50	0xbfbf3458	-1.4937849
51	0xbfde59e4	-1.7371182
52	0xc00d8a86	-2.2115798
53	0xbf77c93d	-0.9679144
54	0x3d7a4063	0.06109656
55	0x3f60f99e	0.87880886
56	0xbf683898	-0.90711355
57	0xbfaccc1d	-1.349979
58	0xbef4570c	-0.47722661
59	0x3c908d79	0.017645584
60	0x3f497917	0.78700393
61	0xbe3a95c0	-0.18221188
62	0x3f3c2ebf	0.7350883
63	0xbf876f08	-1.0580759

down2.go_down.1.conv2x.0.c.1.running_var f4 [64]
0	0x3ee46047	0.44604704
1	0x3f196e24	0.59933686
2	0x3f9239a5	1.1423842
3	0x3eb228a8	0.34796643
4	0x3f166aba	0.587566
5	0x3ee6379f	0.4496431
6	0x3edb9b15	0.42891756
7	0x3e8cf0d4	0.27527487
8	0x3f2fc55b	0.68660516
9	0x3f636f7f	0.88842005
10	0x3fd66c5d	1.675182
11	0x3f9f036a	1.2422917
12	0x3efa60bb	0.48901924
13	0x3f285e6b	0.6576907
14	0x3eba055d	0.36332217
15	0x3f1a440d	0.6026009
16	0x3e3cee54	0.1845029
17	0x3efce680	0.49394608
18	0x3ec6ae58	0.3880489
19	0x3f0a29c3	0.53969973
20	0x3e9567e6	0.2918083
21	0x3f86da68	1.0535402
22	0x3f26e937	0.6519961
23	0x3f0ab204	0.5417788
24	0x3f816f1e	1.0112035
25	0x3ef69ed6	0.48168057
26	0x3f484338	0.7822757
27	0x3efef1c2	0.49793822
28	0x3f6df3fd	0.9295042
29	0x3f7b42f3	0.9814903
30	0x3edd86eb	0.43266997
31	0x3f57fcc5	0.8437007
32	0x3f203f3c	0.6259649
33	0x3f2df150	0.6794634
34	0x3f1b4e1e	0.6066607
35	0x3f3700c3	0.7148554
36	0x3f889837	1.0671452
37	0x3fc91fd9	1.5712844
38	0x3edb47c3	0.42828187
39	0x3f5a1e80	0.8520279
40	0x3f1250b4	0.57154393
41	0x3f17de32	0.5932342
42	0x3f1da7f7	0.6158442
43	0x3f682658	0.9068351
44	0x3f063cc2	0.5243646
45	0x3f1cd39e	0.612604
46	0x3ebd38e8	0.3695748
47	0x3f68a6b0	0.90879345
48	0x3ecb3644	0.3968984
49	0x3f3a3f85	0.72753173
50	0x3faff1d6	1.3745677
51	0x3f911a1f	1.1336097
52	0x3fda2d8c	1.704515
53	0x3f4ebd0d	0.8075722
54	0x3eaaacb7	0.33334896
55	0x3f049a98	0.5179839
56	0x3fb4bf34	1.412085
57	0x3f8e3225	1.1109053
58	0x3ef48cd7	0.47763702
59	0x3f2adbfb	0.66741914
60	0x3ebaf17e	0.3651237
61	0x3f1c742d	0.6111477
62	0x3e9e71e6	0.30946273
63	0x3f479890	0.77967167

down2.go_down.1.conv2x.0.c.1.weight f4 [64]
0	0x3f820b96	1.0159786
1	0x3f809229	1.0044605
2	0x3f819b93	1.0125602
3	0x3f6ca5f8	0.9244075
4	0x3f81ad1a	1.0130951
5	0x3f813bc4	1.0096364
6	0x3f7d85bb	0.9903218
7	0x3f7eabfa	0.99481165
8	0x3f757922	0.9588796
9	0x3f78eea0	0.9723911
10	0x3f7a42b7	0.9775805
11	0x3f7086c6	0.9395565
12	0x3f761cf5	0.96137935
13	0x3f7eed61	0.9958096
14	0x3f780530	0.96882915
15	0x3f7c8f2b	0.98655957
16	0x3f7c6012	0.9858409
17	0x3f926ee3	1.144009
18	0x3f7b676a	0.9820467
19	0x3f8143de	1.0098836
20	0x3f7e644b	0.99371785
21	0x3f791f70	0.97313595
22	0x3f86dcac	1.0536094
23	0x3f86e918	1.0539885
24	0x3f801051	1.0004979
25	0x3f7d934c	0.9905288
26	0x3f84c8fc	1.0373836
27	0x3f84e419	1.038211
28	0x3f8456d1	1.0338994
29	0x3f88a567	1.0675477
30	0x3f82f3b7	1.0230626
31	0x3f82bc92	1.0213797
32	0x3f7c6d77	0.9860453
33	0x3f8695a4	1.0514417
34	0x3f89fd86	1.0780494
35	0x3f7d552d	0.9895809
36	0x3f838e6e	1.0277841
37	0x3f8350e1	1.0259057
38	0x3f81fdaf	1.0155543
39	0x3f7a3a28	0.9774499
40	0x3f88d94f	1.0691317
41	0x3f896953	1.0735267
42	0x3f7ac3e6	0.9795517
43	0x3f7ea187	0.9946522
44	0x3f797b46	0.97453725
45	0x3f7d4189	0.98928124
46	0x3f7c4682	0.98545086
47	0x3f858bf7	1.0433339
48	0x3f82dd23	1.0223736
49	0x3f78c566	0.97176206
50	0x3f829e84	1.0204625
51	0x3f729a15	0.9476636
52	0x3f7fee34	0.99972844
53	0x3f84850a	1.03531
54	0x3f80d3be	1.0064619
55	0x3f800565	1.0001646
56	0x3f738e31	0.9513884
57	0x3f791414	0.9729626
58	0x3f7d14b7	0.98859733
59	0x3f82228f	1.0166796
60	0x3f7d6255	0.9897817
61	0x3f81e7c8	1.0148859
62	0x3f79b28e	0.9753808
63	0x3f8099b5	1.0046908

down2.go_down.1.conv2x.1.c.0.bias f4 [64]
0	0xbcf04428	-0.029329374
1	0xbd106fc3	-0.035262834
2	0x3ce16d1f	0.027517853
3	0xbcb0f1fd	-0.021599764
4	0x3c097df6	0.008391848
5	0x3d1c8f0a	0.03822235
6	0xbc2d5eaf	-0.010581656
7	0x3bc4378c	0.005988067
8	0x3d027fd0	0.031860173
9	0x3ba97ff1	0.0051727225
10	0xbd032a56	-0.032022797
11	0xbce25fa6	-0.0276335
12	0x3bca0c5f	0.0061660255
13	0x3c215cda	0.009848798
14	0x3c9c5423	0.019083088
15	0xbbaec583	-0.005333604
16	0xbbec5be1	-0.0072131013
17	0xbd142e2f	-0.036176857
18	0xbd076b74	-0.03306146
19	0x3d12c79a	0.035834886
20	0x3c3af72d	0.01141147
21	0x3cc03214	0.02346138
22	0xbbb700e9	-0.0055848253
23	0x3ce4e1e8	0.027939752
24	0x3bfa00df	0.0076294984
25	0xbd25a3cc	-0.040439412
26	0xbcd703cd	-0.02624693
27	0xbc6bcc3e	-0.014391957
28	0x3b340ef1	0.0027474726
29	0xbca25ce7	-0.01981969
30	0x3caf48d8	0.02139704
31	0x3d04876a	0.032355703
32	0xbd03af2a	-0.03214947
33	0x3c344a96	0.011004111
34	0x3d0b62fa	0.03402994
35	0xbab256d2	-0.0013606197
36	0x3ce27e1b	0.027648022
37	0xbcdddb88	-0.02708222
38	0xbb3a8f0f	-0.0028466617
39	0xbc2fac0c	-0.0107221715
40	0xbc1cd0a4	-0.009571228
41	0xba0532e5	-0.0005081131
42	0xbba2d4a5	-0.004969197
43	0xbc49a1b6	-0.012306621
44	0xbca72758	-0.020404503
45	0xbcf935a5	-0.030421088
46	0x3cada090	0.021194726
47	0xbcd76565	-0.026293466
48	0x3d1cc44f	0.038273152
49	0x3d233ce6	0.039853
50	0xbd13fcf9	-0.036129925
51	0xbca56228	-0.020188406
52	0x3d0cf98a	0.034417666
53	0xbcfefce6	-0.03112645
54	0x3cf66f50	0.030082375
55	0xbbf75fa7	-0.0075492444
56	0xbc24019f	-0.010010152
57	0xbc9d036e	-0.019166674
58	0x3c99d407	0.01877786
59	0x3ce5ce33	0.028052425
60	0x3d1c4c2c	0.03815858
61	0x3c715097	0.014728687
62	0x3c58b75b	0.013227309
63	0x3cb2f912	0.021847282

down2.go_down.1.conv2x.1.c.0.weight f4 [64, 64, 3, 3]
0	0x3b8ecc20	0.0043578297
1	0xbc73383a	-0.014844948
2	0x3d8ef63b	0.069805585
3	0xbd101ed6	-0.035185657
4	0xbcbf0753	-0.023318922
5	0xbb1f18fb	-0.0024276364
6	0x3cf0b8b6	0.029384952
7	0x3d450a89	0.04810575
8	0xbbae33f6	-0.005316253
9	0xbcfc69ef	-0.030812232
10	0xbc8c6e90	-0.017142564
11	0xbc8fdaa2	-0.017560307
12	0x3d2acccd	0.04169922
13	0x3c9d7bdb	0.019224098
14	0xbd5b1887	-0.053490188
15	0x3c643e08	0.013930805
16	0x3cbf92b1	0.023385378
17	0x3cf0ccff	0.029394625
18	0xbd172395	-0.036899168
19	0x3ce93233	0.02846632
20	0x3d1b443d	0.037906874
21	0xbb87f534	-0.0041491035
22	0xbd7c94eb	-0.061665457
23	0xba835fff	-0.0010023116
24	0xbd5c05d7	-0.053716507
25	0xbd9ac3f0	-0.07556903
26	0xbdb5245b	-0.08844825
27	0xbcc60a52	-0.024174843
28	0x3c87c3b4	0.01657281
29	0xbcc2ddf8	-0.023787484
30	0x3c33a814	0.010965366
31	0xbc668048	-0.014068671
32	0x3c4a35a0	0.012341887
33	0x3d6f7a34	0.05846615
34	0xbc8f5d87	-0.017500652
35	0xbccf2769	-0.025287347
36	0x3c26e1c3	0.010185662
37	0xbd5f0e51	-0.054457013
38	0xbb572f2e	-0.0032834518
39	0xbc8b4151	-0.016998919
40	0x3d055da7	0.032560017
41	0x3c9fad84	0.019491918
42	0xbd2113ab	-0.039325397
43	0x3d782e69	0.060591135
44	0x3c97a222	0.018509928
45	0xbca1bbc5	-0.019742856
46	0xbc4662c6	-0.01210851
47	0xba92d664	-0.0011202809
48	0x3b3a211f	0.002840109
49	0xbd3571a4	-0.04429783
50	0xbd05fded	-0.032712866
51	0xbd0528f0	-0.032509744
52	0x3b415ea0	0.0029505864
53	0x3d60538f	0.054767188
54	0x3cefa3d0	0.029252917
55	0xbc6ceb50	-0.0144604
56	0x3aa7ab64	0.0012792167
57	0x3d097dbb	0.03356717
58	0x3d0ffde9	0.035154257
59	0x3e06ba42	0.13156989
60	0xbcb117b9	-0.021617757
61	0xbc371f2f	-0.011176868
62	0x3d493706	0.04912474
63	0x3cbbe471	0.022936078
64	0xbca92f7a	-0.020652521
65	0xbbaf4e0b	-0.0053498796
66	0x3cf56383	0.029954677
67	0x3c160ab0	0.009157822
68	0x3d5a2a84	0.053263202
69	0xba3f48db	-0.0007296928
70	0xbc11ad0a	-0.008891353
71	0xbcfb6e05	-0.03069211
72	0x3d5593c5	0.052142877
73	0x3d3c8ebc	0.04603456
74	0x3d88f39e	0.06687091
75	0x3cb0fd6a	0.021605212
76	0xbcc47a54	-0.023984112
77	0x3d217011	0.039413515
78	0x3c4e9371	0.012608395
79	0xbbe73fb3	-0.007057154
80	0xbcf04e83	-0.029334312
81	0x3ad319ef	0.0016105751
82	0x3cac4984	0.021031149
83	0xbd09e3f0	-0.033664644
84	0x3c571889	0.013128408
85	0xbdbb5e3c	-0.09148833
86	0xbcd8443c	-0.026399724
87	0x3d456b4e	0.048198037
88	0x3d38db35	0.045130927
89	0xbd16691e	-0.03672134
90	0x3c8c8172	0.017151568
91	0xbc750d6a	-0.014956811
92	0xba67953c	-0.00088341883
93	0x3b26a4d4	0.0025427835
94	0x3d302eab	0.043013256
95	0x3d246958	0.040139526
96	0x3d3930d1	0.04521257
97	0x3d3d9210	0.046281874
98	0x3c36915d	0.011143056
99	0x3c8e0a8e	0.017339017
100	0xbc5337b3	-0.012891698
101	0xbd3d5941	-0.046227697
102	0xbba42831	-0.005009674
103	0xbc965580	-0.018351316
104	0x3cbeea29	0.023305016
105	0xbcc4895d	-0.023991281
106	0x3cd015f5	0.025401095
107	0xbc6bed9f	-0.014399915
108	0x3cb5a8ad	0.022175157
109	0x3d014602	0.031560905
110	0x3cdaf9e1	0.02673048
111	0x3c5775f3	0.01315068
112	0xbca2599e	-0.019818123
113	0x3d880826	0.06642179
114	0xbcfbff4e	-0.030761387
115	0x3cf6493e	0.030064221
116	0xbc5a3dc6	-0.013320392
117	0x3b8691cf	0.004106737
118	0x3c48294a	0.012216875
119	0xbcff559c	-0.031168751
120	0xbcd5b2b7	-0.026086194
121	0x3c78d56d	0.015187603
122	0x3d82fb07	0.06395536
123	0xbd414467	-0.047184374
124	0x3c0bcc5a	0.008532608
125	0xbc19ce34	-0.009387542
126	0x3c181047	0.009281225
127	0x3c8642db	0.016389301
128	0xbd1b0776	-0.037848912
129	0x3cc2462b	0.0237151
130	0xbce81994	-0.02833251
131	0x3d75ac30	0.059978664
132	0x3b12f153	0.0022421672
133	0x3cd6520e	0.026162174
134	0xbb358b68	-0.00277015
135	0xbdaba0d6	-0.083802864
136	0xbd00acba	-0.031414725
137	0x3d6edee1	0.058318023
138	0x3c1996ec	0.0093743615
139	0x3d1097fd	0.035301197
140	0x3affd0dc	0.0019517201
141	0x3c55652a	0.013024608
142	0x3b4d1fe7	0.0031299533
143	0x3cbe12bd	0.023202294
144	0xbd1b71b0	-0.037950218
145	0xbc8c2b9b	-0.017110636
146	0xbbdedc04	-0.0068011303
147	0xbdac840f	-0.08423626
148	0x3bba07e1	0.005677209
149	0xbc532956	-0.012888273
150	0x3c71f927	0.014768875
151	0xbc3a10c1	-0.0113565335
152	0x3c11db14	0.00890233
153	0xbc393c04	-0.011305813
154	0xbc821502	-0.015879158
155	0xbd5f040f	-0.05444723
156	0xbda14541	-0.07874537
157	0xbd50e56a	-0.051000036
158	0xbcae9108	-0.02130939
159	0x3ca5427d	0.020173306
160	0xbd462b9f	-0.048381444
161	0x3d2ef463	0.042713534
162	0xbd856089	-0.06512553
163	0xbd79f8d7	-0.061028328
164	0x3bb2b382	0.005453528
165	0x3d06c247	0.03290012
166	0x3c6f9cda	0.014624799
167	0xbca85658	-0.020548984
168	0xbbda8eee	-0.0066698706
169	0x3d1aa36e	0.037753515
170	0xbc8d38d6	-0.017239016
171	0xbace0eae	-0.0015720928
172	0xbcb57219	-0.022149133
173	0xbd0fe55e	-0.03513085
174	0xbbb8dc88	-0.0056415237
175	0x3d3e3f80	0.046447277
176	0xbd101365	-0.035174746
177	0x3cf21ef7	0.02955578
178	0x3d19ba58	0.037531227
179	0x3cff4462	0.031160537
180	0x3c0e4638	0.008683734
181	0x3d945f01	0.07244683
182	0x3d8b5a1c	0.068042964
183	0xbce3c9fd	-0.027806276
184	0xbc82139d	-0.015878493
185	0xbd50d267	-0.050981905
186	0x3c223bae	0.009901924
187	0x3a5b440e	0.0008364328
188	0xbd0c4f99	-0.034255598
189	0x3c7e46d9	0.015519821
190	0x3c9c4c51	0.01907936
191	0x3c5967f7	0.013269416
192	0xb8948915	-7.0827235e-05
193	0xbc642bfb	-0.013926501
194	0xbbbd3f73	-0.005775386
195	0xbd18a37a	-0.03726528
196	0x3bdc5800	0.0067243576
197	0x3abc714e	0.0014377029
198	0xbcf08a20	-0.029362738
199	0xbc983030	-0.018577665
200	0x3c993260	0.018700778
201	0x3c15d34c	0.009144615
202	0x3d12f731	0.03588027
203	0x3df2d7ed	0.11857591
204	0x3c1b4d75	0.009478916
205	0x3c09d78c	0.008413207
206	0x3d97f464	0.07419661
207	0x3cb070e2	0.021538202
208	0x3bbd3362	0.0057739476
209	0xbd875a04	-0.06608966
210	0x3cc683b1	0.024232717
211	0x3d23fd20	0.04003632
212	0x3cbb090d	0.022831464
213	0x3d6c1da5	0.05764546
214	0xbd1fc34f	-0.03900462
215	0x3c8d7399	0.017267035
216	0xbc19f8c9	-0.009397694
217	0xbd17855c	-0.036992416
218	0xbd30d0e2	-0.043167956
219	0xbd98f542	-0.07468654
220	0xbcab1ffc	-0.020889275
221	0x3c8170bd	0.015800828
222	0x3d5484bb	0.051884394
223	0x3ba28f1e	0.0049609086
224	0x3d770bcd	0.06031399
225	0xbc9f14b2	-0.019419048
226	0x3d3755f4	0.044759706
227	0x3dabf668	0.08396608
228	0xbb3321f9	-0.0027333482
229	0x3d23f5f9	0.0400295
230	0xbd341185	-0.04396202
231	0xbd52c050	-0.051452935
232	0xbc8a8648	-0.016909733
233	0xbd67b1d3	-0.05656607
234	0xbd456112	-0.048188277
235	0xbd5cbdad	-0.053891826
236	0x3aa89e44	0.001286455
237	0x3ccc2a51	0.024922522
238	0xbceba6b0	-0.028766006
239	0xbd208918	-0.039193243
240	0xbc9f2f2b	-0.019431671
241	0x3d737b35	0.05944367
242	0x3c7d8b62	0.015475126
243	0xbd2dfbc7	-0.04247644
244	0xbcce935a	-0.025216747
245	0xbdba79ac	-0.09105238
246	0x3d34c88a	0.04413656
247	0x39c1d6c0	0.0003697183
248	0xbcd84a0c	-0.026402496
249	0xbd51808f	-0.051147994
250	0xbc39097a	-0.011293763
251	0xbcf1f231	-0.029534431
252	0xbd5b5d81	-0.05355597
253	0xbcb9ae04	-0.022665985
254	0xbcd77bd9	-0.026304172
255	0xbdb2f4dc	-0.087381095

down2.go_down.1.conv2x.1.c.1.bias f4 [64]
0	0x3d8936ba	0.066998914
1	0xbe024b5f	-0.12724064
2	0xbdce7783	-0.10081389
3	0xbd0d4d2f	-0.034497436
4	0xbe0d83fb	-0.13819878
5	0xbd3dc029	-0.046325836
6	0x3c440e36	0.011966279
7	0x3d2861bc	0.04110883
8	0xbc85f92c	-0.016354166
9	0x3c95875b	0.01825302
10	0xbd911a4b	-0.07085093
11	0x3cc5e1a5	0.024155447
12	0xbd3f0a67	-0.04664078
13	0xbab35333	-0.0013681412
14	0xbc99d514	-0.018778361
15	0xbd7ecc8e	-0.062206797
16	0x3d326a77	0.043558564
17	0x3d022c5a	0.03178058
18	0xbb495a3c	-0.003072395
19	0x3d067e87	0.03283551
20	0xbbca79b8	-0.006179061
21	0x3cbbd857	0.022930307
22	0xbd1a47fc	-0.037666306
23	0x3d0deebe	0.03465151
24	0x3ba5c65b	0.005059046
25	0xbda28708	-0.079359114
26	0x3c272074	0.0102006085
27	0xbd1192c5	-0.03554036
28	0xbce7e4ec	-0.0283074
29	0xbcaf9fb4	-0.021438457
30	0xbd3512bf	-0.04420733
31	0xba60155c	-0.00085481047
32	0xbddb2781	-0.10700894
33	0xbe14ac05	-0.14518745
34	0xbd65fb47	-0.05614784
35	0xbdb08a09	-0.08620078
36	0x3c68183d	0.014165935
37	0x3ac2f2b5	0.0014873358
38	0xbdfc2e4c	-0.12313518
39	0x3c9d5862	0.019207183
40	0xbc1a0142	-0.009399714
41	0x3c8c4e3f	0.017127154
42	0xbd967468	-0.073464215
43	0xbd1332ca	-0.035937108
44	0x3c962df7	0.018332465
45	0x3c74f417	0.014950774
46	0x3c560c84	0.013064507
47	0x3cffa34b	0.031205794
48	0xbd03c56b	-0.032170694
49	0xbb79d9bf	-0.0038124172
50	0xb91a2f7e	-0.00014704277
51	0x3c8376fc	0.016047947
52	0xbde49f0f	-0.111631505
53	0x3d2ecfb1	0.04267854
54	0x3c583aba	0.013197595
55	0x3d3d79f3	0.046258878
56	0x3c1ea425	0.00968269
57	0xbc7d474c	-0.015458893
58	0x3dca1fd8	0.09869355
59	0xbd2bb0c3	-0.04191662
60	0xbd041126	-0.032242917
61	0xbcea9ff5	-0.028640727
62	0xbd991a24	-0.07475689
63	0xbbc6fce5	-0.006072628

down2.go_down.1.conv2x.1.c.1.running_mean f4 [64]
0	0xbe892602	-0.2678681
1	0x3f00d7b9	0.50329167
2	0x3ec92eb1	0.39293435
3	0xbeec18d7	-0.461127
4	0x3f141749	0.5784803
5	0x3ea8e148	0.32984376
6	0xbed91f15	-0.42406526
7	0x3ec0fd36	0.37693185
8	0xbfa1e92e	-1.2649286
9	0x3eab2a12	0.33430535
10	0x3f3e6b3c	0.74382377
11	0xbf43699c	-0.7633302
12	0x3b121ffc	0.0022296896
13	0x3e276b9a	0.1634964
14	0xbf270d9e	-0.65255153
15	0x3f5162f6	0.8179163
16	0xbd9631da	-0.07333727
17	0xbe08ee5a	-0.13372174
18	0xbfb3f571	-1.4059278
19	0x3f749f14	0.95555234
20	0x3f308d06	0.68965185
21	0x3d82813a	0.06372304
22	0xbf396d4f	-0.72432417
23	0x3f4a2297	0.7895903
24	0xbf6e8ad4	-0.93180585
25	0x3f8a34ac	1.0797324
26	0xbf24b76a	-0.6434237
27	0xbf892a08	-1.0715952
28	0x3f4bb342	0.795704
29	0x3e073c0d	0.13206501
30	0x3ebc417e	0.36768717
31	0x3f67cd5e	0.9054774
32	0x3f2d456a	0.6768404
33	0x3f7fa03e	0.99853885
34	0x3fc8807a	1.5664208
35	0x3f39ef4e	0.72630775
36	0xbf984a84	-1.189774
37	0x3ee9fe16	0.45701665
38	0x3ebe148a	0.37125045
39	0xbd1942dc	-0.037417278
40	0x3e25ea4b	0.16202657
41	0x3e09ea54	0.13468295
42	0x3ed3cc38	0.41366744
43	0x3e887557	0.26652023
44	0xbf0bc1a2	-0.54592335
45	0xbf3b613a	-0.7319523
46	0xbf83bc3b	-1.0291818
47	0xbf489260	-0.7834835
48	0x3f043d93	0.51656455
49	0x3ce351fd	0.027749056
50	0x3e5f384c	0.2179882
51	0xbf8999c0	-1.0750046
52	0x3f78bf09	0.97166497
53	0xbef0e0a5	-0.4704639
54	0xbd929ca8	-0.07158786
55	0xbf2ebf25	-0.68260413
56	0xbeea4063	-0.45752248
57	0xbe7b2b63	-0.2452827
58	0xbf8deccc	-1.108789
59	0x3f013a37	0.50479454
60	0x3d971982	0.07377912
61	0x3f28d636	0.6595186
62	0x3e37fc16	0.17967257
63	0x3ecbd9b8	0.39814544

down2.go_down.1.conv2x.1.c.1.running_var f4 [64]
0	0x3f5ee21e	0.8706378
1	0x3f19a656	0.60019433
2	0x3eaf7e36	0.3427598
3	0x3f215b03	0.630295
4	0x3ede5021	0.43420509
5	0x3f036de4	0.51339555
6	0x3f77eafe	0.96842945
7	0x3fa82602	1.3136599
8	0x3f5b4659	0.85654217
9	0x3faf361c	1.3688388
10	0x3f68c61a	0.9092728
11	0x3f0ab5e5	0.541838
12	0x3f233b59	0.6376243
13	0x3ec42494	0.38309157
14	0x3f774c5b	0.96600884
15	0x3f849758	1.0358686
16	0x3ee01d9a	0.43772584
17	0x3f9056db	1.1276506
18	0x40a77894	5.233469
19	0x40371cab	2.8611248
20	0x3fdb4f2a	1.7133534
21	0x3f14e921	0.58168226
22	0x3fb06cde	1.3783224
23	0x40000f86	2.0009475
24	0x3f92ef30	1.1479244
25	0x3f478dc0	0.7795067
26	0x3f629831	0.88513476
27	0x3f47fdcb	0.7812163
28	0x3fe8dcac	1.8192344
29	0x3f33494c	0.7003372
30	0x3f1b5510	0.6067667
31	0x3fdf161d	1.7428623
32	0x3edc2654	0.42997992
33	0x3f3a810d	0.72853166
34	0x3f957eda	1.1679337
35	0x3f404817	0.7511
36	0x404c6d10	3.1941566
37	0x3f057ecc	0.521466
38	0x3ed52a89	0.41634014
39	0x3ef3a8bb	0.4758967
40	0x3e9a8fa4	0.30187714
41	0x3ef019f3	0.46894798
42	0x3f45d063	0.772711
43	0x3ef82521	0.48465827
44	0x3f4c57c0	0.79821396
45	0x3fa55035	1.2915102
46	0x3f92a33f	1.1456069
47	0x3f9f7e32	1.2460387
48	0x3eba2a69	0.3636048
49	0x3f86174e	1.0475862
50	0x3ead2609	0.3381808
51	0x3f8797de	1.0593221
52	0x3ef7124f	0.48256156
53	0x3f37549b	0.7161347
54	0x3f31c2a4	0.69437623
55	0x3f0b3f5d	0.5439356
56	0x3f2f62ec	0.6851032
57	0x3f770aa5	0.9650062
58	0x3fb78123	1.4336284
59	0x3eba25e5	0.36357036
60	0x3eb3b212	0.35096794
61	0x3f43ad45	0.76436263
62	0x3e868b51	0.26278165
63	0x3f39ecfc	0.72627234
