data/model/3.onnx (onnx, 483073 bytes, 73 tensors)

down1.go_down.1.conv2x.0.c.0.bias f4 [32]
-0.00087031606 -0.06885573 -0.030230217 -0.054675233 -0.013605903 0.0015639487 -0.038376216 -0.022850798
-0.007310085 0.058782496 -0.06295325 -0.014136037 -0.05304768 -0.05082402 -0.022801535 0.05326065
-0.082167 0.048359927 -0.043748446 -0.0679014 -0.081812054 0.070788905 0.0048982664 0.05378214
0.042029407 0.032079406 -0.060057916 -0.018975228 -0.0127949575 0.07236147 0.013953405 -0.021993443
00000000: ec25 64ba 3c04 8dbd 5ca5 f7bc 23f3 5fbd
00000010: 4beb 5ebc 69fd cc3a 6130 1dbd 9931 bbbc
00000020: 7089 efbb eac5 703d a2ed 80bd d69a 67bc
00000030: 8648 59bd d92c 50bd 49ca babc d727 5a3d
00000040: 2c47 a8bd 0f15 463d 9231 33bd e40f 8bbd
00000050: 148d a7bd c6f9 903d a381 a03b a94a 5c3d
00000060: 0727 2c3d b265 033d 4aff 75bd f071 9bbc
00000070: f1a1 51bc 4032 943d d39c 643c 982b b4bc

down1.go_down.1.conv2x.0.c.0.weight f4 [32, 16, 3, 3]
0.009685182 0.05434618 0.011194259 -0.0586982 0.042284004 -0.08702063 -0.047574192 0.017517053
0.11938064 0.0055000377 -0.031424657 -0.015859338 0.08355636 0.050108995 -0.066465504 -0.02285268
-0.007012679 -0.045922786 -0.1004662 -0.022728596 0.012674614 0.064712785 0.07703112 0.06414786
0.14560317 -0.06927118 0.016473234 0.06250635 0.16246393 0.11768261 0.02860027 -0.00630901
0.024311742 -0.0049746754 -0.16031371 -0.02584261 -0.15449609 -0.044005036 0.05105283 -0.032552212
-0.16863507 -0.004636686 0.1172868 -0.03640574 0.023389185 0.06929336 0.066254176 0.1269605
-0.08074385 0.037263222 0.015568959 -0.021540537 -0.0067196945 -0.022683475 -0.07865968 -0.037425797
0.06382523 0.03739677 0.01593245 0.07260131 0.014877899 -0.058453266 -0.036864117 -0.06119479
-0.12507577 -0.2728368 0.018822571 -0.07682134 -0.057903446 0.041872807 -0.03195737 -0.031292543
0.13352108 0.13406356 0.078556456 -0.028531957 -0.038378373 0.11512305 -0.048878383 -0.13583727
0.07517919 -0.02240737 -0.03610103 -0.032946743 0.094768345 0.060101256 -0.07760866 0.0349561
0.0400802 0.06121036 0.03781577 -0.06345475 0.06105768 -0.10940669 -0.023968095 -6.663529e-05
0.112046674 0.02182365 -0.048602954 0.004678618 0.0143531 -0.013443556 -0.07092445 -0.048293673
0.036474604 0.08710895 0.06897835 -0.07699875 -0.061240193 0.037117187 -0.011194696 0.049706627
-0.0455101 0.0006963521 0.006692153 0.13880292 0.12058051 0.051738065 -0.07937308 -0.1273732
0.10220737 -0.025234949 -0.09028368 -0.004349492 0.041710883 -0.02307132 0.053211562 -0.007188402
0.055728044 0.007827716 -0.06840637 0.064557664 0.011615705 -0.06555995 -0.036810644 -0.03819241
-0.15536295 -0.1401902 0.005629929 -0.0943716 -0.07560425 0.07758965 0.05780891 0.08622342
0.08984523 0.008578442 -0.034823813 -0.060956374 0.06449214 0.026936091 -0.07082107 0.049887806
0.021487204 -0.05951734 0.05269481 0.057803117 -0.06870836 -0.041260287 -0.011326924 -0.061762735
-0.03429156 -0.030532632 -0.004435289 0.055701904 0.015194809 -0.016003048 0.029363317 -0.0046265894
0.04407444 -0.07866189 0.047335774 -0.11031427 -0.0034740416 -0.14325836 -0.14706305 -0.16812675
-0.060698822 -0.10440932 -0.058369134 -0.10777395 0.086192794 0.028282302 -0.0104767755 0.0634453
-0.013391217 -0.0663499 -0.018354533 -0.07274942 -0.021573577 -0.053093474 0.03278257 -0.065769754
-0.016090466 -0.081246786 -0.0028241188 0.056214157 -0.064896524 -0.052690744 -0.0020641028 -0.10289133
-0.02533219 -0.17576198 -0.068819106 0.08207993 -0.07152129 0.06134367 0.042815622 -0.037558872
-0.043507457 -0.14767002 -0.04099626 -0.01844952 -0.12201818 -0.13090694 0.03913516 -0.073063135
-0.011922373 0.020077676 -0.0061692134 -0.069558874 0.051180188 -0.05614555 0.0349138 0.0318609
0.07943474 -0.041524857 -0.03689065 -0.04601041 -0.082743615 0.015125629 -0.028062994 -0.014433242
-0.08084036 -0.09640565 -0.02490519 -0.061308853 -0.049219213 0.059918858 0.111198746 0.0062336703
-0.0029643243 0.09719457 0.022440273 0.0112658525 -0.10976261 -0.13398673 -0.028617872 -0.09058641
-0.15233935 -0.07690247 -0.027920581 -0.12155141 -0.09378972 -0.055203486 -0.050113834 -0.053473942
00000000: 99ae 1e3c 1a9a 5e3d 2068 373c 866d 70bd
00000010: fe31 2d3d df37 b2bd 28dd 42bd ec7f 8f3c
00000020: d67d f43d a939 b43b 24b7 00bd 71eb 81bc
00000030: 991f ab3d 173f 4d3d 111f 88bd 8b35 bbbc
00000040: 9dca e5bb 8819 3cbd 39c1 cdbd 5231 babc
00000050: 2fa9 4f3c 2388 843d 7ec2 9d3d f45f 833d
00000060: ff18 153e 0cde 8dbd e0f2 863c 5403 803d
00000070: f25c 263e 9503 f13d 1d4b ea3c d0bb cebb
00000080: 6b29 c73c 9a02 a3bb 4729 24be e2b3 d3bc
00000090: 3934 1ebe a03e 34bd c61c 513d 7855 05bd
000000a0: acae 2cbe 57ef 97bb 1034 f03d 2f1e 15bd
000000b0: ad9a bf3c ade9 8d3d 45b0 873d ef01 023e
000000c0: 085d a5bd 52a1 183d f214 7f3c c875 b0bc
000000d0: e230 dcbb b2d2 b9bc 5418 a1bd cb4b 19bd
000000e0: cdb6 823d 5b2d 193d c584 823c ffaf 943d
000000f0: 6ec2 733c b16c 6fbd d4fe 16bd 63a7 7abd
00000100: dd13 00be 44b1 8bbe cb31 9a3c 8254 9dbd
00000110: 2a2c 6dbd d282 2b3d bbe5 02bd 9c2c 00bd
00000120: c0b9 083e f547 093e 35e2 a03d dabb e9bc
00000130: a432 1dbd a2c5 eb3d b334 48bd ed18 0bbe
00000140: 8cf7 993d a98f b7bc acde 13bd 2af3 06bd
00000150: e815 c23d bc2c 763d 4af1 9ebd 212e 0f3d
00000160: 232b 243d b7b7 7a3d b5e4 1a3d 90f4 81bd
00000170: 9e17 7a3d 9d10 e0bd bd58 c4bc 8dbe 8bb8
00000180: ba78 e53d 83c7 b23c e413 47bd 184f 993b
00000190: 4429 6b3c 5c42 5cbc d740 91bd 96cf 45bd
000001a0: 6566 153d 2d66 b23d 8544 8d3d 85b1 9dbd
000001b0: ffd6 7abd 3108 183d f569 37bc 2d99 4b3d
000001c0: cc68 3abd 668b 363a d949 db3b 5a22 0e3e
000001d0: eaf2 f63d 4beb 533d 5a8e a2bd 1f6e 02be
000001e0: 1952 d13d 86b9 cebc a6e6 b8bd 2f86 8ebb
000001f0: 08d9 2a3d 1100 bdbc 5ef4 593d b08c ebbb
00000200: 1743 643d d23f 003c a418 8cbd cf36 843d
00000210: cc4f 3e3c 4c44 86bd c2c6 16bd a56f 1cbd
00000220: 7717 1fbe 058e 0fbe 447b b83b e645 c1bd
00000230: 67d6 9abd 53e7 9e3d 09c9 6c3d e895 b03d
00000240: c700 b83d 988c 0c3c 6aa3 0ebd 64ad 79bd
00000250: 7514 843d 14a9 dc3c a30a 91bd 2857 4c3d
00000260: ef05 b03c 74c8 73bd 83d6 573d f6c2 6c3d
00000270: f8b6 8cbd 8c00 29bd 9094 39bc ecfa 7cbd
00000280: 4f75 0cbd 921f fabc e755 91bb ae27 643d
00000290: a6f3 783c d318 83bc 578b f03c a59a 97bb
000002a0: 6687 343d 7c19 a1bd 28e3 413d 73ec e1bd
000002b0: bfac 63bb 52b2 12be b297 16be 6b29 2cbe
000002c0: 549f 78bd 8ed4 d5bd 7914 6fbd 97b8 dcbd
000002d0: d985 b03d 49b0 e73c c8a6 2bbc 9cef 813d
000002e0: d666 5bbc 75e2 87bd 3f5c 96bc a6fd 94bd
000002f0: 12bb b0bc 8b78 59bd 0447 063d 4bb2 86bd
00000300: 27d0 83bc b764 a6bd da14 39bb d140 663d
00000310: 78e8 84bd 40d2 57bd e645 07bb b1b8 d2bd
00000320: 7485 cfbc f3fa 33be 08f1 8cbd 8619 a83d
00000330: c179 92bd 8043 7b3d 6f5f 2f3d 55d7 19bd
00000340: e034 32bd cf36 17be b2eb 27bd 7323 97bc
00000350: abe4 f9bd 780c 06be 314c 203d 20a2 95bd
00000360: 0f56 43bc f079 a43c 1d27 cabb e274 8ebd
00000370: 51a2 513d e0f8 65bd c601 0f3d 9380 023d
00000380: aeae a23d f815 2abd a61a 17bd 6975 3cbd
00000390: 7c75 a9bd 7cd1 773c 5de4 e5bc 6879 6cbc
000003a0: a18f a5bd 5370 c5bd f805 ccbc fe1e 7bbd
000003b0: 169a 49bd 7a6d 753d 2bbc e33d d143 cc3b
000003c0: 1c45 42bb f20d c73d aad4 b73c 6994 383c
000003d0: 38cb e0bd d133 09be 0770 eabc 5e85 b9bd
000003e0: d9fe 1bbe 0b7f 9dbd b4b9 e4bc f2ef f8bd
000003f0: d314 c0bd 0d1d 62bd 2a44 4dbd 7e07 5bbd

down1.go_down.1.conv2x.0.c.1.bias f4 [32]
0.0121124815 0.05421168 -0.017067362 7.359382e-06 -0.013641838 -0.008759041 -0.02006563 0.01173345
0.0073185507 -0.0013118865 0.016493306 0.0375069 0.13212708 0.06750503 0.007522612 0.0064439503
-0.0156604 -0.0068701925 -0.041222647 -0.087571114 -0.010222491 -0.0059406953 -0.007855055 -0.0075067612
-0.0050171046 0.019059058 -0.019110687 0.0524768 -0.018884217 0.004538446 -0.02328869 -0.017173467
00000000: 6e73 463c 110d 5e3d dad0 8bbc 9cf0 f636
00000010: 0482 5fbc 1582 0fbc ad60 a4bc a83d 403c
00000020: 74d0 ef3b 9bf3 abba f81c 873c d6a0 193d
00000030: 524c 073e 1440 8a3d 3e80 f63b c627 d33b
00000040: 3d4a 80bc 5a1f e1bb 14d9 28bd 7c58 b3bd
00000050: 3c7c 27bc 2aaa c2bb 7db2 00bc 47fb f5bb
00000060: 8666 a4bb be21 9c3c 048e 9cbc eaf1 563d
00000070: 13b3 9abc 3fb7 943b ecc7 bebc 5faf 8cbc

down1.go_down.1.conv2x.0.c.1.running_mean f4 [32]
-0.11497545 -0.79818773 -0.0010480313 -0.033126306 -0.03742473 -0.40711844 -0.1293 0.07330081
-0.3060756 0.16750985 -1.5131426 -0.43674415 -0.49190643 -0.44488773 0.16167188 0.508802
0.06425666 -0.25740448 0.043924607 0.5053532 -0.15495272 -0.07128792 -0.20007583 0.43863678
0.064866796 0.13721326 -0.25733352 -0.08794002 0.24866161 0.092130646 0.24088517 0.4129428
00000000: 4078 ebbd 0856 4cbf 185e 89ba 73af 07bd
00000010: ac4a 19bd d471 d0be 3867 04be bc1e 963d
00000020: f1b5 9cbe b487 2b3e a8ae c1bf ee9c dfbe
00000030: 29db fbbe 53c8 e3be 508d 253e d940 023f
00000040: ff98 833d 85ca 83be 4aea 333d d45e 013f
00000050: edab 1ebe 67ff 91bd aee0 4cbe 0095 e03e
00000060: e2d8 843d a281 0c3e 38c1 83be e619 b4bd
00000070: 26a1 7e3e feae bc3d 9aaa 763e 3d6d d33e

down1.go_down.1.conv2x.0.c.1.running_var f4 [32]
0.1855052 0.70348406 0.067781836 0.09083788 0.13730334 0.62991995 0.12005008 0.072379306
0.21067202 0.031725757 0.5809986 0.35663614 0.07250236 0.19672203 0.053824045 0.20075846
0.085185155 0.23675478 0.28223667 0.14584252 0.08416893 0.15255761 0.09131105 0.0979126
0.12553872 0.11921403 0.39996043 0.106634155 0.029009352 0.05396536 0.13463822 0.13855553
00000000: 13f5 3d3e 8817 343f 34d1 8a3d 3609 ba3d
00000010: 3f99 0c3e 6f42 213f d1dc f53d 9a3b 943d
00000020: 68ba 573e def2 013d 53bc 143f 0399 b63e
00000030: 1e7c 943d 8071 493e 9a76 5c3d a093 4d3e
00000040: 8e75 ae3d d86f 723e 5381 903e be57 153e
00000050: c360 ac3d 1038 1c3e 4a01 bb3d 6786 c83d
00000060: 398d 003e 7c26 f43d 9dc7 cc3e 0263 da3d
00000070: 05a5 ed3c c80a 5d3d 9ade 093e 80e1 0d3e

down1.go_down.1.conv2x.0.c.1.weight f4 [32]
0.92558473 1.0164206 0.69619167 0.19671136 0.95904624 0.044138476 0.39195427 0.3076562
0.58383167 0.28573444 0.2431931 0.037206534 0.75101393 0.6374004 0.92874914 0.13404542
0.24590638 0.20392829 0.9611182 0.9126895 0.68949777 0.4160774 0.47081062 0.92235607
0.6430892 0.32300287 0.3691375 0.9456936 0.14238657 0.49718747 0.2691357 0.08651227
00000000: 1ff3 6c3f 121a 823f 9e39 323f b46e 493e
00000010: 0e84 753f 8cca 343d 3bae c83e 1d85 9d3e
00000020: fe75 153f c94b 923e 9d07 793e e165 183d
00000030: 7342 403f ac2c 233f 81c2 6d3f 3443 093e
00000040: e2ce 7b3e 94d2 503e d80b 763f 05a6 693f
00000050: ed82 303f 1908 d53e 170e f13e 871f 6c3f
00000060: 7ea1 243f a260 a53e 97ff bc3e fa18 723f
00000070: c9cd 113e 5b8f fe3e 28cc 893e 582d b13d

down1.go_down.1.conv2x.1.c.0.bias f4 [32]
0.00069438724 -0.026403166 0.018448995 0.029277056 0.056129202 0.00016332959 0.015416736 -0.009279657
-0.014363161 0.02254063 -0.0489976 0.020083686 -0.020945877 -0.02112102 -0.0058812164 -0.041478492
-0.00827792 0.0020806938 0.058762744 -0.036663555 0.038084425 0.00382686 0.050494622 0.041892514
-0.054630153 -0.017881047 0.037405126 -0.040308464 0.05506474 -0.04396504 -0.0030979055 0.0071361023
00000000: 8a07 363a 744b d8bc 5922 973c 70d6 ef3c
00000010: bce7 653d 7443 2b39 7a96 7c3c b409 18bc
00000020: 7753 6bbc 21a7 b83c b5b1 48bd 8b86 a43c
00000030: b096 abbc fd05 adbc 38b7 c0bb 5ae5 29bd
00000040: 1da0 07bc 405c 083b 34b1 703d 862c 16bd
00000050: 6afe 1b3d 0fcc 7a3b 73d3 4e3d 7c97 2b3d
00000060: dec3 5fbd 467b 92bc 1e36 193d 7d1a 25bd
00000070: 918b 613d b014 34bd 3b06 4bbb f7d5 e93b

down1.go_down.1.conv2x.1.c.0.weight f4 [32, 32, 3, 3]
0.0068970346 0.054953314 -0.019002296 0.012108371 0.047636695 -0.044295363 -0.012333962 -0.021541698
-0.02953999 0.002481185 0.005161588 0.07275798 -0.020558054 0.037782926 0.018158434 0.041806526
0.017329516 0.026115065 0.015813148 0.061296664 0.09766832 0.05686038 -0.023596188 0.083782606
0.036005564 0.011170661 0.08454938 -0.037172135 0.064798936 -0.05731681 0.057459816 0.075145215
-0.007103162 -0.0361207 0.07160431 0.014905089 -0.029084012 0.026433483 0.0057494612 0.012252082
0.04889722 -0.0212635 -0.059804767 0.037306167 0.02129676 -0.035034247 0.00667075 0.019639362
-0.0029355788 0.08159716 0.021425147 -0.035830263 0.0020185378 -0.018806294 -0.047421157 -0.05678067
0.057995487 0.052033342 0.0018446577 -0.010884694 -0.006700974 0.04508553 0.0058426023 0.040483873
-0.03536692 0.034652837 0.04502132 0.00086706487 0.01762581 0.05682805 -0.044771846 -0.028763523
-0.04823248 0.0078060934 0.050880015 -0.071207434 0.02226337 -0.05519964 -0.021653311 -0.052683365
-0.011713306 -0.0052479375 -0.026654871 0.05783974 -0.042668477 0.042834543 0.004119366 0.009582784
0.012026121 -0.043841504 0.037007395 0.059121005 0.04685629 0.06275968 0.08031082 0.053038944
0.086863674 0.07399451 0.09187317 0.051243667 0.07350589 -0.0008051275 0.016392095 0.0047133104
0.016217947 0.0116669275 -0.031835057 0.0530802 0.054640383 0.013859344 0.056838144 -0.03426589
-0.013236829 0.016286293 -0.045557585 -0.07002297 0.0038397445 0.01730236 0.046093617 0.02959045
0.046406783 -0.012544017 0.023550166 0.06541226 0.07036709 0.044047955 0.010766074 0.020057607
0.042172756 0.059909105 -0.008019257 -0.04562924 -0.011692187 -0.013649771 0.028471958 0.020423142
0.023890745 -0.0061439504 -0.034679826 0.036692485 0.00063560036 -0.029524941 -0.016677307 -0.03360854
0.06394302 -0.025585203 -0.07723159 0.056846637 0.06449325 -0.017624961 0.005680937 0.03337814
0.035200153 0.039085522 0.0672691 -0.014399896 -0.03851536 0.056748852 -0.016001126 -0.031048933
-0.014990379 -0.0016522341 0.025083812 0.0246804 -0.010138885 -0.024626262 0.0260885 -0.018919744
0.063770525 0.00013107593 -0.060683154 -0.054222185 0.04985278 -0.053918928 0.024350094 0.045085926
-0.06371582 0.016603706 0.04407318 0.02896724 -0.029422725 0.023562117 0.001733755 0.03298036
0.011162275 0.00998248 -0.039191224 -0.029746119 0.030608552 -0.019892897 -0.044833034 -0.04538042
0.03543985 -0.061288234 -0.025938291 0.029903976 -0.0089006545 0.030962642 -0.061558828 0.028392432
0.0096780155 -0.078336924 0.013245005 0.039110817 -0.038539294 -0.07097284 -0.022426417 -0.002114826
0.016014373 0.022771874 -0.0065942006 0.06349592 0.019782519 -0.042047516 -0.018881118 -0.03197668
0.027661677 0.0019774672 -0.00070547947 -0.031476773 -0.059097227 0.047742575 0.050981246 0.04835412
-0.03861965 0.024144737 0.007991727 -0.025610331 -0.025333721 0.024970615 0.022821993 0.039903827
-0.063646436 -0.011628386 -0.04591894 0.06398433 -0.046277355 0.021307843 -0.0040840856 -0.033497322
0.02311307 0.027129121 -0.02367266 0.010194218 0.03140082 0.036264677 0.0064988835 -0.064356886
0.057191875 0.03861336 -0.030887311 0.04875375 0.052010298 -0.010424711 -0.050632276 0.043280173
00000000: 8500 e23b ba16 613d b4aa 9bbc 3062 463c
00000010: b21e 433d 0e6f 35bd 6314 4abc 3778 b0bc
00000020: d9fd f1bc 609b 223b 8a22 a93b 2302 953d
00000030: 5d69 a8bc 45c2 1a3d ffc0 943c 523d 2b3d
00000040: a1f6 8d3c 43ef d53c 938a 813c 3612 7b3d
00000050: 5406 c83d 6ee6 683d cb4c c1bc 3796 ab3d
00000060: 927a 133d 2605 373c 3a28 ad3d cf41 18bd
00000070: 4eb5 843d 08c5 6abd fc5a 6b3d bce5 993d
00000080: a4c1 e8bb 4df3 13bd 48a5 923d 7934 743c
00000090: 9841 eebc 088b d83c fa65 bc3b f5bc 483c
000000a0: 7448 483d cb30 aebc d8f5 74bd 5ace 183d
000000b0: 8b76 ae3c 1280 0fbd 4f96 da3b bae2 a03c
000000c0: d762 40bb 691c a73d ca83 af3c c1c2 12bd
000000d0: 7249 043b a80f 9abc b03c 42bd d992 68bd
000000e0: ad8c 6d3d ea20 553d 71c8 f13a b755 32bc
000000f0: d893 dbbb 9bab 383d 4d73 bf3b 6bd2 253d
00000100: e7dc 10bd 22f0 0d3d 4768 383d bd4b 633a
00000110: 0164 903c 88c4 683d af62 37bd 7ba1 ebbc
00000120: 6c8f 45bd 42ca ff3b 9067 503d 34d5 91bd
00000130: ac61 b63c 0519 62bd 4962 b1bc 83ca 57bd
00000140: 2be9 3fbc e4f6 abbb 515b dabc 5de9 6c3d
00000150: 24c5 2ebd 4673 2f3d bffb 863b 1c01 1d3c
00000160: 3509 453c 2693 33bd 1195 173d de28 723d
00000170: 62ec 3f3d 2688 803d 007a a43d 5d3f 593d
00000180: 95e5 b13d 6f8a 973d 0028 bc3d e1e4 513d
00000190: 428a 963d 310f 53ba b748 863c 1d72 9a3b
000001a0: 80db 843c a426 3f3c 7a65 02bd a06a 593d
000001b0: 98ce 5f3d 4d12 633c 1dcf 683d 645a 0cbd
000001c0: 49df 58bc d56a 853c 979a 3abd 3468 8fbd
000001d0: 39a4 7b3b aebd 8d3c a9cc 3c3d ac67 f23c
000001e0: 0a15 3e3d 6c85 4dbc 47ec c03c ddf6 853d
000001f0: 9f1c 903d a16b 343d 3064 303c da4f a43c
00000200: 57bd 2c3d 4063 753d 3463 03bc bae5 3abd
00000210: 9690 3fbc 4aa3 5fbc 063e e93c 6f4e a73c
00000220: 86b6 c33c 3153 c9bb 6f0c 0ebd dc4a 163d
00000230: 6b9e 263a 4ade f1bc d99e 88bc 1ca9 09bd
00000240: 8ff4 823d 0f98 d1bc 992b 9ebd 05d8 683d
00000250: 0915 843d 3962 90bc 2727 ba3b 84b7 083d
00000260: 092e 103d 2418 203d 62c4 893d 8bed 6bbc
00000270: 48c2 1dbd 7c71 683d cb14 83bc 555a febc
00000280: 359a 75bc c78f d8ba 917c cd3c 8d2e ca3c
00000290: 911d 26bc 04bd c9bc 8db7 d53c 94fd 9abc
000002a0: 1f9a 823d 6d71 0939 e68e 78bd 1518 5ebd
000002b0: 6e32 4c3d 18da 5cbd d979 c73c 05ac 383d
000002c0: 717d 82bd 7f04 883c 1486 343d b54c ed3c
000002d0: ed07 f1bc 5705 c13c 2a3f e33a 6a16 073d
000002e0: fae1 363c 8e8d 233c fa86 20bd 22ae f3bc
000002f0: c9be fa3c 6ef6 a2bc d8a2 37bd d2e0 39bd
00000300: 6029 113d 5f09 7bbd 8a7c d4bc 2ff9 f43c
00000310: 0dd4 11bc 5ea5 fd3c 1c25 7cbd 3f97 e83c
00000320: 8a90 1e3c 1c6f a0bd 9401 593c aa32 203d
00000330: 61db 1dbd 355a 91bd 9bb7 b7bc e598 0abb
00000340: 9330 833c 158c ba3c 2a14 d8bb 260a 823d
00000350: f30e a23c 043a 2cbd 93ac 9abc fbf9 02bd
00000360: be9a e23c 6598 013b edef 38ba caed 00bd
00000370: ef0f 72bd b88d 433d b6d1 503d f80e 463d
00000380: a32f 1ebd 2fcb c53c bcef 023c c2cc d1bc
00000390: aa88 cfbc 2d8f cc3c 30f5 ba3c 3272 233d
000003a0: 1059 82bd fc84 3ebc 8015 3cbd 370a 833d
000003b0: 538d 3dbd c98d ae3c cbd3 85bb 7d34 09bd
000003c0: 9f57 bd3c e43d de3c 2bed c1bc a605 273c
000003d0: 259e 003d 458a 143d 96f4 d43b 8bcd 83bd
000003e0: 0742 6a3d 0b29 1e3d 6307 fdbc 03b2 473d
000003f0: c008 553d 68cc 2abc ca63 4fbd 8d46 313d

down1.go_down.1.conv2x.1.c.1.bias f4 [32]
0.00327165 0.008275811 0.0039389427 0.02827137 -0.029178333 0.005833469 0.020798495 0.00501048
0.0040833154 -0.05246656 0.03487428 -0.017890727 -0.028357092 -0.05214723 -0.0048454385 -0.072425485
-0.0017650796 0.0023786207 -0.027944108 -0.02630485 0.016042933 -0.0025137598 -0.0033651122 -0.02285145
-0.017415725 -0.048488464 -0.059801396 -0.04415621 0.0072595985 -0.03422131 0.057881013 -0.0029848209
00000000: 2e69 563b 4497 073c 3f12 813b 5c99 e73c
00000010: 6607 efbc af26 bf3b 9b61 aa3c f42e a43b
00000020: 55cd 853b 2de7 56bd 55d8 0e3d 938f 92bc
00000030: 224d e8bc 5598 55bd 7cc6 9ebb d053 94bd
00000040: 3e5a e7ba a2e2 1b3b 0beb e4bc 457d d7bc
00000050: 786c 833c e4bd 24bb 3789 5cbb f732 bbbc
00000060: 6cab 8ebc d79b 46bd 4ff2 74bd 24dd 34bd
00000070: ede1 ed3b a52b 0cbd a414 6d3d fc9c 43bb

down1.go_down.1.conv2x.1.c.1.running_mean f4 [32]
0.4449432 -0.11411104 -0.09204385 -0.6351224 0.43713045 -0.8224771 -0.25747827 -0.61260915
0.027479816 0.4286471 -0.20884639 0.6329012 0.3315332 -0.34870788 -0.07437528 -0.14376022
0.24994452 -0.075958684 0.15978146 0.60951245 -0.87516856 -0.38425952 0.06960784 0.3862125
0.4539932 0.56629115 0.28275236 0.0024607345 0.09577239 0.0011053518 -0.07508199 -0.11269544
00000000: 98cf e33e 0db3 e9bd 7c81 bcbd 6297 22bf
00000010: 90cf df3e dc8d 52bf 31d4 83be f4d3 1cbf
00000020: 5a1d e13c a277 db3e d4db 55be d005 223f
00000030: b8be a93e d789 b2be 1152 98bd e135 13be
00000040: 75f1 7f3e 3a90 9bbd c09d 233e 0209 1c3f
00000050: 0c0b 60bf aabd c4be 8e8e 8e3d a5bd c53e
00000060: cc71 e83e 75f8 103f ebc4 903e 4644 213b
00000070: 5124 c43d 74e1 903a 96c4 99bd decc e6bd

down1.go_down.1.conv2x.1.c.1.running_var f4 [32]
0.050620988 0.03797014 0.076844834 0.21183544 0.117295 0.23972942 0.0899526 0.092372715
0.11606957 0.23124519 0.07990385 0.553204 0.13236277 0.093393594 0.06420746 0.3410486
0.31580085 0.17634055 0.08719188 0.6868299 0.2631955 0.06376445 0.16993713 0.12145916
0.18244858 0.35866755 0.08648512 0.13492921 0.078379706 0.18488847 0.11518386 0.07183711
00000000: f457 4f3d 9486 1b3d d360 9d3d 64eb 583e
00000010: 5c38 f03d a17b 753e 1239 b83d e82d bd3d
00000020: e2b5 ed3d 8acb 6c3e a1a4 a33d c79e 0d3f
00000030: 1b8a 073e 2445 bf3d 337f 833d ec9d ae3e
00000040: a6b0 a13e 9e92 343e a891 b23d 16d4 2f3f
00000050: 90c1 863e f096 823d 0004 2e3e 94bf f83d
00000060: cdd3 3a3e 46a3 b73e 1c1f b13d e22a 0a3e
00000070: 8a85 a03d 6753 3d3e 84e5 eb3d 561f 933d

down1.go_down.1.conv2x.1.c.1.weight f4 [32]
0.2739695 0.38038495 0.49101084 1.0043672 0.5229834 0.10952437 0.5898026 0.16429749
0.714908 0.15313837 0.092242636 0.41005462 0.735997 0.5861185 0.91892266 0.41460815
0.492282 0.5470472 0.62458414 -0.0038009556 0.64049095 0.5847429 0.106002234 0.42444518
0.6506357 0.77437264 0.33892804 0.09964323 0.97585654 0.71385264 0.96064115 0.7662594
00000000: bb45 8c3e d1c1 c23e c665 fb3e 1b8f 803f
00000010: 3de2 053f 504e e03d 4efd 163f 9a3d 283e
00000020: 3604 373f 4ed0 1c3e b5e9 bc3d aef2 d13e
00000030: 4d6a 3c3f dd0b 163f 843e 6b3f 8547 d43e
00000040: 630c fc3e 490b 0c3f bfe4 1f3f 7419 79bb
00000050: 37f7 233f b6b1 153f b317 d93d e150 d93e
00000060: 1090 263f 493d 463f fa87 ad3e c011 cc3d
00000070: bcd1 793f 0cbf 363f 94ec 753f 9329 443f

down2.go_down.1.conv2x.0.c.0.bias f4 [64]
-0.042329464 -0.0034885511 -0.044309605 0.020166194 -0.029894669 -0.0012131572 0.013601979 0.027340395
-0.0004915137 -0.03185558 -0.030937748 0.0066648987 0.009450014 0.018943934 0.019733986 -0.000822119
-0.019465266 0.02699091 0.046572156 0.031145286 0.032662086 0.013079322 -0.037253447 -0.006172894
-0.0066902554 0.02747802 0.04848769 0.00046376864 0.011868811 0.030303244 -0.047495805 -0.02588048
-0.006345177 0.04978495 0.012278218 0.046314877 0.006058779 0.026327807 -0.049500708 -0.0023455813
-0.037184257 -0.0010340861 -0.033366237 -0.005885303 -0.036792573 0.00068420975 -0.026546333 0.038615543
-0.011135706 0.04574723 0.01197305 0.02201083 0.011072921 -0.0071601123 0.0058897757 -0.032913547
-0.0019061152 -0.007842985 0.04015973 -0.027397757 -0.0066593466 0.015680391 -0.047956623 -0.05087342
00000000: a961 2dbd 2da0 64bb fd7d 35bd 9333 a53c
00000010: aae5 f4bc cd02 9fba d6da 5e3c f7f8 df3c
00000020: edd8 00ba ff7a 02bd 2971 fdbc 3965 da3b
00000030: 3bd4 1a3c 4f30 9b3c 2ba9 a13c 7983 57ba
00000040: 9f75 9fbc 0a1c dd3c 72c2 3e3d 6624 ff3c
00000050: aec8 053d a74a 563c 1297 18bd fd45 cabb
00000060: ee39 dbbb 9619 e13c 079b 463d f925 f339
00000070: 6775 423c 823e f83c f68a 42bd 4d03 d4bc
00000080: 34eb cfbb 4eeb 4b3d 942a 493c abb4 3d3d
00000090: b988 c63b 6aad d73c 41c1 4abd 53b8 19bb
000000a0: 854e 18bd 2c8a 87ba 09ab 08bd 80d9 c0bb
000000b0: cfb3 16bd 8a5c 333a b277 d9bc 552b 1e3d
000000c0: 8972 36bc 7361 3b3d 9d2a 443c 0e50 b43c
000000d0: 326b 353c 609f eabb 05ff c03b 5bd0 06bd
000000e0: 9dd6 f9ba dd7f 00bc 877e 243d 4371 e0bc
000000f0: a636 dabb 2a74 803c 2a6e 44bd a660 50bd

down2.go_down.1.conv2x.0.c.0.weight f4 [64, 32, 3, 3]
-0.04124556 -0.064126365 0.028333183 -0.007025831 -0.0009842928 -0.03132012 -0.014710749 -0.052033357
-0.019290468 -0.043345474 -0.031978093 -0.027648462 0.053047683 -0.05107034 -0.037105367 -0.0102129625
0.042329192 0.012825286 0.0006372104 0.056006484 0.05128164 0.051374856 0.018789683 0.019853987
0.006596922 0.04711214 -0.021352341 -0.07141273 -0.014009915 -0.0019086499 0.004597271 -0.004768933
-0.04711205 -0.0111280745 0.04439906 0.058120124 -0.006622238 0.018389426 -0.07566253 -0.0020162787
-0.024366073 -0.05563364 0.005654663 -0.00974477 0.035793513 -0.057404306 -0.051569283 -0.034116138
-0.015875041 -0.03974497 -0.021187844 -0.00939182 -0.06675161 -0.0107824905 -0.043662213 -0.004095237
-0.020048844 0.050847042 -0.052718207 -0.015349055 -0.0018142357 -0.06695029 0.0388609 0.0498556
-0.050389763 0.03797506 0.043166187 -0.016999783 0.019269563 -0.0253413 0.020004705 0.03187255
-0.014634514 -0.023401178 -0.0020378155 0.016221294 -0.0071451254 0.04400393 -0.0020552585 -0.0014921587
0.04630193 -0.00840284 0.05535102 0.04396736 0.054734427 -0.0053375363 -0.029116455 0.03184826
0.0201406 -0.06340783 -0.024254633 0.008364136 0.006036032 -0.018726537 -0.05046262 -0.0794439
-0.051772673 -0.013184331 -0.057734724 0.027596464 0.022742312 0.018040782 -0.020626377 -0.014143287
-0.008126191 -0.046146784 -0.019338863 0.043436706 0.046254966 0.028144855 0.0244646 -0.03567181
0.022454564 0.05696846 -0.0070144664 0.01714086 0.048252385 -0.0014941716 0.011530693 -0.017104838
0.03019166 -0.006660861 0.05592924 -0.04051152 -0.014905065 -0.019717814 -0.02032011 -0.01959908
-0.035232108 0.016695503 0.019875878 0.014684215 -0.0057421257 -0.061457306 0.04176702 0.015831305
0.009604374 -0.00023365329 0.009809923 0.015041039 -0.023108918 0.010834452 -0.021360146 -0.08360173
0.06100297 -0.02542294 0.052536916 0.026885789 0.056042396 -0.028382944 -0.0038539013 0.046047214
-0.061961535 -0.04148501 0.013405784 0.046063393 -0.0015391876 -0.058210906 -0.015561689 -0.008834536
0.025100192 -0.032269012 0.0029867964 -0.065628804 -0.027040059 -0.063423604 -0.031655587 -0.006308051
-0.02305584 0.016805997 -0.05408286 -0.04448185 -0.030606074 -0.01660946 0.012013913 -0.011896352
0.019812187 -0.031195879 0.008238906 -0.048840556 0.0262158 0.032844566 0.019846924 0.030175252
-0.035874262 -0.033377428 0.033482764 0.00980437 -0.023909686 -0.029833045 -0.037459157 0.045431256
-0.027853487 -0.059076402 0.011522697 0.04644505 -0.047849134 0.0012899501 0.052056063 0.043824956
-0.0060394015 0.014578016 -0.04106482 0.00860714 -0.04585128 -0.029458791 -0.016748084 0.036453072
0.05373038 -0.020923859 -0.051218633 0.008864747 0.035860926 0.018117236 0.0113431215 0.05913634
0.069531314 0.048054658 0.027334355 0.016977692 -0.04512771 -0.069853745 -0.07006231 -0.026331294
0.02297831 -0.019100782 0.02555927 0.0031018052 -0.05284143 -0.0492469 0.033340156 0.00054520014
-0.016409721 -0.008047928 -0.018981675 0.058466535 0.03198325 0.007932367 0.018098313 -0.054155067
-0.050267648 0.012522544 0.010234561 -0.015812652 0.06036742 0.013941607 -0.038601846 0.04239499
-0.01325838 0.034569167 0.03814023 -0.058036294 0.010130996 0.04745219 0.027075542 -0.008109763
00000000: 1bf1 28bd af54 83bd fe1a e83c f138 e6bb
00000010: 6303 81ba 8749 00bd 5a05 71bc ee20 55bd
00000020: 0b07 9ebc 068b 31bd 76fb 02bd 077f e2bc
00000030: 8748 593d 222f 51bd ccfb 17bd 4554 27bc
00000040: 6061 2d3d 2621 523c 770a 273a 0e67 653d
00000050: b20c 523d 716e 523d d2ec 993c d4a4 a23c
00000060: fe2a d83b a9f8 403d 1beb aebc d640 92bd
00000070: d889 65bc aa2b faba b4a4 963b b644 9cbb
00000080: 91f8 40bd 8752 36bc cadb 353d 5e0f 6e3d
00000090: 5cff d8bb 6ca5 963c f5f4 9abd 8b23 04bb
000000a0: 5c9b c7bc 1ae0 63bd c04a b93b 87a8 1fbc
000000b0: 389c 123d c720 6bbd 503a 53bd 5dbd 0bbd
000000c0: 600c 82bc 9fcb 22bd 2192 adbc 26e0 19bc
000000d0: 11b5 88bd 0ba9 30bc 26d7 32bd 5631 86bb
000000e0: 793d a4bc fd44 503d 0cef 57bd 9a7a 7bbc
000000f0: a6cb edba 3c1d 89bd 9b2c 1f3d 6335 4c3d
00000100: 7f65 4ebd bd8b 1b3d 07cf 303d 2143 8bbc
00000110: 34db 9d3c 8f98 cfbc e8e0 a33c ca8c 023d
00000120: 9ac5 6fbc d4b3 bfbc df8c 05bb 85e2 843c
00000130: a821 eabb 773d 343d 84b1 06bb 8a94 c3ba
00000140: 18a7 3d3d 11ac 09bc c0b7 623d 1e17 343d
00000150: 3531 603d 80e6 aebb a285 eebc 5273 023d
00000160: e6fd a43c f7db 81bd a7b1 c6bc bb09 093c
00000170: e8c9 c53b 6568 99bc e4b1 4ebd 7cb3 a2bd
00000180: 950f 54bd 1803 58bc 3f7b 6cbd fb11 e23c
00000190: 164e ba3c 43ca 933c a6f8 a8bc 3fb9 67bc
000001a0: b723 05bc 6904 3dbd 896c 9ebc b0ea 313d
000001b0: d975 3d3d 0a90 e63c fc69 c83c 9b1c 12bd
000001c0: a2f2 b73c c357 693d 9cd9 e5bb fd6a 8c3c
000001d0: 4ba4 453d 14d8 c3ba 3beb 3c3c 721f 8cbc
000001e0: 8054 f73c 5a43 dabb 0f16 653d 68ef 25bd
000001f0: 6034 74bc 4187 a1bc 5c76 a6bc 408e a0bc
00000200: 8b4f 10bd 02c5 883c bdd2 a23c 1096 703c
00000210: 7128 bcbb a8ba 7bbd e513 2b3d a7b0 813c
00000220: aa5b 1d3c d400 75b9 cdb9 203c b16e 763c
00000230: ea4e bdbc fc82 313c 79fb aebc 6237 abbd
00000240: 40de 793d c543 d0bc f330 573d 963f dc3c
00000250: b68c 653d 5983 e8bc bc91 7cbb 019c 3c3d
00000260: 61cb 7dbd 30ec 29bd efa3 5b3c f8ac 3c3d
00000270: 91be c9ba 8f6e 6ebd 74f6 7ebc bbbe 10bc
00000280: eb9e cd3c 832c 04bd 21be 433b 6568 86bd
00000290: 1d83 ddbc 3ce4 81bd 4aa9 01bd c4b3 cebb
000002a0: 9adf bcbc bbac 893c fd85 5dbd 9a32 36bd
000002b0: 97b9 fabc 9010 88bc 01d6 443c ebe8 42bc
000002c0: 2b4d a23c 808e ffbc 7afc 063c 090d 48bd
000002d0: 84c2 d63c 0688 063d 0496 a23c 1732 f73c
000002e0: e4f0 12bd c5b6 08bd 3925 093d 82a2 203c
000002f0: 3fde c3bc 6e64 f4bc c66e 19bd 2016 3a3d
00000300: ff2c e4bc 19fa 71bd b2c9 3c3c 2a3d 3e3d
00000310: 74fd 43bd 8b13 a93a bd38 553d cc81 333d
00000320: 2ce6 c5bb a1d8 6e3c 9633 28bd f604 0d3c
00000330: 8dce 3bbd 9053 f1bc 4733 89bc d14f 153d
00000340: 6314 5c3d 8368 abbc a1ca 51bd 723d 113c
00000350: e8e2 123d 996a 943c 80d8 393c f238 723d
00000360: 6f66 8e3d f6d4 443d 4cec df3c cd14 8b3c
00000370: d5d7 38bd 7b0f 8fbd d47c 8fbd bab4 d7bc
00000380: 023d bc3c 3e79 9cbc ad61 d13c a847 4b3b
00000390: 4170 58bd 1eb7 49bd b08f 083d c3eb 0e3a
000003a0: ae6d 86bc 75db 03bc 757f 9bbc 9b7a 6f3d
000003b0: de00 033d c2f6 013c ea42 943c b4d1 5dbd
000003c0: 73e5 4dbd 5b2b 4d3c dcae 273c 8989 81bc
000003d0: d443 773d 576b 643c f81c 1ebd 5ea6 2d3d
000003e0: ad39 59bc 6698 0d3d ee38 1c3d 77b7 6dbd
000003f0: 7afc 253c 3a5d 423d 87cd dd3c d0de 04bc

down2.go_down.1.conv2x.0.c.1.bias f4 [64]
0.018230062 0.0072351242 -0.015155528 -0.007485993 -3.5436566e-05 -0.014597645 -0.031042771 -0.0073947688
-0.0039727767 -0.027739778 -0.019572258 -0.002961484 -0.05085154 0.010828572 0.004026286 -0.02443956
0.023537327 0.02204356 0.02698508 -0.016340762 0.053367216 -0.032492764 -0.0056690406 0.03251837
0.0070079803 0.0038582624 0.015539694 0.0024181465 0.009380088 -0.018271398 0.0032054966 -0.016737472
-0.014296576 0.009506474 -0.022769717 0.001584061 0.0027092742 -0.0058566625 -0.009269411 -0.030225921
-0.0335551 0.002426617 -0.022838175 -0.003908703 0.012893541 -0.0093837045 0.0064560724 0.0117497025
-0.01766536 -0.010182425 -0.026657848 0.0013847786 -0.009013597 -0.003988539 0.0065474533 -0.023061417
-0.00021629898 -0.005310246 -0.012457049 0.0020365126 -0.01701163 -0.0037810989 -0.016679132 -0.0018336575
00000000: 3657 953c 9f14 ed3b e44e 78bc 104d f5bb
00000010: b9a1 14b8 f62a 6fbc 694d febc d14f f2bb
00000020: 112e 82bb 883e e3bc 0056 a0bc 7515 42bb
00000030: b449 50bd 536a 313c efee 833b 7935 c8bc
00000040: 5ad1 c03c b294 b43c d10f dd3c 10dd 85bc
00000050: 9597 5a3d 2217 05bd 5cc3 b9bb fb31 053d
00000060: 33a3 e53b e7da 7c3b 339a 7e3c c479 1e3b
00000070: f1ae 193c e6ad 95bc 4f13 523b 061d 89bc
00000080: 303c 6abc 0bc1 1b3c 8f87 babc 44a0 cf3a
00000090: 148e 313b 3fe9 bfbb bade 17bc 5a9c f7bc
000000a0: 1371 09bd e107 1f3b 2017 bbbc 9414 80bb
000000b0: 6e3f 533c 1cbe 19bc 768d d33b d381 403c
000000c0: f2b6 90bc 30d4 26bc 8f61 dabc 7681 b53a
000000d0: c4ad 13bc 4ab2 82bb 058c d63b 4ceb bcbc
000000e0: 51ce 62b9 9201 aebb a718 4cbc 0377 053b
000000f0: f95b 8bbc 50cc 77bb ada2 88bc 5657 f0ba

down2.go_down.1.conv2x.0.c.1.running_mean f4 [64]
-0.13960467 -0.13584593 -0.1432961 0.4611528 -0.15406916 0.6059582 -0.061499324 0.5508259
-0.23374984 0.8694658 0.1554147 0.27781063 0.78864086 -0.16788048 -0.13614783 0.488254
-0.45290804 0.1992104 -0.3579215 -0.18070573 -0.47888008 0.17213805 0.21071407 -0.39694244
-0.23761979 0.22114606 -0.19720837 0.08815714 0.12600468 -0.42718154 0.34675974 0.5479038
0.68977314 -0.326681 0.7759615 -0.06265508 0.55160546 1.0938975 0.42760345 0.2807402
0.61581254 0.07574634 0.30730987 0.33409548 -0.17926675 -0.2452647 -0.090767644 -0.22069207
0.6647012 0.7776593 0.6996179 -0.35915184 0.7568848 0.5597184 -0.57104534 0.8792839
-0.32009536 0.0020216322 0.05316305 0.1155791 -0.47164273 -1.213829 0.16315873 -0.3702436
00000000: 87f4 0ebe 321b 0bbe 36bc 12be 381c ec3e
00000010: 4ec4 1dbe 1420 1b3f b7e6 7bbd ed02 0d3f
00000020: 1e5c 6fbe 5095 5e3f 0825 1f3e 323d 8e3e
00000030: 5ee4 493f dce8 2bbe 566a 0bbe 6efc f93e
00000040: 90e3 e7be d0fd 4b3e 7d41 b7be ec0a 39be
00000050: c52f f5be f544 303e 6ec5 573e 0a3c cbbe
00000060: 9a52 73be 1d74 623e fef0 49be bb8b b43d
00000070: 5f07 013e 8ab7 dabe 7e8a b13e 6c43 0c3f
00000080: f994 303f bb42 a7be 6aa5 463f 4e51 80bd
00000090: 0436 0d3f d504 8c3f d7ee da3e 2ebd 8f3e
000000a0: e4a5 1d3f e620 9b3d b857 9d3e 900e ab3e
000000b0: b491 37be ab26 7bbe 63e4 b9bd 1afd 61be
000000c0: dc29 2a3f ae14 473f 291a 333f c0e2 b7be
000000d0: 34c3 413f b449 0f3f 0730 12bf c018 613f
000000e0: 8ae3 a3be 5c7d 043b 80c1 593d bcb4 ec3d
000000f0: 287b f1be c05e 9bbf 1513 273e 9290 bdbe

down2.go_down.1.conv2x.0.c.1.running_var f4 [64]
0.099006504 0.12915501 0.062193185 0.16385466 0.064513445 0.26113772 0.058305744 0.23218697
0.065720305 0.5688875 0.10451337 0.2254794 0.25333062 0.25798285 0.12285567 0.13791806
0.20442072 0.06853502 0.10844912 0.62072706 0.124420986 0.38667336 0.086716175 0.12784663
0.10579483 0.037251078 0.2804621 0.07590145 0.10460263 0.6828401 0.166453 0.11601146
0.3518364 0.2793139 0.33721638 0.07247306 0.060653586 1.222922 0.16873336 0.15503955
0.18269269 0.05329814 0.29049996 0.24371184 0.07580109 0.08181928 0.2898 0.07802819
0.564172 0.2304333 0.08785388 0.053477485 0.22112183 0.14400588 0.3326655 0.30014998
0.3023431 0.06971689 0.08521439 0.1746235 0.63676625 2.1182575 0.21561256 0.089933105
00000000: ecc3 ca3d 3641 043e 48be 7e3d 84c9 273e
00000010: a01f 843d d8b3 853e 01d2 6e3d 6cc2 6d3e
00000020: 5e98 863d 9ca2 113f 1b0b d63d 12e4 663e
00000030: 8db4 813e 5416 843e c19b fb3d 643a 0d3e
00000040: aa53 513e 175c 8c3d 921a de3d f8e7 1e3f
00000050: 6ed0 fe3d 0dfa c53e 4098 b13d 3aea 023e
00000060: f6aa d83d 9694 183d ba98 8f3e 3872 9b3d
00000070: e739 d63d 9cce 2e3f a872 2a3e 6b97 ed3d
00000080: e723 b43e 3b02 8f3e a0a7 ac3e c16c 943d
00000090: e56f 783d b588 9c3f 70c8 2c3e b0c2 1e3e
000000a0: cb13 3b3e 274f 5a3d 69bc 943e 998f 793e
000000b0: 9a3d 9b3d de90 a73d aa60 943e 3ecd 9f3d
000000c0: 946d 103f b5f6 6b3e bcec b33d 350b 5b3d
000000d0: c36d 623e 4776 133e 2253 aa3e 42ad 993e
000000e0: b7cc 9a3e bbc7 8e3d e284 ae3d 81d0 323e
000000f0: 1d03 233f 8891 0740 8ac9 5c3e d92e b83d

down2.go_down.1.conv2x.0.c.1.weight f4 [64]
0.8080223 0.3834734 0.67486674 0.5660531 0.8567529 0.5904687 0.3392042 0.40354982
0.18542208 0.27542365 0.0780082 0.5263356 0.93060607 0.04930963 0.53260285 0.26740667
0.62733924 0.105366156 0.92897344 0.6791187 0.3521727 0.13490859 0.0764575 0.24978979
0.5903836 0.29374576 0.47529894 0.49920425 0.47564575 0.8858358 0.49179068 0.45116857
0.9283427 0.9069367 0.66121775 0.69089776 0.105904914 0.07766606 0.4904237 0.7457131
0.91732544 0.50161123 0.8581985 0.3656037 0.18495865 0.56986785 0.6863108 0.4930949
0.59628457 0.29865775 0.5360664 0.8462715 0.83045244 0.6306184 0.17364788 0.8904962
0.8279551 0.63419485 0.5792576 0.012074069 0.13589412 -0.012275755 0.5293614 0.31807503
00000000: 8dda 4e3f a056 c43e 11c4 2c3f dbe8 103f
00000010: 2854 5b3f f528 173f 2cac ad3e 159e ce3e
00000020: 49df 3d3e 5404 8d3e c3c2 9f3d eebd 063f
00000030: 333c 6e3f e5f8 493d a958 083f 87e9 883e
00000040: 4e99 203f 36ca d73d 34d1 6d3f b9da 2d3f
00000050: fb4f b43e 7a25 0a3e c095 9c3d e5c8 7f3e
00000060: 6123 173f d865 963e 625a f33e b397 ff3e
00000070: d787 f33e 23c6 623f fdcb fb3e 91ff e63e
00000080: dea7 6d3f 012d 683f 9145 293f adde 303f
00000090: ade4 d83d 620f 9f3d d118 fb3e 0ee7 3e3f
000000a0: d7d5 6a3f 9869 003f e6b2 5b3f 6830 bb3e
000000b0: cd65 3d3e dce2 113f 11b2 2f3f ef76 fc3e
000000c0: 1ba6 183f abe9 983e a63b 093f 40a5 583f
000000d0: 8898 543f 3570 213f c0d0 313e 8ff7 633f
000000e0: def4 533f 985a 223f 3a4a 143f 51d2 453c
000000f0: d427 0b3e 4020 49bc 3b84 073f bbda a23e

down2.go_down.1.conv2x.1.c.0.bias f4 [64]
-0.006521457 -0.031585578 -0.020736469 -0.0108849285 0.03739244 -0.009248128 0.0038520775 -0.035713986
0.028593712 0.017588781 -0.01350849 -0.040499963 -0.029304508 -0.011820548 0.0011325693 -0.022396024
0.0128646 0.008946472 0.00060169975 0.030496538 0.013644559 0.027558122 0.030677201 0.0034218729
-0.015640587 -0.01485582 0.021138674 -0.03129041 -0.008570077 -0.017954659 0.028758064 -0.040915668
-0.0023820966 -0.011452532 -0.005281765 0.036397897 0.0032987504 -0.013499509 0.004828814 0.019403625
-0.04019208 0.027937612 -0.011429788 0.0005936042 0.025242329 0.012762682 0.033258438 -0.0052674836
-0.0101021165 -0.032196198 0.036193 0.016526977 -0.005024614 0.029808162 0.013474005 0.037562214
-0.032566078 -0.025750322 -0.036961466 -0.016495671 -0.022048146 0.010466835 -0.04015654 0.032048937
00000000: f2b1 d5bb e15f 01bd 87df a9bc b356 32bc
00000010: d128 193d 7685 17bc 2373 7c3b d448 12bd
00000020: 5c3d ea3c 5916 903c b752 5dbc 4ae3 25bd
00000030: 0210 f0bc f9aa 41bc b872 943a de77 b7bc
00000040: 0bc6 523c 3994 123c 63bb 1d3a e0d3 f93c
00000050: 6e8d 5f3c 92c1 e13c c14e fb3c 8041 603b
00000060: b020 80bc d365 73bc 032b ad3c 5f2a 00bd
00000070: 8269 0cbc a615 93bc 0896 eb3c 3097 27bd
00000080: f31c 1cbb 67a3 3bbc a812 adbb f615 153d
00000090: d92f 583b 0b2d 5dbc 073b 9e3b 5af4 9e3c
000000a0: 73a0 24bd 6bdd e43c 0144 3bbc 1b9c 1b3a
000000b0: 00c9 ce3c 911a 513c 003a 083d db9a acbb
000000c0: 5983 25bc 29e0 03bd 1c3f 143d 9563 873c
000000d0: 84a5 a4bb 3f30 f43c 13c2 5c3c d6da 193d
000000e0: 0264 05bd 57f2 d2bc e864 17bd ee21 87bc
000000f0: 509e b4bc 177d 2b3c 2f7b 24bd bf45 033d

down2.go_down.1.conv2x.1.c.0.weight f4 [64, 64, 3, 3]
0.013369494 -0.02427425 -0.012519294 -0.020711722 0.00023608132 -0.014947642 0.0062523168 -0.03335502
-0.032042257 0.029067408 0.014688688 0.03728241 0.037494328 -0.032178927 0.0452855 0.03727769
-0.017875072 0.039157532 -0.030793902 -0.041932087 -0.037379596 -0.022468422 -0.044224985 0.00057457585
-0.04733017 -0.024373159 -0.01582213 0.04386975 0.019752434 0.0063719833 -0.018327968 -0.042007364
-0.025953233 0.054680932 0.048323136 0.037513625 -0.0009776776 -0.04224793 -0.026107125 -0.019616716
-0.050258964 -0.0034774914 0.016898088 -0.037249073 0.0038684562 -0.040404037 -0.033381555 0.009645059
-0.01864652 0.015988354 -0.043407585 -0.0024349617 0.033990256 0.045481976 -0.02235921 0.020128293
-0.025417643 0.006968581 0.013153833 -0.010428498 -0.054871235 -0.058288854 -0.00085315044 -0.04296107
0.0054005696 -0.04902466 -0.04359003 0.023358991 0.023939278 -0.003892825 0.044605985 0.0029932961
0.043165 0.020294039 -0.081367634 -0.009182763 -0.04564821 0.014601286 -0.036129355 -0.028069932
0.03581134 0.0036854842 -0.0116583165 -0.03218781 0.006715166 -0.044067718 -0.027132945 -0.012488898
0.017000867 -0.027529508 -0.012503226 -0.0012759231 -0.07134427 -0.05754266 0.027887212 0.016360456
0.025789024 0.011014491 -0.04331366 -0.019545298 -0.039304886 -0.035224807 0.0145298075 0.018145777
0.03128958 0.021734681 0.011684998 0.01844943 0.0046593854 0.028373593 -0.049745444 -0.024759246
0.003253901 -0.019159235 -0.023220085 -0.0028685634 -0.028403971 -0.042781904 0.03693917 0.01864316
0.01400774 0.0010705477 0.029021058 0.0049203266 0.029668543 0.05077279 0.037227936 0.019842343
-0.033788066 -0.031674832 -0.017909309 -0.022530684 -0.046702426 -0.013708006 0.010034873 -0.008052209
-0.05168439 -0.013142558 -0.003946551 -0.0101122 -0.03421906 0.00901357 -0.027631152 -0.008471258
0.027850775 -0.047003027 0.032509256 -0.018397255 -0.042129252 -0.024602568 0.012238684 -0.009091614
-0.036577918 0.022039622 -0.04145008 0.004806422 -0.00511428 -0.03780964 0.013431466 0.01609269
-0.042006828 -0.0049377587 -0.023914032 -0.03547785 -0.0014528455 -0.039246574 0.0010571446 0.026840633
-0.0444049 0.013872392 0.022856176 0.025638424 -0.03575844 -0.004757671 0.029458037 -0.006578672
-0.038070478 0.02985446 0.03149292 0.031338222 -0.027817842 -0.017827548 0.0038265712 0.0093786
-0.034517694 0.04333431 -0.014899944 -0.015823409 0.007390787 0.033213634 0.004970364 -0.027690995
-0.03604576 -0.00041307093 0.030181866 0.044966377 -0.045570053 -0.035758555 -0.053654686 -0.0036589792
-0.015731638 -0.050073147 0.015984435 0.022414198 0.008523723 -0.055658292 -0.0050062174 0.027309295
0.036458574 0.08968187 0.023849059 -0.010647278 0.029951612 0.042457756 0.027196227 -0.015548485
-0.04198979 0.042359814 -0.0014733783 -0.031590782 -0.026604207 -0.014471643 0.020343933 0.008341416
0.024277195 0.03439027 -0.013277466 0.02123872 0.01063739 0.015362591 0.041119922 0.024858199
0.05458399 -0.022270693 0.0030184637 -0.04217485 0.020829178 -0.036046322 -0.0385335 0.022345502
-0.0058855936 -0.037682116 0.012960955 0.017150009 -0.016784564 0.024739612 -0.035725854 -0.03583215
-0.018780338 -0.014327582 0.018496772 -0.025629453 0.02377267 0.016699005 0.03144553 0.013418904
00000000: b90b 5b3c cbda c6bc ba1d 4dbc a1ab a9bc
00000010: 998c 7739 f4e6 74bc 3ce0 cc3b 469f 08bd
00000020: be3e 03bd c61e ee3c d3a8 703c 71b5 183d
00000030: a793 193d 0dce 03bd 4a7d 393d 7eb0 183d
00000040: be6e 92bc a663 203d 7e43 fcbc fbc0 2bbd
00000050: 591b 19bd b20f b8bc 4225 35bd 229f 163a
00000060: 48dd 41bd 38aa c7bc 699d 81bc c4b0 333d
00000070: dbcf a13c 12cc d03b 8924 96bc ea0f 2cbd
00000080: e09b d4bc 1df9 5f3d 7bee 453d e3a7 193d
00000090: 6b25 80ba 2a0c 2dbd 9cde d5bc 3cb3 a0bc
000000a0: 58dc 4dbd a0e6 63bb dc6d 8a3c 7c92 18bd
000000b0: ed85 7d3b b47e 25bd 19bb 08bd 4f06 1e3c
000000c0: 96c0 98bc 02fa 823c 27cc 31bd e193 1fbb
000000d0: 5e39 0b3d 4f4b 3a3d a92a b7bc 17e4 a43c
000000e0: a938 d0bc b258 e43b 2d83 573c 4adc 2abc
000000f0: a9c0 60bd 4bc0 6ebd f5a5 5fba f2f7 2fbd
00000100: 43f7 b03b 15ce 48bd 768b 32bd 5b5b bf3c
00000110: 4e1c c43c c41e 7fbb c4b4 363d 2d2b 443b
00000120: c8cd 303d af3f a63c 13a4 a6bd 4d73 16bc
00000130: 9ef9 3abd 3b3a 6f3c 60fc 13bd eaf2 e5bc
00000140: e9ae 123d 2a88 713b 8602 3fbc 5dd7 03bd
00000150: e50a dc3b 5a80 34bd e945 debc 3c9e 4cbc
00000160: 6745 8b3c 9085 e1bc 55da 4cbc e03c a7ba
00000170: f21c 92bd dab1 6bbd b973 e43c 5d06 863c
00000180: 8143 d33c 2076 343c aa69 31bd 761d a0bc
00000190: 29fe 20bd e347 10bd 6e0e 6e3c 74a6 943c
000001a0: 8129 003d ee0c b23c 6f72 3f3c 4223 973c
000001b0: c2ad 983b bd6f e83c e1c1 4bbd e7d3 cabc
000001c0: 663f 553b d4f3 9cbc 0c38 bebc 82fe 3bbb
000001d0: 72af e8bc 143c 2fbd 874d 173d 8ab9 983c
000001e0: b880 653c 9f51 8c3a 92bd ed3c b13a a13b
000001f0: 720b f33c 21f7 4f3d 527c 183d 698c a23c
00000200: 5b65 0abd 78bd 01bd 8bb6 92bc 4592 b8bc
00000210: 0b4b 3fbd 8b97 60bc 4f69 243c 6aed 03bc
00000220: 03b3 53bd e253 57bc 1252 81bb a4ad 25bc
00000230: 4929 0cbd a7ad 133c ba5a e2bc 08cb 0abc
00000240: 4f27 e43c 3f86 40bd 6d28 053d d7b5 96bc
00000250: b98f 2cbd 538b c9bc c384 483c fef4 14bc
00000260: bad2 15bd 708c b43c 8fc7 29bd 317f 9d3b
00000270: b195 a7bb 48de 1abd a70f 5c3c d1d4 833c
00000280: 5a0f 2cbd eccc a1bb 5ce7 c3bc 3951 11bd
00000290: 686d beba 04c1 20bd e38f 8a3a e3e0 db3c
000002a0: eae1 35bd 0749 633c e03c bb3c ac07 d23c
000002b0: 7177 12bd 3de6 9bbb fb51 f13c e791 d7bb
000002c0: caef 1bbd 5791 f43c b8fe 003d 825c 003d
000002d0: 3ee2 e3bc 140b 92bc 36c7 7a3b b3a8 193c
000002e0: 6d62 0dbd 517f 313d e51e 74bc 18a0 81bc
000002f0: 6a2e f23b 050b 083d 6fde a23b 3ad8 e2bc
00000300: b8a4 13bd 7191 d8b9 f63f f73c aa2e 383d
00000310: aaa7 3abd 9077 12bd 04c5 5bbd 7ccb 6fbb
00000320: a3df 80bc 8019 4dbd caf1 823c fb9d b73c
00000330: 16a7 0b3c f3f9 63bd 320b a4bb beb7 df3c
00000340: 9655 153d 21ab b73d 1a5f c33c ec71 2ebc
00000350: 155d f53c 2fe8 2d3d 9fca de3c 13bf 7ebc
00000360: 7cfd 2bbd 7c81 2d3d 5f1e c1ba 5665 01bd
00000370: 11f1 d9bc 781a 6dbc 52a8 a63c 6faa 083c
00000380: f8e0 c63c d0dc 0c3d bb89 59bc d3fc ad3c
00000390: 7348 2e3c 60b3 7b3c 5d6d 283d 6ca3 cb3c
000003a0: 7693 5f3d 0771 b6bc 6bd1 453b 89bf 2cbd
000003b0: f4a1 aa3c 4fa5 13bd 4ed5 1dbd ea0d b73c
000003c0: f0db c0bb 9058 1abd 2f5a 543c 2d7e 8c3c
000003d0: c87f 89bc baaa ca3c 4655 12bd bcc4 12bd
000003e0: 39d9 99bc 3cbe 6abc 8b86 973c dcf4 d1bc
000003f0: e7be c23c 5acc 883c 07cd 003d f6da 5b3c

down2.go_down.1.conv2x.1.c.1.bias f4 [64]
0.016646456 -0.04223657 -0.036412142 0.004083819 0.014789441 -0.006023856 -0.0013336389 -0.00463695
-0.057240598 -0.010880844 -0.079120554 -0.0071269376 0.015355344 0.05105171 0.0076011387 0.00028320774
-0.004626479 -0.010548948 -0.026604088 0.003236771 0.010616394 -0.011885208 -0.003303332 0.011021123
-0.006583466 -0.010679596 0.0027945254 -0.05491288 0.0035037894 0.0010604023 -0.023856156 -0.030006858
0.005466812 0.0069684763 -0.0029812888 -0.008393804 0.006310317 0.012123378 0.011453446 0.012379888
-0.013228102 0.029684542 -0.01794768 -0.033741597 -0.01292616 0.0016967705 0.020616049 -0.03771789
-0.015085458 0.010612126 0.0031157942 0.003073402 -0.033709288 -0.012513741 -0.0126090795 -0.0039642504
-0.016104423 -0.00070770684 -0.016896883 0.0047370903 -0.00025027146 -0.0028166757 -0.005619186 -0.011641411
00000000: 265e 883c 4100 2dbd e624 15bd 8fd1 853b
00000010: 694f 723c c463 c5bb 7fcd aeba 8ef1 97bb
00000020: 1e75 6abd 9145 32bc f509 a2bd 1689 e9bb
00000030: fb94 7b3c 991b 513d f912 f93b 807b 9439
00000040: b899 97bb 7fd5 2cbc d1f0 d9bc 0220 543b
00000050: 62f0 2d3c 2dba 42bc b77c 58bb f191 343c
00000060: 1eba d7bb 79f9 2ebc 5b24 373b 54ec 60bd
00000070: d59f 653b 32fd 8a3a fc6d c3bc f1d0 f5bc
00000080: f122 b33b d157 e43b ba61 43bb 2a86 09bc
00000090: c7c6 ce3b 22a1 463c 3ca7 3b3c 04d5 4a3c
000000a0: aeba 58bc ff2c f33c 0307 93bc a134 0abd
000000b0: 3fc8 53bc 2c66 de3a fde2 a83c 137e 1abd
000000c0: ff28 77bc 7cde 2d3c 5a32 4c3b 216b 493b
000000d0: c012 0abd 6f06 4dbc 5096 4ebc 8be6 81bb
000000e0: 6ced 83bc 6785 39ba 556b 8abc 9839 9b3b
000000f0: de36 83b9 fa97 38bb 2621 b8bb 9ebb 3ebc

down2.go_down.1.conv2x.1.c.1.running_mean f4 [64]
-0.44906202 -0.10883335 0.44556028 -0.5232111 -0.22961658 -0.27407235 0.7444502 0.32705304
-0.50682557 0.7389749 0.6918578 0.79460907 -0.38892782 -0.36021942 -0.11574532 0.0045653414
0.0856165 0.082590505 0.73350525 -0.40467903 -0.48038667 -0.356467 0.517581 -0.14139658
0.3715523 -0.04129413 -0.24486873 0.96262825 0.3648339 0.20011786 0.47291353 0.5800363
0.49506056 0.66791886 -0.11999823 0.33822685 0.19660002 -0.5115278 -0.3463639 -0.48840192
0.5153587 -0.07772617 0.7908277 0.50191444 0.63717616 -0.47845182 -0.44719255 1.190588
-0.36480027 0.019611057 0.015805129 0.41059697 0.7106078 0.8153311 0.17201321 -0.28415573
0.21480924 -0.5418374 -0.32575732 -0.5787066 -0.33077615 -0.9213462 0.61028117 -0.22806382
00000000: 75eb e5be 05e4 debd 7a20 e43e 2af1 05bf
00000010: 9c20 6bbe 3653 8cbe 4a94 3e3f 7f73 a73e
00000020: 52bf 01bf 762d 3d3f 981d 313f 806b 4b3f
00000030: 8c21 c7be ae6e b8be e20b edbd dc98 953b
00000040: b457 af3d 3625 a93d 00c7 3b3f 1732 cfbe
00000050: 3ef5 f5be d882 b6be 3080 043f 44ca 10be
00000060: 1a3c be3e 0924 29bd debe 7abe ce6e 763f
00000070: 82cb ba3e b2eb 4c3e b921 f23e 427d 143f
00000080: 9478 fd3e bbfc 2a3f a2c1 f5bd 122c ad3e
00000090: 8451 493e 7cf3 02bf 9c56 b1be d10f fabe
000000a0: 8cee 033f e62e 9fbd af73 4a3f 777d 003f
000000b0: fa1d 233f a3f7 f4be 6cf6 e4be 3065 983f
000000c0: 1ac7 babe 5ea7 a03c c279 813c c439 d23e
000000d0: 65ea 353f 8ab9 503f 3b24 303e dc7c 91be
000000e0: f4f6 5b3e dbb5 0abf aac9 a6be 1e26 14bf
000000f0: 7e5b a9be 58dd 6bbf 633b 1c3f 9089 69be

down2.go_down.1.conv2x.1.c.1.running_var f4 [64]
0.1874836 0.05018594 0.27047864 0.06756559 0.23120691 0.04928011 0.41938475 0.36470714
0.51517326 1.1026973 0.45197004 1.0905246 0.13348716 0.043419875 0.33567697 0.62103605
0.049406514 0.3902393 0.19088179 0.06680182 0.10199208 0.09467983 0.38282552 0.27124262
0.2531988 0.26177686 0.025879497 0.19575334 0.48867622 0.10730566 0.23032637 0.4830448
0.5610264 0.13817927 0.8515644 0.047647443 0.038697124 0.10637506 0.36401397 0.057784855
0.7394749 0.20258257 1.1218009 0.4493672 0.17621428 0.10131171 0.09507526 0.1304853
0.05438838 0.12511249 0.41005105 0.16705808 0.2601387 0.8341174 0.13923165 0.030287921
0.32283384 0.50334746 0.077351175 0.7949312 0.31102073 0.24914342 0.23018631 0.9226957
00000000: b3fb 3f3e c68f 4d3d 2d7c 8a3e d45f 8a3d
00000010: 81c1 6c3e f1d9 493d 99b9 d63e e5ba ba3e
00000020: 65e2 033f 2f25 8d3f 9e68 e73e 4f96 8b3f
00000030: dcb0 083e 0ad9 313d dadd ab3e 38fc 1e3f
00000040: 7c5e 4a3d 72cd c73e 8476 433e 65cf 883d
00000050: 39e1 d03d 80e7 c13d b501 c43e 50e0 8a3e
00000060: 46a3 813e 9e07 863e 3d01 d43c 9073 483e
00000070: c533 fa3e 12c3 db3d adda 6b3e a651 f73e
00000080: 6d9f 0f3f de7e 0d3e 2000 5a3f f729 433d
00000090: e080 1e3d 2bdb d93d 0a60 ba3e d0af 6c3d
000000a0: 3a4e 3d3f ce71 4f3e 2c97 8f3f 7513 e63e
000000b0: 8471 343e 847c cf3d d1b6 c23d f09d 053e
000000c0: 5ac6 5e3d 7d1d 003e 36f2 d13e 4611 2b3e
000000d0: e630 853e b888 553f be92 0e3e 601e f83c
000000e0: 7a4a a53e 61db 003f 4b6a 9e3d 9c80 4b3f
000000f0: 1c3e 9f3e 741f 7f3e f6b5 6b3e c935 6c3f

down2.go_down.1.conv2x.1.c.1.weight f4 [64]
0.18321306 0.12264991 0.6223491 0.578255 0.32387984 0.18204285 0.6344765 0.08804558
0.81818235 0.123513795 0.5470927 0.12216198 0.19193305 0.50893545 0.5367908 0.36581278
0.17974244 0.2689466 0.12892963 0.24309058 0.9370362 0.2711364 0.65673906 0.852386
0.07085016 0.4841053 0.23820946 0.28436673 0.99367505 0.41758153 0.44312564 0.5170358
0.8960757 0.33997962 0.9069347 0.18774459 0.7158199 0.8520292 0.44574046 0.15385677
0.52988994 0.26983508 0.38860047 0.9034999 0.6756699 0.68956137 0.41292912 0.87673897
0.03445729 0.42876002 0.09818405 0.52401567 0.69141525 0.68434983 0.83351755 0.45968354
0.95269483 0.89621055 0.23530436 0.3494729 0.7889049 0.25121048 0.73098844 0.36053625
00000000: 349c 3b3e e02f fb3d 4552 1f3f 8508 143f
00000010: 94d3 a53e 7169 3a3e 0d6d 223f 3e51 b43d
00000020: 6674 513f cdf4 fc3d 440e 0c3f 0f30 fa3d
00000030: 198a 443e 9849 023f 1f6b 093f d04b bb3e
00000040: 670e 383e 5eb3 893e 2106 043e bdec 783e
00000050: 9be1 6f3f 64d2 8a3e 0d20 283f f835 5a3f
00000060: e419 913d a6dc f73e 2eed 733e 8498 913e
00000070: 7d61 7e3f 3fcd d53e 5de1 e23e 755c 043f
00000080: 3865 653f cf11 ae3e df2c 683f 1e40 403e
00000090: f93f 373f 961e 5a3f 1838 e43e a18c 1d3e
000000a0: dea6 073f d327 8a3e a4f6 c63e c54b 673f
000000b0: b4f8 2c3f 1887 303f 726b d33e f771 603f
000000c0: 1623 0d3d 6f86 db3e b814 c93d e425 063f
000000d0: 9700 313f 8d31 2f3f 6861 553f a45b eb3e
000000e0: cfe3 733f 0e6e 653f a0f3 703e 1dee b23e
000000f0: acf5 493f a99e 803e 0f22 3b3f 3598 b83e

inc.conv.conv2x.0.c.0.bias f4 [16]
0.08471327 0.02215836 -0.18708614 -0.21215263 -0.17499857 0.11670916 0.31150278 0.17488481
0.042557295 -0.28998965 0.09261881 -0.12673321 -0.027183264 -0.13187659 0.16375259 -0.25962868
00000000: 277e ad3d 7385 b53c 8293 3fbe 8a3e 59be
00000010: d332 33be 3605 ef3d 4b7d 9f3e 0115 333e
00000020: 8f50 2e3d 8679 94be eeae bd3d 5ac6 01be
00000030: 70af debc a80a 07be c2ae 273e 0dee 84be
